HloModule train_step_func_pipeshard_parallel_mesh_1-1, input_output_alias={ {0}: (0, {}, may-alias), {1}: (1, {}, may-alias), {2}: (2, {}, may-alias), {3}: (3, {}, may-alias), {4}: (4, {}, may-alias), {5}: (5, {}, may-alias), {6}: (6, {}, may-alias), {7}: (7, {}, may-alias), {8}: (8, {}, may-alias), {9}: (9, {}, may-alias), {10}: (10, {}, may-alias), {11}: (11, {}, may-alias), {12}: (12, {}, may-alias), {13}: (13, {}, may-alias), {14}: (14, {}, may-alias), {15}: (15, {}, may-alias), {16}: (16, {}, may-alias), {17}: (17, {}, may-alias), {18}: (18, {}, may-alias), {19}: (19, {}, may-alias), {20}: (20, {}, may-alias), {21}: (21, {}, may-alias), {22}: (22, {}, may-alias), {23}: (23, {}, may-alias), {24}: (24, {}, may-alias), {25}: (25, {}, may-alias), {26}: (26, {}, may-alias), {27}: (27, {}, may-alias), {28}: (28, {}, may-alias), {29}: (29, {}, may-alias), {30}: (30, {}, may-alias), {31}: (31, {}, may-alias), {32}: (32, {}, may-alias), {33}: (33, {}, may-alias), {34}: (34, {}, may-alias), {35}: (35, {}, may-alias), {36}: (36, {}, may-alias), {37}: (37, {}, may-alias), {38}: (38, {}, may-alias), {39}: (39, {}, may-alias), {40}: (40, {}, may-alias), {41}: (41, {}, may-alias), {42}: (42, {}, may-alias), {43}: (43, {}, may-alias), {44}: (44, {}, may-alias), {45}: (45, {}, may-alias), {46}: (46, {}, may-alias), {47}: (47, {}, may-alias), {48}: (48, {}, may-alias), {49}: (49, {}, may-alias), {50}: (50, {}, may-alias), {51}: (51, {}, may-alias), {52}: (52, {}, may-alias) }, entry_computation_layout={(f32[896]{0},f32[896]{0},f32[1792]{0},f32[1792]{0},f32[3584]{0},f32[3584]{0},f32[896]{0},f32[896]{0},f32[1792]{0},f32[1792]{0},f32[3584]{0},f32[3584]{0},f32[896]{0},f32[896]{0},f32[1792]{0},f32[1792]{0},f32[3584]{0},f32[3584]{0},f32[896]{0},f32[896]{0},f32[1792]{0},f32[1792]{0},f32[3584]{0},f32[3584]{0},f32[896]{0},f32[896]{0},f32[1792]{0},f32[1792]{0},f32[3584]{0},f32[3584]{0},f32[1792]{0},f32[1792]{0},f32[3584]{0},f32[3584]{0},f32[7168]{0},f32[7168]{0},f32[7168]{0},f32[7168]{0},f32[1792]{0},f32[1792]{0},f32[3584]{0},f32[3584]{0},f32[7168]{0},f32[7168]{0},f32[1792]{0},f32[1792]{0},f32[3584]{0},f32[3584]{0},f32[7168]{0},f32[7168]{0},f32[],f32[],f32[],f32[16,14,14,3584]{3,2,1,0},f32[1,1,3584,896]{3,2,1,0},f32[896]{0},f32[896]{0},f32[3,3,896,1792]{3,2,1,0},f32[1792]{0},f32[1792]{0},f32[1,1,1792,3584]{3,2,1,0},f32[3584]{0},f32[3584]{0},f32[896]{0},f32[896]{0},f32[1792]{0},f32[1792]{0},f32[3584]{0},f32[3584]{0},f32[1,1,3584,896]{3,2,1,0},f32[896]{0},f32[896]{0},f32[3,3,896,1792]{3,2,1,0},f32[1792]{0},f32[1792]{0},f32[1,1,1792,3584]{3,2,1,0},f32[3584]{0},f32[3584]{0},f32[896]{0},f32[896]{0},f32[1792]{0},f32[1792]{0},f32[3584]{0},f32[3584]{0},f32[1,1,3584,896]{3,2,1,0},f32[896]{0},f32[896]{0},f32[3,3,896,1792]{3,2,1,0},f32[1792]{0},f32[1792]{0},f32[1,1,1792,3584]{3,2,1,0},f32[3584]{0},f32[3584]{0},f32[896]{0},f32[896]{0},f32[1792]{0},f32[1792]{0},f32[3584]{0},f32[3584]{0},f32[1,1,3584,896]{3,2,1,0},f32[896]{0},f32[896]{0},f32[3,3,896,1792]{3,2,1,0},f32[1792]{0},f32[1792]{0},f32[1,1,1792,3584]{3,2,1,0},f32[3584]{0},f32[3584]{0},f32[896]{0},f32[896]{0},f32[1792]{0},f32[1792]{0},f32[3584]{0},f32[3584]{0},f32[1,1,3584,896]{3,2,1,0},f32[896]{0},f32[896]{0},f32[3,3,896,1792]{3,2,1,0},f32[1792]{0},f32[1792]{0},f32[1,1,1792,3584]{3,2,1,0},f32[3584]{0},f32[3584]{0},f32[896]{0},f32[896]{0},f32[1792]{0},f32[1792]{0},f32[3584]{0},f32[3584]{0},f32[1,1,3584,1792]{3,2,1,0},f32[1792]{0},f32[1792]{0},f32[3,3,1792,3584]{3,2,1,0},f32[3584]{0},f32[3584]{0},f32[1,1,3584,7168]{3,2,1,0},f32[7168]{0},f32[7168]{0},f32[1,1,3584,7168]{3,2,1,0},f32[7168]{0},f32[7168]{0},f32[1792]{0},f32[1792]{0},f32[3584]{0},f32[3584]{0},f32[7168]{0},f32[7168]{0},f32[7168]{0},f32[7168]{0},f32[1,1,7168,1792]{3,2,1,0},f32[1792]{0},f32[1792]{0},f32[3,3,1792,3584]{3,2,1,0},f32[3584]{0},f32[3584]{0},f32[1,1,3584,7168]{3,2,1,0},f32[7168]{0},f32[7168]{0},f32[1792]{0},f32[1792]{0},f32[3584]{0},f32[3584]{0},f32[7168]{0},f32[7168]{0},f32[1,1,7168,1792]{3,2,1,0},f32[1792]{0},f32[1792]{0},f32[3,3,1792,3584]{3,2,1,0},f32[3584]{0},f32[3584]{0},f32[1,1,3584,7168]{3,2,1,0},f32[7168]{0},f32[7168]{0},f32[7168,1024]{1,0},f32[1024]{0},f32[1792]{0},f32[1792]{0},f32[3584]{0},f32[3584]{0},f32[7168]{0},f32[7168]{0},s32[16]{0},s32[])->(f32[896]{0}, f32[896]{0}, f32[1792]{0}, f32[1792]{0}, f32[3584]{0}, /*index=5*/f32[3584]{0}, f32[896]{0}, f32[896]{0}, f32[1792]{0}, f32[1792]{0}, /*index=10*/f32[3584]{0}, f32[3584]{0}, f32[896]{0}, f32[896]{0}, f32[1792]{0}, /*index=15*/f32[1792]{0}, f32[3584]{0}, f32[3584]{0}, f32[896]{0}, f32[896]{0}, /*index=20*/f32[1792]{0}, f32[1792]{0}, f32[3584]{0}, f32[3584]{0}, f32[896]{0}, /*index=25*/f32[896]{0}, f32[1792]{0}, f32[1792]{0}, f32[3584]{0}, f32[3584]{0}, /*index=30*/f32[1792]{0}, f32[1792]{0}, f32[3584]{0}, f32[3584]{0}, f32[7168]{0}, /*index=35*/f32[7168]{0}, f32[7168]{0}, f32[7168]{0}, f32[1792]{0}, f32[1792]{0}, /*index=40*/f32[3584]{0}, f32[3584]{0}, f32[7168]{0}, f32[7168]{0}, f32[1792]{0}, /*index=45*/f32[1792]{0}, f32[3584]{0}, f32[3584]{0}, f32[7168]{0}, f32[7168]{0}, /*index=50*/f32[], f32[], f32[], f32[16,14,14,3584]{3,2,1,0}, f32[16,14,14,3584]{3,2,1,0}, /*index=55*/f32[16,14,14,3584]{3,2,1,0}, f32[16,14,14,3584]{3,2,1,0}, f32[16,14,14,3584]{3,2,1,0}, f32[16,7,7,7168]{3,2,1,0}, f32[16,7,7,7168]{3,2,1,0})}

%region_0.1142.1 (Arg_0.1143: f32[], Arg_1.1144: f32[]) -> f32[] {
  %Arg_0.1143 = f32[] parameter(0)
  %Arg_1.1144 = f32[] parameter(1)
  ROOT %add.1145 = f32[] add(f32[] %Arg_0.1143, f32[] %Arg_1.1144), metadata={op_name="parallelize(train_step_func_pipeshard_parallel_mesh_1)/jit(main)/jit(1)/jit(10)/jvp(WideResNet)/BottleneckResNetBlock_8/BatchNorm_0/reduce_sum[axes=(0, 1, 2)]" source_file="/home/cyxue/miniconda3/envs/alpa/lib/python3.8/site-packages/flax/linen/normalization.py" source_line=82}
}

%fused_computation.2 (param_0.5: f32[], param_1.570: s32[]) -> f32[] {
  %param_0.5 = f32[] parameter(0)
  %param_1.570 = s32[] parameter(1)
  %convert.1 = f32[] convert(s32[] %param_1.570), metadata={op_name="parallelize(train_step_func_pipeshard_parallel_mesh_1)/jit(main)/jit(1)/jit(17)/convert_element_type[new_dtype=float32 weak_type=True]" source_file="/home/cyxue/miniconda3/envs/alpa/lib/python3.8/site-packages/optax/_src/schedule.py" source_line=394}
  %constant_90 = f32[] constant(50000)
  %compare.4 = pred[] compare(f32[] %convert.1, f32[] %constant_90), direction=LT, metadata={op_name="parallelize(train_step_func_pipeshard_parallel_mesh_1)/jit(main)/jit(1)/jit(17)/lt" source_file="/home/cyxue/miniconda3/envs/alpa/lib/python3.8/site-packages/optax/_src/schedule.py" source_line=394}
  %constant_93 = f32[] constant(1)
  %constant_94 = s32[] constant(0)
  %maximum.0 = s32[] maximum(s32[] %param_1.570, s32[] %constant_94), metadata={op_name="parallelize(train_step_func_pipeshard_parallel_mesh_1)/jit(main)/jit(1)/jit(17)/max" source_file="/home/cyxue/miniconda3/envs/alpa/lib/python3.8/site-packages/optax/_src/schedule.py" source_line=86}
  %convert.0 = f32[] convert(s32[] %maximum.0), metadata={op_name="parallelize(train_step_func_pipeshard_parallel_mesh_1)/jit(main)/jit(1)/jit(17)/convert_element_type[new_dtype=float32 weak_type=True]" source_file="/home/cyxue/miniconda3/envs/alpa/lib/python3.8/site-packages/optax/_src/schedule.py" source_line=86}
  %minimum.1 = f32[] minimum(f32[] %convert.0, f32[] %constant_90), metadata={op_name="parallelize(train_step_func_pipeshard_parallel_mesh_1)/jit(main)/jit(1)/jit(17)/min" source_file="/home/cyxue/miniconda3/envs/alpa/lib/python3.8/site-packages/optax/_src/schedule.py" source_line=86}
  %constant_89 = f32[] constant(2e-05)
  %multiply.137 = f32[] multiply(f32[] %minimum.1, f32[] %constant_89), metadata={op_name="parallelize(train_step_func_pipeshard_parallel_mesh_1)/jit(main)/jit(1)/jit(17)/div" source_file="/home/cyxue/miniconda3/envs/alpa/lib/python3.8/site-packages/optax/_src/schedule.py" source_line=87}
  %subtract.0 = f32[] subtract(f32[] %constant_93, f32[] %multiply.137), metadata={op_name="parallelize(train_step_func_pipeshard_parallel_mesh_1)/jit(main)/jit(1)/jit(17)/sub" source_file="/home/cyxue/miniconda3/envs/alpa/lib/python3.8/site-packages/optax/_src/schedule.py" source_line=87}
  %constant_88 = f32[] constant(-0.1)
  %multiply.136 = f32[] multiply(f32[] %subtract.0, f32[] %constant_88), metadata={op_name="parallelize(train_step_func_pipeshard_parallel_mesh_1)/jit(main)/jit(1)/jit(17)/mul" source_file="/home/cyxue/miniconda3/envs/alpa/lib/python3.8/site-packages/optax/_src/schedule.py" source_line=88}
  %constant_95 = f32[] constant(0.1)
  %add.29 = f32[] add(f32[] %multiply.136, f32[] %constant_95), metadata={op_name="parallelize(train_step_func_pipeshard_parallel_mesh_1)/jit(main)/jit(1)/jit(17)/add" source_file="/home/cyxue/miniconda3/envs/alpa/lib/python3.8/site-packages/optax/_src/schedule.py" source_line=88}
  %constant_87 = f32[] constant(-50000)
  %add.28 = f32[] add(f32[] %convert.1, f32[] %constant_87), metadata={op_name="parallelize(train_step_func_pipeshard_parallel_mesh_1)/jit(main)/jit(1)/jit(17)/sub" source_file="/home/cyxue/miniconda3/envs/alpa/lib/python3.8/site-packages/optax/_src/schedule.py" source_line=394}
  %constant_86 = f32[] constant(950000)
  %minimum.0 = f32[] minimum(f32[] %add.28, f32[] %constant_86), metadata={op_name="parallelize(train_step_func_pipeshard_parallel_mesh_1)/jit(main)/jit(1)/jit(17)/min" source_file="/home/cyxue/miniconda3/envs/alpa/lib/python3.8/site-packages/optax/_src/schedule.py" source_line=235}
  %constant_85 = f32[] constant(3.30693956e-06)
  %multiply.135 = f32[] multiply(f32[] %minimum.0, f32[] %constant_85), metadata={op_name="parallelize(train_step_func_pipeshard_parallel_mesh_1)/jit(main)/jit(1)/jit(17)/div" source_file="/home/cyxue/miniconda3/envs/alpa/lib/python3.8/site-packages/optax/_src/schedule.py" source_line=236}
  %cosine.0 = f32[] cosine(f32[] %multiply.135), metadata={op_name="parallelize(train_step_func_pipeshard_parallel_mesh_1)/jit(main)/jit(1)/jit(17)/cos" source_file="/home/cyxue/miniconda3/envs/alpa/lib/python3.8/site-packages/optax/_src/schedule.py" source_line=236}
  %add.27 = f32[] add(f32[] %cosine.0, f32[] %constant_93), metadata={op_name="parallelize(train_step_func_pipeshard_parallel_mesh_1)/jit(main)/jit(1)/jit(17)/add" source_file="/home/cyxue/miniconda3/envs/alpa/lib/python3.8/site-packages/optax/_src/schedule.py" source_line=236}
  %constant_84 = f32[] constant(0.05)
  %multiply.134 = f32[] multiply(f32[] %add.27, f32[] %constant_84), metadata={op_name="parallelize(train_step_func_pipeshard_parallel_mesh_1)/jit(main)/jit(1)/jit(17)/mul" source_file="/home/cyxue/miniconda3/envs/alpa/lib/python3.8/site-packages/optax/_src/schedule.py" source_line=238}
  %select.1 = f32[] select(pred[] %compare.4, f32[] %add.29, f32[] %multiply.134), metadata={op_name="parallelize(train_step_func_pipeshard_parallel_mesh_1)/jit(main)/jit(1)/jit(17)/select_n" source_file="/home/cyxue/miniconda3/envs/alpa/lib/python3.8/site-packages/optax/_src/schedule.py" source_line=394}
  ROOT %add.26 = f32[] add(f32[] %param_0.5, f32[] %select.1), metadata={op_name="parallelize(train_step_func_pipeshard_parallel_mesh_1)/jit(main)/jit(1)/jit(17)/add"}
}

%fused_computation.6 (param_0.332: f32[16], param_1.721: s32[16], param_2.659: s32[16]) -> (f32[], f32[]) {
  %param_0.332 = f32[16]{0} parameter(0)
  %negate.1 = f32[16]{0} negate(f32[16]{0} %param_0.332), metadata={op_name="parallelize(train_step_func_pipeshard_parallel_mesh_1)/jit(main)/jit(1)/jit(17)/neg" source_file="/home/cyxue/miniconda3/envs/alpa/lib/python3.8/site-packages/optax/_src/loss.py" source_line=170}
  %constant_99 = f32[] constant(0)
  %reduce.262 = f32[] reduce(f32[16]{0} %negate.1, f32[] %constant_99), dimensions={0}, to_apply=%region_0.1142.1, metadata={op_name="parallelize(train_step_func_pipeshard_parallel_mesh_1)/jit(main)/jit(1)/jit(17)/reduce_sum[axes=(0,)]" source_file="/home/cyxue/Projects/crius/Crius/runtime/crius_worker/jax/trainer/wide_resnet_trainer.py" source_line=113}
  %param_1.721 = s32[16]{0} parameter(1)
  %param_2.659 = s32[16]{0} parameter(2)
  %compare.5.clone.1 = pred[16]{0} compare(s32[16]{0} %param_1.721, s32[16]{0} %param_2.659), direction=EQ, metadata={op_name="parallelize(train_step_func_pipeshard_parallel_mesh_1)/jit(main)/jit(1)/jit(17)/eq" source_file="/home/cyxue/Projects/crius/Crius/runtime/crius_worker/jax/trainer/wide_resnet_trainer.py" source_line=183}
  %convert.3.clone.1 = s32[16]{0} convert(pred[16]{0} %compare.5.clone.1), metadata={op_name="parallelize(train_step_func_pipeshard_parallel_mesh_1)/jit(main)/jit(1)/jit(17)/convert_element_type[new_dtype=int32 weak_type=False]" source_file="/home/cyxue/Projects/crius/Crius/runtime/crius_worker/jax/trainer/wide_resnet_trainer.py" source_line=183}
  %convert.2.clone.1 = f32[16]{0} convert(s32[16]{0} %convert.3.clone.1), metadata={op_name="parallelize(train_step_func_pipeshard_parallel_mesh_1)/jit(main)/jit(1)/jit(17)/convert_element_type[new_dtype=float32 weak_type=False]" source_file="/home/cyxue/Projects/crius/Crius/runtime/crius_worker/jax/trainer/wide_resnet_trainer.py" source_line=183}
  %reduce.261.clone.1 = f32[] reduce(f32[16]{0} %convert.2.clone.1, f32[] %constant_99), dimensions={0}, to_apply=%region_0.1142.1, metadata={op_name="parallelize(train_step_func_pipeshard_parallel_mesh_1)/jit(main)/jit(1)/jit(17)/reduce_sum[axes=(0,)]" source_file="/home/cyxue/Projects/crius/Crius/runtime/crius_worker/jax/trainer/wide_resnet_trainer.py" source_line=183}
  ROOT %tuple.94 = (f32[], f32[]) tuple(f32[] %reduce.262, f32[] %reduce.261.clone.1)
}

%fused_computation.7 (param_0.485: f32[16], param_1.632: s32[16], param_2.548: f32[16,1024], param_3.516: f32[16]) -> f32[16] {
  %param_1.632 = s32[16]{0} parameter(1)
  %broadcast.183 = s32[16,1024]{1,0} broadcast(s32[16]{0} %param_1.632), dimensions={0}, metadata={op_name="parallelize(train_step_func_pipeshard_parallel_mesh_1)/jit(main)/jit(1)/jit(17)/eq" source_file="/home/cyxue/miniconda3/envs/alpa/lib/python3.8/site-packages/flax/training/common_utils.py" source_line=102}
  %iota.6 = s32[16,1024]{1,0} iota(), iota_dimension=1, metadata={op_name="parallelize(train_step_func_pipeshard_parallel_mesh_1)/jit(main)/jit(1)/jit(17)/eq" source_file="/home/cyxue/miniconda3/envs/alpa/lib/python3.8/site-packages/flax/training/common_utils.py" source_line=102}
  %compare.6 = pred[16,1024]{1,0} compare(s32[16,1024]{1,0} %broadcast.183, s32[16,1024]{1,0} %iota.6), direction=EQ, metadata={op_name="parallelize(train_step_func_pipeshard_parallel_mesh_1)/jit(main)/jit(1)/jit(17)/eq" source_file="/home/cyxue/miniconda3/envs/alpa/lib/python3.8/site-packages/flax/training/common_utils.py" source_line=102}
  %constant_100 = f32[] constant(1)
  %broadcast.182 = f32[16,1024]{1,0} broadcast(f32[] %constant_100), dimensions={}, metadata={op_name="parallelize(train_step_func_pipeshard_parallel_mesh_1)/jit(main)/jit(1)/jit(17)/broadcast_in_dim[shape=(16, 1024) broadcast_dimensions=()]" source_file="/home/cyxue/miniconda3/envs/alpa/lib/python3.8/site-packages/flax/training/common_utils.py" source_line=103}
  %constant_101 = f32[] constant(0)
  %broadcast.181 = f32[16,1024]{1,0} broadcast(f32[] %constant_101), dimensions={}, metadata={op_name="parallelize(train_step_func_pipeshard_parallel_mesh_1)/jit(main)/jit(1)/jit(17)/broadcast_in_dim[shape=(16, 1024) broadcast_dimensions=()]" source_file="/home/cyxue/miniconda3/envs/alpa/lib/python3.8/site-packages/flax/training/common_utils.py" source_line=103}
  %select.2 = f32[16,1024]{1,0} select(pred[16,1024]{1,0} %compare.6, f32[16,1024]{1,0} %broadcast.182, f32[16,1024]{1,0} %broadcast.181), metadata={op_name="parallelize(train_step_func_pipeshard_parallel_mesh_1)/jit(main)/jit(1)/jit(17)/select_n" source_file="/home/cyxue/miniconda3/envs/alpa/lib/python3.8/site-packages/flax/training/common_utils.py" source_line=103}
  %param_2.548 = f32[16,1024]{1,0} parameter(2)
  %param_3.516 = f32[16]{0} parameter(3)
  %broadcast.644 = f32[16,1024]{1,0} broadcast(f32[16]{0} %param_3.516), dimensions={0}, metadata={op_name="parallelize(train_step_func_pipeshard_parallel_mesh_1)/jit(main)/jit(1)/jit(17)/sub" source_file="/home/cyxue/miniconda3/envs/alpa/lib/python3.8/site-packages/optax/_src/loss.py" source_line=170}
  %subtract.68 = f32[16,1024]{1,0} subtract(f32[16,1024]{1,0} %param_2.548, f32[16,1024]{1,0} %broadcast.644), metadata={op_name="parallelize(train_step_func_pipeshard_parallel_mesh_1)/jit(main)/jit(1)/jit(17)/sub" source_file="/home/cyxue/miniconda3/envs/alpa/lib/python3.8/site-packages/optax/_src/loss.py" source_line=170}
  %param_0.485 = f32[16]{0} parameter(0)
  %broadcast.180 = f32[16,1024]{1,0} broadcast(f32[16]{0} %param_0.485), dimensions={0}, metadata={op_name="parallelize(train_step_func_pipeshard_parallel_mesh_1)/jit(main)/jit(1)/jit(17)/sub" source_file="/home/cyxue/miniconda3/envs/alpa/lib/python3.8/site-packages/optax/_src/loss.py" source_line=170}
  %subtract.1 = f32[16,1024]{1,0} subtract(f32[16,1024]{1,0} %subtract.68, f32[16,1024]{1,0} %broadcast.180), metadata={op_name="parallelize(train_step_func_pipeshard_parallel_mesh_1)/jit(main)/jit(1)/jit(17)/sub" source_file="/home/cyxue/miniconda3/envs/alpa/lib/python3.8/site-packages/optax/_src/loss.py" source_line=170}
  %multiply.140 = f32[16,1024]{1,0} multiply(f32[16,1024]{1,0} %select.2, f32[16,1024]{1,0} %subtract.1), metadata={op_name="parallelize(train_step_func_pipeshard_parallel_mesh_1)/jit(main)/jit(1)/jit(17)/mul" source_file="/home/cyxue/miniconda3/envs/alpa/lib/python3.8/site-packages/optax/_src/loss.py" source_line=170}
  ROOT %reduce.263 = f32[16]{0} reduce(f32[16,1024]{1,0} %multiply.140, f32[] %constant_101), dimensions={1}, to_apply=%region_0.1142.1, metadata={op_name="parallelize(train_step_func_pipeshard_parallel_mesh_1)/jit(main)/jit(1)/jit(17)/reduce_sum[axes=(1,)]" source_file="/home/cyxue/miniconda3/envs/alpa/lib/python3.8/site-packages/optax/_src/loss.py" source_line=170}
}

%fused_computation.8 (param_0.483: f32[16,1024], param_1.630: f32[16]) -> f32[16] {
  %param_0.483 = f32[16,1024]{1,0} parameter(0)
  %param_1.630 = f32[16]{0} parameter(1)
  %broadcast.642 = f32[16,1024]{1,0} broadcast(f32[16]{0} %param_1.630), dimensions={0}, metadata={op_name="parallelize(train_step_func_pipeshard_parallel_mesh_1)/jit(main)/jit(1)/jit(17)/sub" source_file="/home/cyxue/miniconda3/envs/alpa/lib/python3.8/site-packages/optax/_src/loss.py" source_line=170}
  %subtract.66 = f32[16,1024]{1,0} subtract(f32[16,1024]{1,0} %param_0.483, f32[16,1024]{1,0} %broadcast.642), metadata={op_name="parallelize(train_step_func_pipeshard_parallel_mesh_1)/jit(main)/jit(1)/jit(17)/sub" source_file="/home/cyxue/miniconda3/envs/alpa/lib/python3.8/site-packages/optax/_src/loss.py" source_line=170}
  %exponential.0 = f32[16,1024]{1,0} exponential(f32[16,1024]{1,0} %subtract.66), metadata={op_name="parallelize(train_step_func_pipeshard_parallel_mesh_1)/jit(main)/jit(1)/jit(17)/exp" source_file="/home/cyxue/miniconda3/envs/alpa/lib/python3.8/site-packages/optax/_src/loss.py" source_line=170}
  %constant_102 = f32[] constant(0)
  ROOT %reduce.264 = f32[16]{0} reduce(f32[16,1024]{1,0} %exponential.0, f32[] %constant_102), dimensions={1}, to_apply=%region_0.1142.1, metadata={op_name="parallelize(train_step_func_pipeshard_parallel_mesh_1)/jit(main)/jit(1)/jit(17)/reduce_sum[axes=(1,)]" source_file="/home/cyxue/miniconda3/envs/alpa/lib/python3.8/site-packages/optax/_src/loss.py" source_line=170}
}

%fused_computation (param_0.2: s32[], param_1.2: s32[], param_2.549: f32[], param_3.517: f32[]) -> (s32[], f32[]) {
  %param_2.549 = f32[] parameter(2)
  %param_3.517 = f32[] parameter(3)
  %compare.3.clone.1 = pred[] compare(f32[] %param_2.549, f32[] %param_3.517), direction=GT, metadata={op_name="/gt" source_file="/home/cyxue/Projects/crius/Crius/runtime/crius_worker/jax/trainer/wide_resnet_trainer.py" source_line=183}
  %compare.2.clone.1 = pred[] compare(f32[] %param_2.549, f32[] %param_2.549), direction=NE, metadata={op_name="/ne" source_file="/home/cyxue/Projects/crius/Crius/runtime/crius_worker/jax/trainer/wide_resnet_trainer.py" source_line=183}
  %or.1.clone.1 = pred[] or(pred[] %compare.3.clone.1, pred[] %compare.2.clone.1), metadata={op_name="/or" source_file="/home/cyxue/Projects/crius/Crius/runtime/crius_worker/jax/trainer/wide_resnet_trainer.py" source_line=183}
  %compare.1 = pred[] compare(f32[] %param_2.549, f32[] %param_3.517), direction=EQ, metadata={op_name="/eq" source_file="/home/cyxue/Projects/crius/Crius/runtime/crius_worker/jax/trainer/wide_resnet_trainer.py" source_line=183}
  %param_0.2 = s32[] parameter(0)
  %param_1.2 = s32[] parameter(1)
  %compare.0 = pred[] compare(s32[] %param_0.2, s32[] %param_1.2), direction=LT, metadata={op_name="/lt" source_file="/home/cyxue/Projects/crius/Crius/runtime/crius_worker/jax/trainer/wide_resnet_trainer.py" source_line=183}
  %and.0 = pred[] and(pred[] %compare.1, pred[] %compare.0), metadata={op_name="/and" source_file="/home/cyxue/Projects/crius/Crius/runtime/crius_worker/jax/trainer/wide_resnet_trainer.py" source_line=183}
  %or.0 = pred[] or(pred[] %or.1.clone.1, pred[] %and.0), metadata={op_name="/or" source_file="/home/cyxue/Projects/crius/Crius/runtime/crius_worker/jax/trainer/wide_resnet_trainer.py" source_line=183}
  %select.0 = s32[] select(pred[] %or.0, s32[] %param_0.2, s32[] %param_1.2), metadata={op_name="/select_n" source_file="/home/cyxue/Projects/crius/Crius/runtime/crius_worker/jax/trainer/wide_resnet_trainer.py" source_line=183}
  %select.3 = f32[] select(pred[] %or.1.clone.1, f32[] %param_2.549, f32[] %param_3.517), metadata={op_name="/select_n" source_file="/home/cyxue/Projects/crius/Crius/runtime/crius_worker/jax/trainer/wide_resnet_trainer.py" source_line=183}
  ROOT %tuple.1 = (s32[], f32[]) tuple(s32[] %select.0, f32[] %select.3)
}

%region_55.2615.1 (Arg_0.2616: f32[], Arg_1.2617: s32[], Arg_2.2618: f32[], Arg_3.2619: s32[]) -> (f32[], s32[]) {
  %Arg_1.2617 = s32[] parameter(1)
  %Arg_3.2619 = s32[] parameter(3)
  %Arg_0.2616 = f32[] parameter(0)
  %Arg_2.2618 = f32[] parameter(2)
  %fusion = (s32[], f32[]) fusion(s32[] %Arg_1.2617, s32[] %Arg_3.2619, f32[] %Arg_0.2616, f32[] %Arg_2.2618), kind=kLoop, calls=%fused_computation, metadata={op_name="/select_n" source_file="/home/cyxue/Projects/crius/Crius/runtime/crius_worker/jax/trainer/wide_resnet_trainer.py" source_line=183}
  %get-tuple-element.87 = f32[] get-tuple-element((s32[], f32[]) %fusion), index=1
  %get-tuple-element.86 = s32[] get-tuple-element((s32[], f32[]) %fusion), index=0
  ROOT %tuple.2629 = (f32[], s32[]) tuple(f32[] %get-tuple-element.87, s32[] %get-tuple-element.86)
}

%fused_computation.10 (param_0.17: f32[16,1024]) -> (f32[16], s32[16]) {
  %param_0.17 = f32[16,1024]{1,0} parameter(0)
  %iota.7 = s32[16,1024]{1,0} iota(), iota_dimension=1, metadata={op_name="parallelize(train_step_func_pipeshard_parallel_mesh_1)/jit(main)/jit(1)/jit(17)/iota[dtype=int32 shape=(16, 1024) dimension=1]" source_file="/home/cyxue/Projects/crius/Crius/runtime/crius_worker/jax/trainer/wide_resnet_trainer.py" source_line=183}
  %constant_91 = f32[] constant(-inf)
  %constant_103 = s32[] constant(0)
  ROOT %reduce.265 = (f32[16]{0}, s32[16]{0}) reduce(f32[16,1024]{1,0} %param_0.17, s32[16,1024]{1,0} %iota.7, f32[] %constant_91, s32[] %constant_103), dimensions={1}, to_apply=%region_55.2615.1, metadata={op_name="parallelize(train_step_func_pipeshard_parallel_mesh_1)/jit(main)/jit(1)/jit(17)/reduce[computation=<function _compute_argminmax.<locals>.reducer_fn at 0x7f21c42cf5e0> consts=() dimensions=(1,)]" source_file="/home/cyxue/Projects/crius/Crius/runtime/crius_worker/jax/trainer/wide_resnet_trainer.py" source_line=183}
}

%fused_computation.11 (param_0.18: f32[16,7168]) -> f32[16,7168] {
  %param_0.18 = f32[16,7168]{1,0} parameter(0)
  %constant_92 = f32[] constant(0.0204081628)
  %broadcast.185 = f32[16,7168]{1,0} broadcast(f32[] %constant_92), dimensions={}, metadata={op_name="parallelize(train_step_func_pipeshard_parallel_mesh_1)/jit(main)/jit(1)/jit(17)/jvp(WideResNet)/div" source_file="/home/cyxue/Projects/crius/Crius/runtime/crius_worker/jax/model/wide_resnet.py" source_line=135}
  ROOT %multiply.141 = f32[16,7168]{1,0} multiply(f32[16,7168]{1,0} %param_0.18, f32[16,7168]{1,0} %broadcast.185), metadata={op_name="parallelize(train_step_func_pipeshard_parallel_mesh_1)/jit(main)/jit(1)/jit(17)/jvp(WideResNet)/div" source_file="/home/cyxue/Projects/crius/Crius/runtime/crius_worker/jax/model/wide_resnet.py" source_line=135}
}

%fused_computation.13 (param_0.21: f32[7168], param_1.633: f32[7168], param_2.552: f32[7168], param_3.522: f32[16,7168], param_4.375: f32[7168], param_5.193: f32[7168]) -> (f32[7168], f32[7168], f32[7168]) {
  %param_0.21 = f32[7168]{0} parameter(0)
  %param_1.633 = f32[7168]{0} parameter(1)
  %constant_107 = f32[] constant(0.9)
  %broadcast.192 = f32[7168]{0} broadcast(f32[] %constant_107), dimensions={}, metadata={op_name="parallelize(train_step_func_pipeshard_parallel_mesh_1)/jit(main)/jit(1)/jit(15)/jvp(WideResNet)/BottleneckResNetBlock_13/BatchNorm_2/mul" source_file="/home/cyxue/miniconda3/envs/alpa/lib/python3.8/site-packages/flax/linen/normalization.py" source_line=265}
  %multiply.145 = f32[7168]{0} multiply(f32[7168]{0} %param_1.633, f32[7168]{0} %broadcast.192), metadata={op_name="parallelize(train_step_func_pipeshard_parallel_mesh_1)/jit(main)/jit(1)/jit(17)/jvp(WideResNet)/BottleneckResNetBlock_15/BatchNorm_2/mul" source_file="/home/cyxue/miniconda3/envs/alpa/lib/python3.8/site-packages/flax/linen/normalization.py" source_line=267}
  %param_3.522 = f32[16,7168]{1,0} parameter(3)
  %constant_109_clone_1 = f32[] constant(0)
  %reduce.267.clone.1 = f32[7168]{0} reduce(f32[16,7168]{1,0} %param_3.522, f32[] %constant_109_clone_1), dimensions={0}, to_apply=%region_0.1142.1, metadata={op_name="parallelize(train_step_func_pipeshard_parallel_mesh_1)/jit(main)/jit(1)/jit(17)/jvp(WideResNet)/BottleneckResNetBlock_15/BatchNorm_2/reduce_sum[axes=(0, 1, 2)]" source_file="/home/cyxue/miniconda3/envs/alpa/lib/python3.8/site-packages/flax/linen/normalization.py" source_line=83}
  %constant_717_clone_1 = f32[] constant(0.00127551018)
  %broadcast.194.clone.1 = f32[7168]{0} broadcast(f32[] %constant_717_clone_1), dimensions={}, metadata={op_name="parallelize(train_step_func_pipeshard_parallel_mesh_1)/jit(main)/jit(1)/jit(15)/jvp(WideResNet)/BottleneckResNetBlock_13/BatchNorm_2/div" source_file="/home/cyxue/miniconda3/envs/alpa/lib/python3.8/site-packages/flax/linen/normalization.py" source_line=82}
  %multiply.147.clone.1 = f32[7168]{0} multiply(f32[7168]{0} %reduce.267.clone.1, f32[7168]{0} %broadcast.194.clone.1), metadata={op_name="parallelize(train_step_func_pipeshard_parallel_mesh_1)/jit(main)/jit(1)/jit(17)/jvp(WideResNet)/BottleneckResNetBlock_15/BatchNorm_2/div" source_file="/home/cyxue/miniconda3/envs/alpa/lib/python3.8/site-packages/flax/linen/normalization.py" source_line=83}
  %param_2.552 = f32[7168]{0} parameter(2)
  %multiply.527.clone.1 = f32[7168]{0} multiply(f32[7168]{0} %param_2.552, f32[7168]{0} %broadcast.194.clone.1), metadata={op_name="parallelize(train_step_func_pipeshard_parallel_mesh_1)/jit(main)/jit(1)/jit(17)/jvp(WideResNet)/BottleneckResNetBlock_15/BatchNorm_2/div" source_file="/home/cyxue/miniconda3/envs/alpa/lib/python3.8/site-packages/flax/linen/normalization.py" source_line=82}
  %multiply.146.clone.1 = f32[7168]{0} multiply(f32[7168]{0} %multiply.527.clone.1, f32[7168]{0} %multiply.527.clone.1), metadata={op_name="parallelize(train_step_func_pipeshard_parallel_mesh_1)/jit(main)/jit(1)/jit(17)/jvp(WideResNet)/BottleneckResNetBlock_15/BatchNorm_2/mul" source_file="/home/cyxue/miniconda3/envs/alpa/lib/python3.8/site-packages/flax/linen/normalization.py" source_line=46}
  %subtract.4.clone.1 = f32[7168]{0} subtract(f32[7168]{0} %multiply.147.clone.1, f32[7168]{0} %multiply.146.clone.1), metadata={op_name="parallelize(train_step_func_pipeshard_parallel_mesh_1)/jit(main)/jit(1)/jit(17)/jvp(WideResNet)/BottleneckResNetBlock_15/BatchNorm_2/sub" source_file="/home/cyxue/miniconda3/envs/alpa/lib/python3.8/site-packages/flax/linen/normalization.py" source_line=93}
  %broadcast.193.clone.1 = f32[7168]{0} broadcast(f32[] %constant_109_clone_1), dimensions={}, metadata={op_name="parallelize(train_step_func_pipeshard_parallel_mesh_1)/jit(main)/jit(1)/jit(15)/jvp(WideResNet)/BottleneckResNetBlock_13/BatchNorm_2/max" source_file="/home/cyxue/miniconda3/envs/alpa/lib/python3.8/site-packages/flax/linen/normalization.py" source_line=93}
  %maximum.2.clone.1 = f32[7168]{0} maximum(f32[7168]{0} %subtract.4.clone.1, f32[7168]{0} %broadcast.193.clone.1), metadata={op_name="parallelize(train_step_func_pipeshard_parallel_mesh_1)/jit(main)/jit(1)/jit(17)/jvp(WideResNet)/BottleneckResNetBlock_15/BatchNorm_2/max" source_file="/home/cyxue/miniconda3/envs/alpa/lib/python3.8/site-packages/flax/linen/normalization.py" source_line=93}
  %constant_106 = f32[] constant(0.1)
  %broadcast.191 = f32[7168]{0} broadcast(f32[] %constant_106), dimensions={}, metadata={op_name="parallelize(train_step_func_pipeshard_parallel_mesh_1)/jit(main)/jit(1)/jit(15)/jvp(WideResNet)/BottleneckResNetBlock_13/BatchNorm_2/mul" source_file="/home/cyxue/miniconda3/envs/alpa/lib/python3.8/site-packages/flax/linen/normalization.py" source_line=265}
  %multiply.144 = f32[7168]{0} multiply(f32[7168]{0} %maximum.2.clone.1, f32[7168]{0} %broadcast.191), metadata={op_name="parallelize(train_step_func_pipeshard_parallel_mesh_1)/jit(main)/jit(1)/jit(17)/jvp(WideResNet)/BottleneckResNetBlock_15/BatchNorm_2/mul" source_file="/home/cyxue/miniconda3/envs/alpa/lib/python3.8/site-packages/flax/linen/normalization.py" source_line=267}
  %add.36 = f32[7168]{0} add(f32[7168]{0} %multiply.145, f32[7168]{0} %multiply.144), metadata={op_name="parallelize(train_step_func_pipeshard_parallel_mesh_1)/jit(main)/jit(1)/jit(17)/jvp(WideResNet)/BottleneckResNetBlock_15/BatchNorm_2/add" source_file="/home/cyxue/miniconda3/envs/alpa/lib/python3.8/site-packages/flax/linen/normalization.py" source_line=267}
  %add.35 = f32[7168]{0} add(f32[7168]{0} %param_0.21, f32[7168]{0} %add.36), metadata={op_name="parallelize(train_step_func_pipeshard_parallel_mesh_1)/jit(main)/jit(1)/jit(17)/add"}
  %param_4.375 = f32[7168]{0} parameter(4)
  %param_5.193 = f32[7168]{0} parameter(5)
  %multiply.151.clone.1 = f32[7168]{0} multiply(f32[7168]{0} %param_5.193, f32[7168]{0} %broadcast.192), metadata={op_name="parallelize(train_step_func_pipeshard_parallel_mesh_1)/jit(main)/jit(1)/jit(17)/jvp(WideResNet)/BottleneckResNetBlock_15/BatchNorm_2/mul" source_file="/home/cyxue/miniconda3/envs/alpa/lib/python3.8/site-packages/flax/linen/normalization.py" source_line=265}
  %constant_112_clone_1 = f32[] constant(0.000127551015)
  %broadcast.196.clone.1 = f32[7168]{0} broadcast(f32[] %constant_112_clone_1), dimensions={}, metadata={op_name="parallelize(train_step_func_pipeshard_parallel_mesh_1)/jit(main)/jit(1)/jit(15)/jvp(WideResNet)/BottleneckResNetBlock_13/BatchNorm_2/mul" source_file="/home/cyxue/miniconda3/envs/alpa/lib/python3.8/site-packages/flax/linen/normalization.py" source_line=265}
  %multiply.150.clone.1 = f32[7168]{0} multiply(f32[7168]{0} %param_2.552, f32[7168]{0} %broadcast.196.clone.1), metadata={op_name="parallelize(train_step_func_pipeshard_parallel_mesh_1)/jit(main)/jit(1)/jit(17)/jvp(WideResNet)/BottleneckResNetBlock_15/BatchNorm_2/mul" source_file="/home/cyxue/miniconda3/envs/alpa/lib/python3.8/site-packages/flax/linen/normalization.py" source_line=265}
  %add.38.clone.1 = f32[7168]{0} add(f32[7168]{0} %multiply.151.clone.1, f32[7168]{0} %multiply.150.clone.1), metadata={op_name="parallelize(train_step_func_pipeshard_parallel_mesh_1)/jit(main)/jit(1)/jit(17)/jvp(WideResNet)/BottleneckResNetBlock_15/BatchNorm_2/add" source_file="/home/cyxue/miniconda3/envs/alpa/lib/python3.8/site-packages/flax/linen/normalization.py" source_line=265}
  %add.37.clone.1 = f32[7168]{0} add(f32[7168]{0} %param_4.375, f32[7168]{0} %add.38.clone.1), metadata={op_name="parallelize(train_step_func_pipeshard_parallel_mesh_1)/jit(main)/jit(1)/jit(17)/add"}
  ROOT %tuple.3 = (f32[7168]{0}, f32[7168]{0}, f32[7168]{0}) tuple(f32[7168]{0} %add.35, f32[7168]{0} %maximum.2.clone.1, f32[7168]{0} %add.37.clone.1)
}

%fused_computation.19 (param_0.33: f32[3584], param_1.57: f32[3584], param_2.36: f32[3584], param_3.38: f32[16,7,7,3584], param_4.368: f32[3584]) -> f32[16,7,7,3584] {
  %param_3.38 = f32[16,7,7,3584]{2,1,3,0} parameter(3)
  %param_4.368 = f32[3584]{0} parameter(4)
  %constant_708 = f32[] constant(0.00127551018)
  %broadcast.634 = f32[3584]{0} broadcast(f32[] %constant_708), dimensions={}, metadata={op_name="parallelize(train_step_func_pipeshard_parallel_mesh_1)/jit(main)/jit(1)/jit(15)/jvp(WideResNet)/BottleneckResNetBlock_13/BatchNorm_1/div" source_file="/home/cyxue/miniconda3/envs/alpa/lib/python3.8/site-packages/flax/linen/normalization.py" source_line=82}
  %multiply.521 = f32[3584]{0} multiply(f32[3584]{0} %param_4.368, f32[3584]{0} %broadcast.634), metadata={op_name="parallelize(train_step_func_pipeshard_parallel_mesh_1)/jit(main)/jit(1)/jit(17)/jvp(WideResNet)/BottleneckResNetBlock_15/BatchNorm_1/div" source_file="/home/cyxue/miniconda3/envs/alpa/lib/python3.8/site-packages/flax/linen/normalization.py" source_line=82}
  %broadcast.200 = f32[16,7,7,3584]{2,1,3,0} broadcast(f32[3584]{0} %multiply.521), dimensions={3}, metadata={op_name="parallelize(train_step_func_pipeshard_parallel_mesh_1)/jit(main)/jit(1)/jit(17)/jvp(WideResNet)/BottleneckResNetBlock_15/BatchNorm_1/sub" source_file="/home/cyxue/miniconda3/envs/alpa/lib/python3.8/site-packages/flax/linen/normalization.py" source_line=138}
  %subtract.5 = f32[16,7,7,3584]{2,1,3,0} subtract(f32[16,7,7,3584]{2,1,3,0} %param_3.38, f32[16,7,7,3584]{2,1,3,0} %broadcast.200), metadata={op_name="parallelize(train_step_func_pipeshard_parallel_mesh_1)/jit(main)/jit(1)/jit(17)/jvp(WideResNet)/BottleneckResNetBlock_15/BatchNorm_1/sub" source_file="/home/cyxue/miniconda3/envs/alpa/lib/python3.8/site-packages/flax/linen/normalization.py" source_line=138}
  %param_2.36 = f32[3584]{0} parameter(2)
  %constant_115 = f32[] constant(1e-05)
  %broadcast.202 = f32[3584]{0} broadcast(f32[] %constant_115), dimensions={}, metadata={op_name="parallelize(train_step_func_pipeshard_parallel_mesh_1)/jit(main)/jit(1)/jit(10)/jvp(WideResNet)/BottleneckResNetBlock_8/BatchNorm_2/add" source_file="/home/cyxue/miniconda3/envs/alpa/lib/python3.8/site-packages/flax/linen/normalization.py" source_line=139}
  %add.40 = f32[3584]{0} add(f32[3584]{0} %param_2.36, f32[3584]{0} %broadcast.202), metadata={op_name="parallelize(train_step_func_pipeshard_parallel_mesh_1)/jit(main)/jit(1)/jit(17)/jvp(WideResNet)/BottleneckResNetBlock_15/BatchNorm_1/add" source_file="/home/cyxue/miniconda3/envs/alpa/lib/python3.8/site-packages/flax/linen/normalization.py" source_line=139}
  %rsqrt.26 = f32[3584]{0} rsqrt(f32[3584]{0} %add.40), metadata={op_name="parallelize(train_step_func_pipeshard_parallel_mesh_1)/jit(main)/jit(1)/jit(17)/jvp(WideResNet)/BottleneckResNetBlock_15/BatchNorm_1/rsqrt" source_file="/home/cyxue/miniconda3/envs/alpa/lib/python3.8/site-packages/flax/linen/normalization.py" source_line=139}
  %param_1.57 = f32[3584]{0} parameter(1)
  %multiply.153 = f32[3584]{0} multiply(f32[3584]{0} %rsqrt.26, f32[3584]{0} %param_1.57), metadata={op_name="parallelize(train_step_func_pipeshard_parallel_mesh_1)/jit(main)/jit(1)/jit(17)/jvp(WideResNet)/BottleneckResNetBlock_15/BatchNorm_1/mul" source_file="/home/cyxue/miniconda3/envs/alpa/lib/python3.8/site-packages/flax/linen/normalization.py" source_line=144}
  %broadcast.199 = f32[16,7,7,3584]{2,1,3,0} broadcast(f32[3584]{0} %multiply.153), dimensions={3}, metadata={op_name="parallelize(train_step_func_pipeshard_parallel_mesh_1)/jit(main)/jit(1)/jit(17)/jvp(WideResNet)/BottleneckResNetBlock_15/BatchNorm_1/mul" source_file="/home/cyxue/miniconda3/envs/alpa/lib/python3.8/site-packages/flax/linen/normalization.py" source_line=146}
  %multiply.152 = f32[16,7,7,3584]{2,1,3,0} multiply(f32[16,7,7,3584]{2,1,3,0} %subtract.5, f32[16,7,7,3584]{2,1,3,0} %broadcast.199), metadata={op_name="parallelize(train_step_func_pipeshard_parallel_mesh_1)/jit(main)/jit(1)/jit(17)/jvp(WideResNet)/BottleneckResNetBlock_15/BatchNorm_1/mul" source_file="/home/cyxue/miniconda3/envs/alpa/lib/python3.8/site-packages/flax/linen/normalization.py" source_line=146}
  %param_0.33 = f32[3584]{0} parameter(0)
  %broadcast.198 = f32[16,7,7,3584]{2,1,3,0} broadcast(f32[3584]{0} %param_0.33), dimensions={3}, metadata={op_name="parallelize(train_step_func_pipeshard_parallel_mesh_1)/jit(main)/jit(1)/jit(17)/jvp(WideResNet)/BottleneckResNetBlock_15/BatchNorm_1/add" source_file="/home/cyxue/miniconda3/envs/alpa/lib/python3.8/site-packages/flax/linen/normalization.py" source_line=150}
  %add.39 = f32[16,7,7,3584]{2,1,3,0} add(f32[16,7,7,3584]{2,1,3,0} %multiply.152, f32[16,7,7,3584]{2,1,3,0} %broadcast.198), metadata={op_name="parallelize(train_step_func_pipeshard_parallel_mesh_1)/jit(main)/jit(1)/jit(17)/jvp(WideResNet)/BottleneckResNetBlock_15/BatchNorm_1/add" source_file="/home/cyxue/miniconda3/envs/alpa/lib/python3.8/site-packages/flax/linen/normalization.py" source_line=150}
  %constant_116 = f32[] constant(0)
  %broadcast.201 = f32[16,7,7,3584]{2,1,3,0} broadcast(f32[] %constant_116), dimensions={}, metadata={op_name="parallelize(train_step_func_pipeshard_parallel_mesh_1)/jit(main)/jit(1)/jit(15)/jvp(WideResNet)/BottleneckResNetBlock_13/max" source_file="/home/cyxue/Projects/crius/Crius/runtime/crius_worker/jax/model/wide_resnet.py" source_line=88}
  ROOT %maximum.3 = f32[16,7,7,3584]{2,1,3,0} maximum(f32[16,7,7,3584]{2,1,3,0} %add.39, f32[16,7,7,3584]{2,1,3,0} %broadcast.201), metadata={op_name="parallelize(train_step_func_pipeshard_parallel_mesh_1)/jit(main)/jit(1)/jit(17)/jvp(WideResNet)/BottleneckResNetBlock_15/max" source_file="/home/cyxue/Projects/crius/Crius/runtime/crius_worker/jax/model/wide_resnet.py" source_line=88}
}

%fused_computation.20 (param_0.34: f32[3584], param_1.636: f32[3584], param_2.556: f32[3584], param_3.527: f32[16,3584], param_4.381: f32[3584], param_5.200: f32[3584]) -> (f32[3584], f32[3584], f32[3584]) {
  %param_0.34 = f32[3584]{0} parameter(0)
  %param_1.636 = f32[3584]{0} parameter(1)
  %constant_118 = f32[] constant(0.9)
  %broadcast.204 = f32[3584]{0} broadcast(f32[] %constant_118), dimensions={}, metadata={op_name="parallelize(train_step_func_pipeshard_parallel_mesh_1)/jit(main)/jit(1)/jit(10)/jvp(WideResNet)/BottleneckResNetBlock_8/BatchNorm_2/mul" source_file="/home/cyxue/miniconda3/envs/alpa/lib/python3.8/site-packages/flax/linen/normalization.py" source_line=265}
  %multiply.155 = f32[3584]{0} multiply(f32[3584]{0} %param_1.636, f32[3584]{0} %broadcast.204), metadata={op_name="parallelize(train_step_func_pipeshard_parallel_mesh_1)/jit(main)/jit(1)/jit(17)/jvp(WideResNet)/BottleneckResNetBlock_15/BatchNorm_1/mul" source_file="/home/cyxue/miniconda3/envs/alpa/lib/python3.8/site-packages/flax/linen/normalization.py" source_line=267}
  %param_3.527 = f32[16,3584]{1,0} parameter(3)
  %constant_120_clone_1 = f32[] constant(0)
  %reduce.270.clone.1 = f32[3584]{0} reduce(f32[16,3584]{1,0} %param_3.527, f32[] %constant_120_clone_1), dimensions={0}, to_apply=%region_0.1142.1, metadata={op_name="parallelize(train_step_func_pipeshard_parallel_mesh_1)/jit(main)/jit(1)/jit(17)/jvp(WideResNet)/BottleneckResNetBlock_15/BatchNorm_1/reduce_sum[axes=(0, 1, 2)]" source_file="/home/cyxue/miniconda3/envs/alpa/lib/python3.8/site-packages/flax/linen/normalization.py" source_line=83}
  %constant_711_clone_1 = f32[] constant(0.00127551018)
  %broadcast.205.clone.1 = f32[3584]{0} broadcast(f32[] %constant_711_clone_1), dimensions={}, metadata={op_name="parallelize(train_step_func_pipeshard_parallel_mesh_1)/jit(main)/jit(1)/jit(15)/jvp(WideResNet)/BottleneckResNetBlock_13/BatchNorm_1/div" source_file="/home/cyxue/miniconda3/envs/alpa/lib/python3.8/site-packages/flax/linen/normalization.py" source_line=82}
  %multiply.157.clone.1 = f32[3584]{0} multiply(f32[3584]{0} %reduce.270.clone.1, f32[3584]{0} %broadcast.205.clone.1), metadata={op_name="parallelize(train_step_func_pipeshard_parallel_mesh_1)/jit(main)/jit(1)/jit(17)/jvp(WideResNet)/BottleneckResNetBlock_15/BatchNorm_1/div" source_file="/home/cyxue/miniconda3/envs/alpa/lib/python3.8/site-packages/flax/linen/normalization.py" source_line=83}
  %param_2.556 = f32[3584]{0} parameter(2)
  %multiply.523.clone.1 = f32[3584]{0} multiply(f32[3584]{0} %param_2.556, f32[3584]{0} %broadcast.205.clone.1), metadata={op_name="parallelize(train_step_func_pipeshard_parallel_mesh_1)/jit(main)/jit(1)/jit(17)/jvp(WideResNet)/BottleneckResNetBlock_15/BatchNorm_1/div" source_file="/home/cyxue/miniconda3/envs/alpa/lib/python3.8/site-packages/flax/linen/normalization.py" source_line=82}
  %multiply.156.clone.1 = f32[3584]{0} multiply(f32[3584]{0} %multiply.523.clone.1, f32[3584]{0} %multiply.523.clone.1), metadata={op_name="parallelize(train_step_func_pipeshard_parallel_mesh_1)/jit(main)/jit(1)/jit(17)/jvp(WideResNet)/BottleneckResNetBlock_15/BatchNorm_1/mul" source_file="/home/cyxue/miniconda3/envs/alpa/lib/python3.8/site-packages/flax/linen/normalization.py" source_line=46}
  %subtract.6.clone.1 = f32[3584]{0} subtract(f32[3584]{0} %multiply.157.clone.1, f32[3584]{0} %multiply.156.clone.1), metadata={op_name="parallelize(train_step_func_pipeshard_parallel_mesh_1)/jit(main)/jit(1)/jit(17)/jvp(WideResNet)/BottleneckResNetBlock_15/BatchNorm_1/sub" source_file="/home/cyxue/miniconda3/envs/alpa/lib/python3.8/site-packages/flax/linen/normalization.py" source_line=93}
  %broadcast.206.clone.1 = f32[3584]{0} broadcast(f32[] %constant_120_clone_1), dimensions={}, metadata={op_name="parallelize(train_step_func_pipeshard_parallel_mesh_1)/jit(main)/jit(1)/jit(10)/jvp(WideResNet)/BottleneckResNetBlock_8/BatchNorm_2/max" source_file="/home/cyxue/miniconda3/envs/alpa/lib/python3.8/site-packages/flax/linen/normalization.py" source_line=93}
  %maximum.4.clone.1 = f32[3584]{0} maximum(f32[3584]{0} %subtract.6.clone.1, f32[3584]{0} %broadcast.206.clone.1), metadata={op_name="parallelize(train_step_func_pipeshard_parallel_mesh_1)/jit(main)/jit(1)/jit(17)/jvp(WideResNet)/BottleneckResNetBlock_15/BatchNorm_1/max" source_file="/home/cyxue/miniconda3/envs/alpa/lib/python3.8/site-packages/flax/linen/normalization.py" source_line=93}
  %constant_117 = f32[] constant(0.1)
  %broadcast.203 = f32[3584]{0} broadcast(f32[] %constant_117), dimensions={}, metadata={op_name="parallelize(train_step_func_pipeshard_parallel_mesh_1)/jit(main)/jit(1)/jit(10)/jvp(WideResNet)/BottleneckResNetBlock_8/BatchNorm_2/mul" source_file="/home/cyxue/miniconda3/envs/alpa/lib/python3.8/site-packages/flax/linen/normalization.py" source_line=265}
  %multiply.154 = f32[3584]{0} multiply(f32[3584]{0} %maximum.4.clone.1, f32[3584]{0} %broadcast.203), metadata={op_name="parallelize(train_step_func_pipeshard_parallel_mesh_1)/jit(main)/jit(1)/jit(17)/jvp(WideResNet)/BottleneckResNetBlock_15/BatchNorm_1/mul" source_file="/home/cyxue/miniconda3/envs/alpa/lib/python3.8/site-packages/flax/linen/normalization.py" source_line=267}
  %add.42 = f32[3584]{0} add(f32[3584]{0} %multiply.155, f32[3584]{0} %multiply.154), metadata={op_name="parallelize(train_step_func_pipeshard_parallel_mesh_1)/jit(main)/jit(1)/jit(17)/jvp(WideResNet)/BottleneckResNetBlock_15/BatchNorm_1/add" source_file="/home/cyxue/miniconda3/envs/alpa/lib/python3.8/site-packages/flax/linen/normalization.py" source_line=267}
  %add.41 = f32[3584]{0} add(f32[3584]{0} %param_0.34, f32[3584]{0} %add.42), metadata={op_name="parallelize(train_step_func_pipeshard_parallel_mesh_1)/jit(main)/jit(1)/jit(17)/add"}
  %param_4.381 = f32[3584]{0} parameter(4)
  %param_5.200 = f32[3584]{0} parameter(5)
  %multiply.161.clone.1 = f32[3584]{0} multiply(f32[3584]{0} %param_5.200, f32[3584]{0} %broadcast.204), metadata={op_name="parallelize(train_step_func_pipeshard_parallel_mesh_1)/jit(main)/jit(1)/jit(17)/jvp(WideResNet)/BottleneckResNetBlock_15/BatchNorm_1/mul" source_file="/home/cyxue/miniconda3/envs/alpa/lib/python3.8/site-packages/flax/linen/normalization.py" source_line=265}
  %constant_123_clone_1 = f32[] constant(0.000127551015)
  %broadcast.208.clone.1 = f32[3584]{0} broadcast(f32[] %constant_123_clone_1), dimensions={}, metadata={op_name="parallelize(train_step_func_pipeshard_parallel_mesh_1)/jit(main)/jit(1)/jit(15)/jvp(WideResNet)/BottleneckResNetBlock_13/BatchNorm_1/mul" source_file="/home/cyxue/miniconda3/envs/alpa/lib/python3.8/site-packages/flax/linen/normalization.py" source_line=265}
  %multiply.160.clone.1 = f32[3584]{0} multiply(f32[3584]{0} %param_2.556, f32[3584]{0} %broadcast.208.clone.1), metadata={op_name="parallelize(train_step_func_pipeshard_parallel_mesh_1)/jit(main)/jit(1)/jit(17)/jvp(WideResNet)/BottleneckResNetBlock_15/BatchNorm_1/mul" source_file="/home/cyxue/miniconda3/envs/alpa/lib/python3.8/site-packages/flax/linen/normalization.py" source_line=265}
  %add.44.clone.1 = f32[3584]{0} add(f32[3584]{0} %multiply.161.clone.1, f32[3584]{0} %multiply.160.clone.1), metadata={op_name="parallelize(train_step_func_pipeshard_parallel_mesh_1)/jit(main)/jit(1)/jit(17)/jvp(WideResNet)/BottleneckResNetBlock_15/BatchNorm_1/add" source_file="/home/cyxue/miniconda3/envs/alpa/lib/python3.8/site-packages/flax/linen/normalization.py" source_line=265}
  %add.43.clone.1 = f32[3584]{0} add(f32[3584]{0} %param_4.381, f32[3584]{0} %add.44.clone.1), metadata={op_name="parallelize(train_step_func_pipeshard_parallel_mesh_1)/jit(main)/jit(1)/jit(17)/add"}
  ROOT %tuple.6 = (f32[3584]{0}, f32[3584]{0}, f32[3584]{0}) tuple(f32[3584]{0} %add.41, f32[3584]{0} %maximum.4.clone.1, f32[3584]{0} %add.43.clone.1)
}

%fused_computation.26 (param_0.46: f32[1792], param_1.78: f32[1792], param_2.55: f32[1792], param_3.57: f32[16,7,7,1792], param_4.367: f32[1792]) -> f32[16,7,7,1792] {
  %param_3.57 = f32[16,7,7,1792]{2,1,3,0} parameter(3)
  %param_4.367 = f32[1792]{0} parameter(4)
  %constant_702 = f32[] constant(0.00127551018)
  %broadcast.630 = f32[1792]{0} broadcast(f32[] %constant_702), dimensions={}, metadata={op_name="parallelize(train_step_func_pipeshard_parallel_mesh_1)/jit(main)/jit(1)/jit(16)/jvp(WideResNet)/BottleneckResNetBlock_14/BatchNorm_0/div" source_file="/home/cyxue/miniconda3/envs/alpa/lib/python3.8/site-packages/flax/linen/normalization.py" source_line=82}
  %multiply.517 = f32[1792]{0} multiply(f32[1792]{0} %param_4.367, f32[1792]{0} %broadcast.630), metadata={op_name="parallelize(train_step_func_pipeshard_parallel_mesh_1)/jit(main)/jit(1)/jit(17)/jvp(WideResNet)/BottleneckResNetBlock_15/BatchNorm_0/div" source_file="/home/cyxue/miniconda3/envs/alpa/lib/python3.8/site-packages/flax/linen/normalization.py" source_line=82}
  %broadcast.212 = f32[16,7,7,1792]{2,1,3,0} broadcast(f32[1792]{0} %multiply.517), dimensions={3}, metadata={op_name="parallelize(train_step_func_pipeshard_parallel_mesh_1)/jit(main)/jit(1)/jit(17)/jvp(WideResNet)/BottleneckResNetBlock_15/BatchNorm_0/sub" source_file="/home/cyxue/miniconda3/envs/alpa/lib/python3.8/site-packages/flax/linen/normalization.py" source_line=138}
  %subtract.7 = f32[16,7,7,1792]{2,1,3,0} subtract(f32[16,7,7,1792]{2,1,3,0} %param_3.57, f32[16,7,7,1792]{2,1,3,0} %broadcast.212), metadata={op_name="parallelize(train_step_func_pipeshard_parallel_mesh_1)/jit(main)/jit(1)/jit(17)/jvp(WideResNet)/BottleneckResNetBlock_15/BatchNorm_0/sub" source_file="/home/cyxue/miniconda3/envs/alpa/lib/python3.8/site-packages/flax/linen/normalization.py" source_line=138}
  %param_2.55 = f32[1792]{0} parameter(2)
  %constant_126 = f32[] constant(1e-05)
  %broadcast.214 = f32[1792]{0} broadcast(f32[] %constant_126), dimensions={}, metadata={op_name="parallelize(train_step_func_pipeshard_parallel_mesh_1)/jit(main)/jit(1)/jit(10)/jvp(WideResNet)/BottleneckResNetBlock_8/BatchNorm_1/add" source_file="/home/cyxue/miniconda3/envs/alpa/lib/python3.8/site-packages/flax/linen/normalization.py" source_line=139}
  %add.46 = f32[1792]{0} add(f32[1792]{0} %param_2.55, f32[1792]{0} %broadcast.214), metadata={op_name="parallelize(train_step_func_pipeshard_parallel_mesh_1)/jit(main)/jit(1)/jit(17)/jvp(WideResNet)/BottleneckResNetBlock_15/BatchNorm_0/add" source_file="/home/cyxue/miniconda3/envs/alpa/lib/python3.8/site-packages/flax/linen/normalization.py" source_line=139}
  %rsqrt.27 = f32[1792]{0} rsqrt(f32[1792]{0} %add.46), metadata={op_name="parallelize(train_step_func_pipeshard_parallel_mesh_1)/jit(main)/jit(1)/jit(17)/jvp(WideResNet)/BottleneckResNetBlock_15/BatchNorm_0/rsqrt" source_file="/home/cyxue/miniconda3/envs/alpa/lib/python3.8/site-packages/flax/linen/normalization.py" source_line=139}
  %param_1.78 = f32[1792]{0} parameter(1)
  %multiply.163 = f32[1792]{0} multiply(f32[1792]{0} %rsqrt.27, f32[1792]{0} %param_1.78), metadata={op_name="parallelize(train_step_func_pipeshard_parallel_mesh_1)/jit(main)/jit(1)/jit(17)/jvp(WideResNet)/BottleneckResNetBlock_15/BatchNorm_0/mul" source_file="/home/cyxue/miniconda3/envs/alpa/lib/python3.8/site-packages/flax/linen/normalization.py" source_line=144}
  %broadcast.211 = f32[16,7,7,1792]{2,1,3,0} broadcast(f32[1792]{0} %multiply.163), dimensions={3}, metadata={op_name="parallelize(train_step_func_pipeshard_parallel_mesh_1)/jit(main)/jit(1)/jit(17)/jvp(WideResNet)/BottleneckResNetBlock_15/BatchNorm_0/mul" source_file="/home/cyxue/miniconda3/envs/alpa/lib/python3.8/site-packages/flax/linen/normalization.py" source_line=146}
  %multiply.162 = f32[16,7,7,1792]{2,1,3,0} multiply(f32[16,7,7,1792]{2,1,3,0} %subtract.7, f32[16,7,7,1792]{2,1,3,0} %broadcast.211), metadata={op_name="parallelize(train_step_func_pipeshard_parallel_mesh_1)/jit(main)/jit(1)/jit(17)/jvp(WideResNet)/BottleneckResNetBlock_15/BatchNorm_0/mul" source_file="/home/cyxue/miniconda3/envs/alpa/lib/python3.8/site-packages/flax/linen/normalization.py" source_line=146}
  %param_0.46 = f32[1792]{0} parameter(0)
  %broadcast.210 = f32[16,7,7,1792]{2,1,3,0} broadcast(f32[1792]{0} %param_0.46), dimensions={3}, metadata={op_name="parallelize(train_step_func_pipeshard_parallel_mesh_1)/jit(main)/jit(1)/jit(17)/jvp(WideResNet)/BottleneckResNetBlock_15/BatchNorm_0/add" source_file="/home/cyxue/miniconda3/envs/alpa/lib/python3.8/site-packages/flax/linen/normalization.py" source_line=150}
  %add.45 = f32[16,7,7,1792]{2,1,3,0} add(f32[16,7,7,1792]{2,1,3,0} %multiply.162, f32[16,7,7,1792]{2,1,3,0} %broadcast.210), metadata={op_name="parallelize(train_step_func_pipeshard_parallel_mesh_1)/jit(main)/jit(1)/jit(17)/jvp(WideResNet)/BottleneckResNetBlock_15/BatchNorm_0/add" source_file="/home/cyxue/miniconda3/envs/alpa/lib/python3.8/site-packages/flax/linen/normalization.py" source_line=150}
  %constant_127 = f32[] constant(0)
  %broadcast.213 = f32[16,7,7,1792]{2,1,3,0} broadcast(f32[] %constant_127), dimensions={}, metadata={op_name="parallelize(train_step_func_pipeshard_parallel_mesh_1)/jit(main)/jit(1)/jit(16)/jvp(WideResNet)/BottleneckResNetBlock_14/max" source_file="/home/cyxue/Projects/crius/Crius/runtime/crius_worker/jax/model/wide_resnet.py" source_line=85}
  ROOT %maximum.5 = f32[16,7,7,1792]{2,1,3,0} maximum(f32[16,7,7,1792]{2,1,3,0} %add.45, f32[16,7,7,1792]{2,1,3,0} %broadcast.213), metadata={op_name="parallelize(train_step_func_pipeshard_parallel_mesh_1)/jit(main)/jit(1)/jit(17)/jvp(WideResNet)/BottleneckResNetBlock_15/max" source_file="/home/cyxue/Projects/crius/Crius/runtime/crius_worker/jax/model/wide_resnet.py" source_line=85}
}

%fused_computation.27 (param_0.47: f32[1792], param_1.639: f32[1792], param_2.560: f32[1792], param_3.532: f32[16,1792], param_4.387: f32[1792], param_5.207: f32[1792]) -> (f32[1792], f32[1792], f32[1792]) {
  %param_0.47 = f32[1792]{0} parameter(0)
  %param_1.639 = f32[1792]{0} parameter(1)
  %constant_129 = f32[] constant(0.9)
  %broadcast.216 = f32[1792]{0} broadcast(f32[] %constant_129), dimensions={}, metadata={op_name="parallelize(train_step_func_pipeshard_parallel_mesh_1)/jit(main)/jit(1)/jit(10)/jvp(WideResNet)/BottleneckResNetBlock_8/BatchNorm_1/mul" source_file="/home/cyxue/miniconda3/envs/alpa/lib/python3.8/site-packages/flax/linen/normalization.py" source_line=265}
  %multiply.165 = f32[1792]{0} multiply(f32[1792]{0} %param_1.639, f32[1792]{0} %broadcast.216), metadata={op_name="parallelize(train_step_func_pipeshard_parallel_mesh_1)/jit(main)/jit(1)/jit(17)/jvp(WideResNet)/BottleneckResNetBlock_15/BatchNorm_0/mul" source_file="/home/cyxue/miniconda3/envs/alpa/lib/python3.8/site-packages/flax/linen/normalization.py" source_line=267}
  %param_3.532 = f32[16,1792]{1,0} parameter(3)
  %constant_131_clone_1 = f32[] constant(0)
  %reduce.273.clone.1 = f32[1792]{0} reduce(f32[16,1792]{1,0} %param_3.532, f32[] %constant_131_clone_1), dimensions={0}, to_apply=%region_0.1142.1, metadata={op_name="parallelize(train_step_func_pipeshard_parallel_mesh_1)/jit(main)/jit(1)/jit(17)/jvp(WideResNet)/BottleneckResNetBlock_15/BatchNorm_0/reduce_sum[axes=(0, 1, 2)]" source_file="/home/cyxue/miniconda3/envs/alpa/lib/python3.8/site-packages/flax/linen/normalization.py" source_line=83}
  %constant_705_clone_1 = f32[] constant(0.00127551018)
  %broadcast.217.clone.1 = f32[1792]{0} broadcast(f32[] %constant_705_clone_1), dimensions={}, metadata={op_name="parallelize(train_step_func_pipeshard_parallel_mesh_1)/jit(main)/jit(1)/jit(16)/jvp(WideResNet)/BottleneckResNetBlock_14/BatchNorm_0/div" source_file="/home/cyxue/miniconda3/envs/alpa/lib/python3.8/site-packages/flax/linen/normalization.py" source_line=82}
  %multiply.167.clone.1 = f32[1792]{0} multiply(f32[1792]{0} %reduce.273.clone.1, f32[1792]{0} %broadcast.217.clone.1), metadata={op_name="parallelize(train_step_func_pipeshard_parallel_mesh_1)/jit(main)/jit(1)/jit(17)/jvp(WideResNet)/BottleneckResNetBlock_15/BatchNorm_0/div" source_file="/home/cyxue/miniconda3/envs/alpa/lib/python3.8/site-packages/flax/linen/normalization.py" source_line=83}
  %param_2.560 = f32[1792]{0} parameter(2)
  %multiply.519.clone.1 = f32[1792]{0} multiply(f32[1792]{0} %param_2.560, f32[1792]{0} %broadcast.217.clone.1), metadata={op_name="parallelize(train_step_func_pipeshard_parallel_mesh_1)/jit(main)/jit(1)/jit(17)/jvp(WideResNet)/BottleneckResNetBlock_15/BatchNorm_0/div" source_file="/home/cyxue/miniconda3/envs/alpa/lib/python3.8/site-packages/flax/linen/normalization.py" source_line=82}
  %multiply.166.clone.1 = f32[1792]{0} multiply(f32[1792]{0} %multiply.519.clone.1, f32[1792]{0} %multiply.519.clone.1), metadata={op_name="parallelize(train_step_func_pipeshard_parallel_mesh_1)/jit(main)/jit(1)/jit(17)/jvp(WideResNet)/BottleneckResNetBlock_15/BatchNorm_0/mul" source_file="/home/cyxue/miniconda3/envs/alpa/lib/python3.8/site-packages/flax/linen/normalization.py" source_line=46}
  %subtract.8.clone.1 = f32[1792]{0} subtract(f32[1792]{0} %multiply.167.clone.1, f32[1792]{0} %multiply.166.clone.1), metadata={op_name="parallelize(train_step_func_pipeshard_parallel_mesh_1)/jit(main)/jit(1)/jit(17)/jvp(WideResNet)/BottleneckResNetBlock_15/BatchNorm_0/sub" source_file="/home/cyxue/miniconda3/envs/alpa/lib/python3.8/site-packages/flax/linen/normalization.py" source_line=93}
  %broadcast.218.clone.1 = f32[1792]{0} broadcast(f32[] %constant_131_clone_1), dimensions={}, metadata={op_name="parallelize(train_step_func_pipeshard_parallel_mesh_1)/jit(main)/jit(1)/jit(10)/jvp(WideResNet)/BottleneckResNetBlock_8/BatchNorm_1/max" source_file="/home/cyxue/miniconda3/envs/alpa/lib/python3.8/site-packages/flax/linen/normalization.py" source_line=93}
  %maximum.6.clone.1 = f32[1792]{0} maximum(f32[1792]{0} %subtract.8.clone.1, f32[1792]{0} %broadcast.218.clone.1), metadata={op_name="parallelize(train_step_func_pipeshard_parallel_mesh_1)/jit(main)/jit(1)/jit(17)/jvp(WideResNet)/BottleneckResNetBlock_15/BatchNorm_0/max" source_file="/home/cyxue/miniconda3/envs/alpa/lib/python3.8/site-packages/flax/linen/normalization.py" source_line=93}
  %constant_128 = f32[] constant(0.1)
  %broadcast.215 = f32[1792]{0} broadcast(f32[] %constant_128), dimensions={}, metadata={op_name="parallelize(train_step_func_pipeshard_parallel_mesh_1)/jit(main)/jit(1)/jit(10)/jvp(WideResNet)/BottleneckResNetBlock_8/BatchNorm_1/mul" source_file="/home/cyxue/miniconda3/envs/alpa/lib/python3.8/site-packages/flax/linen/normalization.py" source_line=265}
  %multiply.164 = f32[1792]{0} multiply(f32[1792]{0} %maximum.6.clone.1, f32[1792]{0} %broadcast.215), metadata={op_name="parallelize(train_step_func_pipeshard_parallel_mesh_1)/jit(main)/jit(1)/jit(17)/jvp(WideResNet)/BottleneckResNetBlock_15/BatchNorm_0/mul" source_file="/home/cyxue/miniconda3/envs/alpa/lib/python3.8/site-packages/flax/linen/normalization.py" source_line=267}
  %add.48 = f32[1792]{0} add(f32[1792]{0} %multiply.165, f32[1792]{0} %multiply.164), metadata={op_name="parallelize(train_step_func_pipeshard_parallel_mesh_1)/jit(main)/jit(1)/jit(17)/jvp(WideResNet)/BottleneckResNetBlock_15/BatchNorm_0/add" source_file="/home/cyxue/miniconda3/envs/alpa/lib/python3.8/site-packages/flax/linen/normalization.py" source_line=267}
  %add.47 = f32[1792]{0} add(f32[1792]{0} %param_0.47, f32[1792]{0} %add.48), metadata={op_name="parallelize(train_step_func_pipeshard_parallel_mesh_1)/jit(main)/jit(1)/jit(17)/add"}
  %param_4.387 = f32[1792]{0} parameter(4)
  %param_5.207 = f32[1792]{0} parameter(5)
  %multiply.171.clone.1 = f32[1792]{0} multiply(f32[1792]{0} %param_5.207, f32[1792]{0} %broadcast.216), metadata={op_name="parallelize(train_step_func_pipeshard_parallel_mesh_1)/jit(main)/jit(1)/jit(17)/jvp(WideResNet)/BottleneckResNetBlock_15/BatchNorm_0/mul" source_file="/home/cyxue/miniconda3/envs/alpa/lib/python3.8/site-packages/flax/linen/normalization.py" source_line=265}
  %constant_134_clone_1 = f32[] constant(0.000127551015)
  %broadcast.220.clone.1 = f32[1792]{0} broadcast(f32[] %constant_134_clone_1), dimensions={}, metadata={op_name="parallelize(train_step_func_pipeshard_parallel_mesh_1)/jit(main)/jit(1)/jit(16)/jvp(WideResNet)/BottleneckResNetBlock_14/BatchNorm_0/mul" source_file="/home/cyxue/miniconda3/envs/alpa/lib/python3.8/site-packages/flax/linen/normalization.py" source_line=265}
  %multiply.170.clone.1 = f32[1792]{0} multiply(f32[1792]{0} %param_2.560, f32[1792]{0} %broadcast.220.clone.1), metadata={op_name="parallelize(train_step_func_pipeshard_parallel_mesh_1)/jit(main)/jit(1)/jit(17)/jvp(WideResNet)/BottleneckResNetBlock_15/BatchNorm_0/mul" source_file="/home/cyxue/miniconda3/envs/alpa/lib/python3.8/site-packages/flax/linen/normalization.py" source_line=265}
  %add.50.clone.1 = f32[1792]{0} add(f32[1792]{0} %multiply.171.clone.1, f32[1792]{0} %multiply.170.clone.1), metadata={op_name="parallelize(train_step_func_pipeshard_parallel_mesh_1)/jit(main)/jit(1)/jit(17)/jvp(WideResNet)/BottleneckResNetBlock_15/BatchNorm_0/add" source_file="/home/cyxue/miniconda3/envs/alpa/lib/python3.8/site-packages/flax/linen/normalization.py" source_line=265}
  %add.49.clone.1 = f32[1792]{0} add(f32[1792]{0} %param_4.387, f32[1792]{0} %add.50.clone.1), metadata={op_name="parallelize(train_step_func_pipeshard_parallel_mesh_1)/jit(main)/jit(1)/jit(17)/add"}
  ROOT %tuple.9 = (f32[1792]{0}, f32[1792]{0}, f32[1792]{0}) tuple(f32[1792]{0} %add.47, f32[1792]{0} %maximum.6.clone.1, f32[1792]{0} %add.49.clone.1)
}

%fused_computation.34 (param_0.60: f32[7168], param_1.647: f32[7168], param_2.568: f32[7168], param_3.542: f32[16,7168], param_4.397: f32[7168], param_5.219: f32[7168]) -> (f32[7168], f32[7168], f32[7168]) {
  %param_0.60 = f32[7168]{0} parameter(0)
  %param_1.647 = f32[7168]{0} parameter(1)
  %constant_140 = f32[] constant(0.9)
  %broadcast.228 = f32[7168]{0} broadcast(f32[] %constant_140), dimensions={}, metadata={op_name="parallelize(train_step_func_pipeshard_parallel_mesh_1)/jit(main)/jit(1)/jit(15)/jvp(WideResNet)/BottleneckResNetBlock_13/BatchNorm_2/mul" source_file="/home/cyxue/miniconda3/envs/alpa/lib/python3.8/site-packages/flax/linen/normalization.py" source_line=265}
  %multiply.175 = f32[7168]{0} multiply(f32[7168]{0} %param_1.647, f32[7168]{0} %broadcast.228), metadata={op_name="parallelize(train_step_func_pipeshard_parallel_mesh_1)/jit(main)/jit(1)/jit(16)/jvp(WideResNet)/BottleneckResNetBlock_14/BatchNorm_2/mul" source_file="/home/cyxue/miniconda3/envs/alpa/lib/python3.8/site-packages/flax/linen/normalization.py" source_line=267}
  %param_3.542 = f32[16,7168]{1,0} parameter(3)
  %constant_142_clone_1 = f32[] constant(0)
  %reduce.276.clone.1 = f32[7168]{0} reduce(f32[16,7168]{1,0} %param_3.542, f32[] %constant_142_clone_1), dimensions={0}, to_apply=%region_0.1142.1, metadata={op_name="parallelize(train_step_func_pipeshard_parallel_mesh_1)/jit(main)/jit(1)/jit(16)/jvp(WideResNet)/BottleneckResNetBlock_14/BatchNorm_2/reduce_sum[axes=(0, 1, 2)]" source_file="/home/cyxue/miniconda3/envs/alpa/lib/python3.8/site-packages/flax/linen/normalization.py" source_line=83}
  %constant_699_clone_1 = f32[] constant(0.00127551018)
  %broadcast.230.clone.1 = f32[7168]{0} broadcast(f32[] %constant_699_clone_1), dimensions={}, metadata={op_name="parallelize(train_step_func_pipeshard_parallel_mesh_1)/jit(main)/jit(1)/jit(15)/jvp(WideResNet)/BottleneckResNetBlock_13/BatchNorm_2/div" source_file="/home/cyxue/miniconda3/envs/alpa/lib/python3.8/site-packages/flax/linen/normalization.py" source_line=82}
  %multiply.177.clone.1 = f32[7168]{0} multiply(f32[7168]{0} %reduce.276.clone.1, f32[7168]{0} %broadcast.230.clone.1), metadata={op_name="parallelize(train_step_func_pipeshard_parallel_mesh_1)/jit(main)/jit(1)/jit(16)/jvp(WideResNet)/BottleneckResNetBlock_14/BatchNorm_2/div" source_file="/home/cyxue/miniconda3/envs/alpa/lib/python3.8/site-packages/flax/linen/normalization.py" source_line=83}
  %param_2.568 = f32[7168]{0} parameter(2)
  %multiply.515.clone.1 = f32[7168]{0} multiply(f32[7168]{0} %param_2.568, f32[7168]{0} %broadcast.230.clone.1), metadata={op_name="parallelize(train_step_func_pipeshard_parallel_mesh_1)/jit(main)/jit(1)/jit(16)/jvp(WideResNet)/BottleneckResNetBlock_14/BatchNorm_2/div" source_file="/home/cyxue/miniconda3/envs/alpa/lib/python3.8/site-packages/flax/linen/normalization.py" source_line=82}
  %multiply.176.clone.1 = f32[7168]{0} multiply(f32[7168]{0} %multiply.515.clone.1, f32[7168]{0} %multiply.515.clone.1), metadata={op_name="parallelize(train_step_func_pipeshard_parallel_mesh_1)/jit(main)/jit(1)/jit(16)/jvp(WideResNet)/BottleneckResNetBlock_14/BatchNorm_2/mul" source_file="/home/cyxue/miniconda3/envs/alpa/lib/python3.8/site-packages/flax/linen/normalization.py" source_line=46}
  %subtract.10.clone.1 = f32[7168]{0} subtract(f32[7168]{0} %multiply.177.clone.1, f32[7168]{0} %multiply.176.clone.1), metadata={op_name="parallelize(train_step_func_pipeshard_parallel_mesh_1)/jit(main)/jit(1)/jit(16)/jvp(WideResNet)/BottleneckResNetBlock_14/BatchNorm_2/sub" source_file="/home/cyxue/miniconda3/envs/alpa/lib/python3.8/site-packages/flax/linen/normalization.py" source_line=93}
  %broadcast.229.clone.1 = f32[7168]{0} broadcast(f32[] %constant_142_clone_1), dimensions={}, metadata={op_name="parallelize(train_step_func_pipeshard_parallel_mesh_1)/jit(main)/jit(1)/jit(15)/jvp(WideResNet)/BottleneckResNetBlock_13/BatchNorm_2/max" source_file="/home/cyxue/miniconda3/envs/alpa/lib/python3.8/site-packages/flax/linen/normalization.py" source_line=93}
  %maximum.8.clone.1 = f32[7168]{0} maximum(f32[7168]{0} %subtract.10.clone.1, f32[7168]{0} %broadcast.229.clone.1), metadata={op_name="parallelize(train_step_func_pipeshard_parallel_mesh_1)/jit(main)/jit(1)/jit(16)/jvp(WideResNet)/BottleneckResNetBlock_14/BatchNorm_2/max" source_file="/home/cyxue/miniconda3/envs/alpa/lib/python3.8/site-packages/flax/linen/normalization.py" source_line=93}
  %constant_139 = f32[] constant(0.1)
  %broadcast.227 = f32[7168]{0} broadcast(f32[] %constant_139), dimensions={}, metadata={op_name="parallelize(train_step_func_pipeshard_parallel_mesh_1)/jit(main)/jit(1)/jit(15)/jvp(WideResNet)/BottleneckResNetBlock_13/BatchNorm_2/mul" source_file="/home/cyxue/miniconda3/envs/alpa/lib/python3.8/site-packages/flax/linen/normalization.py" source_line=265}
  %multiply.174 = f32[7168]{0} multiply(f32[7168]{0} %maximum.8.clone.1, f32[7168]{0} %broadcast.227), metadata={op_name="parallelize(train_step_func_pipeshard_parallel_mesh_1)/jit(main)/jit(1)/jit(16)/jvp(WideResNet)/BottleneckResNetBlock_14/BatchNorm_2/mul" source_file="/home/cyxue/miniconda3/envs/alpa/lib/python3.8/site-packages/flax/linen/normalization.py" source_line=267}
  %add.55 = f32[7168]{0} add(f32[7168]{0} %multiply.175, f32[7168]{0} %multiply.174), metadata={op_name="parallelize(train_step_func_pipeshard_parallel_mesh_1)/jit(main)/jit(1)/jit(16)/jvp(WideResNet)/BottleneckResNetBlock_14/BatchNorm_2/add" source_file="/home/cyxue/miniconda3/envs/alpa/lib/python3.8/site-packages/flax/linen/normalization.py" source_line=267}
  %add.54 = f32[7168]{0} add(f32[7168]{0} %param_0.60, f32[7168]{0} %add.55), metadata={op_name="parallelize(train_step_func_pipeshard_parallel_mesh_1)/jit(main)/jit(1)/jit(16)/add"}
  %param_4.397 = f32[7168]{0} parameter(4)
  %param_5.219 = f32[7168]{0} parameter(5)
  %multiply.181.clone.1 = f32[7168]{0} multiply(f32[7168]{0} %param_5.219, f32[7168]{0} %broadcast.228), metadata={op_name="parallelize(train_step_func_pipeshard_parallel_mesh_1)/jit(main)/jit(1)/jit(16)/jvp(WideResNet)/BottleneckResNetBlock_14/BatchNorm_2/mul" source_file="/home/cyxue/miniconda3/envs/alpa/lib/python3.8/site-packages/flax/linen/normalization.py" source_line=265}
  %constant_145_clone_1 = f32[] constant(0.000127551015)
  %broadcast.232.clone.1 = f32[7168]{0} broadcast(f32[] %constant_145_clone_1), dimensions={}, metadata={op_name="parallelize(train_step_func_pipeshard_parallel_mesh_1)/jit(main)/jit(1)/jit(15)/jvp(WideResNet)/BottleneckResNetBlock_13/BatchNorm_2/mul" source_file="/home/cyxue/miniconda3/envs/alpa/lib/python3.8/site-packages/flax/linen/normalization.py" source_line=265}
  %multiply.180.clone.1 = f32[7168]{0} multiply(f32[7168]{0} %param_2.568, f32[7168]{0} %broadcast.232.clone.1), metadata={op_name="parallelize(train_step_func_pipeshard_parallel_mesh_1)/jit(main)/jit(1)/jit(16)/jvp(WideResNet)/BottleneckResNetBlock_14/BatchNorm_2/mul" source_file="/home/cyxue/miniconda3/envs/alpa/lib/python3.8/site-packages/flax/linen/normalization.py" source_line=265}
  %add.57.clone.1 = f32[7168]{0} add(f32[7168]{0} %multiply.181.clone.1, f32[7168]{0} %multiply.180.clone.1), metadata={op_name="parallelize(train_step_func_pipeshard_parallel_mesh_1)/jit(main)/jit(1)/jit(16)/jvp(WideResNet)/BottleneckResNetBlock_14/BatchNorm_2/add" source_file="/home/cyxue/miniconda3/envs/alpa/lib/python3.8/site-packages/flax/linen/normalization.py" source_line=265}
  %add.56.clone.1 = f32[7168]{0} add(f32[7168]{0} %param_4.397, f32[7168]{0} %add.57.clone.1), metadata={op_name="parallelize(train_step_func_pipeshard_parallel_mesh_1)/jit(main)/jit(1)/jit(16)/add"}
  ROOT %tuple.13 = (f32[7168]{0}, f32[7168]{0}, f32[7168]{0}) tuple(f32[7168]{0} %add.54, f32[7168]{0} %maximum.8.clone.1, f32[7168]{0} %add.56.clone.1)
}

%fused_computation.40 (param_0.72: f32[3584], param_1.120: f32[3584], param_2.92: f32[3584], param_3.93: f32[16,7,7,3584], param_4.366: f32[3584]) -> f32[16,7,7,3584] {
  %param_3.93 = f32[16,7,7,3584]{2,1,3,0} parameter(3)
  %param_4.366 = f32[3584]{0} parameter(4)
  %constant_690 = f32[] constant(0.00127551018)
  %broadcast.622 = f32[3584]{0} broadcast(f32[] %constant_690), dimensions={}, metadata={op_name="parallelize(train_step_func_pipeshard_parallel_mesh_1)/jit(main)/jit(1)/jit(15)/jvp(WideResNet)/BottleneckResNetBlock_13/BatchNorm_1/div" source_file="/home/cyxue/miniconda3/envs/alpa/lib/python3.8/site-packages/flax/linen/normalization.py" source_line=82}
  %multiply.509 = f32[3584]{0} multiply(f32[3584]{0} %param_4.366, f32[3584]{0} %broadcast.622), metadata={op_name="parallelize(train_step_func_pipeshard_parallel_mesh_1)/jit(main)/jit(1)/jit(16)/jvp(WideResNet)/BottleneckResNetBlock_14/BatchNorm_1/div" source_file="/home/cyxue/miniconda3/envs/alpa/lib/python3.8/site-packages/flax/linen/normalization.py" source_line=82}
  %broadcast.236 = f32[16,7,7,3584]{2,1,3,0} broadcast(f32[3584]{0} %multiply.509), dimensions={3}, metadata={op_name="parallelize(train_step_func_pipeshard_parallel_mesh_1)/jit(main)/jit(1)/jit(16)/jvp(WideResNet)/BottleneckResNetBlock_14/BatchNorm_1/sub" source_file="/home/cyxue/miniconda3/envs/alpa/lib/python3.8/site-packages/flax/linen/normalization.py" source_line=138}
  %subtract.11 = f32[16,7,7,3584]{2,1,3,0} subtract(f32[16,7,7,3584]{2,1,3,0} %param_3.93, f32[16,7,7,3584]{2,1,3,0} %broadcast.236), metadata={op_name="parallelize(train_step_func_pipeshard_parallel_mesh_1)/jit(main)/jit(1)/jit(16)/jvp(WideResNet)/BottleneckResNetBlock_14/BatchNorm_1/sub" source_file="/home/cyxue/miniconda3/envs/alpa/lib/python3.8/site-packages/flax/linen/normalization.py" source_line=138}
  %param_2.92 = f32[3584]{0} parameter(2)
  %constant_148 = f32[] constant(1e-05)
  %broadcast.238 = f32[3584]{0} broadcast(f32[] %constant_148), dimensions={}, metadata={op_name="parallelize(train_step_func_pipeshard_parallel_mesh_1)/jit(main)/jit(1)/jit(10)/jvp(WideResNet)/BottleneckResNetBlock_8/BatchNorm_2/add" source_file="/home/cyxue/miniconda3/envs/alpa/lib/python3.8/site-packages/flax/linen/normalization.py" source_line=139}
  %add.59 = f32[3584]{0} add(f32[3584]{0} %param_2.92, f32[3584]{0} %broadcast.238), metadata={op_name="parallelize(train_step_func_pipeshard_parallel_mesh_1)/jit(main)/jit(1)/jit(16)/jvp(WideResNet)/BottleneckResNetBlock_14/BatchNorm_1/add" source_file="/home/cyxue/miniconda3/envs/alpa/lib/python3.8/site-packages/flax/linen/normalization.py" source_line=139}
  %rsqrt.29 = f32[3584]{0} rsqrt(f32[3584]{0} %add.59), metadata={op_name="parallelize(train_step_func_pipeshard_parallel_mesh_1)/jit(main)/jit(1)/jit(16)/jvp(WideResNet)/BottleneckResNetBlock_14/BatchNorm_1/rsqrt" source_file="/home/cyxue/miniconda3/envs/alpa/lib/python3.8/site-packages/flax/linen/normalization.py" source_line=139}
  %param_1.120 = f32[3584]{0} parameter(1)
  %multiply.183 = f32[3584]{0} multiply(f32[3584]{0} %rsqrt.29, f32[3584]{0} %param_1.120), metadata={op_name="parallelize(train_step_func_pipeshard_parallel_mesh_1)/jit(main)/jit(1)/jit(16)/jvp(WideResNet)/BottleneckResNetBlock_14/BatchNorm_1/mul" source_file="/home/cyxue/miniconda3/envs/alpa/lib/python3.8/site-packages/flax/linen/normalization.py" source_line=144}
  %broadcast.235 = f32[16,7,7,3584]{2,1,3,0} broadcast(f32[3584]{0} %multiply.183), dimensions={3}, metadata={op_name="parallelize(train_step_func_pipeshard_parallel_mesh_1)/jit(main)/jit(1)/jit(16)/jvp(WideResNet)/BottleneckResNetBlock_14/BatchNorm_1/mul" source_file="/home/cyxue/miniconda3/envs/alpa/lib/python3.8/site-packages/flax/linen/normalization.py" source_line=146}
  %multiply.182 = f32[16,7,7,3584]{2,1,3,0} multiply(f32[16,7,7,3584]{2,1,3,0} %subtract.11, f32[16,7,7,3584]{2,1,3,0} %broadcast.235), metadata={op_name="parallelize(train_step_func_pipeshard_parallel_mesh_1)/jit(main)/jit(1)/jit(16)/jvp(WideResNet)/BottleneckResNetBlock_14/BatchNorm_1/mul" source_file="/home/cyxue/miniconda3/envs/alpa/lib/python3.8/site-packages/flax/linen/normalization.py" source_line=146}
  %param_0.72 = f32[3584]{0} parameter(0)
  %broadcast.234 = f32[16,7,7,3584]{2,1,3,0} broadcast(f32[3584]{0} %param_0.72), dimensions={3}, metadata={op_name="parallelize(train_step_func_pipeshard_parallel_mesh_1)/jit(main)/jit(1)/jit(16)/jvp(WideResNet)/BottleneckResNetBlock_14/BatchNorm_1/add" source_file="/home/cyxue/miniconda3/envs/alpa/lib/python3.8/site-packages/flax/linen/normalization.py" source_line=150}
  %add.58 = f32[16,7,7,3584]{2,1,3,0} add(f32[16,7,7,3584]{2,1,3,0} %multiply.182, f32[16,7,7,3584]{2,1,3,0} %broadcast.234), metadata={op_name="parallelize(train_step_func_pipeshard_parallel_mesh_1)/jit(main)/jit(1)/jit(16)/jvp(WideResNet)/BottleneckResNetBlock_14/BatchNorm_1/add" source_file="/home/cyxue/miniconda3/envs/alpa/lib/python3.8/site-packages/flax/linen/normalization.py" source_line=150}
  %constant_149 = f32[] constant(0)
  %broadcast.237 = f32[16,7,7,3584]{2,1,3,0} broadcast(f32[] %constant_149), dimensions={}, metadata={op_name="parallelize(train_step_func_pipeshard_parallel_mesh_1)/jit(main)/jit(1)/jit(15)/jvp(WideResNet)/BottleneckResNetBlock_13/max" source_file="/home/cyxue/Projects/crius/Crius/runtime/crius_worker/jax/model/wide_resnet.py" source_line=88}
  ROOT %maximum.9 = f32[16,7,7,3584]{2,1,3,0} maximum(f32[16,7,7,3584]{2,1,3,0} %add.58, f32[16,7,7,3584]{2,1,3,0} %broadcast.237), metadata={op_name="parallelize(train_step_func_pipeshard_parallel_mesh_1)/jit(main)/jit(1)/jit(16)/jvp(WideResNet)/BottleneckResNetBlock_14/max" source_file="/home/cyxue/Projects/crius/Crius/runtime/crius_worker/jax/model/wide_resnet.py" source_line=88}
}

%fused_computation.41 (param_0.73: f32[3584], param_1.650: f32[3584], param_2.572: f32[3584], param_3.547: f32[16,3584], param_4.403: f32[3584], param_5.226: f32[3584]) -> (f32[3584], f32[3584], f32[3584]) {
  %param_0.73 = f32[3584]{0} parameter(0)
  %param_1.650 = f32[3584]{0} parameter(1)
  %constant_151 = f32[] constant(0.9)
  %broadcast.240 = f32[3584]{0} broadcast(f32[] %constant_151), dimensions={}, metadata={op_name="parallelize(train_step_func_pipeshard_parallel_mesh_1)/jit(main)/jit(1)/jit(10)/jvp(WideResNet)/BottleneckResNetBlock_8/BatchNorm_2/mul" source_file="/home/cyxue/miniconda3/envs/alpa/lib/python3.8/site-packages/flax/linen/normalization.py" source_line=265}
  %multiply.185 = f32[3584]{0} multiply(f32[3584]{0} %param_1.650, f32[3584]{0} %broadcast.240), metadata={op_name="parallelize(train_step_func_pipeshard_parallel_mesh_1)/jit(main)/jit(1)/jit(16)/jvp(WideResNet)/BottleneckResNetBlock_14/BatchNorm_1/mul" source_file="/home/cyxue/miniconda3/envs/alpa/lib/python3.8/site-packages/flax/linen/normalization.py" source_line=267}
  %param_3.547 = f32[16,3584]{1,0} parameter(3)
  %constant_153_clone_1 = f32[] constant(0)
  %reduce.279.clone.1 = f32[3584]{0} reduce(f32[16,3584]{1,0} %param_3.547, f32[] %constant_153_clone_1), dimensions={0}, to_apply=%region_0.1142.1, metadata={op_name="parallelize(train_step_func_pipeshard_parallel_mesh_1)/jit(main)/jit(1)/jit(16)/jvp(WideResNet)/BottleneckResNetBlock_14/BatchNorm_1/reduce_sum[axes=(0, 1, 2)]" source_file="/home/cyxue/miniconda3/envs/alpa/lib/python3.8/site-packages/flax/linen/normalization.py" source_line=83}
  %constant_693_clone_1 = f32[] constant(0.00127551018)
  %broadcast.241.clone.1 = f32[3584]{0} broadcast(f32[] %constant_693_clone_1), dimensions={}, metadata={op_name="parallelize(train_step_func_pipeshard_parallel_mesh_1)/jit(main)/jit(1)/jit(15)/jvp(WideResNet)/BottleneckResNetBlock_13/BatchNorm_1/div" source_file="/home/cyxue/miniconda3/envs/alpa/lib/python3.8/site-packages/flax/linen/normalization.py" source_line=82}
  %multiply.187.clone.1 = f32[3584]{0} multiply(f32[3584]{0} %reduce.279.clone.1, f32[3584]{0} %broadcast.241.clone.1), metadata={op_name="parallelize(train_step_func_pipeshard_parallel_mesh_1)/jit(main)/jit(1)/jit(16)/jvp(WideResNet)/BottleneckResNetBlock_14/BatchNorm_1/div" source_file="/home/cyxue/miniconda3/envs/alpa/lib/python3.8/site-packages/flax/linen/normalization.py" source_line=83}
  %param_2.572 = f32[3584]{0} parameter(2)
  %multiply.511.clone.1 = f32[3584]{0} multiply(f32[3584]{0} %param_2.572, f32[3584]{0} %broadcast.241.clone.1), metadata={op_name="parallelize(train_step_func_pipeshard_parallel_mesh_1)/jit(main)/jit(1)/jit(16)/jvp(WideResNet)/BottleneckResNetBlock_14/BatchNorm_1/div" source_file="/home/cyxue/miniconda3/envs/alpa/lib/python3.8/site-packages/flax/linen/normalization.py" source_line=82}
  %multiply.186.clone.1 = f32[3584]{0} multiply(f32[3584]{0} %multiply.511.clone.1, f32[3584]{0} %multiply.511.clone.1), metadata={op_name="parallelize(train_step_func_pipeshard_parallel_mesh_1)/jit(main)/jit(1)/jit(16)/jvp(WideResNet)/BottleneckResNetBlock_14/BatchNorm_1/mul" source_file="/home/cyxue/miniconda3/envs/alpa/lib/python3.8/site-packages/flax/linen/normalization.py" source_line=46}
  %subtract.12.clone.1 = f32[3584]{0} subtract(f32[3584]{0} %multiply.187.clone.1, f32[3584]{0} %multiply.186.clone.1), metadata={op_name="parallelize(train_step_func_pipeshard_parallel_mesh_1)/jit(main)/jit(1)/jit(16)/jvp(WideResNet)/BottleneckResNetBlock_14/BatchNorm_1/sub" source_file="/home/cyxue/miniconda3/envs/alpa/lib/python3.8/site-packages/flax/linen/normalization.py" source_line=93}
  %broadcast.242.clone.1 = f32[3584]{0} broadcast(f32[] %constant_153_clone_1), dimensions={}, metadata={op_name="parallelize(train_step_func_pipeshard_parallel_mesh_1)/jit(main)/jit(1)/jit(10)/jvp(WideResNet)/BottleneckResNetBlock_8/BatchNorm_2/max" source_file="/home/cyxue/miniconda3/envs/alpa/lib/python3.8/site-packages/flax/linen/normalization.py" source_line=93}
  %maximum.10.clone.1 = f32[3584]{0} maximum(f32[3584]{0} %subtract.12.clone.1, f32[3584]{0} %broadcast.242.clone.1), metadata={op_name="parallelize(train_step_func_pipeshard_parallel_mesh_1)/jit(main)/jit(1)/jit(16)/jvp(WideResNet)/BottleneckResNetBlock_14/BatchNorm_1/max" source_file="/home/cyxue/miniconda3/envs/alpa/lib/python3.8/site-packages/flax/linen/normalization.py" source_line=93}
  %constant_150 = f32[] constant(0.1)
  %broadcast.239 = f32[3584]{0} broadcast(f32[] %constant_150), dimensions={}, metadata={op_name="parallelize(train_step_func_pipeshard_parallel_mesh_1)/jit(main)/jit(1)/jit(10)/jvp(WideResNet)/BottleneckResNetBlock_8/BatchNorm_2/mul" source_file="/home/cyxue/miniconda3/envs/alpa/lib/python3.8/site-packages/flax/linen/normalization.py" source_line=265}
  %multiply.184 = f32[3584]{0} multiply(f32[3584]{0} %maximum.10.clone.1, f32[3584]{0} %broadcast.239), metadata={op_name="parallelize(train_step_func_pipeshard_parallel_mesh_1)/jit(main)/jit(1)/jit(16)/jvp(WideResNet)/BottleneckResNetBlock_14/BatchNorm_1/mul" source_file="/home/cyxue/miniconda3/envs/alpa/lib/python3.8/site-packages/flax/linen/normalization.py" source_line=267}
  %add.61 = f32[3584]{0} add(f32[3584]{0} %multiply.185, f32[3584]{0} %multiply.184), metadata={op_name="parallelize(train_step_func_pipeshard_parallel_mesh_1)/jit(main)/jit(1)/jit(16)/jvp(WideResNet)/BottleneckResNetBlock_14/BatchNorm_1/add" source_file="/home/cyxue/miniconda3/envs/alpa/lib/python3.8/site-packages/flax/linen/normalization.py" source_line=267}
  %add.60 = f32[3584]{0} add(f32[3584]{0} %param_0.73, f32[3584]{0} %add.61), metadata={op_name="parallelize(train_step_func_pipeshard_parallel_mesh_1)/jit(main)/jit(1)/jit(16)/add"}
  %param_4.403 = f32[3584]{0} parameter(4)
  %param_5.226 = f32[3584]{0} parameter(5)
  %multiply.191.clone.1 = f32[3584]{0} multiply(f32[3584]{0} %param_5.226, f32[3584]{0} %broadcast.240), metadata={op_name="parallelize(train_step_func_pipeshard_parallel_mesh_1)/jit(main)/jit(1)/jit(16)/jvp(WideResNet)/BottleneckResNetBlock_14/BatchNorm_1/mul" source_file="/home/cyxue/miniconda3/envs/alpa/lib/python3.8/site-packages/flax/linen/normalization.py" source_line=265}
  %constant_156_clone_1 = f32[] constant(0.000127551015)
  %broadcast.244.clone.1 = f32[3584]{0} broadcast(f32[] %constant_156_clone_1), dimensions={}, metadata={op_name="parallelize(train_step_func_pipeshard_parallel_mesh_1)/jit(main)/jit(1)/jit(15)/jvp(WideResNet)/BottleneckResNetBlock_13/BatchNorm_1/mul" source_file="/home/cyxue/miniconda3/envs/alpa/lib/python3.8/site-packages/flax/linen/normalization.py" source_line=265}
  %multiply.190.clone.1 = f32[3584]{0} multiply(f32[3584]{0} %param_2.572, f32[3584]{0} %broadcast.244.clone.1), metadata={op_name="parallelize(train_step_func_pipeshard_parallel_mesh_1)/jit(main)/jit(1)/jit(16)/jvp(WideResNet)/BottleneckResNetBlock_14/BatchNorm_1/mul" source_file="/home/cyxue/miniconda3/envs/alpa/lib/python3.8/site-packages/flax/linen/normalization.py" source_line=265}
  %add.63.clone.1 = f32[3584]{0} add(f32[3584]{0} %multiply.191.clone.1, f32[3584]{0} %multiply.190.clone.1), metadata={op_name="parallelize(train_step_func_pipeshard_parallel_mesh_1)/jit(main)/jit(1)/jit(16)/jvp(WideResNet)/BottleneckResNetBlock_14/BatchNorm_1/add" source_file="/home/cyxue/miniconda3/envs/alpa/lib/python3.8/site-packages/flax/linen/normalization.py" source_line=265}
  %add.62.clone.1 = f32[3584]{0} add(f32[3584]{0} %param_4.403, f32[3584]{0} %add.63.clone.1), metadata={op_name="parallelize(train_step_func_pipeshard_parallel_mesh_1)/jit(main)/jit(1)/jit(16)/add"}
  ROOT %tuple.16 = (f32[3584]{0}, f32[3584]{0}, f32[3584]{0}) tuple(f32[3584]{0} %add.60, f32[3584]{0} %maximum.10.clone.1, f32[3584]{0} %add.62.clone.1)
}

%fused_computation.47 (param_0.346: f32[1792], param_1.574: f32[1792], param_2.455: f32[1792], param_3.458: f32[16,7,7,1792], param_4.365: f32[1792]) -> f32[16,7,7,1792] {
  %param_3.458 = f32[16,7,7,1792]{2,1,3,0} parameter(3)
  %param_4.365 = f32[1792]{0} parameter(4)
  %constant_684 = f32[] constant(0.00127551018)
  %broadcast.618 = f32[1792]{0} broadcast(f32[] %constant_684), dimensions={}, metadata={op_name="parallelize(train_step_func_pipeshard_parallel_mesh_1)/jit(main)/jit(1)/jit(16)/jvp(WideResNet)/BottleneckResNetBlock_14/BatchNorm_0/div" source_file="/home/cyxue/miniconda3/envs/alpa/lib/python3.8/site-packages/flax/linen/normalization.py" source_line=82}
  %multiply.505 = f32[1792]{0} multiply(f32[1792]{0} %param_4.365, f32[1792]{0} %broadcast.618), metadata={op_name="parallelize(train_step_func_pipeshard_parallel_mesh_1)/jit(main)/jit(1)/jit(16)/jvp(WideResNet)/BottleneckResNetBlock_14/BatchNorm_0/div" source_file="/home/cyxue/miniconda3/envs/alpa/lib/python3.8/site-packages/flax/linen/normalization.py" source_line=82}
  %broadcast.249 = f32[16,7,7,1792]{2,1,3,0} broadcast(f32[1792]{0} %multiply.505), dimensions={3}, metadata={op_name="parallelize(train_step_func_pipeshard_parallel_mesh_1)/jit(main)/jit(1)/jit(16)/jvp(WideResNet)/BottleneckResNetBlock_14/BatchNorm_0/sub" source_file="/home/cyxue/miniconda3/envs/alpa/lib/python3.8/site-packages/flax/linen/normalization.py" source_line=138}
  %subtract.13 = f32[16,7,7,1792]{2,1,3,0} subtract(f32[16,7,7,1792]{2,1,3,0} %param_3.458, f32[16,7,7,1792]{2,1,3,0} %broadcast.249), metadata={op_name="parallelize(train_step_func_pipeshard_parallel_mesh_1)/jit(main)/jit(1)/jit(16)/jvp(WideResNet)/BottleneckResNetBlock_14/BatchNorm_0/sub" source_file="/home/cyxue/miniconda3/envs/alpa/lib/python3.8/site-packages/flax/linen/normalization.py" source_line=138}
  %param_2.455 = f32[1792]{0} parameter(2)
  %constant_159 = f32[] constant(1e-05)
  %broadcast.250 = f32[1792]{0} broadcast(f32[] %constant_159), dimensions={}, metadata={op_name="parallelize(train_step_func_pipeshard_parallel_mesh_1)/jit(main)/jit(1)/jit(10)/jvp(WideResNet)/BottleneckResNetBlock_8/BatchNorm_1/add" source_file="/home/cyxue/miniconda3/envs/alpa/lib/python3.8/site-packages/flax/linen/normalization.py" source_line=139}
  %add.65 = f32[1792]{0} add(f32[1792]{0} %param_2.455, f32[1792]{0} %broadcast.250), metadata={op_name="parallelize(train_step_func_pipeshard_parallel_mesh_1)/jit(main)/jit(1)/jit(16)/jvp(WideResNet)/BottleneckResNetBlock_14/BatchNorm_0/add" source_file="/home/cyxue/miniconda3/envs/alpa/lib/python3.8/site-packages/flax/linen/normalization.py" source_line=139}
  %rsqrt.30 = f32[1792]{0} rsqrt(f32[1792]{0} %add.65), metadata={op_name="parallelize(train_step_func_pipeshard_parallel_mesh_1)/jit(main)/jit(1)/jit(16)/jvp(WideResNet)/BottleneckResNetBlock_14/BatchNorm_0/rsqrt" source_file="/home/cyxue/miniconda3/envs/alpa/lib/python3.8/site-packages/flax/linen/normalization.py" source_line=139}
  %param_1.574 = f32[1792]{0} parameter(1)
  %multiply.193 = f32[1792]{0} multiply(f32[1792]{0} %rsqrt.30, f32[1792]{0} %param_1.574), metadata={op_name="parallelize(train_step_func_pipeshard_parallel_mesh_1)/jit(main)/jit(1)/jit(16)/jvp(WideResNet)/BottleneckResNetBlock_14/BatchNorm_0/mul" source_file="/home/cyxue/miniconda3/envs/alpa/lib/python3.8/site-packages/flax/linen/normalization.py" source_line=144}
  %broadcast.248 = f32[16,7,7,1792]{2,1,3,0} broadcast(f32[1792]{0} %multiply.193), dimensions={3}, metadata={op_name="parallelize(train_step_func_pipeshard_parallel_mesh_1)/jit(main)/jit(1)/jit(16)/jvp(WideResNet)/BottleneckResNetBlock_14/BatchNorm_0/mul" source_file="/home/cyxue/miniconda3/envs/alpa/lib/python3.8/site-packages/flax/linen/normalization.py" source_line=146}
  %multiply.192 = f32[16,7,7,1792]{2,1,3,0} multiply(f32[16,7,7,1792]{2,1,3,0} %subtract.13, f32[16,7,7,1792]{2,1,3,0} %broadcast.248), metadata={op_name="parallelize(train_step_func_pipeshard_parallel_mesh_1)/jit(main)/jit(1)/jit(16)/jvp(WideResNet)/BottleneckResNetBlock_14/BatchNorm_0/mul" source_file="/home/cyxue/miniconda3/envs/alpa/lib/python3.8/site-packages/flax/linen/normalization.py" source_line=146}
  %param_0.346 = f32[1792]{0} parameter(0)
  %broadcast.247 = f32[16,7,7,1792]{2,1,3,0} broadcast(f32[1792]{0} %param_0.346), dimensions={3}, metadata={op_name="parallelize(train_step_func_pipeshard_parallel_mesh_1)/jit(main)/jit(1)/jit(16)/jvp(WideResNet)/BottleneckResNetBlock_14/BatchNorm_0/add" source_file="/home/cyxue/miniconda3/envs/alpa/lib/python3.8/site-packages/flax/linen/normalization.py" source_line=150}
  %add.64 = f32[16,7,7,1792]{2,1,3,0} add(f32[16,7,7,1792]{2,1,3,0} %multiply.192, f32[16,7,7,1792]{2,1,3,0} %broadcast.247), metadata={op_name="parallelize(train_step_func_pipeshard_parallel_mesh_1)/jit(main)/jit(1)/jit(16)/jvp(WideResNet)/BottleneckResNetBlock_14/BatchNorm_0/add" source_file="/home/cyxue/miniconda3/envs/alpa/lib/python3.8/site-packages/flax/linen/normalization.py" source_line=150}
  %constant_160 = f32[] constant(0)
  %broadcast.246 = f32[16,7,7,1792]{2,1,3,0} broadcast(f32[] %constant_160), dimensions={}, metadata={op_name="parallelize(train_step_func_pipeshard_parallel_mesh_1)/jit(main)/jit(1)/jit(16)/jvp(WideResNet)/BottleneckResNetBlock_14/max" source_file="/home/cyxue/Projects/crius/Crius/runtime/crius_worker/jax/model/wide_resnet.py" source_line=85}
  ROOT %maximum.11 = f32[16,7,7,1792]{2,1,3,0} maximum(f32[16,7,7,1792]{2,1,3,0} %add.64, f32[16,7,7,1792]{2,1,3,0} %broadcast.246), metadata={op_name="parallelize(train_step_func_pipeshard_parallel_mesh_1)/jit(main)/jit(1)/jit(16)/jvp(WideResNet)/BottleneckResNetBlock_14/max" source_file="/home/cyxue/Projects/crius/Crius/runtime/crius_worker/jax/model/wide_resnet.py" source_line=85}
}

%fused_computation.48 (param_0.85: f32[1792], param_1.653: f32[1792], param_2.576: f32[1792], param_3.552: f32[16,1792], param_4.409: f32[1792], param_5.233: f32[1792]) -> (f32[1792], f32[1792], f32[1792]) {
  %param_0.85 = f32[1792]{0} parameter(0)
  %param_1.653 = f32[1792]{0} parameter(1)
  %constant_162 = f32[] constant(0.9)
  %broadcast.252 = f32[1792]{0} broadcast(f32[] %constant_162), dimensions={}, metadata={op_name="parallelize(train_step_func_pipeshard_parallel_mesh_1)/jit(main)/jit(1)/jit(10)/jvp(WideResNet)/BottleneckResNetBlock_8/BatchNorm_1/mul" source_file="/home/cyxue/miniconda3/envs/alpa/lib/python3.8/site-packages/flax/linen/normalization.py" source_line=265}
  %multiply.195 = f32[1792]{0} multiply(f32[1792]{0} %param_1.653, f32[1792]{0} %broadcast.252), metadata={op_name="parallelize(train_step_func_pipeshard_parallel_mesh_1)/jit(main)/jit(1)/jit(16)/jvp(WideResNet)/BottleneckResNetBlock_14/BatchNorm_0/mul" source_file="/home/cyxue/miniconda3/envs/alpa/lib/python3.8/site-packages/flax/linen/normalization.py" source_line=267}
  %param_3.552 = f32[16,1792]{1,0} parameter(3)
  %constant_164_clone_1 = f32[] constant(0)
  %reduce.282.clone.1 = f32[1792]{0} reduce(f32[16,1792]{1,0} %param_3.552, f32[] %constant_164_clone_1), dimensions={0}, to_apply=%region_0.1142.1, metadata={op_name="parallelize(train_step_func_pipeshard_parallel_mesh_1)/jit(main)/jit(1)/jit(16)/jvp(WideResNet)/BottleneckResNetBlock_14/BatchNorm_0/reduce_sum[axes=(0, 1, 2)]" source_file="/home/cyxue/miniconda3/envs/alpa/lib/python3.8/site-packages/flax/linen/normalization.py" source_line=83}
  %constant_687_clone_1 = f32[] constant(0.00127551018)
  %broadcast.253.clone.1 = f32[1792]{0} broadcast(f32[] %constant_687_clone_1), dimensions={}, metadata={op_name="parallelize(train_step_func_pipeshard_parallel_mesh_1)/jit(main)/jit(1)/jit(16)/jvp(WideResNet)/BottleneckResNetBlock_14/BatchNorm_0/div" source_file="/home/cyxue/miniconda3/envs/alpa/lib/python3.8/site-packages/flax/linen/normalization.py" source_line=82}
  %multiply.197.clone.1 = f32[1792]{0} multiply(f32[1792]{0} %reduce.282.clone.1, f32[1792]{0} %broadcast.253.clone.1), metadata={op_name="parallelize(train_step_func_pipeshard_parallel_mesh_1)/jit(main)/jit(1)/jit(16)/jvp(WideResNet)/BottleneckResNetBlock_14/BatchNorm_0/div" source_file="/home/cyxue/miniconda3/envs/alpa/lib/python3.8/site-packages/flax/linen/normalization.py" source_line=83}
  %param_2.576 = f32[1792]{0} parameter(2)
  %multiply.507.clone.1 = f32[1792]{0} multiply(f32[1792]{0} %param_2.576, f32[1792]{0} %broadcast.253.clone.1), metadata={op_name="parallelize(train_step_func_pipeshard_parallel_mesh_1)/jit(main)/jit(1)/jit(16)/jvp(WideResNet)/BottleneckResNetBlock_14/BatchNorm_0/div" source_file="/home/cyxue/miniconda3/envs/alpa/lib/python3.8/site-packages/flax/linen/normalization.py" source_line=82}
  %multiply.196.clone.1 = f32[1792]{0} multiply(f32[1792]{0} %multiply.507.clone.1, f32[1792]{0} %multiply.507.clone.1), metadata={op_name="parallelize(train_step_func_pipeshard_parallel_mesh_1)/jit(main)/jit(1)/jit(16)/jvp(WideResNet)/BottleneckResNetBlock_14/BatchNorm_0/mul" source_file="/home/cyxue/miniconda3/envs/alpa/lib/python3.8/site-packages/flax/linen/normalization.py" source_line=46}
  %subtract.14.clone.1 = f32[1792]{0} subtract(f32[1792]{0} %multiply.197.clone.1, f32[1792]{0} %multiply.196.clone.1), metadata={op_name="parallelize(train_step_func_pipeshard_parallel_mesh_1)/jit(main)/jit(1)/jit(16)/jvp(WideResNet)/BottleneckResNetBlock_14/BatchNorm_0/sub" source_file="/home/cyxue/miniconda3/envs/alpa/lib/python3.8/site-packages/flax/linen/normalization.py" source_line=93}
  %broadcast.254.clone.1 = f32[1792]{0} broadcast(f32[] %constant_164_clone_1), dimensions={}, metadata={op_name="parallelize(train_step_func_pipeshard_parallel_mesh_1)/jit(main)/jit(1)/jit(10)/jvp(WideResNet)/BottleneckResNetBlock_8/BatchNorm_1/max" source_file="/home/cyxue/miniconda3/envs/alpa/lib/python3.8/site-packages/flax/linen/normalization.py" source_line=93}
  %maximum.12.clone.1 = f32[1792]{0} maximum(f32[1792]{0} %subtract.14.clone.1, f32[1792]{0} %broadcast.254.clone.1), metadata={op_name="parallelize(train_step_func_pipeshard_parallel_mesh_1)/jit(main)/jit(1)/jit(16)/jvp(WideResNet)/BottleneckResNetBlock_14/BatchNorm_0/max" source_file="/home/cyxue/miniconda3/envs/alpa/lib/python3.8/site-packages/flax/linen/normalization.py" source_line=93}
  %constant_161 = f32[] constant(0.1)
  %broadcast.251 = f32[1792]{0} broadcast(f32[] %constant_161), dimensions={}, metadata={op_name="parallelize(train_step_func_pipeshard_parallel_mesh_1)/jit(main)/jit(1)/jit(10)/jvp(WideResNet)/BottleneckResNetBlock_8/BatchNorm_1/mul" source_file="/home/cyxue/miniconda3/envs/alpa/lib/python3.8/site-packages/flax/linen/normalization.py" source_line=265}
  %multiply.194 = f32[1792]{0} multiply(f32[1792]{0} %maximum.12.clone.1, f32[1792]{0} %broadcast.251), metadata={op_name="parallelize(train_step_func_pipeshard_parallel_mesh_1)/jit(main)/jit(1)/jit(16)/jvp(WideResNet)/BottleneckResNetBlock_14/BatchNorm_0/mul" source_file="/home/cyxue/miniconda3/envs/alpa/lib/python3.8/site-packages/flax/linen/normalization.py" source_line=267}
  %add.67 = f32[1792]{0} add(f32[1792]{0} %multiply.195, f32[1792]{0} %multiply.194), metadata={op_name="parallelize(train_step_func_pipeshard_parallel_mesh_1)/jit(main)/jit(1)/jit(16)/jvp(WideResNet)/BottleneckResNetBlock_14/BatchNorm_0/add" source_file="/home/cyxue/miniconda3/envs/alpa/lib/python3.8/site-packages/flax/linen/normalization.py" source_line=267}
  %add.66 = f32[1792]{0} add(f32[1792]{0} %param_0.85, f32[1792]{0} %add.67), metadata={op_name="parallelize(train_step_func_pipeshard_parallel_mesh_1)/jit(main)/jit(1)/jit(16)/add"}
  %param_4.409 = f32[1792]{0} parameter(4)
  %param_5.233 = f32[1792]{0} parameter(5)
  %multiply.201.clone.1 = f32[1792]{0} multiply(f32[1792]{0} %param_5.233, f32[1792]{0} %broadcast.252), metadata={op_name="parallelize(train_step_func_pipeshard_parallel_mesh_1)/jit(main)/jit(1)/jit(16)/jvp(WideResNet)/BottleneckResNetBlock_14/BatchNorm_0/mul" source_file="/home/cyxue/miniconda3/envs/alpa/lib/python3.8/site-packages/flax/linen/normalization.py" source_line=265}
  %constant_167_clone_1 = f32[] constant(0.000127551015)
  %broadcast.256.clone.1 = f32[1792]{0} broadcast(f32[] %constant_167_clone_1), dimensions={}, metadata={op_name="parallelize(train_step_func_pipeshard_parallel_mesh_1)/jit(main)/jit(1)/jit(16)/jvp(WideResNet)/BottleneckResNetBlock_14/BatchNorm_0/mul" source_file="/home/cyxue/miniconda3/envs/alpa/lib/python3.8/site-packages/flax/linen/normalization.py" source_line=265}
  %multiply.200.clone.1 = f32[1792]{0} multiply(f32[1792]{0} %param_2.576, f32[1792]{0} %broadcast.256.clone.1), metadata={op_name="parallelize(train_step_func_pipeshard_parallel_mesh_1)/jit(main)/jit(1)/jit(16)/jvp(WideResNet)/BottleneckResNetBlock_14/BatchNorm_0/mul" source_file="/home/cyxue/miniconda3/envs/alpa/lib/python3.8/site-packages/flax/linen/normalization.py" source_line=265}
  %add.69.clone.1 = f32[1792]{0} add(f32[1792]{0} %multiply.201.clone.1, f32[1792]{0} %multiply.200.clone.1), metadata={op_name="parallelize(train_step_func_pipeshard_parallel_mesh_1)/jit(main)/jit(1)/jit(16)/jvp(WideResNet)/BottleneckResNetBlock_14/BatchNorm_0/add" source_file="/home/cyxue/miniconda3/envs/alpa/lib/python3.8/site-packages/flax/linen/normalization.py" source_line=265}
  %add.68.clone.1 = f32[1792]{0} add(f32[1792]{0} %param_4.409, f32[1792]{0} %add.69.clone.1), metadata={op_name="parallelize(train_step_func_pipeshard_parallel_mesh_1)/jit(main)/jit(1)/jit(16)/add"}
  ROOT %tuple.19 = (f32[1792]{0}, f32[1792]{0}, f32[1792]{0}) tuple(f32[1792]{0} %add.66, f32[1792]{0} %maximum.12.clone.1, f32[1792]{0} %add.68.clone.1)
}

%fused_computation.54 (param_0.463: f32[7168], param_1.621: f32[7168], param_2.535: f32[7168], param_3.514: f32[16,7,7,7168], param_4.364: f32[7168], param_5.175: f32[7168], param_6.133: f32[7168], param_7.49: f32[7168], param_8.25: f32[16,7,7,7168], param_9.24: f32[7168]) -> f32[16,7,7,7168] {
  %param_8.25 = f32[16,7,7,7168]{2,1,3,0} parameter(8)
  %param_9.24 = f32[7168]{0} parameter(9)
  %constant_679 = f32[] constant(0.00127551018)
  %broadcast.616 = f32[7168]{0} broadcast(f32[] %constant_679), dimensions={}, metadata={op_name="parallelize(train_step_func_pipeshard_parallel_mesh_1)/jit(main)/jit(1)/jit(15)/jvp(WideResNet)/BottleneckResNetBlock_13/BatchNorm_2/div" source_file="/home/cyxue/miniconda3/envs/alpa/lib/python3.8/site-packages/flax/linen/normalization.py" source_line=82}
  %multiply.503 = f32[7168]{0} multiply(f32[7168]{0} %param_9.24, f32[7168]{0} %broadcast.616), metadata={op_name="parallelize(train_step_func_pipeshard_parallel_mesh_1)/jit(main)/jit(1)/jit(15)/jvp(WideResNet)/BottleneckResNetBlock_13/norm_proj/div" source_file="/home/cyxue/miniconda3/envs/alpa/lib/python3.8/site-packages/flax/linen/normalization.py" source_line=82}
  %broadcast.615 = f32[16,7,7,7168]{2,1,3,0} broadcast(f32[7168]{0} %multiply.503), dimensions={3}, metadata={op_name="parallelize(train_step_func_pipeshard_parallel_mesh_1)/jit(main)/jit(1)/jit(15)/jvp(WideResNet)/BottleneckResNetBlock_13/norm_proj/sub" source_file="/home/cyxue/miniconda3/envs/alpa/lib/python3.8/site-packages/flax/linen/normalization.py" source_line=138}
  %subtract.64 = f32[16,7,7,7168]{2,1,3,0} subtract(f32[16,7,7,7168]{2,1,3,0} %param_8.25, f32[16,7,7,7168]{2,1,3,0} %broadcast.615), metadata={op_name="parallelize(train_step_func_pipeshard_parallel_mesh_1)/jit(main)/jit(1)/jit(15)/jvp(WideResNet)/BottleneckResNetBlock_13/norm_proj/sub" source_file="/home/cyxue/miniconda3/envs/alpa/lib/python3.8/site-packages/flax/linen/normalization.py" source_line=138}
  %param_7.49 = f32[7168]{0} parameter(7)
  %constant_680 = f32[] constant(1e-05)
  %broadcast.614 = f32[7168]{0} broadcast(f32[] %constant_680), dimensions={}, metadata={op_name="parallelize(train_step_func_pipeshard_parallel_mesh_1)/jit(main)/jit(1)/jit(15)/jvp(WideResNet)/BottleneckResNetBlock_13/BatchNorm_2/add" source_file="/home/cyxue/miniconda3/envs/alpa/lib/python3.8/site-packages/flax/linen/normalization.py" source_line=139}
  %add.221 = f32[7168]{0} add(f32[7168]{0} %param_7.49, f32[7168]{0} %broadcast.614), metadata={op_name="parallelize(train_step_func_pipeshard_parallel_mesh_1)/jit(main)/jit(1)/jit(15)/jvp(WideResNet)/BottleneckResNetBlock_13/norm_proj/add" source_file="/home/cyxue/miniconda3/envs/alpa/lib/python3.8/site-packages/flax/linen/normalization.py" source_line=139}
  %rsqrt.86 = f32[7168]{0} rsqrt(f32[7168]{0} %add.221), metadata={op_name="parallelize(train_step_func_pipeshard_parallel_mesh_1)/jit(main)/jit(1)/jit(15)/jvp(WideResNet)/BottleneckResNetBlock_13/norm_proj/rsqrt" source_file="/home/cyxue/miniconda3/envs/alpa/lib/python3.8/site-packages/flax/linen/normalization.py" source_line=139}
  %param_6.133 = f32[7168]{0} parameter(6)
  %multiply.502 = f32[7168]{0} multiply(f32[7168]{0} %rsqrt.86, f32[7168]{0} %param_6.133), metadata={op_name="parallelize(train_step_func_pipeshard_parallel_mesh_1)/jit(main)/jit(1)/jit(15)/jvp(WideResNet)/BottleneckResNetBlock_13/norm_proj/mul" source_file="/home/cyxue/miniconda3/envs/alpa/lib/python3.8/site-packages/flax/linen/normalization.py" source_line=144}
  %broadcast.613 = f32[16,7,7,7168]{2,1,3,0} broadcast(f32[7168]{0} %multiply.502), dimensions={3}, metadata={op_name="parallelize(train_step_func_pipeshard_parallel_mesh_1)/jit(main)/jit(1)/jit(15)/jvp(WideResNet)/BottleneckResNetBlock_13/norm_proj/mul" source_file="/home/cyxue/miniconda3/envs/alpa/lib/python3.8/site-packages/flax/linen/normalization.py" source_line=146}
  %multiply.501 = f32[16,7,7,7168]{2,1,3,0} multiply(f32[16,7,7,7168]{2,1,3,0} %subtract.64, f32[16,7,7,7168]{2,1,3,0} %broadcast.613), metadata={op_name="parallelize(train_step_func_pipeshard_parallel_mesh_1)/jit(main)/jit(1)/jit(15)/jvp(WideResNet)/BottleneckResNetBlock_13/norm_proj/mul" source_file="/home/cyxue/miniconda3/envs/alpa/lib/python3.8/site-packages/flax/linen/normalization.py" source_line=146}
  %param_5.175 = f32[7168]{0} parameter(5)
  %broadcast.612 = f32[16,7,7,7168]{2,1,3,0} broadcast(f32[7168]{0} %param_5.175), dimensions={3}, metadata={op_name="parallelize(train_step_func_pipeshard_parallel_mesh_1)/jit(main)/jit(1)/jit(15)/jvp(WideResNet)/BottleneckResNetBlock_13/norm_proj/add" source_file="/home/cyxue/miniconda3/envs/alpa/lib/python3.8/site-packages/flax/linen/normalization.py" source_line=150}
  %add.220 = f32[16,7,7,7168]{2,1,3,0} add(f32[16,7,7,7168]{2,1,3,0} %multiply.501, f32[16,7,7,7168]{2,1,3,0} %broadcast.612), metadata={op_name="parallelize(train_step_func_pipeshard_parallel_mesh_1)/jit(main)/jit(1)/jit(15)/jvp(WideResNet)/BottleneckResNetBlock_13/norm_proj/add" source_file="/home/cyxue/miniconda3/envs/alpa/lib/python3.8/site-packages/flax/linen/normalization.py" source_line=150}
  %param_3.514 = f32[16,7,7,7168]{2,1,3,0} parameter(3)
  %param_4.364 = f32[7168]{0} parameter(4)
  %multiply.500 = f32[7168]{0} multiply(f32[7168]{0} %param_4.364, f32[7168]{0} %broadcast.616), metadata={op_name="parallelize(train_step_func_pipeshard_parallel_mesh_1)/jit(main)/jit(1)/jit(15)/jvp(WideResNet)/BottleneckResNetBlock_13/BatchNorm_2/div" source_file="/home/cyxue/miniconda3/envs/alpa/lib/python3.8/site-packages/flax/linen/normalization.py" source_line=82}
  %broadcast.610 = f32[16,7,7,7168]{2,1,3,0} broadcast(f32[7168]{0} %multiply.500), dimensions={3}, metadata={op_name="parallelize(train_step_func_pipeshard_parallel_mesh_1)/jit(main)/jit(1)/jit(15)/jvp(WideResNet)/BottleneckResNetBlock_13/BatchNorm_2/sub" source_file="/home/cyxue/miniconda3/envs/alpa/lib/python3.8/site-packages/flax/linen/normalization.py" source_line=138}
  %subtract.63 = f32[16,7,7,7168]{2,1,3,0} subtract(f32[16,7,7,7168]{2,1,3,0} %param_3.514, f32[16,7,7,7168]{2,1,3,0} %broadcast.610), metadata={op_name="parallelize(train_step_func_pipeshard_parallel_mesh_1)/jit(main)/jit(1)/jit(15)/jvp(WideResNet)/BottleneckResNetBlock_13/BatchNorm_2/sub" source_file="/home/cyxue/miniconda3/envs/alpa/lib/python3.8/site-packages/flax/linen/normalization.py" source_line=138}
  %param_2.535 = f32[7168]{0} parameter(2)
  %add.219 = f32[7168]{0} add(f32[7168]{0} %param_2.535, f32[7168]{0} %broadcast.614), metadata={op_name="parallelize(train_step_func_pipeshard_parallel_mesh_1)/jit(main)/jit(1)/jit(15)/jvp(WideResNet)/BottleneckResNetBlock_13/BatchNorm_2/add" source_file="/home/cyxue/miniconda3/envs/alpa/lib/python3.8/site-packages/flax/linen/normalization.py" source_line=139}
  %rsqrt.85 = f32[7168]{0} rsqrt(f32[7168]{0} %add.219), metadata={op_name="parallelize(train_step_func_pipeshard_parallel_mesh_1)/jit(main)/jit(1)/jit(15)/jvp(WideResNet)/BottleneckResNetBlock_13/BatchNorm_2/rsqrt" source_file="/home/cyxue/miniconda3/envs/alpa/lib/python3.8/site-packages/flax/linen/normalization.py" source_line=139}
  %param_1.621 = f32[7168]{0} parameter(1)
  %multiply.499 = f32[7168]{0} multiply(f32[7168]{0} %rsqrt.85, f32[7168]{0} %param_1.621), metadata={op_name="parallelize(train_step_func_pipeshard_parallel_mesh_1)/jit(main)/jit(1)/jit(15)/jvp(WideResNet)/BottleneckResNetBlock_13/BatchNorm_2/mul" source_file="/home/cyxue/miniconda3/envs/alpa/lib/python3.8/site-packages/flax/linen/normalization.py" source_line=144}
  %broadcast.609 = f32[16,7,7,7168]{2,1,3,0} broadcast(f32[7168]{0} %multiply.499), dimensions={3}, metadata={op_name="parallelize(train_step_func_pipeshard_parallel_mesh_1)/jit(main)/jit(1)/jit(15)/jvp(WideResNet)/BottleneckResNetBlock_13/BatchNorm_2/mul" source_file="/home/cyxue/miniconda3/envs/alpa/lib/python3.8/site-packages/flax/linen/normalization.py" source_line=146}
  %multiply.498 = f32[16,7,7,7168]{2,1,3,0} multiply(f32[16,7,7,7168]{2,1,3,0} %subtract.63, f32[16,7,7,7168]{2,1,3,0} %broadcast.609), metadata={op_name="parallelize(train_step_func_pipeshard_parallel_mesh_1)/jit(main)/jit(1)/jit(15)/jvp(WideResNet)/BottleneckResNetBlock_13/BatchNorm_2/mul" source_file="/home/cyxue/miniconda3/envs/alpa/lib/python3.8/site-packages/flax/linen/normalization.py" source_line=146}
  %param_0.463 = f32[7168]{0} parameter(0)
  %broadcast.608 = f32[16,7,7,7168]{2,1,3,0} broadcast(f32[7168]{0} %param_0.463), dimensions={3}, metadata={op_name="parallelize(train_step_func_pipeshard_parallel_mesh_1)/jit(main)/jit(1)/jit(15)/jvp(WideResNet)/BottleneckResNetBlock_13/BatchNorm_2/add" source_file="/home/cyxue/miniconda3/envs/alpa/lib/python3.8/site-packages/flax/linen/normalization.py" source_line=150}
  %add.218 = f32[16,7,7,7168]{2,1,3,0} add(f32[16,7,7,7168]{2,1,3,0} %multiply.498, f32[16,7,7,7168]{2,1,3,0} %broadcast.608), metadata={op_name="parallelize(train_step_func_pipeshard_parallel_mesh_1)/jit(main)/jit(1)/jit(15)/jvp(WideResNet)/BottleneckResNetBlock_13/BatchNorm_2/add" source_file="/home/cyxue/miniconda3/envs/alpa/lib/python3.8/site-packages/flax/linen/normalization.py" source_line=150}
  %add.217 = f32[16,7,7,7168]{2,1,3,0} add(f32[16,7,7,7168]{2,1,3,0} %add.220, f32[16,7,7,7168]{2,1,3,0} %add.218), metadata={op_name="parallelize(train_step_func_pipeshard_parallel_mesh_1)/jit(main)/jit(1)/jit(15)/jvp(WideResNet)/BottleneckResNetBlock_13/add" source_file="/home/cyxue/Projects/crius/Crius/runtime/crius_worker/jax/model/wide_resnet.py" source_line=98}
  %constant_170 = f32[] constant(0)
  %broadcast.258 = f32[16,7,7,7168]{2,1,3,0} broadcast(f32[] %constant_170), dimensions={}, metadata={op_name="parallelize(train_step_func_pipeshard_parallel_mesh_1)/jit(main)/jit(1)/jit(16)/jvp(WideResNet)/BottleneckResNetBlock_13/max" source_file="/home/cyxue/Projects/crius/Crius/runtime/crius_worker/jax/model/wide_resnet.py" source_line=98}
  ROOT %maximum.13 = f32[16,7,7,7168]{2,1,3,0} maximum(f32[16,7,7,7168]{2,1,3,0} %add.217, f32[16,7,7,7168]{2,1,3,0} %broadcast.258), metadata={op_name="parallelize(train_step_func_pipeshard_parallel_mesh_1)/jit(main)/jit(1)/jit(16)/jvp(WideResNet)/BottleneckResNetBlock_13/max" source_file="/home/cyxue/Projects/crius/Crius/runtime/crius_worker/jax/model/wide_resnet.py" source_line=98}
}

%fused_computation.56 (param_0.98: f32[7168], param_1.656: f32[7168], param_2.580: f32[7168], param_3.557: f32[16,7168], param_4.415: f32[7168], param_5.240: f32[7168]) -> (f32[7168], f32[7168], f32[7168]) {
  %param_0.98 = f32[7168]{0} parameter(0)
  %param_1.656 = f32[7168]{0} parameter(1)
  %constant_173 = f32[] constant(0.9)
  %broadcast.267 = f32[7168]{0} broadcast(f32[] %constant_173), dimensions={}, metadata={op_name="parallelize(train_step_func_pipeshard_parallel_mesh_1)/jit(main)/jit(1)/jit(15)/jvp(WideResNet)/BottleneckResNetBlock_13/BatchNorm_2/mul" source_file="/home/cyxue/miniconda3/envs/alpa/lib/python3.8/site-packages/flax/linen/normalization.py" source_line=265}
  %multiply.207 = f32[7168]{0} multiply(f32[7168]{0} %param_1.656, f32[7168]{0} %broadcast.267), metadata={op_name="parallelize(train_step_func_pipeshard_parallel_mesh_1)/jit(main)/jit(1)/jit(15)/jvp(WideResNet)/BottleneckResNetBlock_13/norm_proj/mul" source_file="/home/cyxue/miniconda3/envs/alpa/lib/python3.8/site-packages/flax/linen/normalization.py" source_line=267}
  %param_3.557 = f32[16,7168]{1,0} parameter(3)
  %constant_175_clone_1 = f32[] constant(0)
  %reduce.285.clone.1 = f32[7168]{0} reduce(f32[16,7168]{1,0} %param_3.557, f32[] %constant_175_clone_1), dimensions={0}, to_apply=%region_0.1142.1, metadata={op_name="parallelize(train_step_func_pipeshard_parallel_mesh_1)/jit(main)/jit(1)/jit(15)/jvp(WideResNet)/BottleneckResNetBlock_13/norm_proj/reduce_sum[axes=(0, 1, 2)]" source_file="/home/cyxue/miniconda3/envs/alpa/lib/python3.8/site-packages/flax/linen/normalization.py" source_line=83}
  %constant_667_clone_1 = f32[] constant(0.00127551018)
  %broadcast.269.clone.1 = f32[7168]{0} broadcast(f32[] %constant_667_clone_1), dimensions={}, metadata={op_name="parallelize(train_step_func_pipeshard_parallel_mesh_1)/jit(main)/jit(1)/jit(15)/jvp(WideResNet)/BottleneckResNetBlock_13/BatchNorm_2/div" source_file="/home/cyxue/miniconda3/envs/alpa/lib/python3.8/site-packages/flax/linen/normalization.py" source_line=82}
  %multiply.209.clone.1 = f32[7168]{0} multiply(f32[7168]{0} %reduce.285.clone.1, f32[7168]{0} %broadcast.269.clone.1), metadata={op_name="parallelize(train_step_func_pipeshard_parallel_mesh_1)/jit(main)/jit(1)/jit(15)/jvp(WideResNet)/BottleneckResNetBlock_13/norm_proj/div" source_file="/home/cyxue/miniconda3/envs/alpa/lib/python3.8/site-packages/flax/linen/normalization.py" source_line=83}
  %param_2.580 = f32[7168]{0} parameter(2)
  %multiply.479.clone.1 = f32[7168]{0} multiply(f32[7168]{0} %param_2.580, f32[7168]{0} %broadcast.269.clone.1), metadata={op_name="parallelize(train_step_func_pipeshard_parallel_mesh_1)/jit(main)/jit(1)/jit(15)/jvp(WideResNet)/BottleneckResNetBlock_13/norm_proj/div" source_file="/home/cyxue/miniconda3/envs/alpa/lib/python3.8/site-packages/flax/linen/normalization.py" source_line=82}
  %multiply.208.clone.1 = f32[7168]{0} multiply(f32[7168]{0} %multiply.479.clone.1, f32[7168]{0} %multiply.479.clone.1), metadata={op_name="parallelize(train_step_func_pipeshard_parallel_mesh_1)/jit(main)/jit(1)/jit(15)/jvp(WideResNet)/BottleneckResNetBlock_13/norm_proj/mul" source_file="/home/cyxue/miniconda3/envs/alpa/lib/python3.8/site-packages/flax/linen/normalization.py" source_line=46}
  %subtract.17.clone.1 = f32[7168]{0} subtract(f32[7168]{0} %multiply.209.clone.1, f32[7168]{0} %multiply.208.clone.1), metadata={op_name="parallelize(train_step_func_pipeshard_parallel_mesh_1)/jit(main)/jit(1)/jit(15)/jvp(WideResNet)/BottleneckResNetBlock_13/norm_proj/sub" source_file="/home/cyxue/miniconda3/envs/alpa/lib/python3.8/site-packages/flax/linen/normalization.py" source_line=93}
  %broadcast.268.clone.1 = f32[7168]{0} broadcast(f32[] %constant_175_clone_1), dimensions={}, metadata={op_name="parallelize(train_step_func_pipeshard_parallel_mesh_1)/jit(main)/jit(1)/jit(15)/jvp(WideResNet)/BottleneckResNetBlock_13/BatchNorm_2/max" source_file="/home/cyxue/miniconda3/envs/alpa/lib/python3.8/site-packages/flax/linen/normalization.py" source_line=93}
  %maximum.14.clone.1 = f32[7168]{0} maximum(f32[7168]{0} %subtract.17.clone.1, f32[7168]{0} %broadcast.268.clone.1), metadata={op_name="parallelize(train_step_func_pipeshard_parallel_mesh_1)/jit(main)/jit(1)/jit(15)/jvp(WideResNet)/BottleneckResNetBlock_13/norm_proj/max" source_file="/home/cyxue/miniconda3/envs/alpa/lib/python3.8/site-packages/flax/linen/normalization.py" source_line=93}
  %constant_172 = f32[] constant(0.1)
  %broadcast.266 = f32[7168]{0} broadcast(f32[] %constant_172), dimensions={}, metadata={op_name="parallelize(train_step_func_pipeshard_parallel_mesh_1)/jit(main)/jit(1)/jit(15)/jvp(WideResNet)/BottleneckResNetBlock_13/BatchNorm_2/mul" source_file="/home/cyxue/miniconda3/envs/alpa/lib/python3.8/site-packages/flax/linen/normalization.py" source_line=265}
  %multiply.206 = f32[7168]{0} multiply(f32[7168]{0} %maximum.14.clone.1, f32[7168]{0} %broadcast.266), metadata={op_name="parallelize(train_step_func_pipeshard_parallel_mesh_1)/jit(main)/jit(1)/jit(15)/jvp(WideResNet)/BottleneckResNetBlock_13/norm_proj/mul" source_file="/home/cyxue/miniconda3/envs/alpa/lib/python3.8/site-packages/flax/linen/normalization.py" source_line=267}
  %add.76 = f32[7168]{0} add(f32[7168]{0} %multiply.207, f32[7168]{0} %multiply.206), metadata={op_name="parallelize(train_step_func_pipeshard_parallel_mesh_1)/jit(main)/jit(1)/jit(15)/jvp(WideResNet)/BottleneckResNetBlock_13/norm_proj/add" source_file="/home/cyxue/miniconda3/envs/alpa/lib/python3.8/site-packages/flax/linen/normalization.py" source_line=267}
  %add.75 = f32[7168]{0} add(f32[7168]{0} %param_0.98, f32[7168]{0} %add.76), metadata={op_name="parallelize(train_step_func_pipeshard_parallel_mesh_1)/jit(main)/jit(1)/jit(15)/add"}
  %param_4.415 = f32[7168]{0} parameter(4)
  %param_5.240 = f32[7168]{0} parameter(5)
  %multiply.213.clone.1 = f32[7168]{0} multiply(f32[7168]{0} %param_5.240, f32[7168]{0} %broadcast.267), metadata={op_name="parallelize(train_step_func_pipeshard_parallel_mesh_1)/jit(main)/jit(1)/jit(15)/jvp(WideResNet)/BottleneckResNetBlock_13/norm_proj/mul" source_file="/home/cyxue/miniconda3/envs/alpa/lib/python3.8/site-packages/flax/linen/normalization.py" source_line=265}
  %constant_178_clone_1 = f32[] constant(0.000127551015)
  %broadcast.271.clone.1 = f32[7168]{0} broadcast(f32[] %constant_178_clone_1), dimensions={}, metadata={op_name="parallelize(train_step_func_pipeshard_parallel_mesh_1)/jit(main)/jit(1)/jit(15)/jvp(WideResNet)/BottleneckResNetBlock_13/BatchNorm_2/mul" source_file="/home/cyxue/miniconda3/envs/alpa/lib/python3.8/site-packages/flax/linen/normalization.py" source_line=265}
  %multiply.212.clone.1 = f32[7168]{0} multiply(f32[7168]{0} %param_2.580, f32[7168]{0} %broadcast.271.clone.1), metadata={op_name="parallelize(train_step_func_pipeshard_parallel_mesh_1)/jit(main)/jit(1)/jit(15)/jvp(WideResNet)/BottleneckResNetBlock_13/norm_proj/mul" source_file="/home/cyxue/miniconda3/envs/alpa/lib/python3.8/site-packages/flax/linen/normalization.py" source_line=265}
  %add.78.clone.1 = f32[7168]{0} add(f32[7168]{0} %multiply.213.clone.1, f32[7168]{0} %multiply.212.clone.1), metadata={op_name="parallelize(train_step_func_pipeshard_parallel_mesh_1)/jit(main)/jit(1)/jit(15)/jvp(WideResNet)/BottleneckResNetBlock_13/norm_proj/add" source_file="/home/cyxue/miniconda3/envs/alpa/lib/python3.8/site-packages/flax/linen/normalization.py" source_line=265}
  %add.77.clone.1 = f32[7168]{0} add(f32[7168]{0} %param_4.415, f32[7168]{0} %add.78.clone.1), metadata={op_name="parallelize(train_step_func_pipeshard_parallel_mesh_1)/jit(main)/jit(1)/jit(15)/add"}
  ROOT %tuple.22 = (f32[7168]{0}, f32[7168]{0}, f32[7168]{0}) tuple(f32[7168]{0} %add.75, f32[7168]{0} %maximum.14.clone.1, f32[7168]{0} %add.77.clone.1)
}

%fused_computation.62 (param_0.108: f32[7168], param_1.659: f32[7168], param_2.584: f32[7168], param_3.562: f32[16,7168], param_4.421: f32[7168], param_5.247: f32[7168]) -> (f32[7168], f32[7168], f32[7168]) {
  %param_0.108 = f32[7168]{0} parameter(0)
  %param_1.659 = f32[7168]{0} parameter(1)
  %constant_182 = f32[] constant(0.9)
  %broadcast.274 = f32[7168]{0} broadcast(f32[] %constant_182), dimensions={}, metadata={op_name="parallelize(train_step_func_pipeshard_parallel_mesh_1)/jit(main)/jit(1)/jit(15)/jvp(WideResNet)/BottleneckResNetBlock_13/BatchNorm_2/mul" source_file="/home/cyxue/miniconda3/envs/alpa/lib/python3.8/site-packages/flax/linen/normalization.py" source_line=265}
  %multiply.215 = f32[7168]{0} multiply(f32[7168]{0} %param_1.659, f32[7168]{0} %broadcast.274), metadata={op_name="parallelize(train_step_func_pipeshard_parallel_mesh_1)/jit(main)/jit(1)/jit(15)/jvp(WideResNet)/BottleneckResNetBlock_13/BatchNorm_2/mul" source_file="/home/cyxue/miniconda3/envs/alpa/lib/python3.8/site-packages/flax/linen/normalization.py" source_line=267}
  %param_3.562 = f32[16,7168]{1,0} parameter(3)
  %constant_184_clone_1 = f32[] constant(0)
  %reduce.288.clone.1 = f32[7168]{0} reduce(f32[16,7168]{1,0} %param_3.562, f32[] %constant_184_clone_1), dimensions={0}, to_apply=%region_0.1142.1, metadata={op_name="parallelize(train_step_func_pipeshard_parallel_mesh_1)/jit(main)/jit(1)/jit(15)/jvp(WideResNet)/BottleneckResNetBlock_13/BatchNorm_2/reduce_sum[axes=(0, 1, 2)]" source_file="/home/cyxue/miniconda3/envs/alpa/lib/python3.8/site-packages/flax/linen/normalization.py" source_line=83}
  %constant_661_clone_1 = f32[] constant(0.00127551018)
  %broadcast.276.clone.1 = f32[7168]{0} broadcast(f32[] %constant_661_clone_1), dimensions={}, metadata={op_name="parallelize(train_step_func_pipeshard_parallel_mesh_1)/jit(main)/jit(1)/jit(15)/jvp(WideResNet)/BottleneckResNetBlock_13/BatchNorm_2/div" source_file="/home/cyxue/miniconda3/envs/alpa/lib/python3.8/site-packages/flax/linen/normalization.py" source_line=82}
  %multiply.217.clone.1 = f32[7168]{0} multiply(f32[7168]{0} %reduce.288.clone.1, f32[7168]{0} %broadcast.276.clone.1), metadata={op_name="parallelize(train_step_func_pipeshard_parallel_mesh_1)/jit(main)/jit(1)/jit(15)/jvp(WideResNet)/BottleneckResNetBlock_13/BatchNorm_2/div" source_file="/home/cyxue/miniconda3/envs/alpa/lib/python3.8/site-packages/flax/linen/normalization.py" source_line=83}
  %param_2.584 = f32[7168]{0} parameter(2)
  %multiply.475.clone.1 = f32[7168]{0} multiply(f32[7168]{0} %param_2.584, f32[7168]{0} %broadcast.276.clone.1), metadata={op_name="parallelize(train_step_func_pipeshard_parallel_mesh_1)/jit(main)/jit(1)/jit(15)/jvp(WideResNet)/BottleneckResNetBlock_13/BatchNorm_2/div" source_file="/home/cyxue/miniconda3/envs/alpa/lib/python3.8/site-packages/flax/linen/normalization.py" source_line=82}
  %multiply.216.clone.1 = f32[7168]{0} multiply(f32[7168]{0} %multiply.475.clone.1, f32[7168]{0} %multiply.475.clone.1), metadata={op_name="parallelize(train_step_func_pipeshard_parallel_mesh_1)/jit(main)/jit(1)/jit(15)/jvp(WideResNet)/BottleneckResNetBlock_13/BatchNorm_2/mul" source_file="/home/cyxue/miniconda3/envs/alpa/lib/python3.8/site-packages/flax/linen/normalization.py" source_line=46}
  %subtract.18.clone.1 = f32[7168]{0} subtract(f32[7168]{0} %multiply.217.clone.1, f32[7168]{0} %multiply.216.clone.1), metadata={op_name="parallelize(train_step_func_pipeshard_parallel_mesh_1)/jit(main)/jit(1)/jit(15)/jvp(WideResNet)/BottleneckResNetBlock_13/BatchNorm_2/sub" source_file="/home/cyxue/miniconda3/envs/alpa/lib/python3.8/site-packages/flax/linen/normalization.py" source_line=93}
  %broadcast.275.clone.1 = f32[7168]{0} broadcast(f32[] %constant_184_clone_1), dimensions={}, metadata={op_name="parallelize(train_step_func_pipeshard_parallel_mesh_1)/jit(main)/jit(1)/jit(15)/jvp(WideResNet)/BottleneckResNetBlock_13/BatchNorm_2/max" source_file="/home/cyxue/miniconda3/envs/alpa/lib/python3.8/site-packages/flax/linen/normalization.py" source_line=93}
  %maximum.15.clone.1 = f32[7168]{0} maximum(f32[7168]{0} %subtract.18.clone.1, f32[7168]{0} %broadcast.275.clone.1), metadata={op_name="parallelize(train_step_func_pipeshard_parallel_mesh_1)/jit(main)/jit(1)/jit(15)/jvp(WideResNet)/BottleneckResNetBlock_13/BatchNorm_2/max" source_file="/home/cyxue/miniconda3/envs/alpa/lib/python3.8/site-packages/flax/linen/normalization.py" source_line=93}
  %constant_181 = f32[] constant(0.1)
  %broadcast.273 = f32[7168]{0} broadcast(f32[] %constant_181), dimensions={}, metadata={op_name="parallelize(train_step_func_pipeshard_parallel_mesh_1)/jit(main)/jit(1)/jit(15)/jvp(WideResNet)/BottleneckResNetBlock_13/BatchNorm_2/mul" source_file="/home/cyxue/miniconda3/envs/alpa/lib/python3.8/site-packages/flax/linen/normalization.py" source_line=265}
  %multiply.214 = f32[7168]{0} multiply(f32[7168]{0} %maximum.15.clone.1, f32[7168]{0} %broadcast.273), metadata={op_name="parallelize(train_step_func_pipeshard_parallel_mesh_1)/jit(main)/jit(1)/jit(15)/jvp(WideResNet)/BottleneckResNetBlock_13/BatchNorm_2/mul" source_file="/home/cyxue/miniconda3/envs/alpa/lib/python3.8/site-packages/flax/linen/normalization.py" source_line=267}
  %add.80 = f32[7168]{0} add(f32[7168]{0} %multiply.215, f32[7168]{0} %multiply.214), metadata={op_name="parallelize(train_step_func_pipeshard_parallel_mesh_1)/jit(main)/jit(1)/jit(15)/jvp(WideResNet)/BottleneckResNetBlock_13/BatchNorm_2/add" source_file="/home/cyxue/miniconda3/envs/alpa/lib/python3.8/site-packages/flax/linen/normalization.py" source_line=267}
  %add.79 = f32[7168]{0} add(f32[7168]{0} %param_0.108, f32[7168]{0} %add.80), metadata={op_name="parallelize(train_step_func_pipeshard_parallel_mesh_1)/jit(main)/jit(1)/jit(15)/add"}
  %param_4.421 = f32[7168]{0} parameter(4)
  %param_5.247 = f32[7168]{0} parameter(5)
  %multiply.221.clone.1 = f32[7168]{0} multiply(f32[7168]{0} %param_5.247, f32[7168]{0} %broadcast.274), metadata={op_name="parallelize(train_step_func_pipeshard_parallel_mesh_1)/jit(main)/jit(1)/jit(15)/jvp(WideResNet)/BottleneckResNetBlock_13/BatchNorm_2/mul" source_file="/home/cyxue/miniconda3/envs/alpa/lib/python3.8/site-packages/flax/linen/normalization.py" source_line=265}
  %constant_187_clone_1 = f32[] constant(0.000127551015)
  %broadcast.278.clone.1 = f32[7168]{0} broadcast(f32[] %constant_187_clone_1), dimensions={}, metadata={op_name="parallelize(train_step_func_pipeshard_parallel_mesh_1)/jit(main)/jit(1)/jit(15)/jvp(WideResNet)/BottleneckResNetBlock_13/BatchNorm_2/mul" source_file="/home/cyxue/miniconda3/envs/alpa/lib/python3.8/site-packages/flax/linen/normalization.py" source_line=265}
  %multiply.220.clone.1 = f32[7168]{0} multiply(f32[7168]{0} %param_2.584, f32[7168]{0} %broadcast.278.clone.1), metadata={op_name="parallelize(train_step_func_pipeshard_parallel_mesh_1)/jit(main)/jit(1)/jit(15)/jvp(WideResNet)/BottleneckResNetBlock_13/BatchNorm_2/mul" source_file="/home/cyxue/miniconda3/envs/alpa/lib/python3.8/site-packages/flax/linen/normalization.py" source_line=265}
  %add.82.clone.1 = f32[7168]{0} add(f32[7168]{0} %multiply.221.clone.1, f32[7168]{0} %multiply.220.clone.1), metadata={op_name="parallelize(train_step_func_pipeshard_parallel_mesh_1)/jit(main)/jit(1)/jit(15)/jvp(WideResNet)/BottleneckResNetBlock_13/BatchNorm_2/add" source_file="/home/cyxue/miniconda3/envs/alpa/lib/python3.8/site-packages/flax/linen/normalization.py" source_line=265}
  %add.81.clone.1 = f32[7168]{0} add(f32[7168]{0} %param_4.421, f32[7168]{0} %add.82.clone.1), metadata={op_name="parallelize(train_step_func_pipeshard_parallel_mesh_1)/jit(main)/jit(1)/jit(15)/add"}
  ROOT %tuple.25 = (f32[7168]{0}, f32[7168]{0}, f32[7168]{0}) tuple(f32[7168]{0} %add.79, f32[7168]{0} %maximum.15.clone.1, f32[7168]{0} %add.81.clone.1)
}

%fused_computation.68 (param_0.354: f32[3584], param_1.577: f32[3584], param_2.461: f32[3584], param_3.465: f32[16,7,7,3584], param_4.349: f32[3584]) -> f32[16,7,7,3584] {
  %param_3.465 = f32[16,7,7,3584]{2,1,3,0} parameter(3)
  %param_4.349 = f32[3584]{0} parameter(4)
  %constant_652 = f32[] constant(0.00127551018)
  %broadcast.570 = f32[3584]{0} broadcast(f32[] %constant_652), dimensions={}, metadata={op_name="parallelize(train_step_func_pipeshard_parallel_mesh_1)/jit(main)/jit(1)/jit(15)/jvp(WideResNet)/BottleneckResNetBlock_13/BatchNorm_1/div" source_file="/home/cyxue/miniconda3/envs/alpa/lib/python3.8/site-packages/flax/linen/normalization.py" source_line=82}
  %multiply.469 = f32[3584]{0} multiply(f32[3584]{0} %param_4.349, f32[3584]{0} %broadcast.570), metadata={op_name="parallelize(train_step_func_pipeshard_parallel_mesh_1)/jit(main)/jit(1)/jit(15)/jvp(WideResNet)/BottleneckResNetBlock_13/BatchNorm_1/div" source_file="/home/cyxue/miniconda3/envs/alpa/lib/python3.8/site-packages/flax/linen/normalization.py" source_line=82}
  %broadcast.283 = f32[16,7,7,3584]{2,1,3,0} broadcast(f32[3584]{0} %multiply.469), dimensions={3}, metadata={op_name="parallelize(train_step_func_pipeshard_parallel_mesh_1)/jit(main)/jit(1)/jit(15)/jvp(WideResNet)/BottleneckResNetBlock_13/BatchNorm_1/sub" source_file="/home/cyxue/miniconda3/envs/alpa/lib/python3.8/site-packages/flax/linen/normalization.py" source_line=138}
  %subtract.19 = f32[16,7,7,3584]{2,1,3,0} subtract(f32[16,7,7,3584]{2,1,3,0} %param_3.465, f32[16,7,7,3584]{2,1,3,0} %broadcast.283), metadata={op_name="parallelize(train_step_func_pipeshard_parallel_mesh_1)/jit(main)/jit(1)/jit(15)/jvp(WideResNet)/BottleneckResNetBlock_13/BatchNorm_1/sub" source_file="/home/cyxue/miniconda3/envs/alpa/lib/python3.8/site-packages/flax/linen/normalization.py" source_line=138}
  %param_2.461 = f32[3584]{0} parameter(2)
  %constant_190 = f32[] constant(1e-05)
  %broadcast.284 = f32[3584]{0} broadcast(f32[] %constant_190), dimensions={}, metadata={op_name="parallelize(train_step_func_pipeshard_parallel_mesh_1)/jit(main)/jit(1)/jit(10)/jvp(WideResNet)/BottleneckResNetBlock_8/BatchNorm_2/add" source_file="/home/cyxue/miniconda3/envs/alpa/lib/python3.8/site-packages/flax/linen/normalization.py" source_line=139}
  %add.84 = f32[3584]{0} add(f32[3584]{0} %param_2.461, f32[3584]{0} %broadcast.284), metadata={op_name="parallelize(train_step_func_pipeshard_parallel_mesh_1)/jit(main)/jit(1)/jit(15)/jvp(WideResNet)/BottleneckResNetBlock_13/BatchNorm_1/add" source_file="/home/cyxue/miniconda3/envs/alpa/lib/python3.8/site-packages/flax/linen/normalization.py" source_line=139}
  %rsqrt.33 = f32[3584]{0} rsqrt(f32[3584]{0} %add.84), metadata={op_name="parallelize(train_step_func_pipeshard_parallel_mesh_1)/jit(main)/jit(1)/jit(15)/jvp(WideResNet)/BottleneckResNetBlock_13/BatchNorm_1/rsqrt" source_file="/home/cyxue/miniconda3/envs/alpa/lib/python3.8/site-packages/flax/linen/normalization.py" source_line=139}
  %param_1.577 = f32[3584]{0} parameter(1)
  %multiply.223 = f32[3584]{0} multiply(f32[3584]{0} %rsqrt.33, f32[3584]{0} %param_1.577), metadata={op_name="parallelize(train_step_func_pipeshard_parallel_mesh_1)/jit(main)/jit(1)/jit(15)/jvp(WideResNet)/BottleneckResNetBlock_13/BatchNorm_1/mul" source_file="/home/cyxue/miniconda3/envs/alpa/lib/python3.8/site-packages/flax/linen/normalization.py" source_line=144}
  %broadcast.282 = f32[16,7,7,3584]{2,1,3,0} broadcast(f32[3584]{0} %multiply.223), dimensions={3}, metadata={op_name="parallelize(train_step_func_pipeshard_parallel_mesh_1)/jit(main)/jit(1)/jit(15)/jvp(WideResNet)/BottleneckResNetBlock_13/BatchNorm_1/mul" source_file="/home/cyxue/miniconda3/envs/alpa/lib/python3.8/site-packages/flax/linen/normalization.py" source_line=146}
  %multiply.222 = f32[16,7,7,3584]{2,1,3,0} multiply(f32[16,7,7,3584]{2,1,3,0} %subtract.19, f32[16,7,7,3584]{2,1,3,0} %broadcast.282), metadata={op_name="parallelize(train_step_func_pipeshard_parallel_mesh_1)/jit(main)/jit(1)/jit(15)/jvp(WideResNet)/BottleneckResNetBlock_13/BatchNorm_1/mul" source_file="/home/cyxue/miniconda3/envs/alpa/lib/python3.8/site-packages/flax/linen/normalization.py" source_line=146}
  %param_0.354 = f32[3584]{0} parameter(0)
  %broadcast.281 = f32[16,7,7,3584]{2,1,3,0} broadcast(f32[3584]{0} %param_0.354), dimensions={3}, metadata={op_name="parallelize(train_step_func_pipeshard_parallel_mesh_1)/jit(main)/jit(1)/jit(15)/jvp(WideResNet)/BottleneckResNetBlock_13/BatchNorm_1/add" source_file="/home/cyxue/miniconda3/envs/alpa/lib/python3.8/site-packages/flax/linen/normalization.py" source_line=150}
  %add.83 = f32[16,7,7,3584]{2,1,3,0} add(f32[16,7,7,3584]{2,1,3,0} %multiply.222, f32[16,7,7,3584]{2,1,3,0} %broadcast.281), metadata={op_name="parallelize(train_step_func_pipeshard_parallel_mesh_1)/jit(main)/jit(1)/jit(15)/jvp(WideResNet)/BottleneckResNetBlock_13/BatchNorm_1/add" source_file="/home/cyxue/miniconda3/envs/alpa/lib/python3.8/site-packages/flax/linen/normalization.py" source_line=150}
  %constant_191 = f32[] constant(0)
  %broadcast.280 = f32[16,7,7,3584]{2,1,3,0} broadcast(f32[] %constant_191), dimensions={}, metadata={op_name="parallelize(train_step_func_pipeshard_parallel_mesh_1)/jit(main)/jit(1)/jit(15)/jvp(WideResNet)/BottleneckResNetBlock_13/max" source_file="/home/cyxue/Projects/crius/Crius/runtime/crius_worker/jax/model/wide_resnet.py" source_line=88}
  ROOT %maximum.16 = f32[16,7,7,3584]{2,1,3,0} maximum(f32[16,7,7,3584]{2,1,3,0} %add.83, f32[16,7,7,3584]{2,1,3,0} %broadcast.280), metadata={op_name="parallelize(train_step_func_pipeshard_parallel_mesh_1)/jit(main)/jit(1)/jit(15)/jvp(WideResNet)/BottleneckResNetBlock_13/max" source_file="/home/cyxue/Projects/crius/Crius/runtime/crius_worker/jax/model/wide_resnet.py" source_line=88}
}

%fused_computation.69 (param_0.119: f32[3584], param_1.662: f32[3584], param_2.588: f32[3584], param_3.567: f32[16,3584], param_4.427: f32[3584], param_5.254: f32[3584]) -> (f32[3584], f32[3584], f32[3584]) {
  %param_0.119 = f32[3584]{0} parameter(0)
  %param_1.662 = f32[3584]{0} parameter(1)
  %constant_193 = f32[] constant(0.9)
  %broadcast.286 = f32[3584]{0} broadcast(f32[] %constant_193), dimensions={}, metadata={op_name="parallelize(train_step_func_pipeshard_parallel_mesh_1)/jit(main)/jit(1)/jit(10)/jvp(WideResNet)/BottleneckResNetBlock_8/BatchNorm_2/mul" source_file="/home/cyxue/miniconda3/envs/alpa/lib/python3.8/site-packages/flax/linen/normalization.py" source_line=265}
  %multiply.225 = f32[3584]{0} multiply(f32[3584]{0} %param_1.662, f32[3584]{0} %broadcast.286), metadata={op_name="parallelize(train_step_func_pipeshard_parallel_mesh_1)/jit(main)/jit(1)/jit(15)/jvp(WideResNet)/BottleneckResNetBlock_13/BatchNorm_1/mul" source_file="/home/cyxue/miniconda3/envs/alpa/lib/python3.8/site-packages/flax/linen/normalization.py" source_line=267}
  %param_3.567 = f32[16,3584]{1,0} parameter(3)
  %constant_195_clone_1 = f32[] constant(0)
  %reduce.291.clone.1 = f32[3584]{0} reduce(f32[16,3584]{1,0} %param_3.567, f32[] %constant_195_clone_1), dimensions={0}, to_apply=%region_0.1142.1, metadata={op_name="parallelize(train_step_func_pipeshard_parallel_mesh_1)/jit(main)/jit(1)/jit(15)/jvp(WideResNet)/BottleneckResNetBlock_13/BatchNorm_1/reduce_sum[axes=(0, 1, 2)]" source_file="/home/cyxue/miniconda3/envs/alpa/lib/python3.8/site-packages/flax/linen/normalization.py" source_line=83}
  %constant_655_clone_1 = f32[] constant(0.00127551018)
  %broadcast.287.clone.1 = f32[3584]{0} broadcast(f32[] %constant_655_clone_1), dimensions={}, metadata={op_name="parallelize(train_step_func_pipeshard_parallel_mesh_1)/jit(main)/jit(1)/jit(15)/jvp(WideResNet)/BottleneckResNetBlock_13/BatchNorm_1/div" source_file="/home/cyxue/miniconda3/envs/alpa/lib/python3.8/site-packages/flax/linen/normalization.py" source_line=82}
  %multiply.227.clone.1 = f32[3584]{0} multiply(f32[3584]{0} %reduce.291.clone.1, f32[3584]{0} %broadcast.287.clone.1), metadata={op_name="parallelize(train_step_func_pipeshard_parallel_mesh_1)/jit(main)/jit(1)/jit(15)/jvp(WideResNet)/BottleneckResNetBlock_13/BatchNorm_1/div" source_file="/home/cyxue/miniconda3/envs/alpa/lib/python3.8/site-packages/flax/linen/normalization.py" source_line=83}
  %param_2.588 = f32[3584]{0} parameter(2)
  %multiply.471.clone.1 = f32[3584]{0} multiply(f32[3584]{0} %param_2.588, f32[3584]{0} %broadcast.287.clone.1), metadata={op_name="parallelize(train_step_func_pipeshard_parallel_mesh_1)/jit(main)/jit(1)/jit(15)/jvp(WideResNet)/BottleneckResNetBlock_13/BatchNorm_1/div" source_file="/home/cyxue/miniconda3/envs/alpa/lib/python3.8/site-packages/flax/linen/normalization.py" source_line=82}
  %multiply.226.clone.1 = f32[3584]{0} multiply(f32[3584]{0} %multiply.471.clone.1, f32[3584]{0} %multiply.471.clone.1), metadata={op_name="parallelize(train_step_func_pipeshard_parallel_mesh_1)/jit(main)/jit(1)/jit(15)/jvp(WideResNet)/BottleneckResNetBlock_13/BatchNorm_1/mul" source_file="/home/cyxue/miniconda3/envs/alpa/lib/python3.8/site-packages/flax/linen/normalization.py" source_line=46}
  %subtract.20.clone.1 = f32[3584]{0} subtract(f32[3584]{0} %multiply.227.clone.1, f32[3584]{0} %multiply.226.clone.1), metadata={op_name="parallelize(train_step_func_pipeshard_parallel_mesh_1)/jit(main)/jit(1)/jit(15)/jvp(WideResNet)/BottleneckResNetBlock_13/BatchNorm_1/sub" source_file="/home/cyxue/miniconda3/envs/alpa/lib/python3.8/site-packages/flax/linen/normalization.py" source_line=93}
  %broadcast.288.clone.1 = f32[3584]{0} broadcast(f32[] %constant_195_clone_1), dimensions={}, metadata={op_name="parallelize(train_step_func_pipeshard_parallel_mesh_1)/jit(main)/jit(1)/jit(10)/jvp(WideResNet)/BottleneckResNetBlock_8/BatchNorm_2/max" source_file="/home/cyxue/miniconda3/envs/alpa/lib/python3.8/site-packages/flax/linen/normalization.py" source_line=93}
  %maximum.17.clone.1 = f32[3584]{0} maximum(f32[3584]{0} %subtract.20.clone.1, f32[3584]{0} %broadcast.288.clone.1), metadata={op_name="parallelize(train_step_func_pipeshard_parallel_mesh_1)/jit(main)/jit(1)/jit(15)/jvp(WideResNet)/BottleneckResNetBlock_13/BatchNorm_1/max" source_file="/home/cyxue/miniconda3/envs/alpa/lib/python3.8/site-packages/flax/linen/normalization.py" source_line=93}
  %constant_192 = f32[] constant(0.1)
  %broadcast.285 = f32[3584]{0} broadcast(f32[] %constant_192), dimensions={}, metadata={op_name="parallelize(train_step_func_pipeshard_parallel_mesh_1)/jit(main)/jit(1)/jit(10)/jvp(WideResNet)/BottleneckResNetBlock_8/BatchNorm_2/mul" source_file="/home/cyxue/miniconda3/envs/alpa/lib/python3.8/site-packages/flax/linen/normalization.py" source_line=265}
  %multiply.224 = f32[3584]{0} multiply(f32[3584]{0} %maximum.17.clone.1, f32[3584]{0} %broadcast.285), metadata={op_name="parallelize(train_step_func_pipeshard_parallel_mesh_1)/jit(main)/jit(1)/jit(15)/jvp(WideResNet)/BottleneckResNetBlock_13/BatchNorm_1/mul" source_file="/home/cyxue/miniconda3/envs/alpa/lib/python3.8/site-packages/flax/linen/normalization.py" source_line=267}
  %add.86 = f32[3584]{0} add(f32[3584]{0} %multiply.225, f32[3584]{0} %multiply.224), metadata={op_name="parallelize(train_step_func_pipeshard_parallel_mesh_1)/jit(main)/jit(1)/jit(15)/jvp(WideResNet)/BottleneckResNetBlock_13/BatchNorm_1/add" source_file="/home/cyxue/miniconda3/envs/alpa/lib/python3.8/site-packages/flax/linen/normalization.py" source_line=267}
  %add.85 = f32[3584]{0} add(f32[3584]{0} %param_0.119, f32[3584]{0} %add.86), metadata={op_name="parallelize(train_step_func_pipeshard_parallel_mesh_1)/jit(main)/jit(1)/jit(15)/add"}
  %param_4.427 = f32[3584]{0} parameter(4)
  %param_5.254 = f32[3584]{0} parameter(5)
  %multiply.231.clone.1 = f32[3584]{0} multiply(f32[3584]{0} %param_5.254, f32[3584]{0} %broadcast.286), metadata={op_name="parallelize(train_step_func_pipeshard_parallel_mesh_1)/jit(main)/jit(1)/jit(15)/jvp(WideResNet)/BottleneckResNetBlock_13/BatchNorm_1/mul" source_file="/home/cyxue/miniconda3/envs/alpa/lib/python3.8/site-packages/flax/linen/normalization.py" source_line=265}
  %constant_198_clone_1 = f32[] constant(0.000127551015)
  %broadcast.290.clone.1 = f32[3584]{0} broadcast(f32[] %constant_198_clone_1), dimensions={}, metadata={op_name="parallelize(train_step_func_pipeshard_parallel_mesh_1)/jit(main)/jit(1)/jit(15)/jvp(WideResNet)/BottleneckResNetBlock_13/BatchNorm_1/mul" source_file="/home/cyxue/miniconda3/envs/alpa/lib/python3.8/site-packages/flax/linen/normalization.py" source_line=265}
  %multiply.230.clone.1 = f32[3584]{0} multiply(f32[3584]{0} %param_2.588, f32[3584]{0} %broadcast.290.clone.1), metadata={op_name="parallelize(train_step_func_pipeshard_parallel_mesh_1)/jit(main)/jit(1)/jit(15)/jvp(WideResNet)/BottleneckResNetBlock_13/BatchNorm_1/mul" source_file="/home/cyxue/miniconda3/envs/alpa/lib/python3.8/site-packages/flax/linen/normalization.py" source_line=265}
  %add.88.clone.1 = f32[3584]{0} add(f32[3584]{0} %multiply.231.clone.1, f32[3584]{0} %multiply.230.clone.1), metadata={op_name="parallelize(train_step_func_pipeshard_parallel_mesh_1)/jit(main)/jit(1)/jit(15)/jvp(WideResNet)/BottleneckResNetBlock_13/BatchNorm_1/add" source_file="/home/cyxue/miniconda3/envs/alpa/lib/python3.8/site-packages/flax/linen/normalization.py" source_line=265}
  %add.87.clone.1 = f32[3584]{0} add(f32[3584]{0} %param_4.427, f32[3584]{0} %add.88.clone.1), metadata={op_name="parallelize(train_step_func_pipeshard_parallel_mesh_1)/jit(main)/jit(1)/jit(15)/add"}
  ROOT %tuple.28 = (f32[3584]{0}, f32[3584]{0}, f32[3584]{0}) tuple(f32[3584]{0} %add.85, f32[3584]{0} %maximum.17.clone.1, f32[3584]{0} %add.87.clone.1)
}

%fused_computation.75 (param_0.357: f32[1792], param_1.579: f32[1792], param_2.464: f32[1792], param_3.468: f32[16,14,14,1792], param_4.348: f32[1792]) -> f32[16,15,15,1792] {
  %param_3.468 = f32[16,14,14,1792]{2,1,3,0} parameter(3)
  %param_4.348 = f32[1792]{0} parameter(4)
  %constant_646 = f32[] constant(0.000318877544)
  %broadcast.566 = f32[1792]{0} broadcast(f32[] %constant_646), dimensions={}, metadata={op_name="parallelize(train_step_func_pipeshard_parallel_mesh_1)/jit(main)/jit(1)/jit(10)/jvp(WideResNet)/BottleneckResNetBlock_8/BatchNorm_1/div" source_file="/home/cyxue/miniconda3/envs/alpa/lib/python3.8/site-packages/flax/linen/normalization.py" source_line=82}
  %multiply.465 = f32[1792]{0} multiply(f32[1792]{0} %param_4.348, f32[1792]{0} %broadcast.566), metadata={op_name="parallelize(train_step_func_pipeshard_parallel_mesh_1)/jit(main)/jit(1)/jit(15)/jvp(WideResNet)/BottleneckResNetBlock_13/BatchNorm_0/div" source_file="/home/cyxue/miniconda3/envs/alpa/lib/python3.8/site-packages/flax/linen/normalization.py" source_line=82}
  %broadcast.294 = f32[16,14,14,1792]{2,1,3,0} broadcast(f32[1792]{0} %multiply.465), dimensions={3}, metadata={op_name="parallelize(train_step_func_pipeshard_parallel_mesh_1)/jit(main)/jit(1)/jit(15)/jvp(WideResNet)/BottleneckResNetBlock_13/BatchNorm_0/sub" source_file="/home/cyxue/miniconda3/envs/alpa/lib/python3.8/site-packages/flax/linen/normalization.py" source_line=138}
  %subtract.21 = f32[16,14,14,1792]{2,1,3,0} subtract(f32[16,14,14,1792]{2,1,3,0} %param_3.468, f32[16,14,14,1792]{2,1,3,0} %broadcast.294), metadata={op_name="parallelize(train_step_func_pipeshard_parallel_mesh_1)/jit(main)/jit(1)/jit(15)/jvp(WideResNet)/BottleneckResNetBlock_13/BatchNorm_0/sub" source_file="/home/cyxue/miniconda3/envs/alpa/lib/python3.8/site-packages/flax/linen/normalization.py" source_line=138}
  %param_2.464 = f32[1792]{0} parameter(2)
  %constant_201 = f32[] constant(1e-05)
  %broadcast.296 = f32[1792]{0} broadcast(f32[] %constant_201), dimensions={}, metadata={op_name="parallelize(train_step_func_pipeshard_parallel_mesh_1)/jit(main)/jit(1)/jit(10)/jvp(WideResNet)/BottleneckResNetBlock_8/BatchNorm_1/add" source_file="/home/cyxue/miniconda3/envs/alpa/lib/python3.8/site-packages/flax/linen/normalization.py" source_line=139}
  %add.90 = f32[1792]{0} add(f32[1792]{0} %param_2.464, f32[1792]{0} %broadcast.296), metadata={op_name="parallelize(train_step_func_pipeshard_parallel_mesh_1)/jit(main)/jit(1)/jit(15)/jvp(WideResNet)/BottleneckResNetBlock_13/BatchNorm_0/add" source_file="/home/cyxue/miniconda3/envs/alpa/lib/python3.8/site-packages/flax/linen/normalization.py" source_line=139}
  %rsqrt.34 = f32[1792]{0} rsqrt(f32[1792]{0} %add.90), metadata={op_name="parallelize(train_step_func_pipeshard_parallel_mesh_1)/jit(main)/jit(1)/jit(15)/jvp(WideResNet)/BottleneckResNetBlock_13/BatchNorm_0/rsqrt" source_file="/home/cyxue/miniconda3/envs/alpa/lib/python3.8/site-packages/flax/linen/normalization.py" source_line=139}
  %param_1.579 = f32[1792]{0} parameter(1)
  %multiply.233 = f32[1792]{0} multiply(f32[1792]{0} %rsqrt.34, f32[1792]{0} %param_1.579), metadata={op_name="parallelize(train_step_func_pipeshard_parallel_mesh_1)/jit(main)/jit(1)/jit(15)/jvp(WideResNet)/BottleneckResNetBlock_13/BatchNorm_0/mul" source_file="/home/cyxue/miniconda3/envs/alpa/lib/python3.8/site-packages/flax/linen/normalization.py" source_line=144}
  %broadcast.293 = f32[16,14,14,1792]{2,1,3,0} broadcast(f32[1792]{0} %multiply.233), dimensions={3}, metadata={op_name="parallelize(train_step_func_pipeshard_parallel_mesh_1)/jit(main)/jit(1)/jit(15)/jvp(WideResNet)/BottleneckResNetBlock_13/BatchNorm_0/mul" source_file="/home/cyxue/miniconda3/envs/alpa/lib/python3.8/site-packages/flax/linen/normalization.py" source_line=146}
  %multiply.232 = f32[16,14,14,1792]{2,1,3,0} multiply(f32[16,14,14,1792]{2,1,3,0} %subtract.21, f32[16,14,14,1792]{2,1,3,0} %broadcast.293), metadata={op_name="parallelize(train_step_func_pipeshard_parallel_mesh_1)/jit(main)/jit(1)/jit(15)/jvp(WideResNet)/BottleneckResNetBlock_13/BatchNorm_0/mul" source_file="/home/cyxue/miniconda3/envs/alpa/lib/python3.8/site-packages/flax/linen/normalization.py" source_line=146}
  %param_0.357 = f32[1792]{0} parameter(0)
  %broadcast.292 = f32[16,14,14,1792]{2,1,3,0} broadcast(f32[1792]{0} %param_0.357), dimensions={3}, metadata={op_name="parallelize(train_step_func_pipeshard_parallel_mesh_1)/jit(main)/jit(1)/jit(15)/jvp(WideResNet)/BottleneckResNetBlock_13/BatchNorm_0/add" source_file="/home/cyxue/miniconda3/envs/alpa/lib/python3.8/site-packages/flax/linen/normalization.py" source_line=150}
  %add.89 = f32[16,14,14,1792]{2,1,3,0} add(f32[16,14,14,1792]{2,1,3,0} %multiply.232, f32[16,14,14,1792]{2,1,3,0} %broadcast.292), metadata={op_name="parallelize(train_step_func_pipeshard_parallel_mesh_1)/jit(main)/jit(1)/jit(15)/jvp(WideResNet)/BottleneckResNetBlock_13/BatchNorm_0/add" source_file="/home/cyxue/miniconda3/envs/alpa/lib/python3.8/site-packages/flax/linen/normalization.py" source_line=150}
  %constant_202 = f32[] constant(0)
  %broadcast.295 = f32[16,14,14,1792]{2,1,3,0} broadcast(f32[] %constant_202), dimensions={}, metadata={op_name="parallelize(train_step_func_pipeshard_parallel_mesh_1)/jit(main)/jit(1)/jit(10)/jvp(WideResNet)/BottleneckResNetBlock_8/max" source_file="/home/cyxue/Projects/crius/Crius/runtime/crius_worker/jax/model/wide_resnet.py" source_line=88}
  %maximum.18 = f32[16,14,14,1792]{2,1,3,0} maximum(f32[16,14,14,1792]{2,1,3,0} %add.89, f32[16,14,14,1792]{2,1,3,0} %broadcast.295), metadata={op_name="parallelize(train_step_func_pipeshard_parallel_mesh_1)/jit(main)/jit(1)/jit(15)/jvp(WideResNet)/BottleneckResNetBlock_13/max" source_file="/home/cyxue/Projects/crius/Crius/runtime/crius_worker/jax/model/wide_resnet.py" source_line=85}
  ROOT %pad.1 = f32[16,15,15,1792]{2,1,3,0} pad(f32[16,14,14,1792]{2,1,3,0} %maximum.18, f32[] %constant_202), padding=0_0x0_1x0_1x0_0, metadata={op_name="parallelize(train_step_func_pipeshard_parallel_mesh_1)/jit(main)/jit(1)/jit(15)/jvp(WideResNet)/BottleneckResNetBlock_13/max" source_file="/home/cyxue/Projects/crius/Crius/runtime/crius_worker/jax/model/wide_resnet.py" source_line=85}
}

%fused_computation.76 (param_0.131: f32[1792], param_1.665: f32[1792], param_2.592: f32[1792], param_3.572: f32[16,1792], param_4.433: f32[1792], param_5.261: f32[1792]) -> (f32[1792], f32[1792], f32[1792]) {
  %param_0.131 = f32[1792]{0} parameter(0)
  %param_1.665 = f32[1792]{0} parameter(1)
  %constant_204 = f32[] constant(0.9)
  %broadcast.298 = f32[1792]{0} broadcast(f32[] %constant_204), dimensions={}, metadata={op_name="parallelize(train_step_func_pipeshard_parallel_mesh_1)/jit(main)/jit(1)/jit(10)/jvp(WideResNet)/BottleneckResNetBlock_8/BatchNorm_1/mul" source_file="/home/cyxue/miniconda3/envs/alpa/lib/python3.8/site-packages/flax/linen/normalization.py" source_line=265}
  %multiply.235 = f32[1792]{0} multiply(f32[1792]{0} %param_1.665, f32[1792]{0} %broadcast.298), metadata={op_name="parallelize(train_step_func_pipeshard_parallel_mesh_1)/jit(main)/jit(1)/jit(15)/jvp(WideResNet)/BottleneckResNetBlock_13/BatchNorm_0/mul" source_file="/home/cyxue/miniconda3/envs/alpa/lib/python3.8/site-packages/flax/linen/normalization.py" source_line=267}
  %param_3.572 = f32[16,1792]{1,0} parameter(3)
  %constant_206_clone_1 = f32[] constant(0)
  %reduce.294.clone.1 = f32[1792]{0} reduce(f32[16,1792]{1,0} %param_3.572, f32[] %constant_206_clone_1), dimensions={0}, to_apply=%region_0.1142.1, metadata={op_name="parallelize(train_step_func_pipeshard_parallel_mesh_1)/jit(main)/jit(1)/jit(15)/jvp(WideResNet)/BottleneckResNetBlock_13/BatchNorm_0/reduce_sum[axes=(0, 1, 2)]" source_file="/home/cyxue/miniconda3/envs/alpa/lib/python3.8/site-packages/flax/linen/normalization.py" source_line=83}
  %constant_649_clone_1 = f32[] constant(0.000318877544)
  %broadcast.300.clone.1 = f32[1792]{0} broadcast(f32[] %constant_649_clone_1), dimensions={}, metadata={op_name="parallelize(train_step_func_pipeshard_parallel_mesh_1)/jit(main)/jit(1)/jit(10)/jvp(WideResNet)/BottleneckResNetBlock_8/BatchNorm_1/div" source_file="/home/cyxue/miniconda3/envs/alpa/lib/python3.8/site-packages/flax/linen/normalization.py" source_line=82}
  %multiply.237.clone.1 = f32[1792]{0} multiply(f32[1792]{0} %reduce.294.clone.1, f32[1792]{0} %broadcast.300.clone.1), metadata={op_name="parallelize(train_step_func_pipeshard_parallel_mesh_1)/jit(main)/jit(1)/jit(15)/jvp(WideResNet)/BottleneckResNetBlock_13/BatchNorm_0/div" source_file="/home/cyxue/miniconda3/envs/alpa/lib/python3.8/site-packages/flax/linen/normalization.py" source_line=83}
  %param_2.592 = f32[1792]{0} parameter(2)
  %multiply.467.clone.1 = f32[1792]{0} multiply(f32[1792]{0} %param_2.592, f32[1792]{0} %broadcast.300.clone.1), metadata={op_name="parallelize(train_step_func_pipeshard_parallel_mesh_1)/jit(main)/jit(1)/jit(15)/jvp(WideResNet)/BottleneckResNetBlock_13/BatchNorm_0/div" source_file="/home/cyxue/miniconda3/envs/alpa/lib/python3.8/site-packages/flax/linen/normalization.py" source_line=82}
  %multiply.236.clone.1 = f32[1792]{0} multiply(f32[1792]{0} %multiply.467.clone.1, f32[1792]{0} %multiply.467.clone.1), metadata={op_name="parallelize(train_step_func_pipeshard_parallel_mesh_1)/jit(main)/jit(1)/jit(15)/jvp(WideResNet)/BottleneckResNetBlock_13/BatchNorm_0/mul" source_file="/home/cyxue/miniconda3/envs/alpa/lib/python3.8/site-packages/flax/linen/normalization.py" source_line=46}
  %subtract.22.clone.1 = f32[1792]{0} subtract(f32[1792]{0} %multiply.237.clone.1, f32[1792]{0} %multiply.236.clone.1), metadata={op_name="parallelize(train_step_func_pipeshard_parallel_mesh_1)/jit(main)/jit(1)/jit(15)/jvp(WideResNet)/BottleneckResNetBlock_13/BatchNorm_0/sub" source_file="/home/cyxue/miniconda3/envs/alpa/lib/python3.8/site-packages/flax/linen/normalization.py" source_line=93}
  %broadcast.299.clone.1 = f32[1792]{0} broadcast(f32[] %constant_206_clone_1), dimensions={}, metadata={op_name="parallelize(train_step_func_pipeshard_parallel_mesh_1)/jit(main)/jit(1)/jit(10)/jvp(WideResNet)/BottleneckResNetBlock_8/BatchNorm_1/max" source_file="/home/cyxue/miniconda3/envs/alpa/lib/python3.8/site-packages/flax/linen/normalization.py" source_line=93}
  %maximum.19.clone.1 = f32[1792]{0} maximum(f32[1792]{0} %subtract.22.clone.1, f32[1792]{0} %broadcast.299.clone.1), metadata={op_name="parallelize(train_step_func_pipeshard_parallel_mesh_1)/jit(main)/jit(1)/jit(15)/jvp(WideResNet)/BottleneckResNetBlock_13/BatchNorm_0/max" source_file="/home/cyxue/miniconda3/envs/alpa/lib/python3.8/site-packages/flax/linen/normalization.py" source_line=93}
  %constant_203 = f32[] constant(0.1)
  %broadcast.297 = f32[1792]{0} broadcast(f32[] %constant_203), dimensions={}, metadata={op_name="parallelize(train_step_func_pipeshard_parallel_mesh_1)/jit(main)/jit(1)/jit(10)/jvp(WideResNet)/BottleneckResNetBlock_8/BatchNorm_1/mul" source_file="/home/cyxue/miniconda3/envs/alpa/lib/python3.8/site-packages/flax/linen/normalization.py" source_line=265}
  %multiply.234 = f32[1792]{0} multiply(f32[1792]{0} %maximum.19.clone.1, f32[1792]{0} %broadcast.297), metadata={op_name="parallelize(train_step_func_pipeshard_parallel_mesh_1)/jit(main)/jit(1)/jit(15)/jvp(WideResNet)/BottleneckResNetBlock_13/BatchNorm_0/mul" source_file="/home/cyxue/miniconda3/envs/alpa/lib/python3.8/site-packages/flax/linen/normalization.py" source_line=267}
  %add.92 = f32[1792]{0} add(f32[1792]{0} %multiply.235, f32[1792]{0} %multiply.234), metadata={op_name="parallelize(train_step_func_pipeshard_parallel_mesh_1)/jit(main)/jit(1)/jit(15)/jvp(WideResNet)/BottleneckResNetBlock_13/BatchNorm_0/add" source_file="/home/cyxue/miniconda3/envs/alpa/lib/python3.8/site-packages/flax/linen/normalization.py" source_line=267}
  %add.91 = f32[1792]{0} add(f32[1792]{0} %param_0.131, f32[1792]{0} %add.92), metadata={op_name="parallelize(train_step_func_pipeshard_parallel_mesh_1)/jit(main)/jit(1)/jit(15)/add"}
  %param_4.433 = f32[1792]{0} parameter(4)
  %param_5.261 = f32[1792]{0} parameter(5)
  %multiply.241.clone.1 = f32[1792]{0} multiply(f32[1792]{0} %param_5.261, f32[1792]{0} %broadcast.298), metadata={op_name="parallelize(train_step_func_pipeshard_parallel_mesh_1)/jit(main)/jit(1)/jit(15)/jvp(WideResNet)/BottleneckResNetBlock_13/BatchNorm_0/mul" source_file="/home/cyxue/miniconda3/envs/alpa/lib/python3.8/site-packages/flax/linen/normalization.py" source_line=265}
  %constant_210_clone_1 = f32[] constant(3.18877537e-05)
  %broadcast.302.clone.1 = f32[1792]{0} broadcast(f32[] %constant_210_clone_1), dimensions={}, metadata={op_name="parallelize(train_step_func_pipeshard_parallel_mesh_1)/jit(main)/jit(1)/jit(10)/jvp(WideResNet)/BottleneckResNetBlock_8/BatchNorm_1/mul" source_file="/home/cyxue/miniconda3/envs/alpa/lib/python3.8/site-packages/flax/linen/normalization.py" source_line=265}
  %multiply.240.clone.1 = f32[1792]{0} multiply(f32[1792]{0} %param_2.592, f32[1792]{0} %broadcast.302.clone.1), metadata={op_name="parallelize(train_step_func_pipeshard_parallel_mesh_1)/jit(main)/jit(1)/jit(15)/jvp(WideResNet)/BottleneckResNetBlock_13/BatchNorm_0/mul" source_file="/home/cyxue/miniconda3/envs/alpa/lib/python3.8/site-packages/flax/linen/normalization.py" source_line=265}
  %add.94.clone.1 = f32[1792]{0} add(f32[1792]{0} %multiply.241.clone.1, f32[1792]{0} %multiply.240.clone.1), metadata={op_name="parallelize(train_step_func_pipeshard_parallel_mesh_1)/jit(main)/jit(1)/jit(15)/jvp(WideResNet)/BottleneckResNetBlock_13/BatchNorm_0/add" source_file="/home/cyxue/miniconda3/envs/alpa/lib/python3.8/site-packages/flax/linen/normalization.py" source_line=265}
  %add.93.clone.1 = f32[1792]{0} add(f32[1792]{0} %param_4.433, f32[1792]{0} %add.94.clone.1), metadata={op_name="parallelize(train_step_func_pipeshard_parallel_mesh_1)/jit(main)/jit(1)/jit(15)/add"}
  ROOT %tuple.42 = (f32[1792]{0}, f32[1792]{0}, f32[1792]{0}) tuple(f32[1792]{0} %add.91, f32[1792]{0} %maximum.19.clone.1, f32[1792]{0} %add.93.clone.1)
}

%fused_computation.83 (param_0.144: f32[3584], param_1.673: f32[3584], param_2.600: f32[3584], param_3.582: f32[16,3584], param_4.443: f32[3584], param_5.273: f32[3584]) -> (f32[3584], f32[3584], f32[3584]) {
  %param_0.144 = f32[3584]{0} parameter(0)
  %param_1.673 = f32[3584]{0} parameter(1)
  %constant_215 = f32[] constant(0.9)
  %broadcast.310 = f32[3584]{0} broadcast(f32[] %constant_215), dimensions={}, metadata={op_name="parallelize(train_step_func_pipeshard_parallel_mesh_1)/jit(main)/jit(1)/jit(10)/jvp(WideResNet)/BottleneckResNetBlock_8/BatchNorm_2/mul" source_file="/home/cyxue/miniconda3/envs/alpa/lib/python3.8/site-packages/flax/linen/normalization.py" source_line=265}
  %multiply.245 = f32[3584]{0} multiply(f32[3584]{0} %param_1.673, f32[3584]{0} %broadcast.310), metadata={op_name="parallelize(train_step_func_pipeshard_parallel_mesh_1)/jit(main)/jit(1)/jit(14)/jvp(WideResNet)/BottleneckResNetBlock_12/BatchNorm_2/mul" source_file="/home/cyxue/miniconda3/envs/alpa/lib/python3.8/site-packages/flax/linen/normalization.py" source_line=267}
  %param_3.582 = f32[16,3584]{1,0} parameter(3)
  %constant_217_clone_1 = f32[] constant(0)
  %reduce.297.clone.1 = f32[3584]{0} reduce(f32[16,3584]{1,0} %param_3.582, f32[] %constant_217_clone_1), dimensions={0}, to_apply=%region_0.1142.1, metadata={op_name="parallelize(train_step_func_pipeshard_parallel_mesh_1)/jit(main)/jit(1)/jit(14)/jvp(WideResNet)/BottleneckResNetBlock_12/BatchNorm_2/reduce_sum[axes=(0, 1, 2)]" source_file="/home/cyxue/miniconda3/envs/alpa/lib/python3.8/site-packages/flax/linen/normalization.py" source_line=83}
  %constant_643_clone_1 = f32[] constant(0.000318877544)
  %broadcast.312.clone.1 = f32[3584]{0} broadcast(f32[] %constant_643_clone_1), dimensions={}, metadata={op_name="parallelize(train_step_func_pipeshard_parallel_mesh_1)/jit(main)/jit(1)/jit(10)/jvp(WideResNet)/BottleneckResNetBlock_8/BatchNorm_2/div" source_file="/home/cyxue/miniconda3/envs/alpa/lib/python3.8/site-packages/flax/linen/normalization.py" source_line=82}
  %multiply.247.clone.1 = f32[3584]{0} multiply(f32[3584]{0} %reduce.297.clone.1, f32[3584]{0} %broadcast.312.clone.1), metadata={op_name="parallelize(train_step_func_pipeshard_parallel_mesh_1)/jit(main)/jit(1)/jit(14)/jvp(WideResNet)/BottleneckResNetBlock_12/BatchNorm_2/div" source_file="/home/cyxue/miniconda3/envs/alpa/lib/python3.8/site-packages/flax/linen/normalization.py" source_line=83}
  %param_2.600 = f32[3584]{0} parameter(2)
…
umbers(lhs_spec=(0, 3, 1, 2), rhs_spec=(3, 2, 0, 1), out_spec=(0, 3, 1, 2)) feature_group_count=1 batch_group_count=1 lhs_shape=(16, 14, 14, 1792) rhs_shape=(3, 3, 1792, 3584) precision=None preferred_element_type=None]" source_file="/home/cyxue/miniconda3/envs/alpa/lib/python3.8/site-packages/flax/linen/linear.py" source_line=435}
  %bitcast.254 = f32[16,3584,49]{2,1,0} bitcast(f32[16,7,7,3584]{2,1,3,0} %get-tuple-element.18)
  %fusion.74 = (f32[16,3584]{1,0}, f32[16,3584]{1,0}) fusion(f32[16,3584,49]{2,1,0} %bitcast.254), kind=kInput, calls=%fused_computation.74.clone
  %get-tuple-element.133 = f32[16,3584]{1,0} get-tuple-element((f32[16,3584]{1,0}, f32[16,3584]{1,0}) %fusion.74), index=0
  %reduce.223 = f32[3584]{0} reduce(f32[16,3584]{1,0} %get-tuple-element.133, f32[] %constant_535), dimensions={0}, to_apply=%region_0.1142.1, metadata={op_name="parallelize(train_step_func_pipeshard_parallel_mesh_1)/jit(main)/jit(1)/jit(15)/jvp(WideResNet)/BottleneckResNetBlock_13/BatchNorm_1/reduce_sum[axes=(0, 1, 2)]" source_file="/home/cyxue/miniconda3/envs/alpa/lib/python3.8/site-packages/flax/linen/normalization.py" source_line=82}
  %get-tuple-element.134 = f32[16,3584]{1,0} get-tuple-element((f32[16,3584]{1,0}, f32[16,3584]{1,0}) %fusion.74), index=1
  %param_32 = f32[3584]{0} parameter(32), metadata={op_name="1$start"}
  %param_143 = f32[3584]{0} parameter(143), metadata={op_name="1$start"}
  %fusion.69 = (f32[3584]{0}, f32[3584]{0}, f32[3584]{0}) fusion(f32[3584]{0} %param_33, f32[3584]{0} %param_144, f32[3584]{0} %reduce.223, f32[16,3584]{1,0} %get-tuple-element.134, f32[3584]{0} %param_32, /*index=5*/f32[3584]{0} %param_143), kind=kLoop, calls=%fused_computation.69, metadata={op_name="parallelize(train_step_func_pipeshard_parallel_mesh_1)/jit(main)/jit(1)/jit(15)/add"}
  %get-tuple-element.258 = f32[3584]{0} get-tuple-element((f32[3584]{0}, f32[3584]{0}, f32[3584]{0}) %fusion.69), index=2
  %get-tuple-element.259 = f32[3584]{0} get-tuple-element((f32[3584]{0}, f32[3584]{0}, f32[3584]{0}) %fusion.69), index=0
  %param_35 = f32[7168]{0} parameter(35), metadata={op_name="1$start"}
  %param_146 = f32[7168]{0} parameter(146), metadata={op_name="1$start"}
  %param_134 = f32[3584]{0} parameter(134), metadata={op_name="1$start"}
  %param_133 = f32[3584]{0} parameter(133), metadata={op_name="1$start"}
  %get-tuple-element.131 = f32[3584]{0} get-tuple-element((f32[3584]{0}, f32[3584]{0}, f32[3584]{0}) %fusion.69), index=1
  %fusion.68 = f32[16,7,7,3584]{2,1,3,0} fusion(f32[3584]{0} %param_134, f32[3584]{0} %param_133, f32[3584]{0} %get-tuple-element.131, f32[16,7,7,3584]{2,1,3,0} %get-tuple-element.18, f32[3584]{0} %reduce.223), kind=kLoop, calls=%fused_computation.68, metadata={op_name="parallelize(train_step_func_pipeshard_parallel_mesh_1)/jit(main)/jit(1)/jit(15)/jvp(WideResNet)/BottleneckResNetBlock_13/max" source_file="/home/cyxue/Projects/crius/Crius/runtime/crius_worker/jax/model/wide_resnet.py" source_line=88}
  %param_135 = f32[1,1,3584,7168]{3,2,1,0} parameter(135), metadata={op_name="1$start"}
  %copy.18 = f32[1,1,3584,7168]{1,0,2,3} copy(f32[1,1,3584,7168]{3,2,1,0} %param_135), metadata={op_name="1$start"}
  %cudnn-conv.18 = (f32[16,7,7,7168]{2,1,3,0}, u8[0]{0}) custom-call(f32[16,7,7,3584]{2,1,3,0} %fusion.68, f32[1,1,3584,7168]{1,0,2,3} %copy.18), window={size=1x1}, dim_labels=b01f_01io->b01f, custom_call_target="__cudnn$convForward", metadata={op_name="parallelize(train_step_func_pipeshard_parallel_mesh_1)/jit(main)/jit(1)/jit(15)/jvp(WideResNet)/BottleneckResNetBlock_13/Conv_2/conv_general_dilated[window_strides=(1, 1) padding=((0, 0), (0, 0)) lhs_dilation=(1, 1) rhs_dilation=(1, 1) dimension_numbers=ConvDimensionNumbers(lhs_spec=(0, 3, 1, 2), rhs_spec=(3, 2, 0, 1), out_spec=(0, 3, 1, 2)) feature_group_count=1 batch_group_count=1 lhs_shape=(16, 7, 7, 3584) rhs_shape=(1, 1, 3584, 7168) precision=None preferred_element_type=None]" source_file="/home/cyxue/miniconda3/envs/alpa/lib/python3.8/site-packages/flax/linen/linear.py" source_line=435}, backend_config="{\"conv_result_scale\":1,\"activation_mode\":\"0\",\"side_input_scale\":0}"
  %get-tuple-element.19 = f32[16,7,7,7168]{2,1,3,0} get-tuple-element((f32[16,7,7,7168]{2,1,3,0}, u8[0]{0}) %cudnn-conv.18), index=0, metadata={op_name="parallelize(train_step_func_pipeshard_parallel_mesh_1)/jit(main)/jit(1)/jit(15)/jvp(WideResNet)/BottleneckResNetBlock_13/Conv_2/conv_general_dilated[window_strides=(1, 1) padding=((0, 0), (0, 0)) lhs_dilation=(1, 1) rhs_dilation=(1, 1) dimension_numbers=ConvDimensionNumbers(lhs_spec=(0, 3, 1, 2), rhs_spec=(3, 2, 0, 1), out_spec=(0, 3, 1, 2)) feature_group_count=1 batch_group_count=1 lhs_shape=(16, 7, 7, 3584) rhs_shape=(1, 1, 3584, 7168) precision=None preferred_element_type=None]" source_file="/home/cyxue/miniconda3/envs/alpa/lib/python3.8/site-packages/flax/linen/linear.py" source_line=435}
  %bitcast.250 = f32[16,7168,49]{2,1,0} bitcast(f32[16,7,7,7168]{2,1,3,0} %get-tuple-element.19)
  %fusion.67 = (f32[16,7168]{1,0}, f32[16,7168]{1,0}) fusion(f32[16,7168,49]{2,1,0} %bitcast.250), kind=kInput, calls=%fused_computation.67.clone
  %get-tuple-element.128 = f32[16,7168]{1,0} get-tuple-element((f32[16,7168]{1,0}, f32[16,7168]{1,0}) %fusion.67), index=0
  %reduce.225 = f32[7168]{0} reduce(f32[16,7168]{1,0} %get-tuple-element.128, f32[] %constant_535), dimensions={0}, to_apply=%region_0.1142.1, metadata={op_name="parallelize(train_step_func_pipeshard_parallel_mesh_1)/jit(main)/jit(1)/jit(15)/jvp(WideResNet)/BottleneckResNetBlock_13/BatchNorm_2/reduce_sum[axes=(0, 1, 2)]" source_file="/home/cyxue/miniconda3/envs/alpa/lib/python3.8/site-packages/flax/linen/normalization.py" source_line=82}
  %get-tuple-element.129 = f32[16,7168]{1,0} get-tuple-element((f32[16,7168]{1,0}, f32[16,7168]{1,0}) %fusion.67), index=1
  %param_34 = f32[7168]{0} parameter(34), metadata={op_name="1$start"}
  %param_145 = f32[7168]{0} parameter(145), metadata={op_name="1$start"}
  %fusion.62 = (f32[7168]{0}, f32[7168]{0}, f32[7168]{0}) fusion(f32[7168]{0} %param_35, f32[7168]{0} %param_146, f32[7168]{0} %reduce.225, f32[16,7168]{1,0} %get-tuple-element.129, f32[7168]{0} %param_34, /*index=5*/f32[7168]{0} %param_145), kind=kLoop, calls=%fused_computation.62, metadata={op_name="parallelize(train_step_func_pipeshard_parallel_mesh_1)/jit(main)/jit(1)/jit(15)/add"}
  %get-tuple-element.260 = f32[7168]{0} get-tuple-element((f32[7168]{0}, f32[7168]{0}, f32[7168]{0}) %fusion.62), index=2
  %get-tuple-element.261 = f32[7168]{0} get-tuple-element((f32[7168]{0}, f32[7168]{0}, f32[7168]{0}) %fusion.62), index=0
  %param_37 = f32[7168]{0} parameter(37), metadata={op_name="1$start"}
  %param_148 = f32[7168]{0} parameter(148), metadata={op_name="1$start"}
  %param_138 = f32[1,1,3584,7168]{3,2,1,0} parameter(138), metadata={op_name="1$start"}
  %copy.19 = f32[1,1,3584,7168]{1,0,2,3} copy(f32[1,1,3584,7168]{3,2,1,0} %param_138), metadata={op_name="1$start"}
  %cudnn-conv.15 = (f32[16,7,7,7168]{2,1,3,0}, u8[0]{0}) custom-call(f32[16,14,14,3584]{2,1,3,0} %get-tuple-element.141, f32[1,1,3584,7168]{1,0,2,3} %copy.19), window={size=1x1 stride=2x2}, dim_labels=b01f_01io->b01f, custom_call_target="__cudnn$convForward", metadata={op_name="parallelize(train_step_func_pipeshard_parallel_mesh_1)/jit(main)/jit(1)/jit(15)/jvp(WideResNet)/BottleneckResNetBlock_13/conv_proj/conv_general_dilated[window_strides=(2, 2) padding=((0, 0), (0, 0)) lhs_dilation=(1, 1) rhs_dilation=(1, 1) dimension_numbers=ConvDimensionNumbers(lhs_spec=(0, 3, 1, 2), rhs_spec=(3, 2, 0, 1), out_spec=(0, 3, 1, 2)) feature_group_count=1 batch_group_count=1 lhs_shape=(16, 14, 14, 3584) rhs_shape=(1, 1, 3584, 7168) precision=None preferred_element_type=None]" source_file="/home/cyxue/miniconda3/envs/alpa/lib/python3.8/site-packages/flax/linen/linear.py" source_line=435}, backend_config="{\"conv_result_scale\":1,\"activation_mode\":\"0\",\"side_input_scale\":0}"
  %get-tuple-element.16 = f32[16,7,7,7168]{2,1,3,0} get-tuple-element((f32[16,7,7,7168]{2,1,3,0}, u8[0]{0}) %cudnn-conv.15), index=0, metadata={op_name="parallelize(train_step_func_pipeshard_parallel_mesh_1)/jit(main)/jit(1)/jit(15)/jvp(WideResNet)/BottleneckResNetBlock_13/conv_proj/conv_general_dilated[window_strides=(2, 2) padding=((0, 0), (0, 0)) lhs_dilation=(1, 1) rhs_dilation=(1, 1) dimension_numbers=ConvDimensionNumbers(lhs_spec=(0, 3, 1, 2), rhs_spec=(3, 2, 0, 1), out_spec=(0, 3, 1, 2)) feature_group_count=1 batch_group_count=1 lhs_shape=(16, 14, 14, 3584) rhs_shape=(1, 1, 3584, 7168) precision=None preferred_element_type=None]" source_file="/home/cyxue/miniconda3/envs/alpa/lib/python3.8/site-packages/flax/linen/linear.py" source_line=435}
  %bitcast.246 = f32[16,7168,49]{2,1,0} bitcast(f32[16,7,7,7168]{2,1,3,0} %get-tuple-element.16)
  %fusion.61 = (f32[16,7168]{1,0}, f32[16,7168]{1,0}) fusion(f32[16,7168,49]{2,1,0} %bitcast.246), kind=kInput, calls=%fused_computation.61.clone
  %get-tuple-element.123 = f32[16,7168]{1,0} get-tuple-element((f32[16,7168]{1,0}, f32[16,7168]{1,0}) %fusion.61), index=0
  %reduce.219 = f32[7168]{0} reduce(f32[16,7168]{1,0} %get-tuple-element.123, f32[] %constant_535), dimensions={0}, to_apply=%region_0.1142.1, metadata={op_name="parallelize(train_step_func_pipeshard_parallel_mesh_1)/jit(main)/jit(1)/jit(15)/jvp(WideResNet)/BottleneckResNetBlock_13/norm_proj/reduce_sum[axes=(0, 1, 2)]" source_file="/home/cyxue/miniconda3/envs/alpa/lib/python3.8/site-packages/flax/linen/normalization.py" source_line=82}
  %get-tuple-element.124 = f32[16,7168]{1,0} get-tuple-element((f32[16,7168]{1,0}, f32[16,7168]{1,0}) %fusion.61), index=1
  %param_36 = f32[7168]{0} parameter(36), metadata={op_name="1$start"}
  %param_147 = f32[7168]{0} parameter(147), metadata={op_name="1$start"}
  %fusion.56 = (f32[7168]{0}, f32[7168]{0}, f32[7168]{0}) fusion(f32[7168]{0} %param_37, f32[7168]{0} %param_148, f32[7168]{0} %reduce.219, f32[16,7168]{1,0} %get-tuple-element.124, f32[7168]{0} %param_36, /*index=5*/f32[7168]{0} %param_147), kind=kLoop, calls=%fused_computation.56, metadata={op_name="parallelize(train_step_func_pipeshard_parallel_mesh_1)/jit(main)/jit(1)/jit(15)/add"}
  %get-tuple-element.262 = f32[7168]{0} get-tuple-element((f32[7168]{0}, f32[7168]{0}, f32[7168]{0}) %fusion.56), index=2
  %get-tuple-element.263 = f32[7168]{0} get-tuple-element((f32[7168]{0}, f32[7168]{0}, f32[7168]{0}) %fusion.56), index=0
  %param_39 = f32[1792]{0} parameter(39), metadata={op_name="1$start"}
  %param_159 = f32[1792]{0} parameter(159), metadata={op_name="1$start"}
  %param_137 = f32[7168]{0} parameter(137), metadata={op_name="1$start"}
  %param_136 = f32[7168]{0} parameter(136), metadata={op_name="1$start"}
  %get-tuple-element.126 = f32[7168]{0} get-tuple-element((f32[7168]{0}, f32[7168]{0}, f32[7168]{0}) %fusion.62), index=1
  %param_140 = f32[7168]{0} parameter(140), metadata={op_name="1$start"}
  %param_139 = f32[7168]{0} parameter(139), metadata={op_name="1$start"}
  %get-tuple-element.121 = f32[7168]{0} get-tuple-element((f32[7168]{0}, f32[7168]{0}, f32[7168]{0}) %fusion.56), index=1
  %fusion.54 = f32[16,7,7,7168]{2,1,3,0} fusion(f32[7168]{0} %param_137, f32[7168]{0} %param_136, f32[7168]{0} %get-tuple-element.126, f32[16,7,7,7168]{2,1,3,0} %get-tuple-element.19, f32[7168]{0} %reduce.225, /*index=5*/f32[7168]{0} %param_140, f32[7168]{0} %param_139, f32[7168]{0} %get-tuple-element.121, f32[16,7,7,7168]{2,1,3,0} %get-tuple-element.16, f32[7168]{0} %reduce.219), kind=kLoop, calls=%fused_computation.54, metadata={op_name="parallelize(train_step_func_pipeshard_parallel_mesh_1)/jit(main)/jit(1)/jit(16)/jvp(WideResNet)/BottleneckResNetBlock_13/max" source_file="/home/cyxue/Projects/crius/Crius/runtime/crius_worker/jax/model/wide_resnet.py" source_line=98}
  %param_149 = f32[1,1,7168,1792]{3,2,1,0} parameter(149), metadata={op_name="1$start"}
  %copy.20 = f32[1,1,7168,1792]{1,0,2,3} copy(f32[1,1,7168,1792]{3,2,1,0} %param_149), metadata={op_name="1$start"}
  %cudnn-conv.19 = (f32[16,7,7,1792]{2,1,3,0}, u8[0]{0}) custom-call(f32[16,7,7,7168]{2,1,3,0} %fusion.54, f32[1,1,7168,1792]{1,0,2,3} %copy.20), window={size=1x1}, dim_labels=b01f_01io->b01f, custom_call_target="__cudnn$convForward", metadata={op_name="parallelize(train_step_func_pipeshard_parallel_mesh_1)/jit(main)/jit(1)/jit(16)/jvp(WideResNet)/BottleneckResNetBlock_14/Conv_0/conv_general_dilated[window_strides=(1, 1) padding=((0, 0), (0, 0)) lhs_dilation=(1, 1) rhs_dilation=(1, 1) dimension_numbers=ConvDimensionNumbers(lhs_spec=(0, 3, 1, 2), rhs_spec=(3, 2, 0, 1), out_spec=(0, 3, 1, 2)) feature_group_count=1 batch_group_count=1 lhs_shape=(16, 7, 7, 7168) rhs_shape=(1, 1, 7168, 1792) precision=None preferred_element_type=None]" source_file="/home/cyxue/miniconda3/envs/alpa/lib/python3.8/site-packages/flax/linen/linear.py" source_line=435}, backend_config="{\"conv_result_scale\":1,\"activation_mode\":\"0\",\"side_input_scale\":0}"
  %get-tuple-element.20 = f32[16,7,7,1792]{2,1,3,0} get-tuple-element((f32[16,7,7,1792]{2,1,3,0}, u8[0]{0}) %cudnn-conv.19), index=0, metadata={op_name="parallelize(train_step_func_pipeshard_parallel_mesh_1)/jit(main)/jit(1)/jit(16)/jvp(WideResNet)/BottleneckResNetBlock_14/Conv_0/conv_general_dilated[window_strides=(1, 1) padding=((0, 0), (0, 0)) lhs_dilation=(1, 1) rhs_dilation=(1, 1) dimension_numbers=ConvDimensionNumbers(lhs_spec=(0, 3, 1, 2), rhs_spec=(3, 2, 0, 1), out_spec=(0, 3, 1, 2)) feature_group_count=1 batch_group_count=1 lhs_shape=(16, 7, 7, 7168) rhs_shape=(1, 1, 7168, 1792) precision=None preferred_element_type=None]" source_file="/home/cyxue/miniconda3/envs/alpa/lib/python3.8/site-packages/flax/linen/linear.py" source_line=435}
  %bitcast.242 = f32[16,1792,49]{2,1,0} bitcast(f32[16,7,7,1792]{2,1,3,0} %get-tuple-element.20)
  %fusion.53 = (f32[16,1792]{1,0}, f32[16,1792]{1,0}) fusion(f32[16,1792,49]{2,1,0} %bitcast.242), kind=kInput, calls=%fused_computation.53.clone
  %get-tuple-element.118 = f32[16,1792]{1,0} get-tuple-element((f32[16,1792]{1,0}, f32[16,1792]{1,0}) %fusion.53), index=0
  %reduce.227 = f32[1792]{0} reduce(f32[16,1792]{1,0} %get-tuple-element.118, f32[] %constant_535), dimensions={0}, to_apply=%region_0.1142.1, metadata={op_name="parallelize(train_step_func_pipeshard_parallel_mesh_1)/jit(main)/jit(1)/jit(16)/jvp(WideResNet)/BottleneckResNetBlock_14/BatchNorm_0/reduce_sum[axes=(0, 1, 2)]" source_file="/home/cyxue/miniconda3/envs/alpa/lib/python3.8/site-packages/flax/linen/normalization.py" source_line=82}
  %get-tuple-element.119 = f32[16,1792]{1,0} get-tuple-element((f32[16,1792]{1,0}, f32[16,1792]{1,0}) %fusion.53), index=1
  %param_38 = f32[1792]{0} parameter(38), metadata={op_name="1$start"}
  %param_158 = f32[1792]{0} parameter(158), metadata={op_name="1$start"}
  %fusion.48 = (f32[1792]{0}, f32[1792]{0}, f32[1792]{0}) fusion(f32[1792]{0} %param_39, f32[1792]{0} %param_159, f32[1792]{0} %reduce.227, f32[16,1792]{1,0} %get-tuple-element.119, f32[1792]{0} %param_38, /*index=5*/f32[1792]{0} %param_158), kind=kLoop, calls=%fused_computation.48, metadata={op_name="parallelize(train_step_func_pipeshard_parallel_mesh_1)/jit(main)/jit(1)/jit(16)/add"}
  %get-tuple-element.264 = f32[1792]{0} get-tuple-element((f32[1792]{0}, f32[1792]{0}, f32[1792]{0}) %fusion.48), index=2
  %get-tuple-element.265 = f32[1792]{0} get-tuple-element((f32[1792]{0}, f32[1792]{0}, f32[1792]{0}) %fusion.48), index=0
  %param_41 = f32[3584]{0} parameter(41), metadata={op_name="1$start"}
  %param_161 = f32[3584]{0} parameter(161), metadata={op_name="1$start"}
  %param_151 = f32[1792]{0} parameter(151), metadata={op_name="1$start"}
  %param_150 = f32[1792]{0} parameter(150), metadata={op_name="1$start"}
  %get-tuple-element.116 = f32[1792]{0} get-tuple-element((f32[1792]{0}, f32[1792]{0}, f32[1792]{0}) %fusion.48), index=1
  %fusion.47 = f32[16,7,7,1792]{2,1,3,0} fusion(f32[1792]{0} %param_151, f32[1792]{0} %param_150, f32[1792]{0} %get-tuple-element.116, f32[16,7,7,1792]{2,1,3,0} %get-tuple-element.20, f32[1792]{0} %reduce.227), kind=kLoop, calls=%fused_computation.47, metadata={op_name="parallelize(train_step_func_pipeshard_parallel_mesh_1)/jit(main)/jit(1)/jit(16)/jvp(WideResNet)/BottleneckResNetBlock_14/max" source_file="/home/cyxue/Projects/crius/Crius/runtime/crius_worker/jax/model/wide_resnet.py" source_line=85}
  %param_152 = f32[3,3,1792,3584]{3,2,1,0} parameter(152), metadata={op_name="1$start"}
  %copy.21 = f32[3,3,1792,3584]{1,0,2,3} copy(f32[3,3,1792,3584]{3,2,1,0} %param_152), metadata={op_name="1$start"}
  %cudnn-conv.20 = (f32[16,7,7,3584]{2,1,3,0}, u8[0]{0}) custom-call(f32[16,7,7,1792]{2,1,3,0} %fusion.47, f32[3,3,1792,3584]{1,0,2,3} %copy.21), window={size=3x3 pad=1_1x1_1}, dim_labels=b01f_01io->b01f, custom_call_target="__cudnn$convForward", metadata={op_name="parallelize(train_step_func_pipeshard_parallel_mesh_1)/jit(main)/jit(1)/jit(16)/jvp(WideResNet)/BottleneckResNetBlock_14/Conv_1/conv_general_dilated[window_strides=(1, 1) padding=((1, 1), (1, 1)) lhs_dilation=(1, 1) rhs_dilation=(1, 1) dimension_numbers=ConvDimensionNumbers(lhs_spec=(0, 3, 1, 2), rhs_spec=(3, 2, 0, 1), out_spec=(0, 3, 1, 2)) feature_group_count=1 batch_group_count=1 lhs_shape=(16, 7, 7, 1792) rhs_shape=(3, 3, 1792, 3584) precision=None preferred_element_type=None]" source_file="/home/cyxue/miniconda3/envs/alpa/lib/python3.8/site-packages/flax/linen/linear.py" source_line=435}, backend_config="{\"conv_result_scale\":1,\"activation_mode\":\"0\",\"side_input_scale\":0}"
  %get-tuple-element.21 = f32[16,7,7,3584]{2,1,3,0} get-tuple-element((f32[16,7,7,3584]{2,1,3,0}, u8[0]{0}) %cudnn-conv.20), index=0, metadata={op_name="parallelize(train_step_func_pipeshard_parallel_mesh_1)/jit(main)/jit(1)/jit(16)/jvp(WideResNet)/BottleneckResNetBlock_14/Conv_1/conv_general_dilated[window_strides=(1, 1) padding=((1, 1), (1, 1)) lhs_dilation=(1, 1) rhs_dilation=(1, 1) dimension_numbers=ConvDimensionNumbers(lhs_spec=(0, 3, 1, 2), rhs_spec=(3, 2, 0, 1), out_spec=(0, 3, 1, 2)) feature_group_count=1 batch_group_count=1 lhs_shape=(16, 7, 7, 1792) rhs_shape=(3, 3, 1792, 3584) precision=None preferred_element_type=None]" source_file="/home/cyxue/miniconda3/envs/alpa/lib/python3.8/site-packages/flax/linen/linear.py" source_line=435}
  %bitcast.238 = f32[16,3584,49]{2,1,0} bitcast(f32[16,7,7,3584]{2,1,3,0} %get-tuple-element.21)
  %fusion.46 = (f32[16,3584]{1,0}, f32[16,3584]{1,0}) fusion(f32[16,3584,49]{2,1,0} %bitcast.238), kind=kInput, calls=%fused_computation.46.clone
  %get-tuple-element.113 = f32[16,3584]{1,0} get-tuple-element((f32[16,3584]{1,0}, f32[16,3584]{1,0}) %fusion.46), index=0
  %reduce.229 = f32[3584]{0} reduce(f32[16,3584]{1,0} %get-tuple-element.113, f32[] %constant_535), dimensions={0}, to_apply=%region_0.1142.1, metadata={op_name="parallelize(train_step_func_pipeshard_parallel_mesh_1)/jit(main)/jit(1)/jit(16)/jvp(WideResNet)/BottleneckResNetBlock_14/BatchNorm_1/reduce_sum[axes=(0, 1, 2)]" source_file="/home/cyxue/miniconda3/envs/alpa/lib/python3.8/site-packages/flax/linen/normalization.py" source_line=82}
  %get-tuple-element.114 = f32[16,3584]{1,0} get-tuple-element((f32[16,3584]{1,0}, f32[16,3584]{1,0}) %fusion.46), index=1
  %param_40 = f32[3584]{0} parameter(40), metadata={op_name="1$start"}
  %param_160 = f32[3584]{0} parameter(160), metadata={op_name="1$start"}
  %fusion.41 = (f32[3584]{0}, f32[3584]{0}, f32[3584]{0}) fusion(f32[3584]{0} %param_41, f32[3584]{0} %param_161, f32[3584]{0} %reduce.229, f32[16,3584]{1,0} %get-tuple-element.114, f32[3584]{0} %param_40, /*index=5*/f32[3584]{0} %param_160), kind=kLoop, calls=%fused_computation.41, metadata={op_name="parallelize(train_step_func_pipeshard_parallel_mesh_1)/jit(main)/jit(1)/jit(16)/add"}
  %get-tuple-element.266 = f32[3584]{0} get-tuple-element((f32[3584]{0}, f32[3584]{0}, f32[3584]{0}) %fusion.41), index=2
  %get-tuple-element.267 = f32[3584]{0} get-tuple-element((f32[3584]{0}, f32[3584]{0}, f32[3584]{0}) %fusion.41), index=0
  %param_43 = f32[7168]{0} parameter(43), metadata={op_name="1$start"}
  %param_163 = f32[7168]{0} parameter(163), metadata={op_name="1$start"}
  %param_154 = f32[3584]{0} parameter(154), metadata={op_name="1$start"}
  %param_153 = f32[3584]{0} parameter(153), metadata={op_name="1$start"}
  %get-tuple-element.111 = f32[3584]{0} get-tuple-element((f32[3584]{0}, f32[3584]{0}, f32[3584]{0}) %fusion.41), index=1
  %fusion.40 = f32[16,7,7,3584]{2,1,3,0} fusion(f32[3584]{0} %param_154, f32[3584]{0} %param_153, f32[3584]{0} %get-tuple-element.111, f32[16,7,7,3584]{2,1,3,0} %get-tuple-element.21, f32[3584]{0} %reduce.229), kind=kLoop, calls=%fused_computation.40, metadata={op_name="parallelize(train_step_func_pipeshard_parallel_mesh_1)/jit(main)/jit(1)/jit(16)/jvp(WideResNet)/BottleneckResNetBlock_14/max" source_file="/home/cyxue/Projects/crius/Crius/runtime/crius_worker/jax/model/wide_resnet.py" source_line=88}
  %param_155 = f32[1,1,3584,7168]{3,2,1,0} parameter(155), metadata={op_name="1$start"}
  %copy.22 = f32[1,1,3584,7168]{1,0,2,3} copy(f32[1,1,3584,7168]{3,2,1,0} %param_155), metadata={op_name="1$start"}
  %cudnn-conv.21 = (f32[16,7,7,7168]{2,1,3,0}, u8[0]{0}) custom-call(f32[16,7,7,3584]{2,1,3,0} %fusion.40, f32[1,1,3584,7168]{1,0,2,3} %copy.22), window={size=1x1}, dim_labels=b01f_01io->b01f, custom_call_target="__cudnn$convForward", metadata={op_name="parallelize(train_step_func_pipeshard_parallel_mesh_1)/jit(main)/jit(1)/jit(16)/jvp(WideResNet)/BottleneckResNetBlock_14/Conv_2/conv_general_dilated[window_strides=(1, 1) padding=((0, 0), (0, 0)) lhs_dilation=(1, 1) rhs_dilation=(1, 1) dimension_numbers=ConvDimensionNumbers(lhs_spec=(0, 3, 1, 2), rhs_spec=(3, 2, 0, 1), out_spec=(0, 3, 1, 2)) feature_group_count=1 batch_group_count=1 lhs_shape=(16, 7, 7, 3584) rhs_shape=(1, 1, 3584, 7168) precision=None preferred_element_type=None]" source_file="/home/cyxue/miniconda3/envs/alpa/lib/python3.8/site-packages/flax/linen/linear.py" source_line=435}, backend_config="{\"conv_result_scale\":1,\"activation_mode\":\"0\",\"side_input_scale\":0}"
  %get-tuple-element.22 = f32[16,7,7,7168]{2,1,3,0} get-tuple-element((f32[16,7,7,7168]{2,1,3,0}, u8[0]{0}) %cudnn-conv.21), index=0, metadata={op_name="parallelize(train_step_func_pipeshard_parallel_mesh_1)/jit(main)/jit(1)/jit(16)/jvp(WideResNet)/BottleneckResNetBlock_14/Conv_2/conv_general_dilated[window_strides=(1, 1) padding=((0, 0), (0, 0)) lhs_dilation=(1, 1) rhs_dilation=(1, 1) dimension_numbers=ConvDimensionNumbers(lhs_spec=(0, 3, 1, 2), rhs_spec=(3, 2, 0, 1), out_spec=(0, 3, 1, 2)) feature_group_count=1 batch_group_count=1 lhs_shape=(16, 7, 7, 3584) rhs_shape=(1, 1, 3584, 7168) precision=None preferred_element_type=None]" source_file="/home/cyxue/miniconda3/envs/alpa/lib/python3.8/site-packages/flax/linen/linear.py" source_line=435}
  %bitcast.234 = f32[16,7168,49]{2,1,0} bitcast(f32[16,7,7,7168]{2,1,3,0} %get-tuple-element.22)
  %fusion.39 = (f32[16,7168]{1,0}, f32[16,7168]{1,0}) fusion(f32[16,7168,49]{2,1,0} %bitcast.234), kind=kInput, calls=%fused_computation.39.clone
  %get-tuple-element.108 = f32[16,7168]{1,0} get-tuple-element((f32[16,7168]{1,0}, f32[16,7168]{1,0}) %fusion.39), index=0
  %reduce.231 = f32[7168]{0} reduce(f32[16,7168]{1,0} %get-tuple-element.108, f32[] %constant_535), dimensions={0}, to_apply=%region_0.1142.1, metadata={op_name="parallelize(train_step_func_pipeshard_parallel_mesh_1)/jit(main)/jit(1)/jit(16)/jvp(WideResNet)/BottleneckResNetBlock_14/BatchNorm_2/reduce_sum[axes=(0, 1, 2)]" source_file="/home/cyxue/miniconda3/envs/alpa/lib/python3.8/site-packages/flax/linen/normalization.py" source_line=82}
  %get-tuple-element.109 = f32[16,7168]{1,0} get-tuple-element((f32[16,7168]{1,0}, f32[16,7168]{1,0}) %fusion.39), index=1
  %param_42 = f32[7168]{0} parameter(42), metadata={op_name="1$start"}
  %param_162 = f32[7168]{0} parameter(162), metadata={op_name="1$start"}
  %fusion.34 = (f32[7168]{0}, f32[7168]{0}, f32[7168]{0}) fusion(f32[7168]{0} %param_43, f32[7168]{0} %param_163, f32[7168]{0} %reduce.231, f32[16,7168]{1,0} %get-tuple-element.109, f32[7168]{0} %param_42, /*index=5*/f32[7168]{0} %param_162), kind=kLoop, calls=%fused_computation.34, metadata={op_name="parallelize(train_step_func_pipeshard_parallel_mesh_1)/jit(main)/jit(1)/jit(16)/add"}
  %get-tuple-element.268 = f32[7168]{0} get-tuple-element((f32[7168]{0}, f32[7168]{0}, f32[7168]{0}) %fusion.34), index=2
  %get-tuple-element.269 = f32[7168]{0} get-tuple-element((f32[7168]{0}, f32[7168]{0}, f32[7168]{0}) %fusion.34), index=0
  %param_45 = f32[1792]{0} parameter(45), metadata={op_name="1$start"}
  %param_176 = f32[1792]{0} parameter(176), metadata={op_name="1$start"}
  %param_157 = f32[7168]{0} parameter(157), metadata={op_name="1$start"}
  %param_156 = f32[7168]{0} parameter(156), metadata={op_name="1$start"}
  %get-tuple-element.106 = f32[7168]{0} get-tuple-element((f32[7168]{0}, f32[7168]{0}, f32[7168]{0}) %fusion.34), index=1
  %fusion.191 = (f32[16,7,7,7168]{3,2,1,0}, f32[16,7,7,7168]{2,1,3,0}) fusion(f32[16,7,7,7168]{2,1,3,0} %fusion.54, f32[7168]{0} %param_157, f32[7168]{0} %param_156, f32[7168]{0} %get-tuple-element.106, f32[16,7,7,7168]{2,1,3,0} %get-tuple-element.22, /*index=5*/f32[7168]{0} %reduce.231), kind=kInput, calls=%fused_computation.191, metadata={op_name="tuple.61"}
  %get-tuple-element.104 = f32[16,7,7,7168]{2,1,3,0} get-tuple-element((f32[16,7,7,7168]{3,2,1,0}, f32[16,7,7,7168]{2,1,3,0}) %fusion.191), index=1
  %param_164 = f32[1,1,7168,1792]{3,2,1,0} parameter(164), metadata={op_name="1$start"}
  %copy.23 = f32[1,1,7168,1792]{1,0,2,3} copy(f32[1,1,7168,1792]{3,2,1,0} %param_164), metadata={op_name="1$start"}
  %cudnn-conv.22 = (f32[16,7,7,1792]{2,1,3,0}, u8[0]{0}) custom-call(f32[16,7,7,7168]{2,1,3,0} %get-tuple-element.104, f32[1,1,7168,1792]{1,0,2,3} %copy.23), window={size=1x1}, dim_labels=b01f_01io->b01f, custom_call_target="__cudnn$convForward", metadata={op_name="parallelize(train_step_func_pipeshard_parallel_mesh_1)/jit(main)/jit(1)/jit(17)/jvp(WideResNet)/BottleneckResNetBlock_15/Conv_0/conv_general_dilated[window_strides=(1, 1) padding=((0, 0), (0, 0)) lhs_dilation=(1, 1) rhs_dilation=(1, 1) dimension_numbers=ConvDimensionNumbers(lhs_spec=(0, 3, 1, 2), rhs_spec=(3, 2, 0, 1), out_spec=(0, 3, 1, 2)) feature_group_count=1 batch_group_count=1 lhs_shape=(16, 7, 7, 7168) rhs_shape=(1, 1, 7168, 1792) precision=None preferred_element_type=None]" source_file="/home/cyxue/miniconda3/envs/alpa/lib/python3.8/site-packages/flax/linen/linear.py" source_line=435}, backend_config="{\"conv_result_scale\":1,\"activation_mode\":\"0\",\"side_input_scale\":0}"
  %get-tuple-element.23 = f32[16,7,7,1792]{2,1,3,0} get-tuple-element((f32[16,7,7,1792]{2,1,3,0}, u8[0]{0}) %cudnn-conv.22), index=0, metadata={op_name="parallelize(train_step_func_pipeshard_parallel_mesh_1)/jit(main)/jit(1)/jit(17)/jvp(WideResNet)/BottleneckResNetBlock_15/Conv_0/conv_general_dilated[window_strides=(1, 1) padding=((0, 0), (0, 0)) lhs_dilation=(1, 1) rhs_dilation=(1, 1) dimension_numbers=ConvDimensionNumbers(lhs_spec=(0, 3, 1, 2), rhs_spec=(3, 2, 0, 1), out_spec=(0, 3, 1, 2)) feature_group_count=1 batch_group_count=1 lhs_shape=(16, 7, 7, 7168) rhs_shape=(1, 1, 7168, 1792) precision=None preferred_element_type=None]" source_file="/home/cyxue/miniconda3/envs/alpa/lib/python3.8/site-packages/flax/linen/linear.py" source_line=435}
  %bitcast.230 = f32[16,1792,49]{2,1,0} bitcast(f32[16,7,7,1792]{2,1,3,0} %get-tuple-element.23)
  %fusion.32 = (f32[16,1792]{1,0}, f32[16,1792]{1,0}) fusion(f32[16,1792,49]{2,1,0} %bitcast.230), kind=kInput, calls=%fused_computation.32.clone
  %get-tuple-element.101 = f32[16,1792]{1,0} get-tuple-element((f32[16,1792]{1,0}, f32[16,1792]{1,0}) %fusion.32), index=0
  %reduce.233 = f32[1792]{0} reduce(f32[16,1792]{1,0} %get-tuple-element.101, f32[] %constant_535), dimensions={0}, to_apply=%region_0.1142.1, metadata={op_name="parallelize(train_step_func_pipeshard_parallel_mesh_1)/jit(main)/jit(1)/jit(17)/jvp(WideResNet)/BottleneckResNetBlock_15/BatchNorm_0/reduce_sum[axes=(0, 1, 2)]" source_file="/home/cyxue/miniconda3/envs/alpa/lib/python3.8/site-packages/flax/linen/normalization.py" source_line=82}
  %get-tuple-element.102 = f32[16,1792]{1,0} get-tuple-element((f32[16,1792]{1,0}, f32[16,1792]{1,0}) %fusion.32), index=1
  %param_44 = f32[1792]{0} parameter(44), metadata={op_name="1$start"}
  %param_175 = f32[1792]{0} parameter(175), metadata={op_name="1$start"}
  %fusion.27 = (f32[1792]{0}, f32[1792]{0}, f32[1792]{0}) fusion(f32[1792]{0} %param_45, f32[1792]{0} %param_176, f32[1792]{0} %reduce.233, f32[16,1792]{1,0} %get-tuple-element.102, f32[1792]{0} %param_44, /*index=5*/f32[1792]{0} %param_175), kind=kLoop, calls=%fused_computation.27, metadata={op_name="parallelize(train_step_func_pipeshard_parallel_mesh_1)/jit(main)/jit(1)/jit(17)/add"}
  %get-tuple-element.270 = f32[1792]{0} get-tuple-element((f32[1792]{0}, f32[1792]{0}, f32[1792]{0}) %fusion.27), index=2
  %get-tuple-element.271 = f32[1792]{0} get-tuple-element((f32[1792]{0}, f32[1792]{0}, f32[1792]{0}) %fusion.27), index=0
  %param_47 = f32[3584]{0} parameter(47), metadata={op_name="1$start"}
  %param_178 = f32[3584]{0} parameter(178), metadata={op_name="1$start"}
  %param_166 = f32[1792]{0} parameter(166), metadata={op_name="1$start"}
  %param_165 = f32[1792]{0} parameter(165), metadata={op_name="1$start"}
  %get-tuple-element.99 = f32[1792]{0} get-tuple-element((f32[1792]{0}, f32[1792]{0}, f32[1792]{0}) %fusion.27), index=1
  %fusion.26 = f32[16,7,7,1792]{2,1,3,0} fusion(f32[1792]{0} %param_166, f32[1792]{0} %param_165, f32[1792]{0} %get-tuple-element.99, f32[16,7,7,1792]{2,1,3,0} %get-tuple-element.23, f32[1792]{0} %reduce.233), kind=kLoop, calls=%fused_computation.26, metadata={op_name="parallelize(train_step_func_pipeshard_parallel_mesh_1)/jit(main)/jit(1)/jit(17)/jvp(WideResNet)/BottleneckResNetBlock_15/max" source_file="/home/cyxue/Projects/crius/Crius/runtime/crius_worker/jax/model/wide_resnet.py" source_line=85}
  %param_167 = f32[3,3,1792,3584]{3,2,1,0} parameter(167), metadata={op_name="1$start"}
  %copy.24 = f32[3,3,1792,3584]{1,0,2,3} copy(f32[3,3,1792,3584]{3,2,1,0} %param_167), metadata={op_name="1$start"}
  %cudnn-conv.23 = (f32[16,7,7,3584]{2,1,3,0}, u8[0]{0}) custom-call(f32[16,7,7,1792]{2,1,3,0} %fusion.26, f32[3,3,1792,3584]{1,0,2,3} %copy.24), window={size=3x3 pad=1_1x1_1}, dim_labels=b01f_01io->b01f, custom_call_target="__cudnn$convForward", metadata={op_name="parallelize(train_step_func_pipeshard_parallel_mesh_1)/jit(main)/jit(1)/jit(17)/jvp(WideResNet)/BottleneckResNetBlock_15/Conv_1/conv_general_dilated[window_strides=(1, 1) padding=((1, 1), (1, 1)) lhs_dilation=(1, 1) rhs_dilation=(1, 1) dimension_numbers=ConvDimensionNumbers(lhs_spec=(0, 3, 1, 2), rhs_spec=(3, 2, 0, 1), out_spec=(0, 3, 1, 2)) feature_group_count=1 batch_group_count=1 lhs_shape=(16, 7, 7, 1792) rhs_shape=(3, 3, 1792, 3584) precision=None preferred_element_type=None]" source_file="/home/cyxue/miniconda3/envs/alpa/lib/python3.8/site-packages/flax/linen/linear.py" source_line=435}, backend_config="{\"conv_result_scale\":1,\"activation_mode\":\"0\",\"side_input_scale\":0}"
  %get-tuple-element.24 = f32[16,7,7,3584]{2,1,3,0} get-tuple-element((f32[16,7,7,3584]{2,1,3,0}, u8[0]{0}) %cudnn-conv.23), index=0, metadata={op_name="parallelize(train_step_func_pipeshard_parallel_mesh_1)/jit(main)/jit(1)/jit(17)/jvp(WideResNet)/BottleneckResNetBlock_15/Conv_1/conv_general_dilated[window_strides=(1, 1) padding=((1, 1), (1, 1)) lhs_dilation=(1, 1) rhs_dilation=(1, 1) dimension_numbers=ConvDimensionNumbers(lhs_spec=(0, 3, 1, 2), rhs_spec=(3, 2, 0, 1), out_spec=(0, 3, 1, 2)) feature_group_count=1 batch_group_count=1 lhs_shape=(16, 7, 7, 1792) rhs_shape=(3, 3, 1792, 3584) precision=None preferred_element_type=None]" source_file="/home/cyxue/miniconda3/envs/alpa/lib/python3.8/site-packages/flax/linen/linear.py" source_line=435}
  %bitcast.226 = f32[16,3584,49]{2,1,0} bitcast(f32[16,7,7,3584]{2,1,3,0} %get-tuple-element.24)
  %fusion.25 = (f32[16,3584]{1,0}, f32[16,3584]{1,0}) fusion(f32[16,3584,49]{2,1,0} %bitcast.226), kind=kInput, calls=%fused_computation.25.clone
  %get-tuple-element.96 = f32[16,3584]{1,0} get-tuple-element((f32[16,3584]{1,0}, f32[16,3584]{1,0}) %fusion.25), index=0
  %reduce.235 = f32[3584]{0} reduce(f32[16,3584]{1,0} %get-tuple-element.96, f32[] %constant_535), dimensions={0}, to_apply=%region_0.1142.1, metadata={op_name="parallelize(train_step_func_pipeshard_parallel_mesh_1)/jit(main)/jit(1)/jit(17)/jvp(WideResNet)/BottleneckResNetBlock_15/BatchNorm_1/reduce_sum[axes=(0, 1, 2)]" source_file="/home/cyxue/miniconda3/envs/alpa/lib/python3.8/site-packages/flax/linen/normalization.py" source_line=82}
  %get-tuple-element.97 = f32[16,3584]{1,0} get-tuple-element((f32[16,3584]{1,0}, f32[16,3584]{1,0}) %fusion.25), index=1
  %param_46 = f32[3584]{0} parameter(46), metadata={op_name="1$start"}
  %param_177 = f32[3584]{0} parameter(177), metadata={op_name="1$start"}
  %fusion.20 = (f32[3584]{0}, f32[3584]{0}, f32[3584]{0}) fusion(f32[3584]{0} %param_47, f32[3584]{0} %param_178, f32[3584]{0} %reduce.235, f32[16,3584]{1,0} %get-tuple-element.97, f32[3584]{0} %param_46, /*index=5*/f32[3584]{0} %param_177), kind=kLoop, calls=%fused_computation.20, metadata={op_name="parallelize(train_step_func_pipeshard_parallel_mesh_1)/jit(main)/jit(1)/jit(17)/add"}
  %get-tuple-element.272 = f32[3584]{0} get-tuple-element((f32[3584]{0}, f32[3584]{0}, f32[3584]{0}) %fusion.20), index=2
  %get-tuple-element.273 = f32[3584]{0} get-tuple-element((f32[3584]{0}, f32[3584]{0}, f32[3584]{0}) %fusion.20), index=0
  %param_49 = f32[7168]{0} parameter(49), metadata={op_name="1$start"}
  %param_180 = f32[7168]{0} parameter(180), metadata={op_name="1$start"}
  %param_169 = f32[3584]{0} parameter(169), metadata={op_name="1$start"}
  %param_168 = f32[3584]{0} parameter(168), metadata={op_name="1$start"}
  %get-tuple-element.94 = f32[3584]{0} get-tuple-element((f32[3584]{0}, f32[3584]{0}, f32[3584]{0}) %fusion.20), index=1
  %fusion.19 = f32[16,7,7,3584]{2,1,3,0} fusion(f32[3584]{0} %param_169, f32[3584]{0} %param_168, f32[3584]{0} %get-tuple-element.94, f32[16,7,7,3584]{2,1,3,0} %get-tuple-element.24, f32[3584]{0} %reduce.235), kind=kLoop, calls=%fused_computation.19, metadata={op_name="parallelize(train_step_func_pipeshard_parallel_mesh_1)/jit(main)/jit(1)/jit(17)/jvp(WideResNet)/BottleneckResNetBlock_15/max" source_file="/home/cyxue/Projects/crius/Crius/runtime/crius_worker/jax/model/wide_resnet.py" source_line=88}
  %param_170 = f32[1,1,3584,7168]{3,2,1,0} parameter(170), metadata={op_name="1$start"}
  %copy.25 = f32[1,1,3584,7168]{1,0,2,3} copy(f32[1,1,3584,7168]{3,2,1,0} %param_170), metadata={op_name="1$start"}
  %cudnn-conv.24 = (f32[16,7,7,7168]{2,1,3,0}, u8[0]{0}) custom-call(f32[16,7,7,3584]{2,1,3,0} %fusion.19, f32[1,1,3584,7168]{1,0,2,3} %copy.25), window={size=1x1}, dim_labels=b01f_01io->b01f, custom_call_target="__cudnn$convForward", metadata={op_name="parallelize(train_step_func_pipeshard_parallel_mesh_1)/jit(main)/jit(1)/jit(17)/jvp(WideResNet)/BottleneckResNetBlock_15/Conv_2/conv_general_dilated[window_strides=(1, 1) padding=((0, 0), (0, 0)) lhs_dilation=(1, 1) rhs_dilation=(1, 1) dimension_numbers=ConvDimensionNumbers(lhs_spec=(0, 3, 1, 2), rhs_spec=(3, 2, 0, 1), out_spec=(0, 3, 1, 2)) feature_group_count=1 batch_group_count=1 lhs_shape=(16, 7, 7, 3584) rhs_shape=(1, 1, 3584, 7168) precision=None preferred_element_type=None]" source_file="/home/cyxue/miniconda3/envs/alpa/lib/python3.8/site-packages/flax/linen/linear.py" source_line=435}, backend_config="{\"conv_result_scale\":1,\"activation_mode\":\"0\",\"side_input_scale\":0}"
  %get-tuple-element.25 = f32[16,7,7,7168]{2,1,3,0} get-tuple-element((f32[16,7,7,7168]{2,1,3,0}, u8[0]{0}) %cudnn-conv.24), index=0, metadata={op_name="parallelize(train_step_func_pipeshard_parallel_mesh_1)/jit(main)/jit(1)/jit(17)/jvp(WideResNet)/BottleneckResNetBlock_15/Conv_2/conv_general_dilated[window_strides=(1, 1) padding=((0, 0), (0, 0)) lhs_dilation=(1, 1) rhs_dilation=(1, 1) dimension_numbers=ConvDimensionNumbers(lhs_spec=(0, 3, 1, 2), rhs_spec=(3, 2, 0, 1), out_spec=(0, 3, 1, 2)) feature_group_count=1 batch_group_count=1 lhs_shape=(16, 7, 7, 3584) rhs_shape=(1, 1, 3584, 7168) precision=None preferred_element_type=None]" source_file="/home/cyxue/miniconda3/envs/alpa/lib/python3.8/site-packages/flax/linen/linear.py" source_line=435}
  %bitcast.222 = f32[16,7168,49]{2,1,0} bitcast(f32[16,7,7,7168]{2,1,3,0} %get-tuple-element.25)
  %fusion.18 = (f32[16,7168]{1,0}, f32[16,7168]{1,0}) fusion(f32[16,7168,49]{2,1,0} %bitcast.222), kind=kInput, calls=%fused_computation.18.clone
  %get-tuple-element.91 = f32[16,7168]{1,0} get-tuple-element((f32[16,7168]{1,0}, f32[16,7168]{1,0}) %fusion.18), index=0
  %reduce.237 = f32[7168]{0} reduce(f32[16,7168]{1,0} %get-tuple-element.91, f32[] %constant_535), dimensions={0}, to_apply=%region_0.1142.1, metadata={op_name="parallelize(train_step_func_pipeshard_parallel_mesh_1)/jit(main)/jit(1)/jit(17)/jvp(WideResNet)/BottleneckResNetBlock_15/BatchNorm_2/reduce_sum[axes=(0, 1, 2)]" source_file="/home/cyxue/miniconda3/envs/alpa/lib/python3.8/site-packages/flax/linen/normalization.py" source_line=82}
  %get-tuple-element.92 = f32[16,7168]{1,0} get-tuple-element((f32[16,7168]{1,0}, f32[16,7168]{1,0}) %fusion.18), index=1
  %param_48 = f32[7168]{0} parameter(48), metadata={op_name="1$start"}
  %param_179 = f32[7168]{0} parameter(179), metadata={op_name="1$start"}
  %fusion.13 = (f32[7168]{0}, f32[7168]{0}, f32[7168]{0}) fusion(f32[7168]{0} %param_49, f32[7168]{0} %param_180, f32[7168]{0} %reduce.237, f32[16,7168]{1,0} %get-tuple-element.92, f32[7168]{0} %param_48, /*index=5*/f32[7168]{0} %param_179), kind=kLoop, calls=%fused_computation.13, metadata={op_name="parallelize(train_step_func_pipeshard_parallel_mesh_1)/jit(main)/jit(1)/jit(17)/add"}
  %get-tuple-element.274 = f32[7168]{0} get-tuple-element((f32[7168]{0}, f32[7168]{0}, f32[7168]{0}) %fusion.13), index=2
  %get-tuple-element.275 = f32[7168]{0} get-tuple-element((f32[7168]{0}, f32[7168]{0}, f32[7168]{0}) %fusion.13), index=0
  %param_50 = f32[] parameter(50), metadata={op_name="1$start"}
  %bitcast.218 = f32[16,7168,49]{2,1,0} bitcast(f32[16,7,7,7168]{2,1,3,0} %get-tuple-element.104)
  %param_172 = f32[7168]{0} parameter(172), metadata={op_name="1$start"}
  %param_171 = f32[7168]{0} parameter(171), metadata={op_name="1$start"}
  %get-tuple-element.89 = f32[7168]{0} get-tuple-element((f32[7168]{0}, f32[7168]{0}, f32[7168]{0}) %fusion.13), index=1
  %bitcast.217 = f32[16,7168,49]{2,1,0} bitcast(f32[16,7,7,7168]{2,1,3,0} %get-tuple-element.25)
  %fusion.12 = f32[16,7168]{1,0} fusion(f32[16,7168,49]{2,1,0} %bitcast.218, f32[7168]{0} %param_172, f32[7168]{0} %param_171, f32[7168]{0} %get-tuple-element.89, f32[16,7168,49]{2,1,0} %bitcast.217, /*index=5*/f32[7168]{0} %reduce.237), kind=kInput, calls=%fused_computation.12.clone, metadata={op_name="parallelize(train_step_func_pipeshard_parallel_mesh_1)/jit(main)/jit(1)/jit(17)/jvp(WideResNet)/reduce_sum[axes=(1, 2)]" source_file="/home/cyxue/Projects/crius/Crius/runtime/crius_worker/jax/model/wide_resnet.py" source_line=135}
  %fusion.11 = f32[16,7168]{1,0} fusion(f32[16,7168]{1,0} %fusion.12), kind=kLoop, calls=%fused_computation.11, metadata={op_name="parallelize(train_step_func_pipeshard_parallel_mesh_1)/jit(main)/jit(1)/jit(17)/jvp(WideResNet)/div" source_file="/home/cyxue/Projects/crius/Crius/runtime/crius_worker/jax/model/wide_resnet.py" source_line=135}
  %param_173 = f32[7168,1024]{1,0} parameter(173), metadata={op_name="1$start"}
  %param_174 = f32[1024]{0} parameter(174), metadata={op_name="1$start"}
  %broadcast.1067 = f32[16,1024]{1,0} broadcast(f32[1024]{0} %param_174), dimensions={1}, metadata={op_name="parallelize(train_step_func_pipeshard_parallel_mesh_1)/jit(main)/jit(1)/jit(17)/jvp(WideResNet)/Dense_0/add" source_file="/home/cyxue/miniconda3/envs/alpa/lib/python3.8/site-packages/flax/linen/linear.py" source_line=200}
  %cublas-gemm.3 = f32[16,1024]{1,0} custom-call(f32[16,7168]{1,0} %fusion.11, f32[7168,1024]{1,0} %param_173, f32[16,1024]{1,0} %broadcast.1067), custom_call_target="__cublas$gemm", output_to_operand_aliasing={{}: (2, {})}, metadata={op_name="parallelize(train_step_func_pipeshard_parallel_mesh_1)/jit(main)/jit(1)/jit(17)/jvp(WideResNet)/Dense_0/dot_general[dimension_numbers=(((1,), (0,)), ((), ())) precision=None preferred_element_type=None]" source_file="/home/cyxue/miniconda3/envs/alpa/lib/python3.8/site-packages/flax/linen/linear.py" source_line=196}, backend_config="{\"alpha_real\":1,\"alpha_imag\":0,\"beta\":1,\"dot_dimension_numbers\":{\"lhs_contracting_dimensions\":[\"1\"],\"rhs_contracting_dimensions\":[\"0\"],\"lhs_batch_dimensions\":[],\"rhs_batch_dimensions\":[]},\"precision_config\":{\"operand_precision\":[\"DEFAULT\",\"DEFAULT\"]},\"epilogue\":\"DEFAULT\"}"
  %fusion.10 = (f32[16]{0}, s32[16]{0}) fusion(f32[16,1024]{1,0} %cublas-gemm.3), kind=kInput, calls=%fused_computation.10, metadata={op_name="parallelize(train_step_func_pipeshard_parallel_mesh_1)/jit(main)/jit(1)/jit(17)/reduce[computation=<function _compute_argminmax.<locals>.reducer_fn at 0x7f21c42cf5e0> consts=() dimensions=(1,)]" source_file="/home/cyxue/Projects/crius/Crius/runtime/crius_worker/jax/trainer/wide_resnet_trainer.py" source_line=183}
  %get-tuple-element = f32[16]{0} get-tuple-element((f32[16]{0}, s32[16]{0}) %fusion.10), index=0, metadata={op_name="parallelize(train_step_func_pipeshard_parallel_mesh_1)/jit(main)/jit(1)/jit(17)/reduce_max[axes=(1,)]" source_file="/home/cyxue/miniconda3/envs/alpa/lib/python3.8/site-packages/optax/_src/loss.py" source_line=170}
  %fusion.8 = f32[16]{0} fusion(f32[16,1024]{1,0} %cublas-gemm.3, f32[16]{0} %get-tuple-element), kind=kInput, calls=%fused_computation.8, metadata={op_name="parallelize(train_step_func_pipeshard_parallel_mesh_1)/jit(main)/jit(1)/jit(17)/reduce_sum[axes=(1,)]" source_file="/home/cyxue/miniconda3/envs/alpa/lib/python3.8/site-packages/optax/_src/loss.py" source_line=170}
  %log.0 = f32[16]{0} log(f32[16]{0} %fusion.8), metadata={op_name="parallelize(train_step_func_pipeshard_parallel_mesh_1)/jit(main)/jit(1)/jit(17)/log" source_file="/home/cyxue/miniconda3/envs/alpa/lib/python3.8/site-packages/optax/_src/loss.py" source_line=170}
  %param_181 = s32[16]{0} parameter(181), metadata={op_name="1$start"}
  %fusion.7 = f32[16]{0} fusion(f32[16]{0} %log.0, s32[16]{0} %param_181, f32[16,1024]{1,0} %cublas-gemm.3, f32[16]{0} %get-tuple-element), kind=kInput, calls=%fused_computation.7, metadata={op_name="parallelize(train_step_func_pipeshard_parallel_mesh_1)/jit(main)/jit(1)/jit(17)/reduce_sum[axes=(1,)]" source_file="/home/cyxue/miniconda3/envs/alpa/lib/python3.8/site-packages/optax/_src/loss.py" source_line=170}
  %get-tuple-element.330 = s32[16]{0} get-tuple-element((f32[16]{0}, s32[16]{0}) %fusion.10), index=1, metadata={op_name="parallelize(train_step_func_pipeshard_parallel_mesh_1)/jit(main)/jit(1)/jit(17)/reduce[computation=<function _compute_argminmax.<locals>.reducer_fn at 0x7f21c42cf5e0> consts=() dimensions=(1,)]" source_file="/home/cyxue/Projects/crius/Crius/runtime/crius_worker/jax/trainer/wide_resnet_trainer.py" source_line=183}
  %fusion.6 = (f32[], f32[]) fusion(f32[16]{0} %fusion.7, s32[16]{0} %get-tuple-element.330, s32[16]{0} %param_181), kind=kInput, calls=%fused_computation.6, metadata={op_name="parallelize(train_step_func_pipeshard_parallel_mesh_1)/jit(main)/jit(1)/jit(17)/reduce_sum[axes=(0,)]" source_file="/home/cyxue/Projects/crius/Crius/runtime/crius_worker/jax/trainer/wide_resnet_trainer.py" source_line=113}
  %get-tuple-element.224 = f32[] get-tuple-element((f32[], f32[]) %fusion.6), index=0
  %param_51 = f32[] parameter(51), metadata={op_name="1$start"}
  %get-tuple-element.225 = f32[] get-tuple-element((f32[], f32[]) %fusion.6), index=1
  %fusion.193 = (f32[1]{0}, f32[1]{0}) fusion(f32[] %param_50, f32[] %get-tuple-element.224, f32[] %param_51, f32[] %get-tuple-element.225), kind=kInput, calls=%horizontally_fused_computation, metadata={op_name="parallelize(train_step_func_pipeshard_parallel_mesh_1)/jit(main)/jit(1)/jit(17)/add"}
  %get-tuple-element.222 = f32[1]{0} get-tuple-element((f32[1]{0}, f32[1]{0}) %fusion.193), index=0
  %bitcast.204 = f32[] bitcast(f32[1]{0} %get-tuple-element.222), metadata={op_name="parallelize(train_step_func_pipeshard_parallel_mesh_1)/jit(main)/jit(1)/jit(17)/add"}
  %get-tuple-element.223 = f32[1]{0} get-tuple-element((f32[1]{0}, f32[1]{0}) %fusion.193), index=1
  %bitcast.205 = f32[] bitcast(f32[1]{0} %get-tuple-element.223), metadata={op_name="parallelize(train_step_func_pipeshard_parallel_mesh_1)/jit(main)/jit(1)/jit(17)/add"}
  %param_52 = f32[] parameter(52), metadata={op_name="1$start"}
  %param_182 = s32[] parameter(182), metadata={op_name="1$start"}
  %fusion.2 = f32[] fusion(f32[] %param_52, s32[] %param_182), kind=kLoop, calls=%fused_computation.2, metadata={op_name="parallelize(train_step_func_pipeshard_parallel_mesh_1)/jit(main)/jit(1)/jit(17)/add"}
  %fusion.189 = f32[16,14,14,3584]{3,2,1,0} fusion(f32[16,14,14,3584]{2,1,3,0} %fusion.188, f32[3584]{0} %param_62, f32[3584]{0} %param_61, f32[3584]{0} %get-tuple-element.208, f32[16,14,14,3584]{2,1,3,0} %get-tuple-element.3, /*index=5*/f32[3584]{0} %reduce.193), kind=kInput, calls=%fused_computation.189, metadata={op_name="tuple.61"}
  %get-tuple-element.341 = f32[16,14,14,3584]{3,2,1,0} get-tuple-element((f32[16,14,14,3584]{2,1,3,0}, f32[16,14,14,3584]{3,2,1,0}) %fusion.124), index=1
  %get-tuple-element.342 = f32[16,14,14,3584]{3,2,1,0} get-tuple-element((f32[16,14,14,3584]{2,1,3,0}, f32[16,14,14,3584]{3,2,1,0}) %fusion.103), index=1
  %get-tuple-element.343 = f32[16,14,14,3584]{3,2,1,0} get-tuple-element((f32[16,14,14,3584]{3,2,1,0}, f32[16,14,14,3584]{2,1,3,0}, f32[16,14,14,3584]{3,2,1,0}) %fusion.192), index=2
  %get-tuple-element.344 = f32[16,14,14,3584]{3,2,1,0} get-tuple-element((f32[16,14,14,3584]{3,2,1,0}, f32[16,14,14,3584]{2,1,3,0}, f32[16,14,14,3584]{3,2,1,0}) %fusion.192), index=0
  %fusion.190 = f32[16,7,7,7168]{3,2,1,0} fusion(f32[7168]{0} %param_137, f32[7168]{0} %param_136, f32[7168]{0} %get-tuple-element.126, f32[16,7,7,7168]{2,1,3,0} %get-tuple-element.19, f32[7168]{0} %reduce.225, /*index=5*/f32[7168]{0} %param_140, f32[7168]{0} %param_139, f32[7168]{0} %get-tuple-element.121, f32[16,7,7,7168]{2,1,3,0} %get-tuple-element.16, f32[7168]{0} %reduce.219), kind=kInput, calls=%fused_computation.190, metadata={op_name="tuple.61"}
  %get-tuple-element.346 = f32[16,7,7,7168]{3,2,1,0} get-tuple-element((f32[16,7,7,7168]{3,2,1,0}, f32[16,7,7,7168]{2,1,3,0}) %fusion.191), index=0
  ROOT %tuple.120 = (f32[896]{0}, f32[896]{0}, f32[1792]{0}, f32[1792]{0}, f32[3584]{0}, /*index=5*/f32[3584]{0}, f32[896]{0}, f32[896]{0}, f32[1792]{0}, f32[1792]{0}, /*index=10*/f32[3584]{0}, f32[3584]{0}, f32[896]{0}, f32[896]{0}, f32[1792]{0}, /*index=15*/f32[1792]{0}, f32[3584]{0}, f32[3584]{0}, f32[896]{0}, f32[896]{0}, /*index=20*/f32[1792]{0}, f32[1792]{0}, f32[3584]{0}, f32[3584]{0}, f32[896]{0}, /*index=25*/f32[896]{0}, f32[1792]{0}, f32[1792]{0}, f32[3584]{0}, f32[3584]{0}, /*index=30*/f32[1792]{0}, f32[1792]{0}, f32[3584]{0}, f32[3584]{0}, f32[7168]{0}, /*index=35*/f32[7168]{0}, f32[7168]{0}, f32[7168]{0}, f32[1792]{0}, f32[1792]{0}, /*index=40*/f32[3584]{0}, f32[3584]{0}, f32[7168]{0}, f32[7168]{0}, f32[1792]{0}, /*index=45*/f32[1792]{0}, f32[3584]{0}, f32[3584]{0}, f32[7168]{0}, f32[7168]{0}, /*index=50*/f32[], f32[], f32[], f32[16,14,14,3584]{3,2,1,0}, f32[16,14,14,3584]{3,2,1,0}, /*index=55*/f32[16,14,14,3584]{3,2,1,0}, f32[16,14,14,3584]{3,2,1,0}, f32[16,14,14,3584]{3,2,1,0}, f32[16,7,7,7168]{3,2,1,0}, f32[16,7,7,7168]{3,2,1,0}) tuple(f32[896]{0} %get-tuple-element.226, f32[896]{0} %get-tuple-element.227, f32[1792]{0} %get-tuple-element.228, f32[1792]{0} %get-tuple-element.229, f32[3584]{0} %get-tuple-element.230, /*index=5*/f32[3584]{0} %get-tuple-element.231, f32[896]{0} %get-tuple-element.232, f32[896]{0} %get-tuple-element.233, f32[1792]{0} %get-tuple-element.234, f32[1792]{0} %get-tuple-element.235, /*index=10*/f32[3584]{0} %get-tuple-element.236, f32[3584]{0} %get-tuple-element.237, f32[896]{0} %get-tuple-element.238, f32[896]{0} %get-tuple-element.239, f32[1792]{0} %get-tuple-element.240, /*index=15*/f32[1792]{0} %get-tuple-element.241, f32[3584]{0} %get-tuple-element.242, f32[3584]{0} %get-tuple-element.243, f32[896]{0} %get-tuple-element.244, f32[896]{0} %get-tuple-element.245, /*index=20*/f32[1792]{0} %get-tuple-element.246, f32[1792]{0} %get-tuple-element.247, f32[3584]{0} %get-tuple-element.248, f32[3584]{0} %get-tuple-element.249, f32[896]{0} %get-tuple-element.250, /*index=25*/f32[896]{0} %get-tuple-element.251, f32[1792]{0} %get-tuple-element.252, f32[1792]{0} %get-tuple-element.253, f32[3584]{0} %get-tuple-element.254, f32[3584]{0} %get-tuple-element.255, /*index=30*/f32[1792]{0} %get-tuple-element.256, f32[1792]{0} %get-tuple-element.257, f32[3584]{0} %get-tuple-element.258, f32[3584]{0} %get-tuple-element.259, f32[7168]{0} %get-tuple-element.260, /*index=35*/f32[7168]{0} %get-tuple-element.261, f32[7168]{0} %get-tuple-element.262, f32[7168]{0} %get-tuple-element.263, f32[1792]{0} %get-tuple-element.264, f32[1792]{0} %get-tuple-element.265, /*index=40*/f32[3584]{0} %get-tuple-element.266, f32[3584]{0} %get-tuple-element.267, f32[7168]{0} %get-tuple-element.268, f32[7168]{0} %get-tuple-element.269, f32[1792]{0} %get-tuple-element.270, /*index=45*/f32[1792]{0} %get-tuple-element.271, f32[3584]{0} %get-tuple-element.272, f32[3584]{0} %get-tuple-element.273, f32[7168]{0} %get-tuple-element.274, f32[7168]{0} %get-tuple-element.275, /*index=50*/f32[] %bitcast.204, f32[] %bitcast.205, f32[] %fusion.2, f32[16,14,14,3584]{3,2,1,0} %fusion.189, f32[16,14,14,3584]{3,2,1,0} %get-tuple-element.341, /*index=55*/f32[16,14,14,3584]{3,2,1,0} %get-tuple-element.342, f32[16,14,14,3584]{3,2,1,0} %get-tuple-element.343, f32[16,14,14,3584]{3,2,1,0} %get-tuple-element.344, f32[16,7,7,7168]{3,2,1,0} %fusion.190, f32[16,7,7,7168]{3,2,1,0} %get-tuple-element.346)
}

