HloModule train_step_func_pipeshard_parallel_mesh_0-0_apply_grad, input_output_alias={ {0}: (0, {}, may-alias), {1}: (1, {}, may-alias), {2}: (2, {}, may-alias), {3}: (3, {}, may-alias), {4}: (4, {}, may-alias), {5}: (5, {}, may-alias), {6}: (6, {}, may-alias), {7}: (7, {}, may-alias), {8}: (8, {}, may-alias), {9}: (9, {}, may-alias), {10}: (10, {}, may-alias), {11}: (11, {}, may-alias), {12}: (12, {}, may-alias), {13}: (13, {}, may-alias), {14}: (14, {}, may-alias), {15}: (15, {}, may-alias), {16}: (16, {}, may-alias), {17}: (17, {}, may-alias), {18}: (18, {}, may-alias), {19}: (19, {}, may-alias), {20}: (20, {}, may-alias), {21}: (21, {}, may-alias), {22}: (22, {}, may-alias), {23}: (23, {}, may-alias), {24}: (24, {}, may-alias), {25}: (25, {}, may-alias), {26}: (26, {}, may-alias), {27}: (27, {}, may-alias), {28}: (28, {}, may-alias), {29}: (29, {}, may-alias), {30}: (30, {}, may-alias), {31}: (31, {}, may-alias), {32}: (32, {}, may-alias), {33}: (33, {}, may-alias), {34}: (34, {}, may-alias), {35}: (35, {}, may-alias), {36}: (36, {}, may-alias), {37}: (37, {}, may-alias), {38}: (38, {}, may-alias), {39}: (39, {}, may-alias), {40}: (40, {}, may-alias), {41}: (41, {}, may-alias), {42}: (42, {}, may-alias), {43}: (43, {}, may-alias), {44}: (44, {}, may-alias), {45}: (45, {}, may-alias), {46}: (46, {}, may-alias), {47}: (47, {}, may-alias), {48}: (48, {}, may-alias), {49}: (49, {}, may-alias), {50}: (50, {}, may-alias), {51}: (51, {}, may-alias), {52}: (52, {}, may-alias), {53}: (53, {}, may-alias), {54}: (54, {}, may-alias), {55}: (55, {}, may-alias), {56}: (56, {}, may-alias), {57}: (57, {}, may-alias), {58}: (58, {}, may-alias), {59}: (59, {}, may-alias), {60}: (60, {}, may-alias), {61}: (61, {}, may-alias), {62}: (62, {}, may-alias), {63}: (63, {}, may-alias), {64}: (64, {}, may-alias), {65}: (65, {}, may-alias), {66}: (66, {}, may-alias), {67}: (67, {}, may-alias), {68}: (68, {}, may-alias), {69}: (69, {}, may-alias), {70}: (70, {}, may-alias), {71}: (71, {}, may-alias), {72}: (72, {}, may-alias), {73}: (73, {}, may-alias), {74}: (74, {}, may-alias), {75}: (75, {}, may-alias), {76}: (76, {}, may-alias), {77}: (77, {}, may-alias), {78}: (78, {}, may-alias), {79}: (79, {}, may-alias), {80}: (80, {}, may-alias), {81}: (81, {}, may-alias), {82}: (82, {}, may-alias), {83}: (83, {}, may-alias), {84}: (84, {}, may-alias), {85}: (85, {}, may-alias), {86}: (86, {}, may-alias), {87}: (87, {}, may-alias), {88}: (88, {}, may-alias), {89}: (89, {}, may-alias), {90}: (90, {}, may-alias), {91}: (91, {}, may-alias), {92}: (92, {}, may-alias), {93}: (93, {}, may-alias), {94}: (94, {}, may-alias), {95}: (95, {}, may-alias), {96}: (96, {}, may-alias), {97}: (97, {}, may-alias), {98}: (98, {}, may-alias), {99}: (99, {}, may-alias), {100}: (100, {}, may-alias), {101}: (101, {}, may-alias), {102}: (102, {}, may-alias), {103}: (103, {}, may-alias), {104}: (104, {}, may-alias), {105}: (105, {}, may-alias), {106}: (106, {}, may-alias), {107}: (107, {}, may-alias), {108}: (108, {}, may-alias), {109}: (109, {}, may-alias), {110}: (110, {}, may-alias), {111}: (111, {}, may-alias), {112}: (112, {}, may-alias), {113}: (113, {}, may-alias), {114}: (114, {}, may-alias), {115}: (115, {}, may-alias), {116}: (116, {}, may-alias), {117}: (117, {}, may-alias), {118}: (118, {}, may-alias), {119}: (119, {}, may-alias), {120}: (120, {}, may-alias), {121}: (121, {}, may-alias), {122}: (122, {}, may-alias), {123}: (123, {}, may-alias), {124}: (124, {}, may-alias), {125}: (125, {}, may-alias), {126}: (126, {}, may-alias), {127}: (127, {}, may-alias), {128}: (128, {}, may-alias), {129}: (129, {}, may-alias), {130}: (130, {}, may-alias), {131}: (131, {}, may-alias), {132}: (132, {}, may-alias), {133}: (133, {}, may-alias), {134}: (134, {}, may-alias), {135}: (135, {}, may-alias), {136}: (136, {}, may-alias), {137}: (137, {}, may-alias), {138}: (138, {}, may-alias), {139}: (139, {}, may-alias), {140}: (140, {}, may-alias), {141}: (141, {}, may-alias), {142}: (142, {}, may-alias), {143}: (143, {}, may-alias), {144}: (144, {}, may-alias), {145}: (145, {}, may-alias), {146}: (146, {}, may-alias), {147}: (147, {}, may-alias), {148}: (148, {}, may-alias), {149}: (149, {}, may-alias), {150}: (150, {}, may-alias), {151}: (151, {}, may-alias), {152}: (152, {}, may-alias), {153}: (153, {}, may-alias), {154}: (154, {}, may-alias), {155}: (155, {}, may-alias), {156}: (156, {}, may-alias), {157}: (157, {}, may-alias), {158}: (158, {}, may-alias), {159}: (159, {}, may-alias), {160}: (160, {}, may-alias), {161}: (161, {}, may-alias), {162}: (162, {}, may-alias), {163}: (163, {}, may-alias), {164}: (164, {}, may-alias), {165}: (165, {}, may-alias), {166}: (166, {}, may-alias), {167}: (167, {}, may-alias), {168}: (168, {}, may-alias), {169}: (169, {}, may-alias), {170}: (170, {}, may-alias), {171}: (171, {}, may-alias), {172}: (172, {}, may-alias), {173}: (173, {}, may-alias), {174}: (174, {}, may-alias), {175}: (175, {}, may-alias), {176}: (176, {}, may-alias), {177}: (177, {}, may-alias), {178}: (178, {}, may-alias), {179}: (179, {}, may-alias), {180}: (180, {}, may-alias), {181}: (181, {}, may-alias), {182}: (182, {}, may-alias), {183}: (183, {}, may-alias), {184}: (184, {}, may-alias), {185}: (185, {}, may-alias), {186}: (186, {}, may-alias), {187}: (187, {}, may-alias), {188}: (188, {}, may-alias), {189}: (189, {}, may-alias), {190}: (190, {}, may-alias), {191}: (191, {}, may-alias), {192}: (192, {}, may-alias), {193}: (193, {}, may-alias), {194}: (194, {}, may-alias), {195}: (195, {}, may-alias), {196}: (196, {}, may-alias), {197}: (197, {}, may-alias), {198}: (198, {}, may-alias), {199}: (199, {}, may-alias), {200}: (200, {}, may-alias), {201}: (201, {}, may-alias), {202}: (202, {}, may-alias), {203}: (203, {}, may-alias), {204}: (204, {}, may-alias), {205}: (205, {}, may-alias), {206}: (206, {}, may-alias), {207}: (207, {}, may-alias), {208}: (208, {}, may-alias), {209}: (209, {}, may-alias), {210}: (210, {}, may-alias), {211}: (211, {}, may-alias), {212}: (212, {}, may-alias), {213}: (213, {}, may-alias), {214}: (214, {}, may-alias), {215}: (215, {}, may-alias), {216}: (216, {}, may-alias), {217}: (217, {}, may-alias), {218}: (218, {}, may-alias), {219}: (219, {}, may-alias), {220}: (220, {}, may-alias), {221}: (221, {}, may-alias), {222}: (222, {}, may-alias), {223}: (223, {}, may-alias), {224}: (224, {}, may-alias) }, entry_computation_layout={(f32[224]{0},f32[224]{0},f32[448]{0},f32[448]{0},f32[896]{0},f32[896]{0},f32[1,1,224,224]{3,2,1,0},f32[3,3,224,448]{3,2,1,0},f32[1,1,448,896]{3,2,1,0},f32[1,1,224,896]{3,2,1,0},f32[896]{0},f32[896]{0},f32[224]{0},f32[224]{0},f32[448]{0},f32[448]{0},f32[896]{0},f32[896]{0},f32[1,1,896,224]{3,2,1,0},f32[3,3,224,448]{3,2,1,0},f32[1,1,448,896]{3,2,1,0},f32[224]{0},f32[224]{0},f32[448]{0},f32[448]{0},f32[896]{0},f32[896]{0},f32[1,1,896,224]{3,2,1,0},f32[3,3,224,448]{3,2,1,0},f32[1,1,448,896]{3,2,1,0},f32[448]{0},f32[448]{0},f32[896]{0},f32[896]{0},f32[1792]{0},f32[1792]{0},f32[1,1,896,448]{3,2,1,0},f32[3,3,448,896]{3,2,1,0},f32[1,1,896,1792]{3,2,1,0},f32[1,1,896,1792]{3,2,1,0},f32[1792]{0},f32[1792]{0},f32[448]{0},f32[448]{0},f32[896]{0},f32[896]{0},f32[1792]{0},f32[1792]{0},f32[1,1,1792,448]{3,2,1,0},f32[3,3,448,896]{3,2,1,0},f32[1,1,896,1792]{3,2,1,0},f32[448]{0},f32[448]{0},f32[896]{0},f32[896]{0},f32[1792]{0},f32[1792]{0},f32[1,1,1792,448]{3,2,1,0},f32[3,3,448,896]{3,2,1,0},f32[1,1,896,1792]{3,2,1,0},f32[448]{0},f32[448]{0},f32[896]{0},f32[896]{0},f32[1792]{0},f32[1792]{0},f32[1,1,1792,448]{3,2,1,0},f32[3,3,448,896]{3,2,1,0},f32[1,1,896,1792]{3,2,1,0},f32[896]{0},f32[896]{0},f32[1792]{0},f32[1792]{0},f32[3584]{0},f32[3584]{0},f32[1,1,1792,896]{3,2,1,0},f32[3,3,896,1792]{3,2,1,0},f32[1,1,1792,3584]{3,2,1,0},f32[1,1,1792,3584]{3,2,1,0},f32[3584]{0},f32[3584]{0},f32[224]{0},f32[224]{0},f32[7,7,3,224]{3,2,1,0},s32[],f32[224]{0},f32[224]{0},f32[448]{0},f32[448]{0},f32[896]{0},f32[896]{0},f32[1,1,224,224]{3,2,1,0},f32[3,3,224,448]{3,2,1,0},f32[1,1,448,896]{3,2,1,0},f32[1,1,224,896]{3,2,1,0},f32[896]{0},f32[896]{0},f32[224]{0},f32[224]{0},f32[448]{0},f32[448]{0},f32[896]{0},f32[896]{0},f32[1,1,896,224]{3,2,1,0},f32[3,3,224,448]{3,2,1,0},f32[1,1,448,896]{3,2,1,0},f32[224]{0},f32[224]{0},f32[448]{0},f32[448]{0},f32[896]{0},f32[896]{0},f32[1,1,896,224]{3,2,1,0},f32[3,3,224,448]{3,2,1,0},f32[1,1,448,896]{3,2,1,0},f32[448]{0},f32[448]{0},f32[896]{0},f32[896]{0},f32[1792]{0},f32[1792]{0},f32[1,1,896,448]{3,2,1,0},f32[3,3,448,896]{3,2,1,0},f32[1,1,896,1792]{3,2,1,0},f32[1,1,896,1792]{3,2,1,0},f32[1792]{0},f32[1792]{0},f32[448]{0},f32[448]{0},f32[896]{0},f32[896]{0},f32[1792]{0},f32[1792]{0},f32[1,1,1792,448]{3,2,1,0},f32[3,3,448,896]{3,2,1,0},f32[1,1,896,1792]{3,2,1,0},f32[448]{0},f32[448]{0},f32[896]{0},f32[896]{0},f32[1792]{0},f32[1792]{0},f32[1,1,1792,448]{3,2,1,0},f32[3,3,448,896]{3,2,1,0},f32[1,1,896,1792]{3,2,1,0},f32[448]{0},f32[448]{0},f32[896]{0},f32[896]{0},f32[1792]{0},f32[1792]{0},f32[1,1,1792,448]{3,2,1,0},f32[3,3,448,896]{3,2,1,0},f32[1,1,896,1792]{3,2,1,0},f32[896]{0},f32[896]{0},f32[1792]{0},f32[1792]{0},f32[3584]{0},f32[3584]{0},f32[1,1,1792,896]{3,2,1,0},f32[3,3,896,1792]{3,2,1,0},f32[1,1,1792,3584]{3,2,1,0},f32[1,1,1792,3584]{3,2,1,0},f32[3584]{0},f32[3584]{0},f32[224]{0},f32[224]{0},f32[7,7,3,224]{3,2,1,0},f32[224]{0},f32[224]{0},f32[448]{0},f32[448]{0},f32[896]{0},f32[896]{0},f32[896]{0},f32[896]{0},f32[224]{0},f32[224]{0},f32[448]{0},f32[448]{0},f32[896]{0},f32[896]{0},f32[224]{0},f32[224]{0},f32[448]{0},f32[448]{0},f32[896]{0},f32[896]{0},f32[448]{0},f32[448]{0},f32[896]{0},f32[896]{0},f32[1792]{0},f32[1792]{0},f32[1792]{0},f32[1792]{0},f32[448]{0},f32[448]{0},f32[896]{0},f32[896]{0},f32[1792]{0},f32[1792]{0},f32[448]{0},f32[448]{0},f32[896]{0},f32[896]{0},f32[1792]{0},f32[1792]{0},f32[448]{0},f32[448]{0},f32[896]{0},f32[896]{0},f32[1792]{0},f32[1792]{0},f32[896]{0},f32[896]{0},f32[1792]{0},f32[1792]{0},f32[3584]{0},f32[3584]{0},f32[3584]{0},f32[3584]{0},f32[224]{0},f32[224]{0},f32[224]{0},f32[224]{0},f32[448]{0},f32[448]{0},f32[896]{0},f32[896]{0},f32[1,1,224,224]{3,2,1,0},f32[3,3,224,448]{3,2,1,0},f32[1,1,448,896]{3,2,1,0},f32[1,1,224,896]{3,2,1,0},f32[896]{0},f32[896]{0},f32[224]{0},f32[224]{0},f32[448]{0},f32[448]{0},f32[896]{0},f32[896]{0},f32[1,1,896,224]{3,2,1,0},f32[3,3,224,448]{3,2,1,0},f32[1,1,448,896]{3,2,1,0},f32[224]{0},f32[224]{0},f32[448]{0},f32[448]{0},f32[896]{0},f32[896]{0},f32[1,1,896,224]{3,2,1,0},f32[3,3,224,448]{3,2,1,0},f32[1,1,448,896]{3,2,1,0},f32[448]{0},f32[448]{0},f32[896]{0},f32[896]{0},f32[1792]{0},f32[1792]{0},f32[1,1,896,448]{3,2,1,0},f32[3,3,448,896]{3,2,1,0},f32[1,1,896,1792]{3,2,1,0},f32[1,1,896,1792]{3,2,1,0},f32[1792]{0},f32[1792]{0},f32[448]{0},f32[448]{0},f32[896]{0},f32[896]{0},f32[1792]{0},f32[1792]{0},f32[1,1,1792,448]{3,2,1,0},f32[3,3,448,896]{3,2,1,0},f32[1,1,896,1792]{3,2,1,0},f32[448]{0},f32[448]{0},f32[896]{0},f32[896]{0},f32[1792]{0},f32[1792]{0},f32[1,1,1792,448]{3,2,1,0},f32[3,3,448,896]{3,2,1,0},f32[1,1,896,1792]{3,2,1,0},f32[448]{0},f32[448]{0},f32[896]{0},f32[896]{0},f32[1792]{0},f32[1792]{0},f32[1,1,1792,448]{3,2,1,0},f32[3,3,448,896]{3,2,1,0},f32[1,1,896,1792]{3,2,1,0},f32[896]{0},f32[896]{0},f32[1792]{0},f32[1792]{0},f32[3584]{0},f32[3584]{0},f32[1,1,1792,896]{3,2,1,0},f32[3,3,896,1792]{3,2,1,0},f32[1,1,1792,3584]{3,2,1,0},f32[1,1,1792,3584]{3,2,1,0},f32[3584]{0},f32[3584]{0},f32[224]{0},f32[224]{0},f32[7,7,3,224]{3,2,1,0},f32[224]{0},f32[224]{0},f32[448]{0},f32[448]{0},f32[896]{0},f32[896]{0},f32[896]{0},f32[896]{0},f32[224]{0},f32[224]{0},f32[448]{0},f32[448]{0},f32[896]{0},f32[896]{0},f32[224]{0},f32[224]{0},f32[448]{0},f32[448]{0},f32[896]{0},f32[896]{0},f32[448]{0},f32[448]{0},f32[896]{0},f32[896]{0},f32[1792]{0},f32[1792]{0},f32[1792]{0},f32[1792]{0},f32[448]{0},f32[448]{0},f32[896]{0},f32[896]{0},f32[1792]{0},f32[1792]{0},f32[448]{0},f32[448]{0},f32[896]{0},f32[896]{0},f32[1792]{0},f32[1792]{0},f32[448]{0},f32[448]{0},f32[896]{0},f32[896]{0},f32[1792]{0},f32[1792]{0},f32[896]{0},f32[896]{0},f32[1792]{0},f32[1792]{0},f32[3584]{0},f32[3584]{0},f32[3584]{0},f32[3584]{0},f32[224]{0},f32[224]{0})->(f32[224]{0}, f32[224]{0}, f32[448]{0}, f32[448]{0}, f32[896]{0}, /*index=5*/f32[896]{0}, f32[1,1,224,224]{3,2,1,0}, f32[3,3,224,448]{3,2,1,0}, f32[1,1,448,896]{3,2,1,0}, f32[1,1,224,896]{3,2,1,0}, /*index=10*/f32[896]{0}, f32[896]{0}, f32[224]{0}, f32[224]{0}, f32[448]{0}, /*index=15*/f32[448]{0}, f32[896]{0}, f32[896]{0}, f32[1,1,896,224]{3,2,1,0}, f32[3,3,224,448]{3,2,1,0}, /*index=20*/f32[1,1,448,896]{3,2,1,0}, f32[224]{0}, f32[224]{0}, f32[448]{0}, f32[448]{0}, /*index=25*/f32[896]{0}, f32[896]{0}, f32[1,1,896,224]{3,2,1,0}, f32[3,3,224,448]{3,2,1,0}, f32[1,1,448,896]{3,2,1,0}, /*index=30*/f32[448]{0}, f32[448]{0}, f32[896]{0}, f32[896]{0}, f32[1792]{0}, /*index=35*/f32[1792]{0}, f32[1,1,896,448]{3,2,1,0}, f32[3,3,448,896]{3,2,1,0}, f32[1,1,896,1792]{3,2,1,0}, f32[1,1,896,1792]{3,2,1,0}, /*index=40*/f32[1792]{0}, f32[1792]{0}, f32[448]{0}, f32[448]{0}, f32[896]{0}, /*index=45*/f32[896]{0}, f32[1792]{0}, f32[1792]{0}, f32[1,1,1792,448]{3,2,1,0}, f32[3,3,448,896]{3,2,1,0}, /*index=50*/f32[1,1,896,1792]{3,2,1,0}, f32[448]{0}, f32[448]{0}, f32[896]{0}, f32[896]{0}, /*index=55*/f32[1792]{0}, f32[1792]{0}, f32[1,1,1792,448]{3,2,1,0}, f32[3,3,448,896]{3,2,1,0}, f32[1,1,896,1792]{3,2,1,0}, /*index=60*/f32[448]{0}, f32[448]{0}, f32[896]{0}, f32[896]{0}, f32[1792]{0}, /*index=65*/f32[1792]{0}, f32[1,1,1792,448]{3,2,1,0}, f32[3,3,448,896]{3,2,1,0}, f32[1,1,896,1792]{3,2,1,0}, f32[896]{0}, /*index=70*/f32[896]{0}, f32[1792]{0}, f32[1792]{0}, f32[3584]{0}, f32[3584]{0}, /*index=75*/f32[1,1,1792,896]{3,2,1,0}, f32[3,3,896,1792]{3,2,1,0}, f32[1,1,1792,3584]{3,2,1,0}, f32[1,1,1792,3584]{3,2,1,0}, f32[3584]{0}, /*index=80*/f32[3584]{0}, f32[224]{0}, f32[224]{0}, f32[7,7,3,224]{3,2,1,0}, s32[], /*index=85*/f32[224]{0}, f32[224]{0}, f32[448]{0}, f32[448]{0}, f32[896]{0}, /*index=90*/f32[896]{0}, f32[1,1,224,224]{3,2,1,0}, f32[3,3,224,448]{3,2,1,0}, f32[1,1,448,896]{3,2,1,0}, f32[1,1,224,896]{3,2,1,0}, /*index=95*/f32[896]{0}, f32[896]{0}, f32[224]{0}, f32[224]{0}, f32[448]{0}, /*index=100*/f32[448]{0}, f32[896]{0}, f32[896]{0}, f32[1,1,896,224]{3,2,1,0}, f32[3,3,224,448]{3,2,1,0}, /*index=105*/f32[1,1,448,896]{3,2,1,0}, f32[224]{0}, f32[224]{0}, f32[448]{0}, f32[448]{0}, /*index=110*/f32[896]{0}, f32[896]{0}, f32[1,1,896,224]{3,2,1,0}, f32[3,3,224,448]{3,2,1,0}, f32[1,1,448,896]{3,2,1,0}, /*index=115*/f32[448]{0}, f32[448]{0}, f32[896]{0}, f32[896]{0}, f32[1792]{0}, /*index=120*/f32[1792]{0}, f32[1,1,896,448]{3,2,1,0}, f32[3,3,448,896]{3,2,1,0}, f32[1,1,896,1792]{3,2,1,0}, f32[1,1,896,1792]{3,2,1,0}, /*index=125*/f32[1792]{0}, f32[1792]{0}, f32[448]{0}, f32[448]{0}, f32[896]{0}, /*index=130*/f32[896]{0}, f32[1792]{0}, f32[1792]{0}, f32[1,1,1792,448]{3,2,1,0}, f32[3,3,448,896]{3,2,1,0}, /*index=135*/f32[1,1,896,1792]{3,2,1,0}, f32[448]{0}, f32[448]{0}, f32[896]{0}, f32[896]{0}, /*index=140*/f32[1792]{0}, f32[1792]{0}, f32[1,1,1792,448]{3,2,1,0}, f32[3,3,448,896]{3,2,1,0}, f32[1,1,896,1792]{3,2,1,0}, /*index=145*/f32[448]{0}, f32[448]{0}, f32[896]{0}, f32[896]{0}, f32[1792]{0}, /*index=150*/f32[1792]{0}, f32[1,1,1792,448]{3,2,1,0}, f32[3,3,448,896]{3,2,1,0}, f32[1,1,896,1792]{3,2,1,0}, f32[896]{0}, /*index=155*/f32[896]{0}, f32[1792]{0}, f32[1792]{0}, f32[3584]{0}, f32[3584]{0}, /*index=160*/f32[1,1,1792,896]{3,2,1,0}, f32[3,3,896,1792]{3,2,1,0}, f32[1,1,1792,3584]{3,2,1,0}, f32[1,1,1792,3584]{3,2,1,0}, f32[3584]{0}, /*index=165*/f32[3584]{0}, f32[224]{0}, f32[224]{0}, f32[7,7,3,224]{3,2,1,0}, f32[224]{0}, /*index=170*/f32[224]{0}, f32[448]{0}, f32[448]{0}, f32[896]{0}, f32[896]{0}, /*index=175*/f32[896]{0}, f32[896]{0}, f32[224]{0}, f32[224]{0}, f32[448]{0}, /*index=180*/f32[448]{0}, f32[896]{0}, f32[896]{0}, f32[224]{0}, f32[224]{0}, /*index=185*/f32[448]{0}, f32[448]{0}, f32[896]{0}, f32[896]{0}, f32[448]{0}, /*index=190*/f32[448]{0}, f32[896]{0}, f32[896]{0}, f32[1792]{0}, f32[1792]{0}, /*index=195*/f32[1792]{0}, f32[1792]{0}, f32[448]{0}, f32[448]{0}, f32[896]{0}, /*index=200*/f32[896]{0}, f32[1792]{0}, f32[1792]{0}, f32[448]{0}, f32[448]{0}, /*index=205*/f32[896]{0}, f32[896]{0}, f32[1792]{0}, f32[1792]{0}, f32[448]{0}, /*index=210*/f32[448]{0}, f32[896]{0}, f32[896]{0}, f32[1792]{0}, f32[1792]{0}, /*index=215*/f32[896]{0}, f32[896]{0}, f32[1792]{0}, f32[1792]{0}, f32[3584]{0}, /*index=220*/f32[3584]{0}, f32[3584]{0}, f32[3584]{0}, f32[224]{0}, f32[224]{0})}

%fused_computation.56 (param_0.57: f32[7,7,3,224], param_1.879: f32[7,7,3,224], param_2.767: s32[], param_3.773: f32[7,7,3,224]) -> (f32[7,7,3,224], f32[7,7,3,224]) {
  %param_0.57 = f32[7,7,3,224]{3,2,1,0} parameter(0)
  %param_2.767 = s32[] parameter(2)
  %convert.9 = f32[] convert(s32[] %param_2.767), metadata={op_name="parallelize(train_step_func_pipeshard_parallel_mesh_0)/jit(main)/convert_element_type[new_dtype=float32 weak_type=True]" source_file="/home/cyxue/miniconda3/envs/alpa/lib/python3.8/site-packages/optax/_src/schedule.py" source_line=394}
  %constant_1062 = f32[] constant(50000)
  %compare.5 = pred[] compare(f32[] %convert.9, f32[] %constant_1062), direction=LT, metadata={op_name="parallelize(train_step_func_pipeshard_parallel_mesh_0)/jit(main)/lt" source_file="/home/cyxue/miniconda3/envs/alpa/lib/python3.8/site-packages/optax/_src/schedule.py" source_line=394}
  %constant_1061 = f32[] constant(1)
  %constant_1060 = s32[] constant(0)
  %maximum.4 = s32[] maximum(s32[] %param_2.767, s32[] %constant_1060), metadata={op_name="parallelize(train_step_func_pipeshard_parallel_mesh_0)/jit(main)/max" source_file="/home/cyxue/miniconda3/envs/alpa/lib/python3.8/site-packages/optax/_src/schedule.py" source_line=86}
  %convert.8 = f32[] convert(s32[] %maximum.4), metadata={op_name="parallelize(train_step_func_pipeshard_parallel_mesh_0)/jit(main)/convert_element_type[new_dtype=float32 weak_type=True]" source_file="/home/cyxue/miniconda3/envs/alpa/lib/python3.8/site-packages/optax/_src/schedule.py" source_line=86}
  %minimum.9 = f32[] minimum(f32[] %convert.8, f32[] %constant_1062), metadata={op_name="parallelize(train_step_func_pipeshard_parallel_mesh_0)/jit(main)/min" source_file="/home/cyxue/miniconda3/envs/alpa/lib/python3.8/site-packages/optax/_src/schedule.py" source_line=86}
  %constant_1059 = f32[] constant(2e-05)
  %multiply.898 = f32[] multiply(f32[] %minimum.9, f32[] %constant_1059), metadata={op_name="parallelize(train_step_func_pipeshard_parallel_mesh_0)/jit(main)/div" source_file="/home/cyxue/miniconda3/envs/alpa/lib/python3.8/site-packages/optax/_src/schedule.py" source_line=87}
  %subtract.4 = f32[] subtract(f32[] %constant_1061, f32[] %multiply.898), metadata={op_name="parallelize(train_step_func_pipeshard_parallel_mesh_0)/jit(main)/sub" source_file="/home/cyxue/miniconda3/envs/alpa/lib/python3.8/site-packages/optax/_src/schedule.py" source_line=87}
  %constant_1058 = f32[] constant(-0.1)
  %multiply.897 = f32[] multiply(f32[] %subtract.4, f32[] %constant_1058), metadata={op_name="parallelize(train_step_func_pipeshard_parallel_mesh_0)/jit(main)/mul" source_file="/home/cyxue/miniconda3/envs/alpa/lib/python3.8/site-packages/optax/_src/schedule.py" source_line=88}
  %constant_1057 = f32[] constant(0.1)
  %add.268 = f32[] add(f32[] %multiply.897, f32[] %constant_1057), metadata={op_name="parallelize(train_step_func_pipeshard_parallel_mesh_0)/jit(main)/add" source_file="/home/cyxue/miniconda3/envs/alpa/lib/python3.8/site-packages/optax/_src/schedule.py" source_line=88}
  %constant_1056 = f32[] constant(-50000)
  %add.267 = f32[] add(f32[] %convert.9, f32[] %constant_1056), metadata={op_name="parallelize(train_step_func_pipeshard_parallel_mesh_0)/jit(main)/sub" source_file="/home/cyxue/miniconda3/envs/alpa/lib/python3.8/site-packages/optax/_src/schedule.py" source_line=394}
  %constant_1055 = f32[] constant(950000)
  %minimum.8 = f32[] minimum(f32[] %add.267, f32[] %constant_1055), metadata={op_name="parallelize(train_step_func_pipeshard_parallel_mesh_0)/jit(main)/min" source_file="/home/cyxue/miniconda3/envs/alpa/lib/python3.8/site-packages/optax/_src/schedule.py" source_line=235}
  %constant_1054 = f32[] constant(3.30693956e-06)
  %multiply.896 = f32[] multiply(f32[] %minimum.8, f32[] %constant_1054), metadata={op_name="parallelize(train_step_func_pipeshard_parallel_mesh_0)/jit(main)/div" source_file="/home/cyxue/miniconda3/envs/alpa/lib/python3.8/site-packages/optax/_src/schedule.py" source_line=236}
  %cosine.4 = f32[] cosine(f32[] %multiply.896), metadata={op_name="parallelize(train_step_func_pipeshard_parallel_mesh_0)/jit(main)/cos" source_file="/home/cyxue/miniconda3/envs/alpa/lib/python3.8/site-packages/optax/_src/schedule.py" source_line=236}
  %add.266 = f32[] add(f32[] %cosine.4, f32[] %constant_1061), metadata={op_name="parallelize(train_step_func_pipeshard_parallel_mesh_0)/jit(main)/add" source_file="/home/cyxue/miniconda3/envs/alpa/lib/python3.8/site-packages/optax/_src/schedule.py" source_line=236}
  %constant_1053 = f32[] constant(0.05)
  %multiply.895 = f32[] multiply(f32[] %add.266, f32[] %constant_1053), metadata={op_name="parallelize(train_step_func_pipeshard_parallel_mesh_0)/jit(main)/mul" source_file="/home/cyxue/miniconda3/envs/alpa/lib/python3.8/site-packages/optax/_src/schedule.py" source_line=238}
  %select.5 = f32[] select(pred[] %compare.5, f32[] %add.268, f32[] %multiply.895), metadata={op_name="parallelize(train_step_func_pipeshard_parallel_mesh_0)/jit(main)/select_n" source_file="/home/cyxue/miniconda3/envs/alpa/lib/python3.8/site-packages/optax/_src/schedule.py" source_line=394}
  %constant_1052 = f32[] constant(-1)
  %multiply.894 = f32[] multiply(f32[] %select.5, f32[] %constant_1052), metadata={op_name="parallelize(train_step_func_pipeshard_parallel_mesh_0)/jit(main)/mul" source_file="/home/cyxue/miniconda3/envs/alpa/lib/python3.8/site-packages/optax/_src/alias.py" source_line=37}
  %broadcast.196 = f32[7,7,3,224]{3,2,1,0} broadcast(f32[] %multiply.894), dimensions={}, metadata={op_name="parallelize(train_step_func_pipeshard_parallel_mesh_0)/jit(main)/mul" source_file="/home/cyxue/miniconda3/envs/alpa/lib/python3.8/site-packages/optax/_src/transform.py" source_line=694}
  %param_1.879 = f32[7,7,3,224]{3,2,1,0} parameter(1)
  %constant_1016 = f32[] constant(0.0625)
  %broadcast.903 = f32[7,7,3,224]{3,2,1,0} broadcast(f32[] %constant_1016), dimensions={}, metadata={op_name="parallelize(train_step_func_pipeshard_parallel_mesh_0)/jit(main)/div"}
  %multiply.878 = f32[7,7,3,224]{3,2,1,0} multiply(f32[7,7,3,224]{3,2,1,0} %param_1.879, f32[7,7,3,224]{3,2,1,0} %broadcast.903), metadata={op_name="parallelize(train_step_func_pipeshard_parallel_mesh_0)/jit(main)/div"}
  %param_3.773 = f32[7,7,3,224]{3,2,1,0} parameter(3)
  %constant_214 = f32[] constant(0.9)
  %broadcast.364.clone.1 = f32[7,7,3,224]{3,2,1,0} broadcast(f32[] %constant_214), dimensions={}, metadata={op_name="parallelize(train_step_func_pipeshard_parallel_mesh_0)/jit(main)/mul" source_file="/home/cyxue/miniconda3/envs/alpa/lib/python3.8/site-packages/optax/_src/transform.py" source_line=70}
  %multiply.375.clone.1 = f32[7,7,3,224]{3,2,1,0} multiply(f32[7,7,3,224]{3,2,1,0} %param_3.773, f32[7,7,3,224]{3,2,1,0} %broadcast.364.clone.1), metadata={op_name="parallelize(train_step_func_pipeshard_parallel_mesh_0)/jit(main)/mul" source_file="/home/cyxue/miniconda3/envs/alpa/lib/python3.8/site-packages/optax/_src/transform.py" source_line=70}
  %add.173.clone.1 = f32[7,7,3,224]{3,2,1,0} add(f32[7,7,3,224]{3,2,1,0} %multiply.878, f32[7,7,3,224]{3,2,1,0} %multiply.375.clone.1), metadata={op_name="parallelize(train_step_func_pipeshard_parallel_mesh_0)/jit(main)/add" source_file="/home/cyxue/miniconda3/envs/alpa/lib/python3.8/site-packages/optax/_src/transform.py" source_line=70}
  %multiply.203 = f32[7,7,3,224]{3,2,1,0} multiply(f32[7,7,3,224]{3,2,1,0} %add.173.clone.1, f32[7,7,3,224]{3,2,1,0} %broadcast.364.clone.1), metadata={op_name="parallelize(train_step_func_pipeshard_parallel_mesh_0)/jit(main)/mul" source_file="/home/cyxue/miniconda3/envs/alpa/lib/python3.8/site-packages/optax/_src/transform.py" source_line=70}
  %add.2 = f32[7,7,3,224]{3,2,1,0} add(f32[7,7,3,224]{3,2,1,0} %multiply.878, f32[7,7,3,224]{3,2,1,0} %multiply.203), metadata={op_name="parallelize(train_step_func_pipeshard_parallel_mesh_0)/jit(main)/add" source_file="/home/cyxue/miniconda3/envs/alpa/lib/python3.8/site-packages/optax/_src/transform.py" source_line=70}
  %multiply.202 = f32[7,7,3,224]{3,2,1,0} multiply(f32[7,7,3,224]{3,2,1,0} %broadcast.196, f32[7,7,3,224]{3,2,1,0} %add.2), metadata={op_name="parallelize(train_step_func_pipeshard_parallel_mesh_0)/jit(main)/mul" source_file="/home/cyxue/miniconda3/envs/alpa/lib/python3.8/site-packages/optax/_src/transform.py" source_line=694}
  %add.1 = f32[7,7,3,224]{3,2,1,0} add(f32[7,7,3,224]{3,2,1,0} %param_0.57, f32[7,7,3,224]{3,2,1,0} %multiply.202), metadata={op_name="parallelize(train_step_func_pipeshard_parallel_mesh_0)/jit(main)/add" source_file="/home/cyxue/miniconda3/envs/alpa/lib/python3.8/site-packages/optax/_src/update.py" source_line=43}
  ROOT %tuple.67 = (f32[7,7,3,224]{3,2,1,0}, f32[7,7,3,224]{3,2,1,0}) tuple(f32[7,7,3,224]{3,2,1,0} %add.1, f32[7,7,3,224]{3,2,1,0} %add.173.clone.1)
}

%fused_computation.62 (param_0.63: f32[1,1,1792,3584], param_1.880: f32[1,1,1792,3584], param_2.768: s32[], param_3.774: f32[1,1,1792,3584], param_4.951: f32[1,1,1792,3584], param_5.633: f32[1,1,1792,3584], param_6.1149: f32[1,1,1792,3584]) -> (f32[1,1,1792,3584], f32[1,1,1792,3584], f32[1,1,1792,3584], f32[1,1,1792,3584]) {
  %param_0.63 = f32[1,1,1792,3584]{3,2,1,0} parameter(0)
  %param_2.768 = s32[] parameter(2)
  %convert.57 = f32[] convert(s32[] %param_2.768), metadata={op_name="parallelize(train_step_func_pipeshard_parallel_mesh_0)/jit(main)/convert_element_type[new_dtype=float32 weak_type=True]" source_file="/home/cyxue/miniconda3/envs/alpa/lib/python3.8/site-packages/optax/_src/schedule.py" source_line=394}
  %constant_1338 = f32[] constant(50000)
  %compare.29 = pred[] compare(f32[] %convert.57, f32[] %constant_1338), direction=LT, metadata={op_name="parallelize(train_step_func_pipeshard_parallel_mesh_0)/jit(main)/lt" source_file="/home/cyxue/miniconda3/envs/alpa/lib/python3.8/site-packages/optax/_src/schedule.py" source_line=394}
  %constant_1337 = f32[] constant(1)
  %constant_1336 = s32[] constant(0)
  %maximum.28 = s32[] maximum(s32[] %param_2.768, s32[] %constant_1336), metadata={op_name="parallelize(train_step_func_pipeshard_parallel_mesh_0)/jit(main)/max" source_file="/home/cyxue/miniconda3/envs/alpa/lib/python3.8/site-packages/optax/_src/schedule.py" source_line=86}
  %convert.56 = f32[] convert(s32[] %maximum.28), metadata={op_name="parallelize(train_step_func_pipeshard_parallel_mesh_0)/jit(main)/convert_element_type[new_dtype=float32 weak_type=True]" source_file="/home/cyxue/miniconda3/envs/alpa/lib/python3.8/site-packages/optax/_src/schedule.py" source_line=86}
  %minimum.57 = f32[] minimum(f32[] %convert.56, f32[] %constant_1338), metadata={op_name="parallelize(train_step_func_pipeshard_parallel_mesh_0)/jit(main)/min" source_file="/home/cyxue/miniconda3/envs/alpa/lib/python3.8/site-packages/optax/_src/schedule.py" source_line=86}
  %constant_1335 = f32[] constant(2e-05)
  %multiply.1018 = f32[] multiply(f32[] %minimum.57, f32[] %constant_1335), metadata={op_name="parallelize(train_step_func_pipeshard_parallel_mesh_0)/jit(main)/div" source_file="/home/cyxue/miniconda3/envs/alpa/lib/python3.8/site-packages/optax/_src/schedule.py" source_line=87}
  %subtract.28 = f32[] subtract(f32[] %constant_1337, f32[] %multiply.1018), metadata={op_name="parallelize(train_step_func_pipeshard_parallel_mesh_0)/jit(main)/sub" source_file="/home/cyxue/miniconda3/envs/alpa/lib/python3.8/site-packages/optax/_src/schedule.py" source_line=87}
  %constant_1334 = f32[] constant(-0.1)
  %multiply.1017 = f32[] multiply(f32[] %subtract.28, f32[] %constant_1334), metadata={op_name="parallelize(train_step_func_pipeshard_parallel_mesh_0)/jit(main)/mul" source_file="/home/cyxue/miniconda3/envs/alpa/lib/python3.8/site-packages/optax/_src/schedule.py" source_line=88}
  %constant_1333 = f32[] constant(0.1)
  %add.340 = f32[] add(f32[] %multiply.1017, f32[] %constant_1333), metadata={op_name="parallelize(train_step_func_pipeshard_parallel_mesh_0)/jit(main)/add" source_file="/home/cyxue/miniconda3/envs/alpa/lib/python3.8/site-packages/optax/_src/schedule.py" source_line=88}
  %constant_1332 = f32[] constant(-50000)
  %add.339 = f32[] add(f32[] %convert.57, f32[] %constant_1332), metadata={op_name="parallelize(train_step_func_pipeshard_parallel_mesh_0)/jit(main)/sub" source_file="/home/cyxue/miniconda3/envs/alpa/lib/python3.8/site-packages/optax/_src/schedule.py" source_line=394}
  %constant_1331 = f32[] constant(950000)
  %minimum.56 = f32[] minimum(f32[] %add.339, f32[] %constant_1331), metadata={op_name="parallelize(train_step_func_pipeshard_parallel_mesh_0)/jit(main)/min" source_file="/home/cyxue/miniconda3/envs/alpa/lib/python3.8/site-packages/optax/_src/schedule.py" source_line=235}
  %constant_1330 = f32[] constant(3.30693956e-06)
  %multiply.1016 = f32[] multiply(f32[] %minimum.56, f32[] %constant_1330), metadata={op_name="parallelize(train_step_func_pipeshard_parallel_mesh_0)/jit(main)/div" source_file="/home/cyxue/miniconda3/envs/alpa/lib/python3.8/site-packages/optax/_src/schedule.py" source_line=236}
  %cosine.28 = f32[] cosine(f32[] %multiply.1016), metadata={op_name="parallelize(train_step_func_pipeshard_parallel_mesh_0)/jit(main)/cos" source_file="/home/cyxue/miniconda3/envs/alpa/lib/python3.8/site-packages/optax/_src/schedule.py" source_line=236}
  %add.338 = f32[] add(f32[] %cosine.28, f32[] %constant_1337), metadata={op_name="parallelize(train_step_func_pipeshard_parallel_mesh_0)/jit(main)/add" source_file="/home/cyxue/miniconda3/envs/alpa/lib/python3.8/site-packages/optax/_src/schedule.py" source_line=236}
  %constant_1329 = f32[] constant(0.05)
  %multiply.1015 = f32[] multiply(f32[] %add.338, f32[] %constant_1329), metadata={op_name="parallelize(train_step_func_pipeshard_parallel_mesh_0)/jit(main)/mul" source_file="/home/cyxue/miniconda3/envs/alpa/lib/python3.8/site-packages/optax/_src/schedule.py" source_line=238}
  %select.29 = f32[] select(pred[] %compare.29, f32[] %add.340, f32[] %multiply.1015), metadata={op_name="parallelize(train_step_func_pipeshard_parallel_mesh_0)/jit(main)/select_n" source_file="/home/cyxue/miniconda3/envs/alpa/lib/python3.8/site-packages/optax/_src/schedule.py" source_line=394}
  %constant_1328 = f32[] constant(-1)
  %multiply.1014 = f32[] multiply(f32[] %select.29, f32[] %constant_1328), metadata={op_name="parallelize(train_step_func_pipeshard_parallel_mesh_0)/jit(main)/mul" source_file="/home/cyxue/miniconda3/envs/alpa/lib/python3.8/site-packages/optax/_src/alias.py" source_line=37}
  %broadcast.208 = f32[1,1,1792,3584]{3,2,1,0} broadcast(f32[] %multiply.1014), dimensions={}, metadata={op_name="parallelize(train_step_func_pipeshard_parallel_mesh_0)/jit(main)/mul" source_file="/home/cyxue/miniconda3/envs/alpa/lib/python3.8/site-packages/optax/_src/transform.py" source_line=694}
  %param_1.880 = f32[1,1,1792,3584]{3,2,1,0} parameter(1)
  %constant_980 = f32[] constant(0.0625)
  %broadcast.879 = f32[1,1,1792,3584]{3,2,1,0} broadcast(f32[] %constant_980), dimensions={}, metadata={op_name="parallelize(train_step_func_pipeshard_parallel_mesh_0)/jit(main)/div"}
  %multiply.854 = f32[1,1,1792,3584]{3,2,1,0} multiply(f32[1,1,1792,3584]{3,2,1,0} %param_1.880, f32[1,1,1792,3584]{3,2,1,0} %broadcast.879), metadata={op_name="parallelize(train_step_func_pipeshard_parallel_mesh_0)/jit(main)/div"}
  %param_6.1149 = f32[1,1,1792,3584]{3,2,1,0} parameter(6)
  %constant_220 = f32[] constant(0.9)
  %broadcast.384.clone.1 = f32[1,1,1792,3584]{3,2,1,0} broadcast(f32[] %constant_220), dimensions={}, metadata={op_name="parallelize(train_step_func_pipeshard_parallel_mesh_0)/jit(main)/mul" source_file="/home/cyxue/miniconda3/envs/alpa/lib/python3.8/site-packages/optax/_src/transform.py" source_line=70}
  %multiply.387.clone.1 = f32[1,1,1792,3584]{3,2,1,0} multiply(f32[1,1,1792,3584]{3,2,1,0} %param_6.1149, f32[1,1,1792,3584]{3,2,1,0} %broadcast.384.clone.1), metadata={op_name="parallelize(train_step_func_pipeshard_parallel_mesh_0)/jit(main)/mul" source_file="/home/cyxue/miniconda3/envs/alpa/lib/python3.8/site-packages/optax/_src/transform.py" source_line=70}
  %add.179.clone.1 = f32[1,1,1792,3584]{3,2,1,0} add(f32[1,1,1792,3584]{3,2,1,0} %multiply.854, f32[1,1,1792,3584]{3,2,1,0} %multiply.387.clone.1), metadata={op_name="parallelize(train_step_func_pipeshard_parallel_mesh_0)/jit(main)/add" source_file="/home/cyxue/miniconda3/envs/alpa/lib/python3.8/site-packages/optax/_src/transform.py" source_line=70}
  %multiply.215 = f32[1,1,1792,3584]{3,2,1,0} multiply(f32[1,1,1792,3584]{3,2,1,0} %add.179.clone.1, f32[1,1,1792,3584]{3,2,1,0} %broadcast.384.clone.1), metadata={op_name="parallelize(train_step_func_pipeshard_parallel_mesh_0)/jit(main)/mul" source_file="/home/cyxue/miniconda3/envs/alpa/lib/python3.8/site-packages/optax/_src/transform.py" source_line=70}
  %add.14 = f32[1,1,1792,3584]{3,2,1,0} add(f32[1,1,1792,3584]{3,2,1,0} %multiply.854, f32[1,1,1792,3584]{3,2,1,0} %multiply.215), metadata={op_name="parallelize(train_step_func_pipeshard_parallel_mesh_0)/jit(main)/add" source_file="/home/cyxue/miniconda3/envs/alpa/lib/python3.8/site-packages/optax/_src/transform.py" source_line=70}
  %multiply.214 = f32[1,1,1792,3584]{3,2,1,0} multiply(f32[1,1,1792,3584]{3,2,1,0} %broadcast.208, f32[1,1,1792,3584]{3,2,1,0} %add.14), metadata={op_name="parallelize(train_step_func_pipeshard_parallel_mesh_0)/jit(main)/mul" source_file="/home/cyxue/miniconda3/envs/alpa/lib/python3.8/site-packages/optax/_src/transform.py" source_line=694}
  %add.13 = f32[1,1,1792,3584]{3,2,1,0} add(f32[1,1,1792,3584]{3,2,1,0} %param_0.63, f32[1,1,1792,3584]{3,2,1,0} %multiply.214), metadata={op_name="parallelize(train_step_func_pipeshard_parallel_mesh_0)/jit(main)/add" source_file="/home/cyxue/miniconda3/envs/alpa/lib/python3.8/site-packages/optax/_src/update.py" source_line=43}
  %param_3.774 = f32[1,1,1792,3584]{3,2,1,0} parameter(3)
  %param_4.951 = f32[1,1,1792,3584]{3,2,1,0} parameter(4)
  %multiply.858.clone.1 = f32[1,1,1792,3584]{3,2,1,0} multiply(f32[1,1,1792,3584]{3,2,1,0} %param_4.951, f32[1,1,1792,3584]{3,2,1,0} %broadcast.879), metadata={op_name="parallelize(train_step_func_pipeshard_parallel_mesh_0)/jit(main)/div"}
  %param_5.633 = f32[1,1,1792,3584]{3,2,1,0} parameter(5)
  %multiply.385.clone.1 = f32[1,1,1792,3584]{3,2,1,0} multiply(f32[1,1,1792,3584]{3,2,1,0} %param_5.633, f32[1,1,1792,3584]{3,2,1,0} %broadcast.384.clone.1), metadata={op_name="parallelize(train_step_func_pipeshard_parallel_mesh_0)/jit(main)/mul" source_file="/home/cyxue/miniconda3/envs/alpa/lib/python3.8/site-packages/optax/_src/transform.py" source_line=70}
  %add.178.clone.1 = f32[1,1,1792,3584]{3,2,1,0} add(f32[1,1,1792,3584]{3,2,1,0} %multiply.858.clone.1, f32[1,1,1792,3584]{3,2,1,0} %multiply.385.clone.1), metadata={op_name="parallelize(train_step_func_pipeshard_parallel_mesh_0)/jit(main)/add" source_file="/home/cyxue/miniconda3/envs/alpa/lib/python3.8/site-packages/optax/_src/transform.py" source_line=70}
  %multiply.213.clone.1 = f32[1,1,1792,3584]{3,2,1,0} multiply(f32[1,1,1792,3584]{3,2,1,0} %add.178.clone.1, f32[1,1,1792,3584]{3,2,1,0} %broadcast.384.clone.1), metadata={op_name="parallelize(train_step_func_pipeshard_parallel_mesh_0)/jit(main)/mul" source_file="/home/cyxue/miniconda3/envs/alpa/lib/python3.8/site-packages/optax/_src/transform.py" source_line=70}
  %add.12.clone.1 = f32[1,1,1792,3584]{3,2,1,0} add(f32[1,1,1792,3584]{3,2,1,0} %multiply.858.clone.1, f32[1,1,1792,3584]{3,2,1,0} %multiply.213.clone.1), metadata={op_name="parallelize(train_step_func_pipeshard_parallel_mesh_0)/jit(main)/add" source_file="/home/cyxue/miniconda3/envs/alpa/lib/python3.8/site-packages/optax/_src/transform.py" source_line=70}
  %multiply.212.clone.1 = f32[1,1,1792,3584]{3,2,1,0} multiply(f32[1,1,1792,3584]{3,2,1,0} %broadcast.208, f32[1,1,1792,3584]{3,2,1,0} %add.12.clone.1), metadata={op_name="parallelize(train_step_func_pipeshard_parallel_mesh_0)/jit(main)/mul" source_file="/home/cyxue/miniconda3/envs/alpa/lib/python3.8/site-packages/optax/_src/transform.py" source_line=694}
  %add.11.clone.1 = f32[1,1,1792,3584]{3,2,1,0} add(f32[1,1,1792,3584]{3,2,1,0} %param_3.774, f32[1,1,1792,3584]{3,2,1,0} %multiply.212.clone.1), metadata={op_name="parallelize(train_step_func_pipeshard_parallel_mesh_0)/jit(main)/add" source_file="/home/cyxue/miniconda3/envs/alpa/lib/python3.8/site-packages/optax/_src/update.py" source_line=43}
  ROOT %tuple.73 = (f32[1,1,1792,3584]{3,2,1,0}, f32[1,1,1792,3584]{3,2,1,0}, f32[1,1,1792,3584]{3,2,1,0}, f32[1,1,1792,3584]{3,2,1,0}) tuple(f32[1,1,1792,3584]{3,2,1,0} %add.13, f32[1,1,1792,3584]{3,2,1,0} %add.11.clone.1, f32[1,1,1792,3584]{3,2,1,0} %add.178.clone.1, f32[1,1,1792,3584]{3,2,1,0} %add.179.clone.1)
}

%fused_computation.63 (param_0.64: f32[3,3,896,1792], param_1.881: f32[3,3,896,1792], param_2.769: s32[], param_3.776: f32[3,3,896,1792]) -> (f32[3,3,896,1792], f32[3,3,896,1792]) {
  %param_0.64 = f32[3,3,896,1792]{3,2,1,0} parameter(0)
  %param_2.769 = s32[] parameter(2)
  %convert.61 = f32[] convert(s32[] %param_2.769), metadata={op_name="parallelize(train_step_func_pipeshard_parallel_mesh_0)/jit(main)/convert_element_type[new_dtype=float32 weak_type=True]" source_file="/home/cyxue/miniconda3/envs/alpa/lib/python3.8/site-packages/optax/_src/schedule.py" source_line=394}
  %constant_1361 = f32[] constant(50000)
  %compare.31 = pred[] compare(f32[] %convert.61, f32[] %constant_1361), direction=LT, metadata={op_name="parallelize(train_step_func_pipeshard_parallel_mesh_0)/jit(main)/lt" source_file="/home/cyxue/miniconda3/envs/alpa/lib/python3.8/site-packages/optax/_src/schedule.py" source_line=394}
  %constant_1360 = f32[] constant(1)
  %constant_1359 = s32[] constant(0)
  %maximum.30 = s32[] maximum(s32[] %param_2.769, s32[] %constant_1359), metadata={op_name="parallelize(train_step_func_pipeshard_parallel_mesh_0)/jit(main)/max" source_file="/home/cyxue/miniconda3/envs/alpa/lib/python3.8/site-packages/optax/_src/schedule.py" source_line=86}
  %convert.60 = f32[] convert(s32[] %maximum.30), metadata={op_name="parallelize(train_step_func_pipeshard_parallel_mesh_0)/jit(main)/convert_element_type[new_dtype=float32 weak_type=True]" source_file="/home/cyxue/miniconda3/envs/alpa/lib/python3.8/site-packages/optax/_src/schedule.py" source_line=86}
  %minimum.61 = f32[] minimum(f32[] %convert.60, f32[] %constant_1361), metadata={op_name="parallelize(train_step_func_pipeshard_parallel_mesh_0)/jit(main)/min" source_file="/home/cyxue/miniconda3/envs/alpa/lib/python3.8/site-packages/optax/_src/schedule.py" source_line=86}
  %constant_1358 = f32[] constant(2e-05)
  %multiply.1028 = f32[] multiply(f32[] %minimum.61, f32[] %constant_1358), metadata={op_name="parallelize(train_step_func_pipeshard_parallel_mesh_0)/jit(main)/div" source_file="/home/cyxue/miniconda3/envs/alpa/lib/python3.8/site-packages/optax/_src/schedule.py" source_line=87}
  %subtract.30 = f32[] subtract(f32[] %constant_1360, f32[] %multiply.1028), metadata={op_name="parallelize(train_step_func_pipeshard_parallel_mesh_0)/jit(main)/sub" source_file="/home/cyxue/miniconda3/envs/alpa/lib/python3.8/site-packages/optax/_src/schedule.py" source_line=87}
  %constant_1357 = f32[] constant(-0.1)
  %multiply.1027 = f32[] multiply(f32[] %subtract.30, f32[] %constant_1357), metadata={op_name="parallelize(train_step_func_pipeshard_parallel_mesh_0)/jit(main)/mul" source_file="/home/cyxue/miniconda3/envs/alpa/lib/python3.8/site-packages/optax/_src/schedule.py" source_line=88}
  %constant_1356 = f32[] constant(0.1)
  %add.346 = f32[] add(f32[] %multiply.1027, f32[] %constant_1356), metadata={op_name="parallelize(train_step_func_pipeshard_parallel_mesh_0)/jit(main)/add" source_file="/home/cyxue/miniconda3/envs/alpa/lib/python3.8/site-packages/optax/_src/schedule.py" source_line=88}
  %constant_1355 = f32[] constant(-50000)
  %add.345 = f32[] add(f32[] %convert.61, f32[] %constant_1355), metadata={op_name="parallelize(train_step_func_pipeshard_parallel_mesh_0)/jit(main)/sub" source_file="/home/cyxue/miniconda3/envs/alpa/lib/python3.8/site-packages/optax/_src/schedule.py" source_line=394}
  %constant_1354 = f32[] constant(950000)
  %minimum.60 = f32[] minimum(f32[] %add.345, f32[] %constant_1354), metadata={op_name="parallelize(train_step_func_pipeshard_parallel_mesh_0)/jit(main)/min" source_file="/home/cyxue/miniconda3/envs/alpa/lib/python3.8/site-packages/optax/_src/schedule.py" source_line=235}
  %constant_1353 = f32[] constant(3.30693956e-06)
  %multiply.1026 = f32[] multiply(f32[] %minimum.60, f32[] %constant_1353), metadata={op_name="parallelize(train_step_func_pipeshard_parallel_mesh_0)/jit(main)/div" source_file="/home/cyxue/miniconda3/envs/alpa/lib/python3.8/site-packages/optax/_src/schedule.py" source_line=236}
  %cosine.30 = f32[] cosine(f32[] %multiply.1026), metadata={op_name="parallelize(train_step_func_pipeshard_parallel_mesh_0)/jit(main)/cos" source_file="/home/cyxue/miniconda3/envs/alpa/lib/python3.8/site-packages/optax/_src/schedule.py" source_line=236}
  %add.344 = f32[] add(f32[] %cosine.30, f32[] %constant_1360), metadata={op_name="parallelize(train_step_func_pipeshard_parallel_mesh_0)/jit(main)/add" source_file="/home/cyxue/miniconda3/envs/alpa/lib/python3.8/site-packages/optax/_src/schedule.py" source_line=236}
  %constant_1352 = f32[] constant(0.05)
  %multiply.1025 = f32[] multiply(f32[] %add.344, f32[] %constant_1352), metadata={op_name="parallelize(train_step_func_pipeshard_parallel_mesh_0)/jit(main)/mul" source_file="/home/cyxue/miniconda3/envs/alpa/lib/python3.8/site-packages/optax/_src/schedule.py" source_line=238}
  %select.31 = f32[] select(pred[] %compare.31, f32[] %add.346, f32[] %multiply.1025), metadata={op_name="parallelize(train_step_func_pipeshard_parallel_mesh_0)/jit(main)/select_n" source_file="/home/cyxue/miniconda3/envs/alpa/lib/python3.8/site-packages/optax/_src/schedule.py" source_line=394}
  %constant_1351 = f32[] constant(-1)
  %multiply.1024 = f32[] multiply(f32[] %select.31, f32[] %constant_1351), metadata={op_name="parallelize(train_step_func_pipeshard_parallel_mesh_0)/jit(main)/mul" source_file="/home/cyxue/miniconda3/envs/alpa/lib/python3.8/site-packages/optax/_src/alias.py" source_line=37}
  %broadcast.210 = f32[3,3,896,1792]{3,2,1,0} broadcast(f32[] %multiply.1024), dimensions={}, metadata={op_name="parallelize(train_step_func_pipeshard_parallel_mesh_0)/jit(main)/mul" source_file="/home/cyxue/miniconda3/envs/alpa/lib/python3.8/site-packages/optax/_src/transform.py" source_line=694}
  %param_1.881 = f32[3,3,896,1792]{3,2,1,0} parameter(1)
  %constant_974 = f32[] constant(0.0625)
  %broadcast.875 = f32[3,3,896,1792]{3,2,1,0} broadcast(f32[] %constant_974), dimensions={}, metadata={op_name="parallelize(train_step_func_pipeshard_parallel_mesh_0)/jit(main)/div"}
  %multiply.850 = f32[3,3,896,1792]{3,2,1,0} multiply(f32[3,3,896,1792]{3,2,1,0} %param_1.881, f32[3,3,896,1792]{3,2,1,0} %broadcast.875), metadata={op_name="parallelize(train_step_func_pipeshard_parallel_mesh_0)/jit(main)/div"}
  %param_3.776 = f32[3,3,896,1792]{3,2,1,0} parameter(3)
  %constant_221 = f32[] constant(0.9)
  %broadcast.388.clone.1 = f32[3,3,896,1792]{3,2,1,0} broadcast(f32[] %constant_221), dimensions={}, metadata={op_name="parallelize(train_step_func_pipeshard_parallel_mesh_0)/jit(main)/mul" source_file="/home/cyxue/miniconda3/envs/alpa/lib/python3.8/site-packages/optax/_src/transform.py" source_line=70}
  %multiply.389.clone.1 = f32[3,3,896,1792]{3,2,1,0} multiply(f32[3,3,896,1792]{3,2,1,0} %param_3.776, f32[3,3,896,1792]{3,2,1,0} %broadcast.388.clone.1), metadata={op_name="parallelize(train_step_func_pipeshard_parallel_mesh_0)/jit(main)/mul" source_file="/home/cyxue/miniconda3/envs/alpa/lib/python3.8/site-packages/optax/_src/transform.py" source_line=70}
  %add.180.clone.1 = f32[3,3,896,1792]{3,2,1,0} add(f32[3,3,896,1792]{3,2,1,0} %multiply.850, f32[3,3,896,1792]{3,2,1,0} %multiply.389.clone.1), metadata={op_name="parallelize(train_step_func_pipeshard_parallel_mesh_0)/jit(main)/add" source_file="/home/cyxue/miniconda3/envs/alpa/lib/python3.8/site-packages/optax/_src/transform.py" source_line=70}
  %multiply.217 = f32[3,3,896,1792]{3,2,1,0} multiply(f32[3,3,896,1792]{3,2,1,0} %add.180.clone.1, f32[3,3,896,1792]{3,2,1,0} %broadcast.388.clone.1), metadata={op_name="parallelize(train_step_func_pipeshard_parallel_mesh_0)/jit(main)/mul" source_file="/home/cyxue/miniconda3/envs/alpa/lib/python3.8/site-packages/optax/_src/transform.py" source_line=70}
  %add.16 = f32[3,3,896,1792]{3,2,1,0} add(f32[3,3,896,1792]{3,2,1,0} %multiply.850, f32[3,3,896,1792]{3,2,1,0} %multiply.217), metadata={op_name="parallelize(train_step_func_pipeshard_parallel_mesh_0)/jit(main)/add" source_file="/home/cyxue/miniconda3/envs/alpa/lib/python3.8/site-packages/optax/_src/transform.py" source_line=70}
  %multiply.216 = f32[3,3,896,1792]{3,2,1,0} multiply(f32[3,3,896,1792]{3,2,1,0} %broadcast.210, f32[3,3,896,1792]{3,2,1,0} %add.16), metadata={op_name="parallelize(train_step_func_pipeshard_parallel_mesh_0)/jit(main)/mul" source_file="/home/cyxue/miniconda3/envs/alpa/lib/python3.8/site-packages/optax/_src/transform.py" source_line=694}
  %add.15 = f32[3,3,896,1792]{3,2,1,0} add(f32[3,3,896,1792]{3,2,1,0} %param_0.64, f32[3,3,896,1792]{3,2,1,0} %multiply.216), metadata={op_name="parallelize(train_step_func_pipeshard_parallel_mesh_0)/jit(main)/add" source_file="/home/cyxue/miniconda3/envs/alpa/lib/python3.8/site-packages/optax/_src/update.py" source_line=43}
  ROOT %tuple.74 = (f32[3,3,896,1792]{3,2,1,0}, f32[3,3,896,1792]{3,2,1,0}) tuple(f32[3,3,896,1792]{3,2,1,0} %add.15, f32[3,3,896,1792]{3,2,1,0} %add.180.clone.1)
}

%fused_computation.64 (param_0.65: f32[1,1,1792,896], param_1.882: f32[1,1,1792,896], param_2.770: s32[], param_3.778: f32[1,1,1792,896]) -> (f32[1,1,1792,896], f32[1,1,1792,896]) {
  %param_0.65 = f32[1,1,1792,896]{3,2,1,0} parameter(0)
  %param_2.770 = s32[] parameter(2)
  %convert.65 = f32[] convert(s32[] %param_2.770), metadata={op_name="parallelize(train_step_func_pipeshard_parallel_mesh_0)/jit(main)/convert_element_type[new_dtype=float32 weak_type=True]" source_file="/home/cyxue/miniconda3/envs/alpa/lib/python3.8/site-packages/optax/_src/schedule.py" source_line=394}
  %constant_1384 = f32[] constant(50000)
  %compare.33 = pred[] compare(f32[] %convert.65, f32[] %constant_1384), direction=LT, metadata={op_name="parallelize(train_step_func_pipeshard_parallel_mesh_0)/jit(main)/lt" source_file="/home/cyxue/miniconda3/envs/alpa/lib/python3.8/site-packages/optax/_src/schedule.py" source_line=394}
  %constant_1383 = f32[] constant(1)
  %constant_1382 = s32[] constant(0)
  %maximum.32 = s32[] maximum(s32[] %param_2.770, s32[] %constant_1382), metadata={op_name="parallelize(train_step_func_pipeshard_parallel_mesh_0)/jit(main)/max" source_file="/home/cyxue/miniconda3/envs/alpa/lib/python3.8/site-packages/optax/_src/schedule.py" source_line=86}
  %convert.64 = f32[] convert(s32[] %maximum.32), metadata={op_name="parallelize(train_step_func_pipeshard_parallel_mesh_0)/jit(main)/convert_element_type[new_dtype=float32 weak_type=True]" source_file="/home/cyxue/miniconda3/envs/alpa/lib/python3.8/site-packages/optax/_src/schedule.py" source_line=86}
  %minimum.65 = f32[] minimum(f32[] %convert.64, f32[] %constant_1384), metadata={op_name="parallelize(train_step_func_pipeshard_parallel_mesh_0)/jit(main)/min" source_file="/home/cyxue/miniconda3/envs/alpa/lib/python3.8/site-packages/optax/_src/schedule.py" source_line=86}
  %constant_1381 = f32[] constant(2e-05)
  %multiply.1038 = f32[] multiply(f32[] %minimum.65, f32[] %constant_1381), metadata={op_name="parallelize(train_step_func_pipeshard_parallel_mesh_0)/jit(main)/div" source_file="/home/cyxue/miniconda3/envs/alpa/lib/python3.8/site-packages/optax/_src/schedule.py" source_line=87}
  %subtract.32 = f32[] subtract(f32[] %constant_1383, f32[] %multiply.1038), metadata={op_name="parallelize(train_step_func_pipeshard_parallel_mesh_0)/jit(main)/sub" source_file="/home/cyxue/miniconda3/envs/alpa/lib/python3.8/site-packages/optax/_src/schedule.py" source_line=87}
  %constant_1380 = f32[] constant(-0.1)
  %multiply.1037 = f32[] multiply(f32[] %subtract.32, f32[] %constant_1380), metadata={op_name="parallelize(train_step_func_pipeshard_parallel_mesh_0)/jit(main)/mul" source_file="/home/cyxue/miniconda3/envs/alpa/lib/python3.8/site-packages/optax/_src/schedule.py" source_line=88}
  %constant_1379 = f32[] constant(0.1)
  %add.352 = f32[] add(f32[] %multiply.1037, f32[] %constant_1379), metadata={op_name="parallelize(train_step_func_pipeshard_parallel_mesh_0)/jit(main)/add" source_file="/home/cyxue/miniconda3/envs/alpa/lib/python3.8/site-packages/optax/_src/schedule.py" source_line=88}
  %constant_1378 = f32[] constant(-50000)
  %add.351 = f32[] add(f32[] %convert.65, f32[] %constant_1378), metadata={op_name="parallelize(train_step_func_pipeshard_parallel_mesh_0)/jit(main)/sub" source_file="/home/cyxue/miniconda3/envs/alpa/lib/python3.8/site-packages/optax/_src/schedule.py" source_line=394}
  %constant_1377 = f32[] constant(950000)
  %minimum.64 = f32[] minimum(f32[] %add.351, f32[] %constant_1377), metadata={op_name="parallelize(train_step_func_pipeshard_parallel_mesh_0)/jit(main)/min" source_file="/home/cyxue/miniconda3/envs/alpa/lib/python3.8/site-packages/optax/_src/schedule.py" source_line=235}
  %constant_1376 = f32[] constant(3.30693956e-06)
  %multiply.1036 = f32[] multiply(f32[] %minimum.64, f32[] %constant_1376), metadata={op_name="parallelize(train_step_func_pipeshard_parallel_mesh_0)/jit(main)/div" source_file="/home/cyxue/miniconda3/envs/alpa/lib/python3.8/site-packages/optax/_src/schedule.py" source_line=236}
  %cosine.32 = f32[] cosine(f32[] %multiply.1036), metadata={op_name="parallelize(train_step_func_pipeshard_parallel_mesh_0)/jit(main)/cos" source_file="/home/cyxue/miniconda3/envs/alpa/lib/python3.8/site-packages/optax/_src/schedule.py" source_line=236}
  %add.350 = f32[] add(f32[] %cosine.32, f32[] %constant_1383), metadata={op_name="parallelize(train_step_func_pipeshard_parallel_mesh_0)/jit(main)/add" source_file="/home/cyxue/miniconda3/envs/alpa/lib/python3.8/site-packages/optax/_src/schedule.py" source_line=236}
  %constant_1375 = f32[] constant(0.05)
  %multiply.1035 = f32[] multiply(f32[] %add.350, f32[] %constant_1375), metadata={op_name="parallelize(train_step_func_pipeshard_parallel_mesh_0)/jit(main)/mul" source_file="/home/cyxue/miniconda3/envs/alpa/lib/python3.8/site-packages/optax/_src/schedule.py" source_line=238}
  %select.33 = f32[] select(pred[] %compare.33, f32[] %add.352, f32[] %multiply.1035), metadata={op_name="parallelize(train_step_func_pipeshard_parallel_mesh_0)/jit(main)/select_n" source_file="/home/cyxue/miniconda3/envs/alpa/lib/python3.8/site-packages/optax/_src/schedule.py" source_line=394}
  %constant_1374 = f32[] constant(-1)
  %multiply.1034 = f32[] multiply(f32[] %select.33, f32[] %constant_1374), metadata={op_name="parallelize(train_step_func_pipeshard_parallel_mesh_0)/jit(main)/mul" source_file="/home/cyxue/miniconda3/envs/alpa/lib/python3.8/site-packages/optax/_src/alias.py" source_line=37}
  %broadcast.212 = f32[1,1,1792,896]{3,2,1,0} broadcast(f32[] %multiply.1034), dimensions={}, metadata={op_name="parallelize(train_step_func_pipeshard_parallel_mesh_0)/jit(main)/mul" source_file="/home/cyxue/miniconda3/envs/alpa/lib/python3.8/site-packages/optax/_src/transform.py" source_line=694}
  %param_1.882 = f32[1,1,1792,896]{3,2,1,0} parameter(1)
  %constant_968 = f32[] constant(0.0625)
  %broadcast.871 = f32[1,1,1792,896]{3,2,1,0} broadcast(f32[] %constant_968), dimensions={}, metadata={op_name="parallelize(train_step_func_pipeshard_parallel_mesh_0)/jit(main)/div"}
  %multiply.846 = f32[1,1,1792,896]{3,2,1,0} multiply(f32[1,1,1792,896]{3,2,1,0} %param_1.882, f32[1,1,1792,896]{3,2,1,0} %broadcast.871), metadata={op_name="parallelize(train_step_func_pipeshard_parallel_mesh_0)/jit(main)/div"}
  %param_3.778 = f32[1,1,1792,896]{3,2,1,0} parameter(3)
  %constant_222 = f32[] constant(0.9)
  %broadcast.392.clone.1 = f32[1,1,1792,896]{3,2,1,0} broadcast(f32[] %constant_222), dimensions={}, metadata={op_name="parallelize(train_step_func_pipeshard_parallel_mesh_0)/jit(main)/mul" source_file="/home/cyxue/miniconda3/envs/alpa/lib/python3.8/site-packages/optax/_src/transform.py" source_line=70}
  %multiply.391.clone.1 = f32[1,1,1792,896]{3,2,1,0} multiply(f32[1,1,1792,896]{3,2,1,0} %param_3.778, f32[1,1,1792,896]{3,2,1,0} %broadcast.392.clone.1), metadata={op_name="parallelize(train_step_func_pipeshard_parallel_mesh_0)/jit(main)/mul" source_file="/home/cyxue/miniconda3/envs/alpa/lib/python3.8/site-packages/optax/_src/transform.py" source_line=70}
  %add.181.clone.1 = f32[1,1,1792,896]{3,2,1,0} add(f32[1,1,1792,896]{3,2,1,0} %multiply.846, f32[1,1,1792,896]{3,2,1,0} %multiply.391.clone.1), metadata={op_name="parallelize(train_step_func_pipeshard_parallel_mesh_0)/jit(main)/add" source_file="/home/cyxue/miniconda3/envs/alpa/lib/python3.8/site-packages/optax/_src/transform.py" source_line=70}
  %multiply.219 = f32[1,1,1792,896]{3,2,1,0} multiply(f32[1,1,1792,896]{3,2,1,0} %add.181.clone.1, f32[1,1,1792,896]{3,2,1,0} %broadcast.392.clone.1), metadata={op_name="parallelize(train_step_func_pipeshard_parallel_mesh_0)/jit(main)/mul" source_file="/home/cyxue/miniconda3/envs/alpa/lib/python3.8/site-packages/optax/_src/transform.py" source_line=70}
  %add.18 = f32[1,1,1792,896]{3,2,1,0} add(f32[1,1,1792,896]{3,2,1,0} %multiply.846, f32[1,1,1792,896]{3,2,1,0} %multiply.219), metadata={op_name="parallelize(train_step_func_pipeshard_parallel_mesh_0)/jit(main)/add" source_file="/home/cyxue/miniconda3/envs/alpa/lib/python3.8/site-packages/optax/_src/transform.py" source_line=70}
  %multiply.218 = f32[1,1,1792,896]{3,2,1,0} multiply(f32[1,1,1792,896]{3,2,1,0} %broadcast.212, f32[1,1,1792,896]{3,2,1,0} %add.18), metadata={op_name="parallelize(train_step_func_pipeshard_parallel_mesh_0)/jit(main)/mul" source_file="/home/cyxue/miniconda3/envs/alpa/lib/python3.8/site-packages/optax/_src/transform.py" source_line=694}
  %add.17 = f32[1,1,1792,896]{3,2,1,0} add(f32[1,1,1792,896]{3,2,1,0} %param_0.65, f32[1,1,1792,896]{3,2,1,0} %multiply.218), metadata={op_name="parallelize(train_step_func_pipeshard_parallel_mesh_0)/jit(main)/add" source_file="/home/cyxue/miniconda3/envs/alpa/lib/python3.8/site-packages/optax/_src/update.py" source_line=43}
  ROOT %tuple.75 = (f32[1,1,1792,896]{3,2,1,0}, f32[1,1,1792,896]{3,2,1,0}) tuple(f32[1,1,1792,896]{3,2,1,0} %add.17, f32[1,1,1792,896]{3,2,1,0} %add.181.clone.1)
}

%fused_computation.66 (param_0.67: f32[3584], param_1.883: f32[3584], param_2.771: s32[], param_3.779: f32[3584], param_4.960: f32[3584], param_5.638: f32[3584], param_6.1150: f32[3584], param_7.869: f32[3584], param_8.242: f32[3584], param_9.127: f32[3584], param_10.246: f32[3584], param_11.243: f32[3584], param_12.104: f32[3584]) -> (f32[3584], f32[3584], f32[3584], f32[3584], f32[3584], /*index=5*/f32[3584], f32[3584], f32[3584]) {
  %param_0.67 = f32[3584]{0} parameter(0)
  %param_2.771 = s32[] parameter(2)
  %convert.73 = f32[] convert(s32[] %param_2.771), metadata={op_name="parallelize(train_step_func_pipeshard_parallel_mesh_0)/jit(main)/convert_element_type[new_dtype=float32 weak_type=True]" source_file="/home/cyxue/miniconda3/envs/alpa/lib/python3.8/site-packages/optax/_src/schedule.py" source_line=394}
  %constant_1430 = f32[] constant(50000)
  %compare.37 = pred[] compare(f32[] %convert.73, f32[] %constant_1430), direction=LT, metadata={op_name="parallelize(train_step_func_pipeshard_parallel_mesh_0)/jit(main)/lt" source_file="/home/cyxue/miniconda3/envs/alpa/lib/python3.8/site-packages/optax/_src/schedule.py" source_line=394}
  %constant_1429 = f32[] constant(1)
  %constant_1428 = s32[] constant(0)
  %maximum.36 = s32[] maximum(s32[] %param_2.771, s32[] %constant_1428), metadata={op_name="parallelize(train_step_func_pipeshard_parallel_mesh_0)/jit(main)/max" source_file="/home/cyxue/miniconda3/envs/alpa/lib/python3.8/site-packages/optax/_src/schedule.py" source_line=86}
  %convert.72 = f32[] convert(s32[] %maximum.36), metadata={op_name="parallelize(train_step_func_pipeshard_parallel_mesh_0)/jit(main)/convert_element_type[new_dtype=float32 weak_type=True]" source_file="/home/cyxue/miniconda3/envs/alpa/lib/python3.8/site-packages/optax/_src/schedule.py" source_line=86}
  %minimum.73 = f32[] minimum(f32[] %convert.72, f32[] %constant_1430), metadata={op_name="parallelize(train_step_func_pipeshard_parallel_mesh_0)/jit(main)/min" source_file="/home/cyxue/miniconda3/envs/alpa/lib/python3.8/site-packages/optax/_src/schedule.py" source_line=86}
  %constant_1427 = f32[] constant(2e-05)
  %multiply.1058 = f32[] multiply(f32[] %minimum.73, f32[] %constant_1427), metadata={op_name="parallelize(train_step_func_pipeshard_parallel_mesh_0)/jit(main)/div" source_file="/home/cyxue/miniconda3/envs/alpa/lib/python3.8/site-packages/optax/_src/schedule.py" source_line=87}
  %subtract.36 = f32[] subtract(f32[] %constant_1429, f32[] %multiply.1058), metadata={op_name="parallelize(train_step_func_pipeshard_parallel_mesh_0)/jit(main)/sub" source_file="/home/cyxue/miniconda3/envs/alpa/lib/python3.8/site-packages/optax/_src/schedule.py" source_line=87}
  %constant_1426 = f32[] constant(-0.1)
  %multiply.1057 = f32[] multiply(f32[] %subtract.36, f32[] %constant_1426), metadata={op_name="parallelize(train_step_func_pipeshard_parallel_mesh_0)/jit(main)/mul" source_file="/home/cyxue/miniconda3/envs/alpa/lib/python3.8/site-packages/optax/_src/schedule.py" source_line=88}
  %constant_1425 = f32[] constant(0.1)
  %add.364 = f32[] add(f32[] %multiply.1057, f32[] %constant_1425), metadata={op_name="parallelize(train_step_func_pipeshard_parallel_mesh_0)/jit(main)/add" source_file="/home/cyxue/miniconda3/envs/alpa/lib/python3.8/site-packages/optax/_src/schedule.py" source_line=88}
  %constant_1424 = f32[] constant(-50000)
  %add.363 = f32[] add(f32[] %convert.73, f32[] %constant_1424), metadata={op_name="parallelize(train_step_func_pipeshard_parallel_mesh_0)/jit(main)/sub" source_file="/home/cyxue/miniconda3/envs/alpa/lib/python3.8/site-packages/optax/_src/schedule.py" source_line=394}
  %constant_1423 = f32[] constant(950000)
  %minimum.72 = f32[] minimum(f32[] %add.363, f32[] %constant_1423), metadata={op_name="parallelize(train_step_func_pipeshard_parallel_mesh_0)/jit(main)/min" source_file="/home/cyxue/miniconda3/envs/alpa/lib/python3.8/site-packages/optax/_src/schedule.py" source_line=235}
  %constant_1422 = f32[] constant(3.30693956e-06)
  %multiply.1056 = f32[] multiply(f32[] %minimum.72, f32[] %constant_1422), metadata={op_name="parallelize(train_step_func_pipeshard_parallel_mesh_0)/jit(main)/div" source_file="/home/cyxue/miniconda3/envs/alpa/lib/python3.8/site-packages/optax/_src/schedule.py" source_line=236}
  %cosine.36 = f32[] cosine(f32[] %multiply.1056), metadata={op_name="parallelize(train_step_func_pipeshard_parallel_mesh_0)/jit(main)/cos" source_file="/home/cyxue/miniconda3/envs/alpa/lib/python3.8/site-packages/optax/_src/schedule.py" source_line=236}
  %add.362 = f32[] add(f32[] %cosine.36, f32[] %constant_1429), metadata={op_name="parallelize(train_step_func_pipeshard_parallel_mesh_0)/jit(main)/add" source_file="/home/cyxue/miniconda3/envs/alpa/lib/python3.8/site-packages/optax/_src/schedule.py" source_line=236}
  %constant_1421 = f32[] constant(0.05)
  %multiply.1055 = f32[] multiply(f32[] %add.362, f32[] %constant_1421), metadata={op_name="parallelize(train_step_func_pipeshard_parallel_mesh_0)/jit(main)/mul" source_file="/home/cyxue/miniconda3/envs/alpa/lib/python3.8/site-packages/optax/_src/schedule.py" source_line=238}
  %select.37 = f32[] select(pred[] %compare.37, f32[] %add.364, f32[] %multiply.1055), metadata={op_name="parallelize(train_step_func_pipeshard_parallel_mesh_0)/jit(main)/select_n" source_file="/home/cyxue/miniconda3/envs/alpa/lib/python3.8/site-packages/optax/_src/schedule.py" source_line=394}
  %constant_1420 = f32[] constant(-1)
  %multiply.1054 = f32[] multiply(f32[] %select.37, f32[] %constant_1420), metadata={op_name="parallelize(train_step_func_pipeshard_parallel_mesh_0)/jit(main)/mul" source_file="/home/cyxue/miniconda3/envs/alpa/lib/python3.8/site-packages/optax/_src/alias.py" source_line=37}
  %broadcast.216 = f32[3584]{0} broadcast(f32[] %multiply.1054), dimensions={}, metadata={op_name="parallelize(train_step_func_pipeshard_parallel_mesh_0)/jit(main)/mul" source_file="/home/cyxue/miniconda3/envs/alpa/lib/python3.8/site-packages/optax/_src/transform.py" source_line=694}
  %param_1.883 = f32[3584]{0} parameter(1)
  %constant_956 = f32[] constant(0.0625)
  %broadcast.863 = f32[3584]{0} broadcast(f32[] %constant_956), dimensions={}, metadata={op_name="parallelize(train_step_func_pipeshard_parallel_mesh_0)/jit(main)/div"}
  %multiply.838 = f32[3584]{0} multiply(f32[3584]{0} %param_1.883, f32[3584]{0} %broadcast.863), metadata={op_name="parallelize(train_step_func_pipeshard_parallel_mesh_0)/jit(main)/div"}
  %param_12.104 = f32[3584]{0} parameter(12)
  %constant_224 = f32[] constant(0.9)
  %broadcast.400.clone.1 = f32[3584]{0} broadcast(f32[] %constant_224), dimensions={}, metadata={op_name="parallelize(train_step_func_pipeshard_parallel_mesh_0)/jit(main)/mul" source_file="/home/cyxue/miniconda3/envs/alpa/lib/python3.8/site-packages/optax/_src/transform.py" source_line=70}
  %multiply.395.clone.1 = f32[3584]{0} multiply(f32[3584]{0} %param_12.104, f32[3584]{0} %broadcast.400.clone.1), metadata={op_name="parallelize(train_step_func_pipeshard_parallel_mesh_0)/jit(main)/mul" source_file="/home/cyxue/miniconda3/envs/alpa/lib/python3.8/site-packages/optax/_src/transform.py" source_line=70}
  %add.183.clone.1 = f32[3584]{0} add(f32[3584]{0} %multiply.838, f32[3584]{0} %multiply.395.clone.1), metadata={op_name="parallelize(train_step_func_pipeshard_parallel_mesh_0)/jit(main)/add" source_file="/home/cyxue/miniconda3/envs/alpa/lib/python3.8/site-packages/optax/_src/transform.py" source_line=70}
  %multiply.223 = f32[3584]{0} multiply(f32[3584]{0} %add.183.clone.1, f32[3584]{0} %broadcast.400.clone.1), metadata={op_name="parallelize(train_step_func_pipeshard_parallel_mesh_0)/jit(main)/mul" source_file="/home/cyxue/miniconda3/envs/alpa/lib/python3.8/site-packages/optax/_src/transform.py" source_line=70}
  %add.22 = f32[3584]{0} add(f32[3584]{0} %multiply.838, f32[3584]{0} %multiply.223), metadata={op_name="parallelize(train_step_func_pipeshard_parallel_mesh_0)/jit(main)/add" source_file="/home/cyxue/miniconda3/envs/alpa/lib/python3.8/site-packages/optax/_src/transform.py" source_line=70}
  %multiply.222 = f32[3584]{0} multiply(f32[3584]{0} %broadcast.216, f32[3584]{0} %add.22), metadata={op_name="parallelize(train_step_func_pipeshard_parallel_mesh_0)/jit(main)/mul" source_file="/home/cyxue/miniconda3/envs/alpa/lib/python3.8/site-packages/optax/_src/transform.py" source_line=694}
  %add.21 = f32[3584]{0} add(f32[3584]{0} %param_0.67, f32[3584]{0} %multiply.222), metadata={op_name="parallelize(train_step_func_pipeshard_parallel_mesh_0)/jit(main)/add" source_file="/home/cyxue/miniconda3/envs/alpa/lib/python3.8/site-packages/optax/_src/update.py" source_line=43}
  %param_3.779 = f32[3584]{0} parameter(3)
  %param_4.960 = f32[3584]{0} parameter(4)
  %multiply.866.clone.1 = f32[3584]{0} multiply(f32[3584]{0} %param_4.960, f32[3584]{0} %broadcast.863), metadata={op_name="parallelize(train_step_func_pipeshard_parallel_mesh_0)/jit(main)/div"}
  %param_9.127 = f32[3584]{0} parameter(9)
  %multiply.381.clone.1 = f32[3584]{0} multiply(f32[3584]{0} %param_9.127, f32[3584]{0} %broadcast.400.clone.1), metadata={op_name="parallelize(train_step_func_pipeshard_parallel_mesh_0)/jit(main)/mul" source_file="/home/cyxue/miniconda3/envs/alpa/lib/python3.8/site-packages/optax/_src/transform.py" source_line=70}
  %add.176.clone.1 = f32[3584]{0} add(f32[3584]{0} %multiply.866.clone.1, f32[3584]{0} %multiply.381.clone.1), metadata={op_name="parallelize(train_step_func_pipeshard_parallel_mesh_0)/jit(main)/add" source_file="/home/cyxue/miniconda3/envs/alpa/lib/python3.8/site-packages/optax/_src/transform.py" source_line=70}
  %multiply.209.clone.1 = f32[3584]{0} multiply(f32[3584]{0} %add.176.clone.1, f32[3584]{0} %broadcast.400.clone.1), metadata={op_name="parallelize(train_step_func_pipeshard_parallel_mesh_0)/jit(main)/mul" source_file="/home/cyxue/miniconda3/envs/alpa/lib/python3.8/site-packages/optax/_src/transform.py" source_line=70}
  %add.8.clone.1 = f32[3584]{0} add(f32[3584]{0} %multiply.866.clone.1, f32[3584]{0} %multiply.209.clone.1), metadata={op_name="parallelize(train_step_func_pipeshard_parallel_mesh_0)/jit(main)/add" source_file="/home/cyxue/miniconda3/envs/alpa/lib/python3.8/site-packages/optax/_src/transform.py" source_line=70}
  %multiply.208.clone.1 = f32[3584]{0} multiply(f32[3584]{0} %broadcast.216, f32[3584]{0} %add.8.clone.1), metadata={op_name="parallelize(train_step_func_pipeshard_parallel_mesh_0)/jit(main)/mul" source_file="/home/cyxue/miniconda3/envs/alpa/lib/python3.8/site-packages/optax/_src/transform.py" source_line=694}
  %add.7.clone.1 = f32[3584]{0} add(f32[3584]{0} %param_3.779, f32[3584]{0} %multiply.208.clone.1), metadata={op_name="parallelize(train_step_func_pipeshard_parallel_mesh_0)/jit(main)/add" source_file="/home/cyxue/miniconda3/envs/alpa/lib/python3.8/site-packages/optax/_src/update.py" source_line=43}
  %param_5.638 = f32[3584]{0} parameter(5)
  %param_6.1150 = f32[3584]{0} parameter(6)
  %multiply.862.clone.1 = f32[3584]{0} multiply(f32[3584]{0} %param_6.1150, f32[3584]{0} %broadcast.863), metadata={op_name="parallelize(train_step_func_pipeshard_parallel_mesh_0)/jit(main)/div"}
  %param_10.246 = f32[3584]{0} parameter(10)
  %multiply.383.clone.1 = f32[3584]{0} multiply(f32[3584]{0} %param_10.246, f32[3584]{0} %broadcast.400.clone.1), metadata={op_name="parallelize(train_step_func_pipeshard_parallel_mesh_0)/jit(main)/mul" source_file="/home/cyxue/miniconda3/envs/alpa/lib/python3.8/site-packages/optax/_src/transform.py" source_line=70}
  %add.177.clone.1 = f32[3584]{0} add(f32[3584]{0} %multiply.862.clone.1, f32[3584]{0} %multiply.383.clone.1), metadata={op_name="parallelize(train_step_func_pipeshard_parallel_mesh_0)/jit(main)/add" source_file="/home/cyxue/miniconda3/envs/alpa/lib/python3.8/site-packages/optax/_src/transform.py" source_line=70}
  %multiply.211.clone.1 = f32[3584]{0} multiply(f32[3584]{0} %add.177.clone.1, f32[3584]{0} %broadcast.400.clone.1), metadata={op_name="parallelize(train_step_func_pipeshard_parallel_mesh_0)/jit(main)/mul" source_file="/home/cyxue/miniconda3/envs/alpa/lib/python3.8/site-packages/optax/_src/transform.py" source_line=70}
  %add.10.clone.1 = f32[3584]{0} add(f32[3584]{0} %multiply.862.clone.1, f32[3584]{0} %multiply.211.clone.1), metadata={op_name="parallelize(train_step_func_pipeshard_parallel_mesh_0)/jit(main)/add" source_file="/home/cyxue/miniconda3/envs/alpa/lib/python3.8/site-packages/optax/_src/transform.py" source_line=70}
  %multiply.210.clone.1 = f32[3584]{0} multiply(f32[3584]{0} %broadcast.216, f32[3584]{0} %add.10.clone.1), metadata={op_name="parallelize(train_step_func_pipeshard_parallel_mesh_0)/jit(main)/mul" source_file="/home/cyxue/miniconda3/envs/alpa/lib/python3.8/site-packages/optax/_src/transform.py" source_line=694}
  %add.9.clone.1 = f32[3584]{0} add(f32[3584]{0} %param_5.638, f32[3584]{0} %multiply.210.clone.1), metadata={op_name="parallelize(train_step_func_pipeshard_parallel_mesh_0)/jit(main)/add" source_file="/home/cyxue/miniconda3/envs/alpa/lib/python3.8/site-packages/optax/_src/update.py" source_line=43}
  %param_7.869 = f32[3584]{0} parameter(7)
  %param_8.242 = f32[3584]{0} parameter(8)
  %multiply.842.clone.1 = f32[3584]{0} multiply(f32[3584]{0} %param_8.242, f32[3584]{0} %broadcast.863), metadata={op_name="parallelize(train_step_func_pipeshard_parallel_mesh_0)/jit(main)/div"}
  %param_11.243 = f32[3584]{0} parameter(11)
  %multiply.393.clone.1 = f32[3584]{0} multiply(f32[3584]{0} %param_11.243, f32[3584]{0} %broadcast.400.clone.1), metadata={op_name="parallelize(train_step_func_pipeshard_parallel_mesh_0)/jit(main)/mul" source_file="/home/cyxue/miniconda3/envs/alpa/lib/python3.8/site-packages/optax/_src/transform.py" source_line=70}
  %add.182.clone.1 = f32[3584]{0} add(f32[3584]{0} %multiply.842.clone.1, f32[3584]{0} %multiply.393.clone.1), metadata={op_name="parallelize(train_step_func_pipeshard_parallel_mesh_0)/jit(main)/add" source_file="/home/cyxue/miniconda3/envs/alpa/lib/python3.8/site-packages/optax/_src/transform.py" source_line=70}
  %multiply.221.clone.1 = f32[3584]{0} multiply(f32[3584]{0} %add.182.clone.1, f32[3584]{0} %broadcast.400.clone.1), metadata={op_name="parallelize(train_step_func_pipeshard_parallel_mesh_0)/jit(main)/mul" source_file="/home/cyxue/miniconda3/envs/alpa/lib/python3.8/site-packages/optax/_src/transform.py" source_line=70}
  %add.20.clone.1 = f32[3584]{0} add(f32[3584]{0} %multiply.842.clone.1, f32[3584]{0} %multiply.221.clone.1), metadata={op_name="parallelize(train_step_func_pipeshard_parallel_mesh_0)/jit(main)/add" source_file="/home/cyxue/miniconda3/envs/alpa/lib/python3.8/site-packages/optax/_src/transform.py" source_line=70}
  %multiply.220.clone.1 = f32[3584]{0} multiply(f32[3584]{0} %broadcast.216, f32[3584]{0} %add.20.clone.1), metadata={op_name="parallelize(train_step_func_pipeshard_parallel_mesh_0)/jit(main)/mul" source_file="/home/cyxue/miniconda3/envs/alpa/lib/python3.8/site-packages/optax/_src/transform.py" source_line=694}
  %add.19.clone.1 = f32[3584]{0} add(f32[3584]{0} %param_7.869, f32[3584]{0} %multiply.220.clone.1), metadata={op_name="parallelize(train_step_func_pipeshard_parallel_mesh_0)/jit(main)/add" source_file="/home/cyxue/miniconda3/envs/alpa/lib/python3.8/site-packages/optax/_src/update.py" source_line=43}
  ROOT %tuple.77 = (f32[3584]{0}, f32[3584]{0}, f32[3584]{0}, f32[3584]{0}, f32[3584]{0}, /*index=5*/f32[3584]{0}, f32[3584]{0}, f32[3584]{0}) tuple(f32[3584]{0} %add.21, f32[3584]{0} %add.7.clone.1, f32[3584]{0} %add.9.clone.1, f32[3584]{0} %add.19.clone.1, f32[3584]{0} %add.176.clone.1, /*index=5*/f32[3584]{0} %add.177.clone.1, f32[3584]{0} %add.182.clone.1, f32[3584]{0} %add.183.clone.1)
}

%fused_computation.91 (param_0.92: f32[1,1,1792,448], param_1.884: f32[1,1,1792,448], param_2.772: s32[], param_3.780: f32[1,1,1792,448], param_4.961: f32[1,1,1792,448], param_5.645: f32[1,1,1792,448], param_6.1157: f32[1,1,1792,448], param_7.882: f32[1,1,1792,448], param_8.255: f32[1,1,1792,448], param_9.147: f32[1,1,1792,448]) -> (f32[1,1,1792,448], f32[1,1,1792,448], f32[1,1,1792,448], f32[1,1,1792,448], f32[1,1,1792,448], /*index=5*/f32[1,1,1792,448]) {
  %param_0.92 = f32[1,1,1792,448]{3,2,1,0} parameter(0)
  %param_2.772 = s32[] parameter(2)
  %convert.45 = f32[] convert(s32[] %param_2.772), metadata={op_name="parallelize(train_step_func_pipeshard_parallel_mesh_0)/jit(main)/convert_element_type[new_dtype=float32 weak_type=True]" source_file="/home/cyxue/miniconda3/envs/alpa/lib/python3.8/site-packages/optax/_src/schedule.py" source_line=394}
  %constant_1269 = f32[] constant(50000)
  %compare.23 = pred[] compare(f32[] %convert.45, f32[] %constant_1269), direction=LT, metadata={op_name="parallelize(train_step_func_pipeshard_parallel_mesh_0)/jit(main)/lt" source_file="/home/cyxue/miniconda3/envs/alpa/lib/python3.8/site-packages/optax/_src/schedule.py" source_line=394}
  %constant_1268 = f32[] constant(1)
  %constant_1267 = s32[] constant(0)
  %maximum.22 = s32[] maximum(s32[] %param_2.772, s32[] %constant_1267), metadata={op_name="parallelize(train_step_func_pipeshard_parallel_mesh_0)/jit(main)/max" source_file="/home/cyxue/miniconda3/envs/alpa/lib/python3.8/site-packages/optax/_src/schedule.py" source_line=86}
  %convert.44 = f32[] convert(s32[] %maximum.22), metadata={op_name="parallelize(train_step_func_pipeshard_parallel_mesh_0)/jit(main)/convert_element_type[new_dtype=float32 weak_type=True]" source_file="/home/cyxue/miniconda3/envs/alpa/lib/python3.8/site-packages/optax/_src/schedule.py" source_line=86}
  %minimum.45 = f32[] minimum(f32[] %convert.44, f32[] %constant_1269), metadata={op_name="parallelize(train_step_func_pipeshard_parallel_mesh_0)/jit(main)/min" source_file="/home/cyxue/miniconda3/envs/alpa/lib/python3.8/site-packages/optax/_src/schedule.py" source_line=86}
  %constant_1266 = f32[] constant(2e-05)
  %multiply.988 = f32[] multiply(f32[] %minimum.45, f32[] %constant_1266), metadata={op_name="parallelize(train_step_func_pipeshard_parallel_mesh_0)/jit(main)/div" source_file="/home/cyxue/miniconda3/envs/alpa/lib/python3.8/site-packages/optax/_src/schedule.py" source_line=87}
  %subtract.22 = f32[] subtract(f32[] %constant_1268, f32[] %multiply.988), metadata={op_name="parallelize(train_step_func_pipeshard_parallel_mesh_0)/jit(main)/sub" source_file="/home/cyxue/miniconda3/envs/alpa/lib/python3.8/site-packages/optax/_src/schedule.py" source_line=87}
  %constant_1265 = f32[] constant(-0.1)
  %multiply.987 = f32[] multiply(f32[] %subtract.22, f32[] %constant_1265), metadata={op_name="parallelize(train_step_func_pipeshard_parallel_mesh_0)/jit(main)/mul" source_file="/home/cyxue/miniconda3/envs/alpa/lib/python3.8/site-packages/optax/_src/schedule.py" source_line=88}
  %constant_1264 = f32[] constant(0.1)
  %add.322 = f32[] add(f32[] %multiply.987, f32[] %constant_1264), metadata={op_name="parallelize(train_step_func_pipeshard_parallel_mesh_0)/jit(main)/add" source_file="/home/cyxue/miniconda3/envs/alpa/lib/python3.8/site-packages/optax/_src/schedule.py" source_line=88}
  %constant_1263 = f32[] constant(-50000)
  %add.321 = f32[] add(f32[] %convert.45, f32[] %constant_1263), metadata={op_name="parallelize(train_step_func_pipeshard_parallel_mesh_0)/jit(main)/sub" source_file="/home/cyxue/miniconda3/envs/alpa/lib/python3.8/site-packages/optax/_src/schedule.py" source_line=394}
  %constant_1262 = f32[] constant(950000)
  %minimum.44 = f32[] minimum(f32[] %add.321, f32[] %constant_1262), metadata={op_name="parallelize(train_step_func_pipeshard_parallel_mesh_0)/jit(main)/min" source_file="/home/cyxue/miniconda3/envs/alpa/lib/python3.8/site-packages/optax/_src/schedule.py" source_line=235}
  %constant_1261 = f32[] constant(3.30693956e-06)
  %multiply.986 = f32[] multiply(f32[] %minimum.44, f32[] %constant_1261), metadata={op_name="parallelize(train_step_func_pipeshard_parallel_mesh_0)/jit(main)/div" source_file="/home/cyxue/miniconda3/envs/alpa/lib/python3.8/site-packages/optax/_src/schedule.py" source_line=236}
  %cosine.22 = f32[] cosine(f32[] %multiply.986), metadata={op_name="parallelize(train_step_func_pipeshard_parallel_mesh_0)/jit(main)/cos" source_file="/home/cyxue/miniconda3/envs/alpa/lib/python3.8/site-packages/optax/_src/schedule.py" source_line=236}
  %add.320 = f32[] add(f32[] %cosine.22, f32[] %constant_1268), metadata={op_name="parallelize(train_step_func_pipeshard_parallel_mesh_0)/jit(main)/add" source_file="/home/cyxue/miniconda3/envs/alpa/lib/python3.8/site-packages/optax/_src/schedule.py" source_line=236}
  %constant_1260 = f32[] constant(0.05)
  %multiply.985 = f32[] multiply(f32[] %add.320, f32[] %constant_1260), metadata={op_name="parallelize(train_step_func_pipeshard_parallel_mesh_0)/jit(main)/mul" source_file="/home/cyxue/miniconda3/envs/alpa/lib/python3.8/site-packages/optax/_src/schedule.py" source_line=238}
  %select.23 = f32[] select(pred[] %compare.23, f32[] %add.322, f32[] %multiply.985), metadata={op_name="parallelize(train_step_func_pipeshard_parallel_mesh_0)/jit(main)/select_n" source_file="/home/cyxue/miniconda3/envs/alpa/lib/python3.8/site-packages/optax/_src/schedule.py" source_line=394}
  %constant_1259 = f32[] constant(-1)
  %multiply.984 = f32[] multiply(f32[] %select.23, f32[] %constant_1259), metadata={op_name="parallelize(train_step_func_pipeshard_parallel_mesh_0)/jit(main)/mul" source_file="/home/cyxue/miniconda3/envs/alpa/lib/python3.8/site-packages/optax/_src/alias.py" source_line=37}
  %broadcast.266 = f32[1,1,1792,448]{3,2,1,0} broadcast(f32[] %multiply.984), dimensions={}, metadata={op_name="parallelize(train_step_func_pipeshard_parallel_mesh_0)/jit(main)/mul" source_file="/home/cyxue/miniconda3/envs/alpa/lib/python3.8/site-packages/optax/_src/transform.py" source_line=694}
  %param_1.884 = f32[1,1,1792,448]{3,2,1,0} parameter(1)
  %constant_806 = f32[] constant(0.0625)
  %broadcast.763 = f32[1,1,1792,448]{3,2,1,0} broadcast(f32[] %constant_806), dimensions={}, metadata={op_name="parallelize(train_step_func_pipeshard_parallel_mesh_0)/jit(main)/div"}
  %multiply.738 = f32[1,1,1792,448]{3,2,1,0} multiply(f32[1,1,1792,448]{3,2,1,0} %param_1.884, f32[1,1,1792,448]{3,2,1,0} %broadcast.763), metadata={op_name="parallelize(train_step_func_pipeshard_parallel_mesh_0)/jit(main)/div"}
  %param_9.147 = f32[1,1,1792,448]{3,2,1,0} parameter(9)
  %constant_249 = f32[] constant(0.9)
  %broadcast.470.clone.1 = f32[1,1,1792,448]{3,2,1,0} broadcast(f32[] %constant_249), dimensions={}, metadata={op_name="parallelize(train_step_func_pipeshard_parallel_mesh_0)/jit(main)/mul" source_file="/home/cyxue/miniconda3/envs/alpa/lib/python3.8/site-packages/optax/_src/transform.py" source_line=70}
  %multiply.445.clone.1 = f32[1,1,1792,448]{3,2,1,0} multiply(f32[1,1,1792,448]{3,2,1,0} %param_9.147, f32[1,1,1792,448]{3,2,1,0} %broadcast.470.clone.1), metadata={op_name="parallelize(train_step_func_pipeshard_parallel_mesh_0)/jit(main)/mul" source_file="/home/cyxue/miniconda3/envs/alpa/lib/python3.8/site-packages/optax/_src/transform.py" source_line=70}
  %add.208.clone.1 = f32[1,1,1792,448]{3,2,1,0} add(f32[1,1,1792,448]{3,2,1,0} %multiply.738, f32[1,1,1792,448]{3,2,1,0} %multiply.445.clone.1), metadata={op_name="parallelize(train_step_func_pipeshard_parallel_mesh_0)/jit(main)/add" source_file="/home/cyxue/miniconda3/envs/alpa/lib/python3.8/site-packages/optax/_src/transform.py" source_line=70}
  %multiply.273 = f32[1,1,1792,448]{3,2,1,0} multiply(f32[1,1,1792,448]{3,2,1,0} %add.208.clone.1, f32[1,1,1792,448]{3,2,1,0} %broadcast.470.clone.1), metadata={op_name="parallelize(train_step_func_pipeshard_parallel_mesh_0)/jit(main)/mul" source_file="/home/cyxue/miniconda3/envs/alpa/lib/python3.8/site-packages/optax/_src/transform.py" source_line=70}
  %add.72 = f32[1,1,1792,448]{3,2,1,0} add(f32[1,1,1792,448]{3,2,1,0} %multiply.738, f32[1,1,1792,448]{3,2,1,0} %multiply.273), metadata={op_name="parallelize(train_step_func_pipeshard_parallel_mesh_0)/jit(main)/add" source_file="/home/cyxue/miniconda3/envs/alpa/lib/python3.8/site-packages/optax/_src/transform.py" source_line=70}
  %multiply.272 = f32[1,1,1792,448]{3,2,1,0} multiply(f32[1,1,1792,448]{3,2,1,0} %broadcast.266, f32[1,1,1792,448]{3,2,1,0} %add.72), metadata={op_name="parallelize(train_step_func_pipeshard_parallel_mesh_0)/jit(main)/mul" source_file="/home/cyxue/miniconda3/envs/alpa/lib/python3.8/site-packages/optax/_src/transform.py" source_line=694}
  %add.71 = f32[1,1,1792,448]{3,2,1,0} add(f32[1,1,1792,448]{3,2,1,0} %param_0.92, f32[1,1,1792,448]{3,2,1,0} %multiply.272), metadata={op_name="parallelize(train_step_func_pipeshard_parallel_mesh_0)/jit(main)/add" source_file="/home/cyxue/miniconda3/envs/alpa/lib/python3.8/site-packages/optax/_src/update.py" source_line=43}
  %param_3.780 = f32[1,1,1792,448]{3,2,1,0} parameter(3)
  %param_4.961 = f32[1,1,1792,448]{3,2,1,0} parameter(4)
  %multiply.810.clone.1 = f32[1,1,1792,448]{3,2,1,0} multiply(f32[1,1,1792,448]{3,2,1,0} %param_4.961, f32[1,1,1792,448]{3,2,1,0} %broadcast.763), metadata={op_name="parallelize(train_step_func_pipeshard_parallel_mesh_0)/jit(main)/div"}
  %param_7.882 = f32[1,1,1792,448]{3,2,1,0} parameter(7)
  %multiply.409.clone.1 = f32[1,1,1792,448]{3,2,1,0} multiply(f32[1,1,1792,448]{3,2,1,0} %param_7.882, f32[1,1,1792,448]{3,2,1,0} %broadcast.470.clone.1), metadata={op_name="parallelize(train_step_func_pipeshard_parallel_mesh_0)/jit(main)/mul" source_file="/home/cyxue/miniconda3/envs/alpa/lib/python3.8/site-packages/optax/_src/transform.py" source_line=70}
  %add.190.clone.1 = f32[1,1,1792,448]{3,2,1,0} add(f32[1,1,1792,448]{3,2,1,0} %multiply.810.clone.1, f32[1,1,1792,448]{3,2,1,0} %multiply.409.clone.1), metadata={op_name="parallelize(train_step_func_pipeshard_parallel_mesh_0)/jit(main)/add" source_file="/home/cyxue/miniconda3/envs/alpa/lib/python3.8/site-packages/optax/_src/transform.py" source_line=70}
  %multiply.237.clone.1 = f32[1,1,1792,448]{3,2,1,0} multiply(f32[1,1,1792,448]{3,2,1,0} %add.190.clone.1, f32[1,1,1792,448]{3,2,1,0} %broadcast.470.clone.1), metadata={op_name="parallelize(train_step_func_pipeshard_parallel_mesh_0)/jit(main)/mul" source_file="/home/cyxue/miniconda3/envs/alpa/lib/python3.8/site-packages/optax/_src/transform.py" source_line=70}
  %add.36.clone.1 = f32[1,1,1792,448]{3,2,1,0} add(f32[1,1,1792,448]{3,2,1,0} %multiply.810.clone.1, f32[1,1,1792,448]{3,2,1,0} %multiply.237.clone.1), metadata={op_name="parallelize(train_step_func_pipeshard_parallel_mesh_0)/jit(main)/add" source_file="/home/cyxue/miniconda3/envs/alpa/lib/python3.8/site-packages/optax/_src/transform.py" source_line=70}
  %multiply.236.clone.1 = f32[1,1,1792,448]{3,2,1,0} multiply(f32[1,1,1792,448]{3,2,1,0} %broadcast.266, f32[1,1,1792,448]{3,2,1,0} %add.36.clone.1), metadata={op_name="parallelize(train_step_func_pipeshard_parallel_mesh_0)/jit(main)/mul" source_file="/home/cyxue/miniconda3/envs/alpa/lib/python3.8/site-packages/optax/_src/transform.py" source_line=694}
  %add.35.clone.1 = f32[1,1,1792,448]{3,2,1,0} add(f32[1,1,1792,448]{3,2,1,0} %param_3.780, f32[1,1,1792,448]{3,2,1,0} %multiply.236.clone.1), metadata={op_name="parallelize(train_step_func_pipeshard_parallel_mesh_0)/jit(main)/add" source_file="/home/cyxue/miniconda3/envs/alpa/lib/python3.8/site-packages/optax/_src/update.py" source_line=43}
  %param_5.645 = f32[1,1,1792,448]{3,2,1,0} parameter(5)
  %param_6.1157 = f32[1,1,1792,448]{3,2,1,0} parameter(6)
  %multiply.774.clone.1 = f32[1,1,1792,448]{3,2,1,0} multiply(f32[1,1,1792,448]{3,2,1,0} %param_6.1157, f32[1,1,1792,448]{3,2,1,0} %broadcast.763), metadata={op_name="parallelize(train_step_func_pipeshard_parallel_mesh_0)/jit(main)/div"}
  %param_8.255 = f32[1,1,1792,448]{3,2,1,0} parameter(8)
  %multiply.427.clone.1 = f32[1,1,1792,448]{3,2,1,0} multiply(f32[1,1,1792,448]{3,2,1,0} %param_8.255, f32[1,1,1792,448]{3,2,1,0} %broadcast.470.clone.1), metadata={op_name="parallelize(train_step_func_pipeshard_parallel_mesh_0)/jit(main)/mul" source_file="/home/cyxue/miniconda3/envs/alpa/lib/python3.8/site-packages/optax/_src/transform.py" source_line=70}
  %add.199.clone.1 = f32[1,1,1792,448]{3,2,1,0} add(f32[1,1,1792,448]{3,2,1,0} %multiply.774.clone.1, f32[1,1,1792,448]{3,2,1,0} %multiply.427.clone.1), metadata={op_name="parallelize(train_step_func_pipeshard_parallel_mesh_0)/jit(main)/add" source_file="/home/cyxue/miniconda3/envs/alpa/lib/python3.8/site-packages/optax/_src/transform.py" source_line=70}
  %multiply.255.clone.1 = f32[1,1,1792,448]{3,2,1,0} multiply(f32[1,1,1792,448]{3,2,1,0} %add.199.clone.1, f32[1,1,1792,448]{3,2,1,0} %broadcast.470.clone.1), metadata={op_name="parallelize(train_step_func_pipeshard_parallel_mesh_0)/jit(main)/mul" source_file="/home/cyxue/miniconda3/envs/alpa/lib/python3.8/site-packages/optax/_src/transform.py" source_line=70}
  %add.54.clone.1 = f32[1,1,1792,448]{3,2,1,0} add(f32[1,1,1792,448]{3,2,1,0} %multiply.774.clone.1, f32[1,1,1792,448]{3,2,1,0} %multiply.255.clone.1), metadata={op_name="parallelize(train_step_func_pipeshard_parallel_mesh_0)/jit(main)/add" source_file="/home/cyxue/miniconda3/envs/alpa/lib/python3.8/site-packages/optax/_src/transform.py" source_line=70}
  %multiply.254.clone.1 = f32[1,1,1792,448]{3,2,1,0} multiply(f32[1,1,1792,448]{3,2,1,0} %broadcast.266, f32[1,1,1792,448]{3,2,1,0} %add.54.clone.1), metadata={op_name="parallelize(train_step_func_pipeshard_parallel_mesh_0)/jit(main)/mul" source_file="/home/cyxue/miniconda3/envs/alpa/lib/python3.8/site-packages/optax/_src/transform.py" source_line=694}
  %add.53.clone.1 = f32[1,1,1792,448]{3,2,1,0} add(f32[1,1,1792,448]{3,2,1,0} %param_5.645, f32[1,1,1792,448]{3,2,1,0} %multiply.254.clone.1), metadata={op_name="parallelize(train_step_func_pipeshard_parallel_mesh_0)/jit(main)/add" source_file="/home/cyxue/miniconda3/envs/alpa/lib/python3.8/site-packages/optax/_src/update.py" source_line=43}
  ROOT %tuple.98 = (f32[1,1,1792,448]{3,2,1,0}, f32[1,1,1792,448]{3,2,1,0}, f32[1,1,1792,448]{3,2,1,0}, f32[1,1,1792,448]{3,2,1,0}, f32[1,1,1792,448]{3,2,1,0}, /*index=5*/f32[1,1,1792,448]{3,2,1,0}) tuple(f32[1,1,1792,448]{3,2,1,0} %add.71, f32[1,1,1792,448]{3,2,1,0} %add.35.clone.1, f32[1,1,1792,448]{3,2,1,0} %add.53.clone.1, f32[1,1,1792,448]{3,2,1,0} %add.190.clone.1, f32[1,1,1792,448]{3,2,1,0} %add.199.clone.1, /*index=5*/f32[1,1,1792,448]{3,2,1,0} %add.208.clone.1)
}

%fused_computation.101 (param_0.102: f32[1,1,896,1792], param_1.885: f32[1,1,896,1792], param_2.773: s32[], param_3.781: f32[1,1,896,1792], param_4.962: f32[1,1,896,1792], param_5.646: f32[1,1,896,1792], param_6.1158: f32[1,1,896,1792], param_7.883: f32[1,1,896,1792], param_8.256: f32[1,1,896,1792], param_9.148: f32[1,1,896,1792], param_10.273: f32[1,1,896,1792], param_11.267: f32[1,1,896,1792], param_12.125: f32[1,1,896,1792], param_13.233: f32[1,1,896,1792], param_14.210: f32[1,1,896,1792], param_15.88: f32[1,1,896,1792]) -> (f32[1,1,896,1792], f32[1,1,896,1792], f32[1,1,896,1792], f32[1,1,896,1792], f32[1,1,896,1792], /*index=5*/f32[1,1,896,1792], f32[1,1,896,1792], f32[1,1,896,1792], f32[1,1,896,1792], f32[1,1,896,1792]) {
  %param_0.102 = f32[1,1,896,1792]{3,2,1,0} parameter(0)
  %param_2.773 = s32[] parameter(2)
  %convert.69 = f32[] convert(s32[] %param_2.773), metadata={op_name="parallelize(train_step_func_pipeshard_parallel_mesh_0)/jit(main)/convert_element_type[new_dtype=float32 weak_type=True]" source_file="/home/cyxue/miniconda3/envs/alpa/lib/python3.8/site-packages/optax/_src/schedule.py" source_line=394}
  %constant_1407 = f32[] constant(50000)
  %compare.35 = pred[] compare(f32[] %convert.69, f32[] %constant_1407), direction=LT, metadata={op_name="parallelize(train_step_func_pipeshard_parallel_mesh_0)/jit(main)/lt" source_file="/home/cyxue/miniconda3/envs/alpa/lib/python3.8/site-packages/optax/_src/schedule.py" source_line=394}
  %constant_1406 = f32[] constant(1)
  %constant_1405 = s32[] constant(0)
  %maximum.34 = s32[] maximum(s32[] %param_2.773, s32[] %constant_1405), metadata={op_name="parallelize(train_step_func_pipeshard_parallel_mesh_0)/jit(main)/max" source_file="/home/cyxue/miniconda3/envs/alpa/lib/python3.8/site-packages/optax/_src/schedule.py" source_line=86}
  %convert.68 = f32[] convert(s32[] %maximum.34), metadata={op_name="parallelize(train_step_func_pipeshard_parallel_mesh_0)/jit(main)/convert_element_type[new_dtype=float32 weak_type=True]" source_file="/home/cyxue/miniconda3/envs/alpa/lib/python3.8/site-packages/optax/_src/schedule.py" source_line=86}
  %minimum.69 = f32[] minimum(f32[] %convert.68, f32[] %constant_1407), metadata={op_name="parallelize(train_step_func_pipeshard_parallel_mesh_0)/jit(main)/min" source_file="/home/cyxue/miniconda3/envs/alpa/lib/python3.8/site-packages/optax/_src/schedule.py" source_line=86}
  %constant_1404 = f32[] constant(2e-05)
  %multiply.1048 = f32[] multiply(f32[] %minimum.69, f32[] %constant_1404), metadata={op_name="parallelize(train_step_func_pipeshard_parallel_mesh_0)/jit(main)/div" source_file="/home/cyxue/miniconda3/envs/alpa/lib/python3.8/site-packages/optax/_src/schedule.py" source_line=87}
  %subtract.34 = f32[] subtract(f32[] %constant_1406, f32[] %multiply.1048), metadata={op_name="parallelize(train_step_func_pipeshard_parallel_mesh_0)/jit(main)/sub" source_file="/home/cyxue/miniconda3/envs/alpa/lib/python3.8/site-packages/optax/_src/schedule.py" source_line=87}
  %constant_1403 = f32[] constant(-0.1)
  %multiply.1047 = f32[] multiply(f32[] %subtract.34, f32[] %constant_1403), metadata={op_name="parallelize(train_step_func_pipeshard_parallel_mesh_0)/jit(main)/mul" source_file="/home/cyxue/miniconda3/envs/alpa/lib/python3.8/site-packages/optax/_src/schedule.py" source_line=88}
  %constant_1402 = f32[] constant(0.1)
  %add.358 = f32[] add(f32[] %multiply.1047, f32[] %constant_1402), metadata={op_name="parallelize(train_step_func_pipeshard_parallel_mesh_0)/jit(main)/add" source_file="/home/cyxue/miniconda3/envs/alpa/lib/python3.8/site-packages/optax/_src/schedule.py" source_line=88}
  %constant_1401 = f32[] constant(-50000)
  %add.357 = f32[] add(f32[] %convert.69, f32[] %constant_1401), metadata={op_name="parallelize(train_step_func_pipeshard_parallel_mesh_0)/jit(main)/sub" source_file="/home/cyxue/miniconda3/envs/alpa/lib/python3.8/site-packages/optax/_src/schedule.py" source_line=394}
  %constant_1400 = f32[] constant(950000)
  %minimum.68 = f32[] minimum(f32[] %add.357, f32[] %constant_1400), metadata={op_name="parallelize(train_step_func_pipeshard_parallel_mesh_0)/jit(main)/min" source_file="/home/cyxue/miniconda3/envs/alpa/lib/python3.8/site-packages/optax/_src/schedule.py" source_line=235}
  %constant_1399 = f32[] constant(3.30693956e-06)
  %multiply.1046 = f32[] multiply(f32[] %minimum.68, f32[] %constant_1399), metadata={op_name="parallelize(train_step_func_pipeshard_parallel_mesh_0)/jit(main)/div" source_file="/home/cyxue/miniconda3/envs/alpa/lib/python3.8/site-packages/optax/_src/schedule.py" source_line=236}
  %cosine.34 = f32[] cosine(f32[] %multiply.1046), metadata={op_name="parallelize(train_step_func_pipeshard_parallel_mesh_0)/jit(main)/cos" source_file="/home/cyxue/miniconda3/envs/alpa/lib/python3.8/site-packages/optax/_src/schedule.py" source_line=236}
  %add.356 = f32[] add(f32[] %cosine.34, f32[] %constant_1406), metadata={op_name="parallelize(train_step_func_pipeshard_parallel_mesh_0)/jit(main)/add" source_file="/home/cyxue/miniconda3/envs/alpa/lib/python3.8/site-packages/optax/_src/schedule.py" source_line=236}
  %constant_1398 = f32[] constant(0.05)
  %multiply.1045 = f32[] multiply(f32[] %add.356, f32[] %constant_1398), metadata={op_name="parallelize(train_step_func_pipeshard_parallel_mesh_0)/jit(main)/mul" source_file="/home/cyxue/miniconda3/envs/alpa/lib/python3.8/site-packages/optax/_src/schedule.py" source_line=238}
  %select.35 = f32[] select(pred[] %compare.35, f32[] %add.358, f32[] %multiply.1045), metadata={op_name="parallelize(train_step_func_pipeshard_parallel_mesh_0)/jit(main)/select_n" source_file="/home/cyxue/miniconda3/envs/alpa/lib/python3.8/site-packages/optax/_src/schedule.py" source_line=394}
  %constant_1397 = f32[] constant(-1)
  %multiply.1044 = f32[] multiply(f32[] %select.35, f32[] %constant_1397), metadata={op_name="parallelize(train_step_func_pipeshard_parallel_mesh_0)/jit(main)/mul" source_file="/home/cyxue/miniconda3/envs/alpa/lib/python3.8/site-packages/optax/_src/alias.py" source_line=37}
  %broadcast.286 = f32[1,1,896,1792]{3,2,1,0} broadcast(f32[] %multiply.1044), dimensions={}, metadata={op_name="parallelize(train_step_func_pipeshard_parallel_mesh_0)/jit(main)/mul" source_file="/home/cyxue/miniconda3/envs/alpa/lib/python3.8/site-packages/optax/_src/transform.py" source_line=694}
  %param_1.885 = f32[1,1,896,1792]{3,2,1,0} parameter(1)
  %constant_746 = f32[] constant(0.0625)
  %broadcast.723 = f32[1,1,896,1792]{3,2,1,0} broadcast(f32[] %constant_746), dimensions={}, metadata={op_name="parallelize(train_step_func_pipeshard_parallel_mesh_0)/jit(main)/div"}
  %multiply.698 = f32[1,1,896,1792]{3,2,1,0} multiply(f32[1,1,896,1792]{3,2,1,0} %param_1.885, f32[1,1,896,1792]{3,2,1,0} %broadcast.723), metadata={op_name="parallelize(train_step_func_pipeshard_parallel_mesh_0)/jit(main)/div"}
  %param_15.88 = f32[1,1,896,1792]{3,2,1,0} parameter(15)
  %constant_259 = f32[] constant(0.9)
  %broadcast.490.clone.1 = f32[1,1,896,1792]{3,2,1,0} broadcast(f32[] %constant_259), dimensions={}, metadata={op_name="parallelize(train_step_func_pipeshard_parallel_mesh_0)/jit(main)/mul" source_file="/home/cyxue/miniconda3/envs/alpa/lib/python3.8/site-packages/optax/_src/transform.py" source_line=70}
  %multiply.465.clone.1 = f32[1,1,896,1792]{3,2,1,0} multiply(f32[1,1,896,1792]{3,2,1,0} %param_15.88, f32[1,1,896,1792]{3,2,1,0} %broadcast.490.clone.1), metadata={op_name="parallelize(train_step_func_pipeshard_parallel_mesh_0)/jit(main)/mul" source_file="/home/cyxue/miniconda3/envs/alpa/lib/python3.8/site-packages/optax/_src/transform.py" source_line=70}
  %add.218.clone.1 = f32[1,1,896,1792]{3,2,1,0} add(f32[1,1,896,1792]{3,2,1,0} %multiply.698, f32[1,1,896,1792]{3,2,1,0} %multiply.465.clone.1), metadata={op_name="parallelize(train_step_func_pipeshard_parallel_mesh_0)/jit(main)/add" source_file="/home/cyxue/miniconda3/envs/alpa/lib/python3.8/site-packages/optax/_src/transform.py" source_line=70}
  %multiply.293 = f32[1,1,896,1792]{3,2,1,0} multiply(f32[1,1,896,1792]{3,2,1,0} %add.218.clone.1, f32[1,1,896,1792]{3,2,1,0} %broadcast.490.clone.1), metadata={op_name="parallelize(train_step_func_pipeshard_parallel_mesh_0)/jit(main)/mul" source_file="/home/cyxue/miniconda3/envs/alpa/lib/python3.8/site-packages/optax/_src/transform.py" source_line=70}
  %add.92 = f32[1,1,896,1792]{3,2,1,0} add(f32[1,1,896,1792]{3,2,1,0} %multiply.698, f32[1,1,896,1792]{3,2,1,0} %multiply.293), metadata={op_name="parallelize(train_step_func_pipeshard_parallel_mesh_0)/jit(main)/add" source_file="/home/cyxue/miniconda3/envs/alpa/lib/python3.8/site-packages/optax/_src/transform.py" source_line=70}
  %multiply.292 = f32[1,1,896,1792]{3,2,1,0} multiply(f32[1,1,896,1792]{3,2,1,0} %broadcast.286, f32[1,1,896,1792]{3,2,1,0} %add.92), metadata={op_name="parallelize(train_step_func_pipeshard_parallel_mesh_0)/jit(main)/mul" source_file="/home/cyxue/miniconda3/envs/alpa/lib/python3.8/site-packages/optax/_src/transform.py" source_line=694}
  %add.91 = f32[1,1,896,1792]{3,2,1,0} add(f32[1,1,896,1792]{3,2,1,0} %param_0.102, f32[1,1,896,1792]{3,2,1,0} %multiply.292), metadata={op_name="parallelize(train_step_func_pipeshard_parallel_mesh_0)/jit(main)/add" source_file="/home/cyxue/miniconda3/envs/alpa/lib/python3.8/site-packages/optax/_src/update.py" source_line=43}
  %param_3.781 = f32[1,1,896,1792]{3,2,1,0} parameter(3)
  %param_4.962 = f32[1,1,896,1792]{3,2,1,0} parameter(4)
  %multiply.818.clone.1 = f32[1,1,896,1792]{3,2,1,0} multiply(f32[1,1,896,1792]{3,2,1,0} %param_4.962, f32[1,1,896,1792]{3,2,1,0} %broadcast.723), metadata={op_name="parallelize(train_step_func_pipeshard_parallel_mesh_0)/jit(main)/div"}
  %param_11.267 = f32[1,1,896,1792]{3,2,1,0} parameter(11)
  %multiply.405.clone.1 = f32[1,1,896,1792]{3,2,1,0} multiply(f32[1,1,896,1792]{3,2,1,0} %param_11.267, f32[1,1,896,1792]{3,2,1,0} %broadcast.490.clone.1), metadata={op_name="parallelize(train_step_func_pipeshard_parallel_mesh_0)/jit(main)/mul" source_file="/home/cyxue/miniconda3/envs/alpa/lib/python3.8/site-packages/optax/_src/transform.py" source_line=70}
  %add.188.clone.1 = f32[1,1,896,1792]{3,2,1,0} add(f32[1,1,896,1792]{3,2,1,0} %multiply.818.clone.1, f32[1,1,896,1792]{3,2,1,0} %multiply.405.clone.1), metadata={op_name="parallelize(train_step_func_pipeshard_parallel_mesh_0)/jit(main)/add" source_file="/home/cyxue/miniconda3/envs/alpa/lib/python3.8/site-packages/optax/_src/transform.py" source_line=70}
  %multiply.233.clone.1 = f32[1,1,896,1792]{3,2,1,0} multiply(f32[1,1,896,1792]{3,2,1,0} %add.188.clone.1, f32[1,1,896,1792]{3,2,1,0} %broadcast.490.clone.1), metadata={op_name="parallelize(train_step_func_pipeshard_parallel_mesh_0)/jit(main)/mul" source_file="/home/cyxue/miniconda3/envs/alpa/lib/python3.8/site-packages/optax/_src/transform.py" source_line=70}
  %add.32.clone.1 = f32[1,1,896,1792]{3,2,1,0} add(f32[1,1,896,1792]{3,2,1,0} %multiply.818.clone.1, f32[1,1,896,1792]{3,2,1,0} %multiply.233.clone.1), metadata={op_name="parallelize(train_step_func_pipeshard_parallel_mesh_0)/jit(main)/add" source_file="/home/cyxue/miniconda3/envs/alpa/lib/python3.8/site-packages/optax/_src/transform.py" source_line=70}
  %multiply.232.clone.1 = f32[1,1,896,1792]{3,2,1,0} multiply(f32[1,1,896,1792]{3,2,1,0} %broadcast.286, f32[1,1,896,1792]{3,2,1,0} %add.32.clone.1), metadata={op_name="parallelize(train_step_func_pipeshard_parallel_mesh_0)/jit(main)/mul" source_file="/home/cyxue/miniconda3/envs/alpa/lib/python3.8/site-packages/optax/_src/transform.py" source_line=694}
  %add.31.clone.1 = f32[1,1,896,1792]{3,2,1,0} add(f32[1,1,896,1792]{3,2,1,0} %param_3.781, f32[1,1,896,1792]{3,2,1,0} %multiply.232.clone.1), metadata={op_name="parallelize(train_step_func_pipeshard_parallel_mesh_0)/jit(main)/add" source_file="/home/cyxue/miniconda3/envs/alpa/lib/python3.8/site-packages/optax/_src/update.py" source_line=43}
  %param_5.646 = f32[1,1,896,1792]{3,2,1,0} parameter(5)
  %param_6.1158 = f32[1,1,896,1792]{3,2,1,0} parameter(6)
  %multiply.782.clone.1 = f32[1,1,896,1792]{3,2,1,0} multiply(f32[1,1,896,1792]{3,2,1,0} %param_6.1158, f32[1,1,896,1792]{3,2,1,0} %broadcast.723), metadata={op_name="parallelize(train_step_func_pipeshard_parallel_mesh_0)/jit(main)/div"}
  %param_12.125 = f32[1,1,896,1792]{3,2,1,0} parameter(12)
  %multiply.423.clone.1 = f32[1,1,896,1792]{3,2,1,0} multiply(f32[1,1,896,1792]{3,2,1,0} %param_12.125, f32[1,1,896,1792]{3,2,1,0} %broadcast.490.clone.1), metadata={op_name="parallelize(train_step_func_pipeshard_parallel_mesh_0)/jit(main)/mul" source_file="/home/cyxue/miniconda3/envs/alpa/lib/python3.8/site-packages/optax/_src/transform.py" source_line=70}
  %add.197.clone.1 = f32[1,1,896,1792]{3,2,1,0} add(f32[1,1,896,1792]{3,2,1,0} %multiply.782.clone.1, f32[1,1,896,1792]{3,2,1,0} %multiply.423.clone.1), metadata={op_name="parallelize(train_step_func_pipeshard_parallel_mesh_0)/jit(main)/add" source_file="/home/cyxue/miniconda3/envs/alpa/lib/python3.8/site-packages/optax/_src/transform.py" source_line=70}
  %multiply.251.clone.1 = f32[1,1,896,1792]{3,2,1,0} multiply(f32[1,1,896,1792]{3,2,1,0} %add.197.clone.1, f32[1,1,896,1792]{3,2,1,0} %broadcast.490.clone.1), metadata={op_name="parallelize(train_step_func_pipeshard_parallel_mesh_0)/jit(main)/mul" source_file="/home/cyxue/miniconda3/envs/alpa/lib/python3.8/site-packages/optax/_src/transform.py" source_line=70}
  %add.50.clone.1 = f32[1,1,896,1792]{3,2,1,0} add(f32[1,1,896,1792]{3,2,1,0} %multiply.782.clone.1, f32[1,1,896,1792]{3,2,1,0} %multiply.251.clone.1), metadata={op_name="parallelize(train_step_func_pipeshard_parallel_mesh_0)/jit(main)/add" source_file="/home/cyxue/miniconda3/envs/alpa/lib/python3.8/site-packages/optax/_src/transform.py" source_line=70}
  %multiply.250.clone.1 = f32[1,1,896,1792]{3,2,1,0} multiply(f32[1,1,896,1792]{3,2,1,0} %broadcast.286, f32[1,1,896,1792]{3,2,1,0} %add.50.clone.1), metadata={op_name="parallelize(train_step_func_pipeshard_parallel_mesh_0)/jit(main)/mul" source_file="/home/cyxue/miniconda3/envs/alpa/lib/python3.8/site-packages/optax/_src/transform.py" source_line=694}
  %add.49.clone.1 = f32[1,1,896,1792]{3,2,1,0} add(f32[1,1,896,1792]{3,2,1,0} %param_5.646, f32[1,1,896,1792]{3,2,1,0} %multiply.250.clone.1), metadata={op_name="parallelize(train_step_func_pipeshard_parallel_mesh_0)/jit(main)/add" source_file="/home/cyxue/miniconda3/envs/alpa/lib/python3.8/site-packages/optax/_src/update.py" source_line=43}
  %param_7.883 = f32[1,1,896,1792]{3,2,1,0} parameter(7)
  %param_8.256 = f32[1,1,896,1792]{3,2,1,0} parameter(8)
  %multiply.746.clone.1 = f32[1,1,896,1792]{3,2,1,0} multiply(f32[1,1,896,1792]{3,2,1,0} %param_8.256, f32[1,1,896,1792]{3,2,1,0} %broadcast.723), metadata={op_name="parallelize(train_step_func_pipeshard_parallel_mesh_0)/jit(main)/div"}
  %param_13.233 = f32[1,1,896,1792]{3,2,1,0} parameter(13)
  %multiply.441.clone.1 = f32[1,1,896,1792]{3,2,1,0} multiply(f32[1,1,896,1792]{3,2,1,0} %param_13.233, f32[1,1,896,1792]{3,2,1,0} %broadcast.490.clone.1), metadata={op_name="parallelize(train_step_func_pipeshard_parallel_mesh_0)/jit(main)/mul" source_file="/home/cyxue/miniconda3/envs/alpa/lib/python3.8/site-packages/optax/_src/transform.py" source_line=70}
  %add.206.clone.1 = f32[1,1,896,1792]{3,2,1,0} add(f32[1,1,896,1792]{3,2,1,0} %multiply.746.clone.1, f32[1,1,896,1792]{3,2,1,0} %multiply.441.clone.1), metadata={op_name="parallelize(train_step_func_pipeshard_parallel_mesh_0)/jit(main)/add" source_file="/home/cyxue/miniconda3/envs/alpa/lib/python3.8/site-packages/optax/_src/transform.py" source_line=70}
  %multiply.269.clone.1 = f32[1,1,896,1792]{3,2,1,0} multiply(f32[1,1,896,1792]{3,2,1,0} %add.206.clone.1, f32[1,1,896,1792]{3,2,1,0} %broadcast.490.clone.1), metadata={op_name="parallelize(train_step_func_pipeshard_parallel_mesh_0)/jit(main)/mul" source_file="/home/cyxue/miniconda3/envs/alpa/lib/python3.8/site-packages/optax/_src/transform.py" source_line=70}
  %add.68.clone.1 = f32[1,1,896,1792]{3,2,1,0} add(f32[1,1,896,1792]{3,2,1,0} %multiply.746.clone.1, f32[1,1,896,1792]{3,2,1,0} %multiply.269.clone.1), metadata={op_name="parallelize(train_step_func_pipeshard_parallel_mesh_0)/jit(main)/add" source_file="/home/cyxue/miniconda3/envs/alpa/lib/python3.8/site-packages/optax/_src/transform.py" source_line=70}
  %multiply.268.clone.1 = f32[1,1,896,1792]{3,2,1,0} multiply(f32[1,1,896,1792]{3,2,1,0} %broadcast.286, f32[1,1,896,1792]{3,2,1,0} %add.68.clone.1), metadata={op_name="parallelize(train_step_func_pipeshard_parallel_mesh_0)/jit(main)/mul" source_file="/home/cyxue/miniconda3/envs/alpa/lib/python3.8/site-packages/optax/_src/transform.py" source_line=694}
  %add.67.clone.1 = f32[1,1,896,1792]{3,2,1,0} add(f32[1,1,896,1792]{3,2,1,0} %param_7.883, f32[1,1,896,1792]{3,2,1,0} %multiply.268.clone.1), metadata={op_name="parallelize(train_step_func_pipeshard_parallel_mesh_0)/jit(main)/add" source_file="/home/cyxue/miniconda3/envs/alpa/lib/python3.8/site-packages/optax/_src/update.py" source_line=43}
  %param_9.148 = f32[1,1,896,1792]{3,2,1,0} parameter(9)
  %param_10.273 = f32[1,1,896,1792]{3,2,1,0} parameter(10)
  %multiply.702.clone.1 = f32[1,1,896,1792]{3,2,1,0} multiply(f32[1,1,896,1792]{3,2,1,0} %param_10.273, f32[1,1,896,1792]{3,2,1,0} %broadcast.723), metadata={op_name="parallelize(train_step_func_pipeshard_parallel_mesh_0)/jit(main)/div"}
  %param_14.210 = f32[1,1,896,1792]{3,2,1,0} parameter(14)
  %multiply.463.clone.1 = f32[1,1,896,1792]{3,2,1,0} multiply(f32[1,1,896,1792]{3,2,1,0} %param_14.210, f32[1,1,896,1792]{3,2,1,0} %broadcast.490.clone.1), metadata={op_name="parallelize(train_step_func_pipeshard_parallel_mesh_0)/jit(main)/mul" source_file="/home/cyxue/miniconda3/envs/alpa/lib/python3.8/site-packages/optax/_src/transform.py" source_line=70}
  %add.217.clone.1 = f32[1,1,896,1792]{3,2,1,0} add(f32[1,1,896,1792]{3,2,1,0} %multiply.702.clone.1, f32[1,1,896,1792]{3,2,1,0} %multiply.463.clone.1), metadata={op_name="parallelize(train_step_func_pipeshard_parallel_mesh_0)/jit(main)/add" source_file="/home/cyxue/miniconda3/envs/alpa/lib/python3.8/site-packages/optax/_src/transform.py" source_line=70}
  %multiply.291.clone.1 = f32[1,1,896,1792]{3,2,1,0} multiply(f32[1,1,896,1792]{3,2,1,0} %add.217.clone.1, f32[1,1,896,1792]{3,2,1,0} %broadcast.490.clone.1), metadata={op_name="parallelize(train_step_func_pipeshard_parallel_mesh_0)/jit(main)/mul" source_file="/home/cyxue/miniconda3/envs/alpa/lib/python3.8/site-packages/optax/_src/transform.py" source_line=70}
  %add.90.clone.1 = f32[1,1,896,1792]{3,2,1,0} add(f32[1,1,896,1792]{3,2,1,0} %multiply.702.clone.1, f32[1,1,896,1792]{3,2,1,0} %multiply.291.clone.1), metadata={op_name="parallelize(train_step_func_pipeshard_parallel_mesh_0)/jit(main)/add" source_file="/home/cyxue/miniconda3/envs/alpa/lib/python3.8/site-packages/optax/_src/transform.py" source_line=70}
  %multiply.290.clone.1 = f32[1,1,896,1792]{3,2,1,0} multiply(f32[1,1,896,1792]{3,2,1,0} %broadcast.286, f32[1,1,896,1792]{3,2,1,0} %add.90.clone.1), metadata={op_name="parallelize(train_step_func_pipeshard_parallel_mesh_0)/jit(main)/mul" source_file="/home/cyxue/miniconda3/envs/alpa/lib/python3.8/site-packages/optax/_src/transform.py" source_line=694}
  %add.89.clone.1 = f32[1,1,896,1792]{3,2,1,0} add(f32[1,1,896,1792]{3,2,1,0} %param_9.148, f32[1,1,896,1792]{3,2,1,0} %multiply.290.clone.1), metadata={op_name="parallelize(train_step_func_pipeshard_parallel_mesh_0)/jit(main)/add" source_file="/home/cyxue/miniconda3/envs/alpa/lib/python3.8/site-packages/optax/_src/update.py" source_line=43}
  ROOT %tuple.106 = (f32[1,1,896,1792]{3,2,1,0}, f32[1,1,896,1792]{3,2,1,0}, f32[1,1,896,1792]{3,2,1,0}, f32[1,1,896,1792]{3,2,1,0}, f32[1,1,896,1792]{3,2,1,0}, /*index=5*/f32[1,1,896,1792]{3,2,1,0}, f32[1,1,896,1792]{3,2,1,0}, f32[1,1,896,1792]{3,2,1,0}, f32[1,1,896,1792]{3,2,1,0}, f32[1,1,896,1792]{3,2,1,0}) tuple(f32[1,1,896,1792]{3,2,1,0} %add.91, f32[1,1,896,1792]{3,2,1,0} %add.31.clone.1, f32[1,1,896,1792]{3,2,1,0} %add.49.clone.1, f32[1,1,896,1792]{3,2,1,0} %add.67.clone.1, f32[1,1,896,1792]{3,2,1,0} %add.89.clone.1, /*index=5*/f32[1,1,896,1792]{3,2,1,0} %add.188.clone.1, f32[1,1,896,1792]{3,2,1,0} %add.197.clone.1, f32[1,1,896,1792]{3,2,1,0} %add.206.clone.1, f32[1,1,896,1792]{3,2,1,0} %add.217.clone.1, f32[1,1,896,1792]{3,2,1,0} %add.218.clone.1)
}

%fused_computation.102 (param_0.103: f32[3,3,448,896], param_1.886: f32[3,3,448,896], param_2.774: s32[], param_3.782: f32[3,3,448,896], param_4.963: f32[3,3,448,896], param_5.647: f32[3,3,448,896], param_6.1159: f32[3,3,448,896], param_7.884: f32[3,3,448,896], param_8.257: f32[3,3,448,896], param_9.149: f32[3,3,448,896], param_10.274: f32[3,3,448,896], param_11.268: f32[3,3,448,896], param_12.127: f32[3,3,448,896]) -> (f32[3,3,448,896], f32[3,3,448,896], f32[3,3,448,896], f32[3,3,448,896], f32[3,3,448,896], /*index=5*/f32[3,3,448,896], f32[3,3,448,896], f32[3,3,448,896]) {
  %param_0.103 = f32[3,3,448,896]{3,2,1,0} parameter(0)
  %param_2.774 = s32[] parameter(2)
  %convert.53 = f32[] convert(s32[] %param_2.774), metadata={op_name="parallelize(train_step_func_pipeshard_parallel_mesh_0)/jit(main)/convert_element_type[new_dtype=float32 weak_type=True]" source_file="/home/cyxue/miniconda3/envs/alpa/lib/python3.8/site-packages/optax/_src/schedule.py" source_line=394}
  %constant_1315 = f32[] constant(50000)
  %compare.27 = pred[] compare(f32[] %convert.53, f32[] %constant_1315), direction=LT, metadata={op_name="parallelize(train_step_func_pipeshard_parallel_mesh_0)/jit(main)/lt" source_file="/home/cyxue/miniconda3/envs/alpa/lib/python3.8/site-packages/optax/_src/schedule.py" source_line=394}
  %constant_1314 = f32[] constant(1)
  %constant_1313 = s32[] constant(0)
  %maximum.26 = s32[] maximum(s32[] %param_2.774, s32[] %constant_1313), metadata={op_name="parallelize(train_step_func_pipeshard_parallel_mesh_0)/jit(main)/max" source_file="/home/cyxue/miniconda3/envs/alpa/lib/python3.8/site-packages/optax/_src/schedule.py" source_line=86}
  %convert.52 = f32[] convert(s32[] %maximum.26), metadata={op_name="parallelize(train_step_func_pipeshard_parallel_mesh_0)/jit(main)/convert_element_type[new_dtype=float32 weak_type=True]" source_file="/home/cyxue/miniconda3/envs/alpa/lib/python3.8/site-packages/optax/_src/schedule.py" source_line=86}
  %minimum.53 = f32[] minimum(f32[] %convert.52, f32[] %constant_1315), metadata={op_name="parallelize(train_step_func_pipeshard_parallel_mesh_0)/jit(main)/min" source_file="/home/cyxue/miniconda3/envs/alpa/lib/python3.8/site-packages/optax/_src/schedule.py" source_line=86}
  %constant_1312 = f32[] constant(2e-05)
  %multiply.1008 = f32[] multiply(f32[] %minimum.53, f32[] %constant_1312), metadata={op_name="parallelize(train_step_func_pipeshard_parallel_mesh_0)/jit(main)/div" source_file="/home/cyxue/miniconda3/envs/alpa/lib/python3.8/site-packages/optax/_src/schedule.py" source_line=87}
  %subtract.26 = f32[] subtract(f32[] %constant_1314, f32[] %multiply.1008), metadata={op_name="parallelize(train_step_func_pipeshard_parallel_mesh_0)/jit(main)/sub" source_file="/home/cyxue/miniconda3/envs/alpa/lib/python3.8/site-packages/optax/_src/schedule.py" source_line=87}
  %constant_1311 = f32[] constant(-0.1)
  %multiply.1007 = f32[] multiply(f32[] %subtract.26, f32[] %constant_1311), metadata={op_name="parallelize(train_step_func_pipeshard_parallel_mesh_0)/jit(main)/mul" source_file="/home/cyxue/miniconda3/envs/alpa/lib/python3.8/site-packages/optax/_src/schedule.py" source_line=88}
  %constant_1310 = f32[] constant(0.1)
  %add.334 = f32[] add(f32[] %multiply.1007, f32[] %constant_1310), metadata={op_name="parallelize(train_step_func_pipeshard_parallel_mesh_0)/jit(main)/add" source_file="/home/cyxue/miniconda3/envs/alpa/lib/python3.8/site-packages/optax/_src/schedule.py" source_line=88}
  %constant_1309 = f32[] constant(-50000)
  %add.333 = f32[] add(f32[] %convert.53, f32[] %constant_1309), metadata={op_name="parallelize(train_step_func_pipeshard_parallel_mesh_0)/jit(main)/sub" source_file="/home/cyxue/miniconda3/envs/alpa/lib/python3.8/site-packages/optax/_src/schedule.py" source_line=394}
  %constant_1308 = f32[] constant(950000)
  %minimum.52 = f32[] minimum(f32[] %add.333, f32[] %constant_1308), metadata={op_name="parallelize(train_step_func_pipeshard_parallel_mesh_0)/jit(main)/min" source_file="/home/cyxue/miniconda3/envs/alpa/lib/python3.8/site-packages/optax/_src/schedule.py" source_line=235}
  %constant_1307 = f32[] constant(3.30693956e-06)
  %multiply.1006 = f32[] multiply(f32[] %minimum.52, f32[] %constant_1307), metadata={op_name="parallelize(train_step_func_pipeshard_parallel_mesh_0)/jit(main)/div" source_file="/home/cyxue/miniconda3/envs/alpa/lib/python3.8/site-packages/optax/_src/schedule.py" source_line=236}
  %cosine.26 = f32[] cosine(f32[] %multiply.1006), metadata={op_name="parallelize(train_step_func_pipeshard_parallel_mesh_0)/jit(main)/cos" source_file="/home/cyxue/miniconda3/envs/alpa/lib/python3.8/site-packages/optax/_src/schedule.py" source_line=236}
  %add.332 = f32[] add(f32[] %cosine.26, f32[] %constant_1314), metadata={op_name="parallelize(train_step_func_pipeshard_parallel_mesh_0)/jit(main)/add" source_file="/home/cyxue/miniconda3/envs/alpa/lib/python3.8/site-packages/optax/_src/schedule.py" source_line=236}
  %constant_1306 = f32[] constant(0.05)
  %multiply.1005 = f32[] multiply(f32[] %add.332, f32[] %constant_1306), metadata={op_name="parallelize(train_step_func_pipeshard_parallel_mesh_0)/jit(main)/mul" source_file="/home/cyxue/miniconda3/envs/alpa/lib/python3.8/site-packages/optax/_src/schedule.py" source_line=238}
  %select.27 = f32[] select(pred[] %compare.27, f32[] %add.334, f32[] %multiply.1005), metadata={op_name="parallelize(train_step_func_pipeshard_parallel_mesh_0)/jit(main)/select_n" source_file="/home/cyxue/miniconda3/envs/alpa/lib/python3.8/site-packages/optax/_src/schedule.py" source_line=394}
  %constant_1305 = f32[] constant(-1)
  %multiply.1004 = f32[] multiply(f32[] %select.27, f32[] %constant_1305), metadata={op_name="parallelize(train_step_func_pipeshard_parallel_mesh_0)/jit(main)/mul" source_file="/home/cyxue/miniconda3/envs/alpa/lib/python3.8/site-packages/optax/_src/alias.py" source_line=37}
  %broadcast.288 = f32[3,3,448,896]{3,2,1,0} broadcast(f32[] %multiply.1004), dimensions={}, metadata={op_name="parallelize(train_step_func_pipeshard_parallel_mesh_0)/jit(main)/mul" source_file="/home/cyxue/miniconda3/envs/alpa/lib/python3.8/site-packages/optax/_src/transform.py" source_line=694}
  %param_1.886 = f32[3,3,448,896]{3,2,1,0} parameter(1)
  %constant_740 = f32[] constant(0.0625)
  %broadcast.719 = f32[3,3,448,896]{3,2,1,0} broadcast(f32[] %constant_740), dimensions={}, metadata={op_name="parallelize(train_step_func_pipeshard_parallel_mesh_0)/jit(main)/div"}
  %multiply.694 = f32[3,3,448,896]{3,2,1,0} multiply(f32[3,3,448,896]{3,2,1,0} %param_1.886, f32[3,3,448,896]{3,2,1,0} %broadcast.719), metadata={op_name="parallelize(train_step_func_pipeshard_parallel_mesh_0)/jit(main)/div"}
  %param_12.127 = f32[3,3,448,896]{3,2,1,0} parameter(12)
  %constant_260 = f32[] constant(0.9)
  %broadcast.492.clone.1 = f32[3,3,448,896]{3,2,1,0} broadcast(f32[] %constant_260), dimensions={}, metadata={op_name="parallelize(train_step_func_pipeshard_parallel_mesh_0)/jit(main)/mul" source_file="/home/cyxue/miniconda3/envs/alpa/lib/python3.8/site-packages/optax/_src/transform.py" source_line=70}
  %multiply.467.clone.1 = f32[3,3,448,896]{3,2,1,0} multiply(f32[3,3,448,896]{3,2,1,0} %param_12.127, f32[3,3,448,896]{3,2,1,0} %broadcast.492.clone.1), metadata={op_name="parallelize(train_step_func_pipeshard_parallel_mesh_0)/jit(main)/mul" source_file="/home/cyxue/miniconda3/envs/alpa/lib/python3.8/site-packages/optax/_src/transform.py" source_line=70}
  %add.219.clone.1 = f32[3,3,448,896]{3,2,1,0} add(f32[3,3,448,896]{3,2,1,0} %multiply.694, f32[3,3,448,896]{3,2,1,0} %multiply.467.clone.1), metadata={op_name="parallelize(train_step_func_pipeshard_parallel_mesh_0)/jit(main)/add" source_file="/home/cyxue/miniconda3/envs/alpa/lib/python3.8/site-packages/optax/_src/transform.py" source_line=70}
  %multiply.295 = f32[3,3,448,896]{3,2,1,0} multiply(f32[3,3,448,896]{3,2,1,0} %add.219.clone.1, f32[3,3,448,896]{3,2,1,0} %broadcast.492.clone.1), metadata={op_name="parallelize(train_step_func_pipeshard_parallel_mesh_0)/jit(main)/mul" source_file="/home/cyxue/miniconda3/envs/alpa/lib/python3.8/site-packages/optax/_src/transform.py" source_line=70}
  %add.94 = f32[3,3,448,896]{3,2,1,0} add(f32[3,3,448,896]{3,2,1,0} %multiply.694, f32[3,3,448,896]{3,2,1,0} %multiply.295), metadata={op_name="parallelize(train_step_func_pipeshard_parallel_mesh_0)/jit(main)/add" source_file="/home/cyxue/miniconda3/envs/alpa/lib/python3.8/site-packages/optax/_src/transform.py" source_line=70}
  %multiply.294 = f32[3,3,448,896]{3,2,1,0} multiply(f32[3,3,448,896]{3,2,1,0} %broadcast.288, f32[3,3,448,896]{3,2,1,0} %add.94), metadata={op_name="parallelize(train_step_func_pipeshard_parallel_mesh_0)/jit(main)/mul" source_file="/home/cyxue/miniconda3/envs/alpa/lib/python3.8/site-packages/optax/_src/transform.py" source_line=694}
  %add.93 = f32[3,3,448,896]{3,2,1,0} add(f32[3,3,448,896]{3,2,1,0} %param_0.103, f32[3,3,448,896]{3,2,1,0} %multiply.294), metadata={op_name="parallelize(train_step_func_pipeshard_parallel_mesh_0)/jit(main)/add" source_file="/home/cyxue/miniconda3/envs/alpa/lib/python3.8/site-packages/optax/_src/update.py" source_line=43}
  %param_3.782 = f32[3,3,448,896]{3,2,1,0} parameter(3)
  %param_4.963 = f32[3,3,448,896]{3,2,1,0} parameter(4)
  %multiply.814.clone.1 = f32[3,3,448,896]{3,2,1,0} multiply(f32[3,3,448,896]{3,2,1,0} %param_4.963, f32[3,3,448,896]{3,2,1,0} %broadcast.719), metadata={op_name="parallelize(train_step_func_pipeshard_parallel_mesh_0)/jit(main)/div"}
  %param_9.149 = f32[3,3,448,896]{3,2,1,0} parameter(9)
  %multiply.407.clone.1 = f32[3,3,448,896]{3,2,1,0} multiply(f32[3,3,448,896]{3,2,1,0} %param_9.149, f32[3,3,448,896]{3,2,1,0} %broadcast.492.clone.1), metadata={op_name="parallelize(train_step_func_pipeshard_parallel_mesh_0)/jit(main)/mul" source_file="/home/cyxue/miniconda3/envs/alpa/lib/python3.8/site-packages/optax/_src/transform.py" source_line=70}
  %add.189.clone.1 = f32[3,3,448,896]{3,2,1,0} add(f32[3,3,448,896]{3,2,1,0} %multiply.814.clone.1, f32[3,3,448,896]{3,2,1,0} %multiply.407.clone.1), metadata={op_name="parallelize(train_step_func_pipeshard_parallel_mesh_0)/jit(main)/add" source_file="/home/cyxue/miniconda3/envs/alpa/lib/python3.8/site-packages/optax/_src/transform.py" source_line=70}
  %multiply.235.clone.1 = f32[3,3,448,896]{3,2,1,0} multiply(f32[3,3,448,896]{3,2,1,0} %add.189.clone.1, f32[3,3,448,896]{3,2,1,0} %broadcast.492.clone.1), metadata={op_name="parallelize(train_step_func_pipeshard_parallel_mesh_0)/jit(main)/mul" source_file="/home/cyxue/miniconda3/envs/alpa/lib/python3.8/site-packages/optax/_src/transform.py" source_line=70}
  %add.34.clone.1 = f32[3,3,448,896]{3,2,1,0} add(f32[3,3,448,896]{3,2,1,0} %multiply.814.clone.1, f32[3,3,448,896]{3,2,1,0} %multiply.235.clone.1), metadata={op_name="parallelize(train_step_func_pipeshard_parallel_mesh_0)/jit(main)/add" source_file="/home/cyxue/miniconda3/envs/alpa/lib/python3.8/site-packages/optax/_src/transform.py" source_line=70}
  %multiply.234.clone.1 = f32[3,3,448,896]{3,2,1,0} multiply(f32[3,3,448,896]{3,2,1,0} %broadcast.288, f32[3,3,448,896]{3,2,1,0} %add.34.clone.1), metadata={op_name="parallelize(train_step_func_pipeshard_parallel_mesh_0)/jit(main)/mul" source_file="/home/cyxue/miniconda3/envs/alpa/lib/python3.8/site-packages/optax/_src/transform.py" source_line=694}
  %add.33.clone.1 = f32[3,3,448,896]{3,2,1,0} add(f32[3,3,448,896]{3,2,1,0} %param_3.782, f32[3,3,448,896]{3,2,1,0} %multiply.234.clone.1), metadata={op_name="parallelize(train_step_func_pipeshard_parallel_mesh_0)/jit(main)/add" source_file="/home/cyxue/miniconda3/envs/alpa/lib/python3.8/site-packages/optax/_src/update.py" source_line=43}
  %param_5.647 = f32[3,3,448,896]{3,2,1,0} parameter(5)
  %param_6.1159 = f32[3,3,448,896]{3,2,1,0} parameter(6)
  %multiply.778.clone.1 = f32[3,3,448,896]{3,2,1,0} multiply(f32[3,3,448,896]{3,2,1,0} %param_6.1159, f32[3,3,448,896]{3,2,1,0} %broadcast.719), metadata={op_name="parallelize(train_step_func_pipeshard_parallel_mesh_0)/jit(main)/div"}
  %param_10.274 = f32[3,3,448,896]{3,2,1,0} parameter(10)
  %multiply.425.clone.1 = f32[3,3,448,896]{3,2,1,0} multiply(f32[3,3,448,896]{3,2,1,0} %param_10.274, f32[3,3,448,896]{3,2,1,0} %broadcast.492.clone.1), metadata={op_name="parallelize(train_step_func_pipeshard_parallel_mesh_0)/jit(main)/mul" source_file="/home/cyxue/miniconda3/envs/alpa/lib/python3.8/site-packages/optax/_src/transform.py" source_line=70}
  %add.198.clone.1 = f32[3,3,448,896]{3,2,1,0} add(f32[3,3,448,896]{3,2,1,0} %multiply.778.clone.1, f32[3,3,448,896]{3,2,1,0} %multiply.425.clone.1), metadata={op_name="parallelize(train_step_func_pipeshard_parallel_mesh_0)/jit(main)/add" source_file="/home/cyxue/miniconda3/envs/alpa/lib/python3.8/site-packages/optax/_src/transform.py" source_line=70}
  %multiply.253.clone.1 = f32[3,3,448,896]{3,2,1,0} multiply(f32[3,3,448,896]{3,2,1,0} %add.198.clone.1, f32[3,3,448,896]{3,2,1,0} %broadcast.492.clone.1), metadata={op_name="parallelize(train_step_func_pipeshard_parallel_mesh_0)/jit(main)/mul" source_file="/home/cyxue/miniconda3/envs/alpa/lib/python3.8/site-packages/optax/_src/transform.py" source_line=70}
  %add.52.clone.1 = f32[3,3,448,896]{3,2,1,0} add(f32[3,3,448,896]{3,2,1,0} %multiply.778.clone.1, f32[3,3,448,896]{3,2,1,0} %multiply.253.clone.1), metadata={op_name="parallelize(train_step_func_pipeshard_parallel_mesh_0)/jit(main)/add" source_file="/home/cyxue/miniconda3/envs/alpa/lib/python3.8/site-packages/optax/_src/transform.py" source_line=70}
  %multiply.252.clone.1 = f32[3,3,448,896]{3,2,1,0} multiply(f32[3,3,448,896]{3,2,1,0} %broadcast.288, f32[3,3,448,896]{3,2,1,0} %add.52.clone.1), metadata={op_name="parallelize(train_step_func_pipeshard_parallel_mesh_0)/jit(main)/mul" source_file="/home/cyxue/miniconda3/envs/alpa/lib/python3.8/site-packages/optax/_src/transform.py" source_line=694}
  %add.51.clone.1 = f32[3,3,448,896]{3,2,1,0} add(f32[3,3,448,896]{3,2,1,0} %param_5.647, f32[3,3,448,896]{3,2,1,0} %multiply.252.clone.1), metadata={op_name="parallelize(train_step_func_pipeshard_parallel_mesh_0)/jit(main)/add" source_file="/home/cyxue/miniconda3/envs/alpa/lib/python3.8/site-packages/optax/_src/update.py" source_line=43}
  %param_7.884 = f32[3,3,448,896]{3,2,1,0} parameter(7)
  %param_8.257 = f32[3,3,448,896]{3,2,1,0} parameter(8)
  %multiply.742.clone.1 = f32[3,3,448,896]{3,2,1,0} multiply(f32[3,3,448,896]{3,2,1,0} %param_8.257, f32[3,3,448,896]{3,2,1,0} %broadcast.719), metadata={op_name="parallelize(train_step_func_pipeshard_parallel_mesh_0)/jit(main)/div"}
  %param_11.268 = f32[3,3,448,896]{3,2,1,0} parameter(11)
  %multiply.443.clone.1 = f32[3,3,448,896]{3,2,1,0} multiply(f32[3,3,448,896]{3,2,1,0} %param_11.268, f32[3,3,448,896]{3,2,1,0} %broadcast.492.clone.1), metadata={op_name="parallelize(train_step_func_pipeshard_parallel_mesh_0)/jit(main)/mul" source_file="/home/cyxue/miniconda3/envs/alpa/lib/python3.8/site-packages/optax/_src/transform.py" source_line=70}
  %add.207.clone.1 = f32[3,3,448,896]{3,2,1,0} add(f32[3,3,448,896]{3,2,1,0} %multiply.742.clone.1, f32[3,3,448,896]{3,2,1,0} %multiply.443.clone.1), metadata={op_name="parallelize(train_step_func_pipeshard_parallel_mesh_0)/jit(main)/add" source_file="/home/cyxue/miniconda3/envs/alpa/lib/python3.8/site-packages/optax/_src/transform.py" source_line=70}
  %multiply.271.clone.1 = f32[3,3,448,896]{3,2,1,0} multiply(f32[3,3,448,896]{3,2,1,0} %add.207.clone.1, f32[3,3,448,896]{3,2,1,0} %broadcast.492.clone.1), metadata={op_name="parallelize(train_step_func_pipeshard_parallel_mesh_0)/jit(main)/mul" source_file="/home/cyxue/miniconda3/envs/alpa/lib/python3.8/site-packages/optax/_src/transform.py" source_line=70}
  %add.70.clone.1 = f32[3,3,448,896]{3,2,1,0} add(f32[3,3,448,896]{3,2,1,0} %multiply.742.clone.1, f32[3,3,448,896]{3,2,1,0} %multiply.271.clone.1), metadata={op_name="parallelize(train_step_func_pipeshard_parallel_mesh_0)/jit(main)/add" source_file="/home/cyxue/miniconda3/envs/alpa/lib/python3.8/site-packages/optax/_src/transform.py" source_line=70}
  %multiply.270.clone.1 = f32[3,3,448,896]{3,2,1,0} multiply(f32[3,3,448,896]{3,2,1,0} %broadcast.288, f32[3,3,448,896]{3,2,1,0} %add.70.clone.1), metadata={op_name="parallelize(train_step_func_pipeshard_parallel_mesh_0)/jit(main)/mul" source_file="/home/cyxue/miniconda3/envs/alpa/lib/python3.8/site-packages/optax/_src/transform.py" source_line=694}
  %add.69.clone.1 = f32[3,3,448,896]{3,2,1,0} add(f32[3,3,448,896]{3,2,1,0} %param_7.884, f32[3,3,448,896]{3,2,1,0} %multiply.270.clone.1), metadata={op_name="parallelize(train_step_func_pipeshard_parallel_mesh_0)/jit(main)/add" source_file="/home/cyxue/miniconda3/envs/alpa/lib/python3.8/site-packages/optax/_src/update.py" source_line=43}
  ROOT %tuple.107 = (f32[3,3,448,896]{3,2,1,0}, f32[3,3,448,896]{3,2,1,0}, f32[3,3,448,896]{3,2,1,0}, f32[3,3,448,896]{3,2,1,0}, f32[3,3,448,896]{3,2,1,0}, /*index=5*/f32[3,3,448,896]{3,2,1,0}, f32[3,3,448,896]{3,2,1,0}, f32[3,3,448,896]{3,2,1,0}) tuple(f32[3,3,448,896]{3,2,1,0} %add.93, f32[3,3,448,896]{3,2,1,0} %add.33.clone.1, f32[3,3,448,896]{3,2,1,0} %add.51.clone.1, f32[3,3,448,896]{3,2,1,0} %add.69.clone.1, f32[3,3,448,896]{3,2,1,0} %add.189.clone.1, /*index=5*/f32[3,3,448,896]{3,2,1,0} %add.198.clone.1, f32[3,3,448,896]{3,2,1,0} %add.207.clone.1, f32[3,3,448,896]{3,2,1,0} %add.219.clone.1)
}

%fused_computation.103 (param_0.104: f32[1,1,896,448], param_1.887: f32[1,1,896,448], param_2.775: s32[], param_3.784: f32[1,1,896,448]) -> (f32[1,1,896,448], f32[1,1,896,448]) {
  %param_0.104 = f32[1,1,896,448]{3,2,1,0} parameter(0)
  %param_2.775 = s32[] parameter(2)
  %convert.49 = f32[] convert(s32[] %param_2.775), metadata={op_name="parallelize(train_step_func_pipeshard_parallel_mesh_0)/jit(main)/convert_element_type[new_dtype=float32 weak_type=True]" source_file="/home/cyxue/miniconda3/envs/alpa/lib/python3.8/site-packages/optax/_src/schedule.py" source_line=394}
  %constant_1292 = f32[] constant(50000)
  %compare.25 = pred[] compare(f32[] %convert.49, f32[] %constant_1292), direction=LT, metadata={op_name="parallelize(train_step_func_pipeshard_parallel_mesh_0)/jit(main)/lt" source_file="/home/cyxue/miniconda3/envs/alpa/lib/python3.8/site-packages/optax/_src/schedule.py" source_line=394}
  %constant_1291 = f32[] constant(1)
  %constant_1290 = s32[] constant(0)
  %maximum.24 = s32[] maximum(s32[] %param_2.775, s32[] %constant_1290), metadata={op_name="parallelize(train_step_func_pipeshard_parallel_mesh_0)/jit(main)/max" source_file="/home/cyxue/miniconda3/envs/alpa/lib/python3.8/site-packages/optax/_src/schedule.py" source_line=86}
  %convert.48 = f32[] convert(s32[] %maximum.24), metadata={op_name="parallelize(train_step_func_pipeshard_parallel_mesh_0)/jit(main)/convert_element_type[new_dtype=float32 weak_type=True]" source_file="/home/cyxue/miniconda3/envs/alpa/lib/python3.8/site-packages/optax/_src/schedule.py" source_line=86}
  %minimum.49 = f32[] minimum(f32[] %convert.48, f32[] %constant_1292), metadata={op_name="parallelize(train_step_func_pipeshard_parallel_mesh_0)/jit(main)/min" source_file="/home/cyxue/miniconda3/envs/alpa/lib/python3.8/site-packages/optax/_src/schedule.py" source_line=86}
  %constant_1289 = f32[] constant(2e-05)
  %multiply.998 = f32[] multiply(f32[] %minimum.49, f32[] %constant_1289), metadata={op_name="parallelize(train_step_func_pipeshard_parallel_mesh_0)/jit(main)/div" source_file="/home/cyxue/miniconda3/envs/alpa/lib/python3.8/site-packages/optax/_src/schedule.py" source_line=87}
  %subtract.24 = f32[] subtract(f32[] %constant_1291, f32[] %multiply.998), metadata={op_name="parallelize(train_step_func_pipeshard_parallel_mesh_0)/jit(main)/sub" source_file="/home/cyxue/miniconda3/envs/alpa/lib/python3.8/site-packages/optax/_src/schedule.py" source_line=87}
  %constant_1288 = f32[] constant(-0.1)
  %multiply.997 = f32[] multiply(f32[] %subtract.24, f32[] %constant_1288), metadata={op_name="parallelize(train_step_func_pipeshard_parallel_mesh_0)/jit(main)/mul" source_file="/home/cyxue/miniconda3/envs/alpa/lib/python3.8/site-packages/optax/_src/schedule.py" source_line=88}
  %constant_1287 = f32[] constant(0.1)
  %add.328 = f32[] add(f32[] %multiply.997, f32[] %constant_1287), metadata={op_name="parallelize(train_step_func_pipeshard_parallel_mesh_0)/jit(main)/add" source_file="/home/cyxue/miniconda3/envs/alpa/lib/python3.8/site-packages/optax/_src/schedule.py" source_line=88}
  %constant_1286 = f32[] constant(-50000)
  %add.327 = f32[] add(f32[] %convert.49, f32[] %constant_1286), metadata={op_name="parallelize(train_step_func_pipeshard_parallel_mesh_0)/jit(main)/sub" source_file="/home/cyxue/miniconda3/envs/alpa/lib/python3.8/site-packages/optax/_src/schedule.py" source_line=394}
  %constant_1285 = f32[] constant(950000)
  %minimum.48 = f32[] minimum(f32[] %add.327, f32[] %constant_1285), metadata={op_name="parallelize(train_step_func_pipeshard_parallel_mesh_0)/jit(main)/min" source_file="/home/cyxue/miniconda3/envs/alpa/lib/python3.8/site-packages/optax/_src/schedule.py" source_line=235}
  %constant_1284 = f32[] constant(3.30693956e-06)
  %multiply.996 = f32[] multiply(f32[] %minimum.48, f32[] %constant_1284), metadata={op_name="parallelize(train_step_func_pipeshard_parallel_mesh_0)/jit(main)/div" source_file="/home/cyxue/miniconda3/envs/alpa/lib/python3.8/site-packages/optax/_src/schedule.py" source_line=236}
  %cosine.24 = f32[] cosine(f32[] %multiply.996), metadata={op_name="parallelize(train_step_func_pipeshard_parallel_mesh_0)/jit(main)/cos" source_file="/home/cyxue/miniconda3/envs/alpa/lib/python3.8/site-packages/optax/_src/schedule.py" source_line=236}
  %add.326 = f32[] add(f32[] %cosine.24, f32[] %constant_1291), metadata={op_name="parallelize(train_step_func_pipeshard_parallel_mesh_0)/jit(main)/add" source_file="/home/cyxue/miniconda3/envs/alpa/lib/python3.8/site-packages/optax/_src/schedule.py" source_line=236}
  %constant_1283 = f32[] constant(0.05)
  %multiply.995 = f32[] multiply(f32[] %add.326, f32[] %constant_1283), metadata={op_name="parallelize(train_step_func_pipeshard_parallel_mesh_0)/jit(main)/mul" source_file="/home/cyxue/miniconda3/envs/alpa/lib/python3.8/site-packages/optax/_src/schedule.py" source_line=238}
  %select.25 = f32[] select(pred[] %compare.25, f32[] %add.328, f32[] %multiply.995), metadata={op_name="parallelize(train_step_func_pipeshard_parallel_mesh_0)/jit(main)/select_n" source_file="/home/cyxue/miniconda3/envs/alpa/lib/python3.8/site-packages/optax/_src/schedule.py" source_line=394}
  %constant_1282 = f32[] constant(-1)
  %multiply.994 = f32[] multiply(f32[] %select.25, f32[] %constant_1282), metadata={op_name="parallelize(train_step_func_pipeshard_parallel_mesh_0)/jit(main)/mul" source_file="/home/cyxue/miniconda3/envs/alpa/lib/python3.8/site-packages/optax/_src/alias.py" source_line=37}
  %broadcast.290 = f32[1,1,896,448]{3,2,1,0} broadcast(f32[] %multiply.994), dimensions={}, metadata={op_name="parallelize(train_step_func_pipeshard_parallel_mesh_0)/jit(main)/mul" source_file="/home/cyxue/miniconda3/envs/alpa/lib/python3.8/site-packages/optax/_src/transform.py" source_line=694}
  %param_1.887 = f32[1,1,896,448]{3,2,1,0} parameter(1)
  %constant_734 = f32[] constant(0.0625)
  %broadcast.715 = f32[1,1,896,448]{3,2,1,0} broadcast(f32[] %constant_734), dimensions={}, metadata={op_name="parallelize(train_step_func_pipeshard_parallel_mesh_0)/jit(main)/div"}
  %multiply.690 = f32[1,1,896,448]{3,2,1,0} multiply(f32[1,1,896,448]{3,2,1,0} %param_1.887, f32[1,1,896,448]{3,2,1,0} %broadcast.715), metadata={op_name="parallelize(train_step_func_pipeshard_parallel_mesh_0)/jit(main)/div"}
  %param_3.784 = f32[1,1,896,448]{3,2,1,0} parameter(3)
  %constant_261 = f32[] constant(0.9)
  %broadcast.494.clone.1 = f32[1,1,896,448]{3,2,1,0} broadcast(f32[] %constant_261), dimensions={}, metadata={op_name="parallelize(train_step_func_pipeshard_parallel_mesh_0)/jit(main)/mul" source_file="/home/cyxue/miniconda3/envs/alpa/lib/python3.8/site-packages/optax/_src/transform.py" source_line=70}
  %multiply.469.clone.1 = f32[1,1,896,448]{3,2,1,0} multiply(f32[1,1,896,448]{3,2,1,0} %param_3.784, f32[1,1,896,448]{3,2,1,0} %broadcast.494.clone.1), metadata={op_name="parallelize(train_step_func_pipeshard_parallel_mesh_0)/jit(main)/mul" source_file="/home/cyxue/miniconda3/envs/alpa/lib/python3.8/site-packages/optax/_src/transform.py" source_line=70}
  %add.220.clone.1 = f32[1,1,896,448]{3,2,1,0} add(f32[1,1,896,448]{3,2,1,0} %multiply.690, f32[1,1,896,448]{3,2,1,0} %multiply.469.clone.1), metadata={op_name="parallelize(train_step_func_pipeshard_parallel_mesh_0)/jit(main)/add" source_file="/home/cyxue/miniconda3/envs/alpa/lib/python3.8/site-packages/optax/_src/transform.py" source_line=70}
  %multiply.297 = f32[1,1,896,448]{3,2,1,0} multiply(f32[1,1,896,448]{3,2,1,0} %add.220.clone.1, f32[1,1,896,448]{3,2,1,0} %broadcast.494.clone.1), metadata={op_name="parallelize(train_step_func_pipeshard_parallel_mesh_0)/jit(main)/mul" source_file="/home/cyxue/miniconda3/envs/alpa/lib/python3.8/site-packages/optax/_src/transform.py" source_line=70}
  %add.96 = f32[1,1,896,448]{3,2,1,0} add(f32[1,1,896,448]{3,2,1,0} %multiply.690, f32[1,1,896,448]{3,2,1,0} %multiply.297), metadata={op_name="parallelize(train_step_func_pipeshard_parallel_mesh_0)/jit(main)/add" source_file="/home/cyxue/miniconda3/envs/alpa/lib/python3.8/site-packages/optax/_src/transform.py" source_line=70}
  %multiply.296 = f32[1,1,896,448]{3,2,1,0} multiply(f32[1,1,896,448]{3,2,1,0} %broadcast.290, f32[1,1,896,448]{3,2,1,0} %add.96), metadata={op_name="parallelize(train_step_func_pipeshard_parallel_mesh_0)/jit(main)/mul" source_file="/home/cyxue/miniconda3/envs/alpa/lib/python3.8/site-packages/optax/_src/transform.py" source_line=694}
  %add.95 = f32[1,1,896,448]{3,2,1,0} add(f32[1,1,896,448]{3,2,1,0} %param_0.104, f32[1,1,896,448]{3,2,1,0} %multiply.296), metadata={op_name="parallelize(train_step_func_pipeshard_parallel_mesh_0)/jit(main)/add" source_file="/home/cyxue/miniconda3/envs/alpa/lib/python3.8/site-packages/optax/_src/update.py" source_line=43}
  ROOT %tuple.108 = (f32[1,1,896,448]{3,2,1,0}, f32[1,1,896,448]{3,2,1,0}) tuple(f32[1,1,896,448]{3,2,1,0} %add.95, f32[1,1,896,448]{3,2,1,0} %add.220.clone.1)
}

%fused_computation.105 (param_0.106: f32[1792], param_1.888: f32[1792], param_2.776: s32[], param_3.785: f32[1792], param_4.968: f32[1792], param_5.650: f32[1792], param_6.1160: f32[1792], param_7.885: f32[1792], param_8.258: f32[1792], param_9.150: f32[1792], param_10.275: f32[1792], param_11.269: f32[1792], param_12.128: f32[1792], param_13.238: f32[1792], param_14.213: f32[1792], param_15.89: f32[1792], param_16.160: f32[1792], param_17.148: f32[1792], param_18.64: f32[1792], param_19.111: f32[1792], param_20.112: f32[1792], param_21.60: f32[1792], param_22.100: f32[1792], param_23.105: f32[1792], param_24.63: f32[1792], param_25.107: f32[1792], param_26.105: f32[1792], param_27.56: f32[1792], param_28.92: f32[1792], param_29.92: f32[1792], param_30.50: f32[1792], param_31.80: f32[1792], param_32.83: f32[1792], param_33.50: f32[1792], param_34.80: f32[1792], param_35.83: f32[1792], param_36.62: f32[1792]) -> (f32[1792], f32[1792], f32[1792], f32[1792], f32[1792], /*index=5*/f32[1792], f32[1792], f32[1792], f32[1792], f32[1792], /*index=10*/f32[1792], f32[1792], f32[1792], f32[1792], f32[1792], /*index=15*/f32[1792], f32[1792], f32[1792], f32[1792], f32[1792], /*index=20*/f32[1792], f32[1792], f32[1792], f32[1792]) {
  %param_0.106 = f32[1792]{0} parameter(0)
  %param_2.776 = s32[] parameter(2)
  %convert.25 = f32[] convert(s32[] %param_2.776), metadata={op_name="parallelize(train_step_func_pipeshard_parallel_mesh_0)/jit(main)/convert_element_type[new_dtype=float32 weak_type=True]" source_file="/home/cyxue/miniconda3/envs/alpa/lib/python3.8/site-packages/optax/_src/schedule.py" source_line=394}
  %constant_1154 = f32[] constant(50000)
  %compare.13 = pred[] compare(f32[] %convert.25, f32[] %constant_1154), direction=LT, metadata={op_name="parallelize(train_step_func_pipeshard_parallel_mesh_0)/jit(main)/lt" source_file="/home/cyxue/miniconda3/envs/alpa/lib/python3.8/site-packages/optax/_src/schedule.py" source_line=394}
  %constant_1153 = f32[] constant(1)
  %constant_1152 = s32[] constant(0)
  %maximum.12 = s32[] maximum(s32[] %param_2.776, s32[] %constant_1152), metadata={op_name="parallelize(train_step_func_pipeshard_parallel_mesh_0)/jit(main)/max" source_file="/home/cyxue/miniconda3/envs/alpa/lib/python3.8/site-packages/optax/_src/schedule.py" source_line=86}
  %convert.24 = f32[] convert(s32[] %maximum.12), metadata={op_name="parallelize(train_step_func_pipeshard_parallel_mesh_0)/jit(main)/convert_element_type[new_dtype=float32 weak_type=True]" source_file="/home/cyxue/miniconda3/envs/alpa/lib/python3.8/site-packages/optax/_src/schedule.py" source_line=86}
  %minimum.25 = f32[] minimum(f32[] %convert.24, f32[] %constant_1154), metadata={op_name="parallelize(train_step_func_pipeshard_parallel_mesh_0)/jit(main)/min" source_file="/home/cyxue/miniconda3/envs/alpa/lib/python3.8/site-packages/optax/_src/schedule.py" source_line=86}
  %constant_1151 = f32[] constant(2e-05)
  %multiply.938 = f32[] multiply(f32[] %minimum.25, f32[] %constant_1151), metadata={op_name="parallelize(train_step_func_pipeshard_parallel_mesh_0)/jit(main)/div" source_file="/home/cyxue/miniconda3/envs/alpa/lib/python3.8/site-packages/optax/_src/schedule.py" source_line=87}
  %subtract.12 = f32[] subtract(f32[] %constant_1153, f32[] %multiply.938), metadata={op_name="parallelize(train_step_func_pipeshard_parallel_mesh_0)/jit(main)/sub" source_file="/home/cyxue/miniconda3/envs/alpa/lib/python3.8/site-packages/optax/_src/schedule.py" source_line=87}
  %constant_1150 = f32[] constant(-0.1)
  %multiply.937 = f32[] multiply(f32[] %subtract.12, f32[] %constant_1150), metadata={op_name="parallelize(train_step_func_pipeshard_parallel_mesh_0)/jit(main)/mul" source_file="/home/cyxue/miniconda3/envs/alpa/lib/python3.8/site-packages/optax/_src/schedule.py" source_line=88}
  %constant_1149 = f32[] constant(0.1)
  %add.292 = f32[] add(f32[] %multiply.937, f32[] %constant_1149), metadata={op_name="parallelize(train_step_func_pipeshard_parallel_mesh_0)/jit(main)/add" source_file="/home/cyxue/miniconda3/envs/alpa/lib/python3.8/site-packages/optax/_src/schedule.py" source_line=88}
  %constant_1148 = f32[] constant(-50000)
  %add.291 = f32[] add(f32[] %convert.25, f32[] %constant_1148), metadata={op_name="parallelize(train_step_func_pipeshard_parallel_mesh_0)/jit(main)/sub" source_file="/home/cyxue/miniconda3/envs/alpa/lib/python3.8/site-packages/optax/_src/schedule.py" source_line=394}
  %constant_1147 = f32[] constant(950000)
  %minimum.24 = f32[] minimum(f32[] %add.291, f32[] %constant_1147), metadata={op_name="parallelize(train_step_func_pipeshard_parallel_mesh_0)/jit(main)/min" source_file="/home/cyxue/miniconda3/envs/alpa/lib/python3.8/site-packages/optax/_src/schedule.py" source_line=235}
  %constant_1146 = f32[] constant(3.30693956e-06)
  %multiply.936 = f32[] multiply(f32[] %minimum.24, f32[] %constant_1146), metadata={op_name="parallelize(train_step_func_pipeshard_parallel_mesh_0)/jit(main)/div" source_file="/home/cyxue/miniconda3/envs/alpa/lib/python3.8/site-packages/optax/_src/schedule.py" source_line=236}
  %cosine.12 = f32[] cosine(f32[] %multiply.936), metadata={op_name="parallelize(train_step_func_pipeshard_parallel_mesh_0)/jit(main)/cos" source_file="/home/cyxue/miniconda3/envs/alpa/lib/python3.8/site-packages/optax/_src/schedule.py" source_line=236}
  %add.290 = f32[] add(f32[] %cosine.12, f32[] %constant_1153), metadata={op_name="parallelize(train_step_func_pipeshard_parallel_mesh_0)/jit(main)/add" source_file="/home/cyxue/miniconda3/envs/alpa/lib/python3.8/site-packages/optax/_src/schedule.py" source_line=236}
  %constant_1145 = f32[] constant(0.05)
  %multiply.935 = f32[] multiply(f32[] %add.290, f32[] %constant_1145), metadata={op_name="parallelize(train_step_func_pipeshard_parallel_mesh_0)/jit(main)/mul" source_file="/home/cyxue/miniconda3/envs/alpa/lib/python3.8/site-packages/optax/_src/schedule.py" source_line=238}
  %select.13 = f32[] select(pred[] %compare.13, f32[] %add.292, f32[] %multiply.935), metadata={op_name="parallelize(train_step_func_pipeshard_parallel_mesh_0)/jit(main)/select_n" source_file="/home/cyxue/miniconda3/envs/alpa/lib/python3.8/site-packages/optax/_src/schedule.py" source_line=394}
  %constant_1144 = f32[] constant(-1)
  %multiply.934 = f32[] multiply(f32[] %select.13, f32[] %constant_1144), metadata={op_name="parallelize(train_step_func_pipeshard_parallel_mesh_0)/jit(main)/mul" source_file="/home/cyxue/miniconda3/envs/alpa/lib/python3.8/site-packages/optax/_src/alias.py" source_line=37}
  %broadcast.294 = f32[1792]{0} broadcast(f32[] %multiply.934), dimensions={}, metadata={op_name="parallelize(train_step_func_pipeshard_parallel_mesh_0)/jit(main)/mul" source_file="/home/cyxue/miniconda3/envs/alpa/lib/python3.8/site-packages/optax/_src/transform.py" source_line=694}
  %param_1.888 = f32[1792]{0} parameter(1)
  %constant_722 = f32[] constant(0.0625)
  %broadcast.707 = f32[1792]{0} broadcast(f32[] %constant_722), dimensions={}, metadata={op_name="parallelize(train_step_func_pipeshard_parallel_mesh_0)/jit(main)/div"}
  %multiply.682 = f32[1792]{0} multiply(f32[1792]{0} %param_1.888, f32[1792]{0} %broadcast.707), metadata={op_name="parallelize(train_step_func_pipeshard_parallel_mesh_0)/jit(main)/div"}
  %param_36.62 = f32[1792]{0} parameter(36)
  %constant_263 = f32[] constant(0.9)
  %broadcast.498.clone.1 = f32[1792]{0} broadcast(f32[] %constant_263), dimensions={}, metadata={op_name="parallelize(train_step_func_pipeshard_parallel_mesh_0)/jit(main)/mul" source_file="/home/cyxue/miniconda3/envs/alpa/lib/python3.8/site-packages/optax/_src/transform.py" source_line=70}
  %multiply.473.clone.1 = f32[1792]{0} multiply(f32[1792]{0} %param_36.62, f32[1792]{0} %broadcast.498.clone.1), metadata={op_name="parallelize(train_step_func_pipeshard_parallel_mesh_0)/jit(main)/mul" source_file="/home/cyxue/miniconda3/envs/alpa/lib/python3.8/site-packages/optax/_src/transform.py" source_line=70}
  %add.222.clone.1 = f32[1792]{0} add(f32[1792]{0} %multiply.682, f32[1792]{0} %multiply.473.clone.1), metadata={op_name="parallelize(train_step_func_pipeshard_parallel_mesh_0)/jit(main)/add" source_file="/home/cyxue/miniconda3/envs/alpa/lib/python3.8/site-packages/optax/_src/transform.py" source_line=70}
  %multiply.301 = f32[1792]{0} multiply(f32[1792]{0} %add.222.clone.1, f32[1792]{0} %broadcast.498.clone.1), metadata={op_name="parallelize(train_step_func_pipeshard_parallel_mesh_0)/jit(main)/mul" source_file="/home/cyxue/miniconda3/envs/alpa/lib/python3.8/site-packages/optax/_src/transform.py" source_line=70}
  %add.100 = f32[1792]{0} add(f32[1792]{0} %multiply.682, f32[1792]{0} %multiply.301), metadata={op_name="parallelize(train_step_func_pipeshard_parallel_mesh_0)/jit(main)/add" source_file="/home/cyxue/miniconda3/envs/alpa/lib/python3.8/site-packages/optax/_src/transform.py" source_line=70}
  %multiply.300 = f32[1792]{0} multiply(f32[1792]{0} %broadcast.294, f32[1792]{0} %add.100), metadata={op_name="parallelize(train_step_func_pipeshard_parallel_mesh_0)/jit(main)/mul" source_file="/home/cyxue/miniconda3/envs/alpa/lib/python3.8/site-packages/optax/_src/transform.py" source_line=694}
  %add.99 = f32[1792]{0} add(f32[1792]{0} %param_0.106, f32[1792]{0} %multiply.300), metadata={op_name="parallelize(train_step_func_pipeshard_parallel_mesh_0)/jit(main)/add" source_file="/home/cyxue/miniconda3/envs/alpa/lib/python3.8/site-packages/optax/_src/update.py" source_line=43}
  %param_3.785 = f32[1792]{0} parameter(3)
  %param_4.968 = f32[1792]{0} parameter(4)
  %multiply.834.clone.1 = f32[1792]{0} multiply(f32[1792]{0} %param_4.968, f32[1792]{0} %broadcast.707), metadata={op_name="parallelize(train_step_func_pipeshard_parallel_mesh_0)/jit(main)/div"}
  %param_25.107 = f32[1792]{0} parameter(25)
  %multiply.397.clone.1 = f32[1792]{0} multiply(f32[1792]{0} %param_25.107, f32[1792]{0} %broadcast.498.clone.1), metadata={op_name="parallelize(train_step_func_pipeshard_parallel_mesh_0)/jit(main)/mul" source_file="/home/cyxue/miniconda3/envs/alpa/lib/python3.8/site-packages/optax/_src/transform.py" source_line=70}
  %add.184.clone.1 = f32[1792]{0} add(f32[1792]{0} %multiply.834.clone.1, f32[1792]{0} %multiply.397.clone.1), metadata={op_name="parallelize(train_step_func_pipeshard_parallel_mesh_0)/jit(main)/add" source_file="/home/cyxue/miniconda3/envs/alpa/lib/python3.8/site-packages/optax/_src/transform.py" source_line=70}
  %multiply.225.clone.1 = f32[1792]{0} multiply(f32[1792]{0} %add.184.clone.1, f32[1792]{0} %broadcast.498.clone.1), metadata={op_name="parallelize(train_step_func_pipeshard_parallel_mesh_0)/jit(main)/mul" source_file="/home/cyxue/miniconda3/envs/alpa/lib/python3.8/site-packages/optax/_src/transform.py" source_line=70}
  %add.24.clone.1 = f32[1792]{0} add(f32[1792]{0} %multiply.834.clone.1, f32[1792]{0} %multiply.225.clone.1), metadata={op_name="parallelize(train_step_func_pipeshard_parallel_mesh_0)/jit(main)/add" source_file="/home/cyxue/miniconda3/envs/alpa/lib/python3.8/site-packages/optax/_src/transform.py" source_line=70}
  %multiply.224.clone.1 = f32[1792]{0} multiply(f32[1792]{0} %broadcast.294, f32[1792]{0} %add.24.clone.1), metadata={op_name="parallelize(train_step_func_pipeshard_parallel_mesh_0)/jit(main)/mul" source_file="/home/cyxue/miniconda3/envs/alpa/lib/python3.8/site-packages/optax/_src/transform.py" source_line=694}
  %add.23.clone.1 = f32[1792]{0} add(f32[1792]{0} %param_3.785, f32[1792]{0} %multiply.224.clone.1), metadata={op_name="parallelize(train_step_func_pipeshard_parallel_mesh_0)/jit(main)/add" source_file="/home/cyxue/miniconda3/envs/alpa/lib/python3.8/site-packages/optax/_src/update.py" source_line=43}
  %param_5.650 = f32[1792]{0} parameter(5)
  %param_6.1160 = f32[1792]{0} parameter(6)
  %multiply.830.clone.1 = f32[1792]{0} multiply(f32[1792]{0} %param_6.1160, f32[1792]{0} %broadcast.707), metadata={op_name="parallelize(train_step_func_pipeshard_parallel_mesh_0)/jit(main)/div"}
  %param_26.105 = f32[1792]{0} parameter(26)
  %multiply.399.clone.1 = f32[1792]{0} multiply(f32[1792]{0} %param_26.105, f32[1792]{0} %broadcast.498.clone.1), metadata={op_name="parallelize(train_step_func_pipeshard_parallel_mesh_0)/jit(main)/mul" source_file="/home/cyxue/miniconda3/envs/alpa/lib/python3.8/site-packages/optax/_src/transform.py" source_line=70}
  %add.185.clone.1 = f32[1792]{0} add(f32[1792]{0} %multiply.830.clone.1, f32[1792]{0} %multiply.399.clone.1), metadata={op_name="parallelize(train_step_func_pipeshard_parallel_mesh_0)/jit(main)/add" source_file="/home/cyxue/miniconda3/envs/alpa/lib/python3.8/site-packages/optax/_src/transform.py" source_line=70}
  %multiply.227.clone.1 = f32[1792]{0} multiply(f32[1792]{0} %add.185.clone.1, f32[1792]{0} %broadcast.498.clone.1), metadata={op_name="parallelize(train_step_func_pipeshard_parallel_mesh_0)/jit(main)/mul" source_file="/home/cyxue/miniconda3/envs/alpa/lib/python3.8/site-packages/optax/_src/transform.py" source_line=70}
  %add.26.clone.1 = f32[1792]{0} add(f32[1792]{0} %multiply.830.clone.1, f32[1792]{0} %multiply.227.clone.1), metadata={op_name="parallelize(train_step_func_pipeshard_parallel_mesh_0)/jit(main)/add" source_file="/home/cyxue/miniconda3/envs/alpa/lib/python3.8/site-packages/optax/_src/transform.py" source_line=70}
  %multiply.226.clone.1 = f32[1792]{0} multiply(f32[1792]{0} %broadcast.294, f32[1792]{0} %add.26.clone.1), metadata={op_name="parallelize(train_step_func_pipeshard_parallel_mesh_0)/jit(main)/mul" source_file="/home/cyxue/miniconda3/envs/alpa/lib/python3.8/site-packages/optax/_src/transform.py" source_line=694}
  %add.25.clone.1 = f32[1792]{0} add(f32[1792]{0} %param_5.650, f32[1792]{0} %multiply.226.clone.1), metadata={op_name="parallelize(train_step_func_pipeshard_parallel_mesh_0)/jit(main)/add" source_file="/home/cyxue/miniconda3/envs/alpa/lib/python3.8/site-packages/optax/_src/update.py" source_line=43}
  %param_7.885 = f32[1792]{0} parameter(7)
  %param_8.258 = f32[1792]{0} parameter(8)
  %multiply.806.clone.1 = f32[1792]{0} multiply(f32[1792]{0} %param_8.258, f32[1792]{0} %broadcast.707), metadata={op_name="parallelize(train_step_func_pipeshard_parallel_mesh_0)/jit(main)/div"}
  %param_27.56 = f32[1792]{0} parameter(27)
  %multiply.411.clone.1 = f32[1792]{0} multiply(f32[1792]{0} %param_27.56, f32[1792]{0} %broadcast.498.clone.1), metadata={op_name="parallelize(train_step_func_pipeshard_parallel_mesh_0)/jit(main)/mul" source_file="/home/cyxue/miniconda3/envs/alpa/lib/python3.8/site-packages/optax/_src/transform.py" source_line=70}
  %add.191.clone.1 = f32[1792]{0} add(f32[1792]{0} %multiply.806.clone.1, f32[1792]{0} %multiply.411.clone.1), metadata={op_name="parallelize(train_step_func_pipeshard_parallel_mesh_0)/jit(main)/add" source_file="/home/cyxue/miniconda3/envs/alpa/lib/python3.8/site-packages/optax/_src/transform.py" source_line=70}
  %multiply.239.clone.1 = f32[1792]{0} multiply(f32[1792]{0} %add.191.clone.1, f32[1792]{0} %broadcast.498.clone.1), metadata={op_name="parallelize(train_step_func_pipeshard_parallel_mesh_0)/jit(main)/mul" source_file="/home/cyxue/miniconda3/envs/alpa/lib/python3.8/site-packages/optax/_src/transform.py" source_line=70}
  %add.38.clone.1 = f32[1792]{0} add(f32[1792]{0} %multiply.806.clone.1, f32[1792]{0} %multiply.239.clone.1), metadata={op_name="parallelize(train_step_func_pipeshard_parallel_mesh_0)/jit(main)/add" source_file="/home/cyxue/miniconda3/envs/alpa/lib/python3.8/site-packages/optax/_src/transform.py" source_line=70}
  %multiply.238.clone.1 = f32[1792]{0} multiply(f32[1792]{0} %broadcast.294, f32[1792]{0} %add.38.clone.1), metadata={op_name="parallelize(train_step_func_pipeshard_parallel_mesh_0)/jit(main)/mul" source_file="/home/cyxue/miniconda3/envs/alpa/lib/python3.8/site-packages/optax/_src/transform.py" source_line=694}
  %add.37.clone.1 = f32[1792]{0} add(f32[1792]{0} %param_7.885, f32[1792]{0} %multiply.238.clone.1), metadata={op_name="parallelize(train_step_func_pipeshard_parallel_mesh_0)/jit(main)/add" source_file="/home/cyxue/miniconda3/envs/alpa/lib/python3.8/site-packages/optax/_src/update.py" source_line=43}
  %param_9.150 = f32[1792]{0} parameter(9)
  %param_10.275 = f32[1792]{0} parameter(10)
  %multiply.802.clone.1 = f32[1792]{0} multiply(f32[1792]{0} %param_10.275, f32[1792]{0} %broadcast.707), metadata={op_name="parallelize(train_step_func_pipeshard_parallel_mesh_0)/jit(main)/div"}
  %param_28.92 = f32[1792]{0} parameter(28)
  %multiply.413.clone.1 = f32[1792]{0} multiply(f32[1792]{0} %param_28.92, f32[1792]{0} %broadcast.498.clone.1), metadata={op_name="parallelize(train_step_func_pipeshard_parallel_mesh_0)/jit(main)/mul" source_file="/home/cyxue/miniconda3/envs/alpa/lib/python3.8/site-packages/optax/_src/transform.py" source_line=70}
  %add.192.clone.1 = f32[1792]{0} add(f32[1792]{0} %multiply.802.clone.1, f32[1792]{0} %multiply.413.clone.1), metadata={op_name="parallelize(train_step_func_pipeshard_parallel_mesh_0)/jit(main)/add" source_file="/home/cyxue/miniconda3/envs/alpa/lib/python3.8/site-packages/optax/_src/transform.py" source_line=70}
  %multiply.241.clone.1 = f32[1792]{0} multiply(f32[1792]{0} %add.192.clone.1, f32[1792]{0} %broadcast.498.clone.1), metadata={op_name="parallelize(train_step_func_pipeshard_parallel_mesh_0)/jit(main)/mul" source_file="/home/cyxue/miniconda3/envs/alpa/lib/python3.8/site-packages/optax/_src/transform.py" source_line=70}
  %add.40.clone.1 = f32[1792]{0} add(f32[1792]{0} %multiply.802.clone.1, f32[1792]{0} %multiply.241.clone.1), metadata={op_name="parallelize(train_step_func_pipeshard_parallel_mesh_0)/jit(main)/add" source_file="/home/cyxue/miniconda3/envs/alpa/lib/python3.8/site-packages/optax/_src/transform.py" source_line=70}
  %multiply.240.clone.1 = f32[1792]{0} multiply(f32[1792]{0} %broadcast.294, f32[1792]{0} %add.40.clone.1), metadata={op_name="parallelize(train_step_func_pipeshard_parallel_mesh_0)/jit(main)/mul" source_file="/home/cyxue/miniconda3/envs/alpa/lib/python3.8/site-packages/optax/_src/transform.py" source_line=694}
  %add.39.clone.1 = f32[1792]{0} add(f32[1792]{0} %param_9.150, f32[1792]{0} %multiply.240.clone.1), metadata={op_name="parallelize(train_step_func_pipeshard_parallel_mesh_0)/jit(main)/add" source_file="/home/cyxue/miniconda3/envs/alpa/lib/python3.8/site-packages/optax/_src/update.py" source_line=43}
  %param_11.269 = f32[1792]{0} parameter(11)
  %param_12.128 = f32[1792]{0} parameter(12)
…
  %param_358 = f32[1792]{0} parameter(358), metadata={op_name="0_apply_grad$start"}
  %param_359 = f32[3584]{0} parameter(359), metadata={op_name="0_apply_grad$start"}
  %param_360 = f32[3584]{0} parameter(360), metadata={op_name="0_apply_grad$start"}
  %param_361 = f32[3584]{0} parameter(361), metadata={op_name="0_apply_grad$start"}
  %param_362 = f32[3584]{0} parameter(362), metadata={op_name="0_apply_grad$start"}
  %param_363 = f32[224]{0} parameter(363), metadata={op_name="0_apply_grad$start"}
  %param_364 = f32[224]{0} parameter(364), metadata={op_name="0_apply_grad$start"}
  %param_323 = f32[224]{0} parameter(323), metadata={op_name="0_apply_grad$start"}
  %param_310 = f32[224]{0} parameter(310), metadata={op_name="0_apply_grad$start"}
  %param_311 = f32[448]{0} parameter(311), metadata={op_name="0_apply_grad$start"}
  %param_312 = f32[448]{0} parameter(312), metadata={op_name="0_apply_grad$start"}
  %fusion.310 = (f32[896]{0}, f32[448]{0}, f32[896]{0}, f32[896]{0}, f32[1792]{0}, /*index=5*/f32[1792]{0}, f32[448]{0}, f32[448]{0}, f32[896]{0}, f32[896]{0}, /*index=10*/f32[1792]{0}, f32[1792]{0}, f32[448]{0}, f32[448]{0}, f32[448]{0}, /*index=15*/f32[896]{0}, f32[1792]{0}, f32[1792]{0}, f32[896]{0}, f32[896]{0}, /*index=20*/f32[1792]{0}, f32[1792]{0}, f32[3584]{0}, f32[3584]{0}, f32[3584]{0}, /*index=25*/f32[3584]{0}, f32[224]{0}, f32[224]{0}, f32[224]{0}, f32[224]{0}, /*index=30*/f32[448]{0}, f32[448]{0}) fusion(f32[896]{0} %param_351, f32[448]{0} %param_338, f32[896]{0} %param_339, f32[896]{0} %param_340, f32[1792]{0} %param_341, /*index=5*/f32[1792]{0} %param_342, f32[448]{0} %param_343, f32[448]{0} %param_344, f32[896]{0} %param_345, f32[896]{0} %param_346, /*index=10*/f32[1792]{0} %param_347, f32[1792]{0} %param_348, f32[448]{0} %param_349, f32[448]{0} %param_350, f32[448]{0} %param_337, /*index=15*/f32[896]{0} %param_352, f32[1792]{0} %param_353, f32[1792]{0} %param_354, f32[896]{0} %param_355, f32[896]{0} %param_356, /*index=20*/f32[1792]{0} %param_357, f32[1792]{0} %param_358, f32[3584]{0} %param_359, f32[3584]{0} %param_360, f32[3584]{0} %param_361, /*index=25*/f32[3584]{0} %param_362, f32[224]{0} %param_363, f32[224]{0} %param_364, f32[224]{0} %param_323, f32[224]{0} %param_310, /*index=30*/f32[448]{0} %param_311, f32[448]{0} %param_312), kind=kInput, calls=%horizontally_fused_computation, metadata={op_name="parallelize(train_step_func_pipeshard_parallel_mesh_0)/jit(main)/div"}
  %get-tuple-element.394 = f32[224]{0} get-tuple-element((f32[896]{0}, f32[448]{0}, f32[896]{0}, f32[896]{0}, f32[1792]{0}, /*index=5*/f32[1792]{0}, f32[448]{0}, f32[448]{0}, f32[896]{0}, f32[896]{0}, /*index=10*/f32[1792]{0}, f32[1792]{0}, f32[448]{0}, f32[448]{0}, f32[448]{0}, /*index=15*/f32[896]{0}, f32[1792]{0}, f32[1792]{0}, f32[896]{0}, f32[896]{0}, /*index=20*/f32[1792]{0}, f32[1792]{0}, f32[3584]{0}, f32[3584]{0}, f32[3584]{0}, /*index=25*/f32[3584]{0}, f32[224]{0}, f32[224]{0}, f32[224]{0}, f32[224]{0}, /*index=30*/f32[448]{0}, f32[448]{0}) %fusion.310), index=29, metadata={op_name="parallelize(train_step_func_pipeshard_parallel_mesh_0)/jit(main)/div"}
  %get-tuple-element.395 = f32[448]{0} get-tuple-element((f32[896]{0}, f32[448]{0}, f32[896]{0}, f32[896]{0}, f32[1792]{0}, /*index=5*/f32[1792]{0}, f32[448]{0}, f32[448]{0}, f32[896]{0}, f32[896]{0}, /*index=10*/f32[1792]{0}, f32[1792]{0}, f32[448]{0}, f32[448]{0}, f32[448]{0}, /*index=15*/f32[896]{0}, f32[1792]{0}, f32[1792]{0}, f32[896]{0}, f32[896]{0}, /*index=20*/f32[1792]{0}, f32[1792]{0}, f32[3584]{0}, f32[3584]{0}, f32[3584]{0}, /*index=25*/f32[3584]{0}, f32[224]{0}, f32[224]{0}, f32[224]{0}, f32[224]{0}, /*index=30*/f32[448]{0}, f32[448]{0}) %fusion.310), index=30, metadata={op_name="parallelize(train_step_func_pipeshard_parallel_mesh_0)/jit(main)/div"}
  %get-tuple-element.396 = f32[448]{0} get-tuple-element((f32[896]{0}, f32[448]{0}, f32[896]{0}, f32[896]{0}, f32[1792]{0}, /*index=5*/f32[1792]{0}, f32[448]{0}, f32[448]{0}, f32[896]{0}, f32[896]{0}, /*index=10*/f32[1792]{0}, f32[1792]{0}, f32[448]{0}, f32[448]{0}, f32[448]{0}, /*index=15*/f32[896]{0}, f32[1792]{0}, f32[1792]{0}, f32[896]{0}, f32[896]{0}, /*index=20*/f32[1792]{0}, f32[1792]{0}, f32[3584]{0}, f32[3584]{0}, f32[3584]{0}, /*index=25*/f32[3584]{0}, f32[224]{0}, f32[224]{0}, f32[224]{0}, f32[224]{0}, /*index=30*/f32[448]{0}, f32[448]{0}) %fusion.310), index=31, metadata={op_name="parallelize(train_step_func_pipeshard_parallel_mesh_0)/jit(main)/div"}
  %get-tuple-element.397 = f32[896]{0} get-tuple-element((f32[896]{0}, f32[896]{0}, f32[896]{0}, f32[896]{0}, f32[224]{0}, /*index=5*/f32[224]{0}, f32[448]{0}, f32[448]{0}, f32[896]{0}, f32[896]{0}, /*index=10*/f32[224]{0}, f32[224]{0}, f32[448]{0}, f32[448]{0}, f32[896]{0}, /*index=15*/f32[896]{0}, f32[448]{0}, f32[448]{0}, f32[896]{0}, f32[896]{0}, /*index=20*/f32[1792]{0}, f32[1792]{0}, f32[1792]{0}, f32[1792]{0}) %fusion.311), index=0, metadata={op_name="parallelize(train_step_func_pipeshard_parallel_mesh_0)/jit(main)/div"}
  %get-tuple-element.398 = f32[896]{0} get-tuple-element((f32[896]{0}, f32[896]{0}, f32[896]{0}, f32[896]{0}, f32[224]{0}, /*index=5*/f32[224]{0}, f32[448]{0}, f32[448]{0}, f32[896]{0}, f32[896]{0}, /*index=10*/f32[224]{0}, f32[224]{0}, f32[448]{0}, f32[448]{0}, f32[896]{0}, /*index=15*/f32[896]{0}, f32[448]{0}, f32[448]{0}, f32[896]{0}, f32[896]{0}, /*index=20*/f32[1792]{0}, f32[1792]{0}, f32[1792]{0}, f32[1792]{0}) %fusion.311), index=1, metadata={op_name="parallelize(train_step_func_pipeshard_parallel_mesh_0)/jit(main)/div"}
  %get-tuple-element.399 = f32[896]{0} get-tuple-element((f32[896]{0}, f32[896]{0}, f32[896]{0}, f32[896]{0}, f32[224]{0}, /*index=5*/f32[224]{0}, f32[448]{0}, f32[448]{0}, f32[896]{0}, f32[896]{0}, /*index=10*/f32[224]{0}, f32[224]{0}, f32[448]{0}, f32[448]{0}, f32[896]{0}, /*index=15*/f32[896]{0}, f32[448]{0}, f32[448]{0}, f32[896]{0}, f32[896]{0}, /*index=20*/f32[1792]{0}, f32[1792]{0}, f32[1792]{0}, f32[1792]{0}) %fusion.311), index=2, metadata={op_name="parallelize(train_step_func_pipeshard_parallel_mesh_0)/jit(main)/div"}
  %get-tuple-element.400 = f32[896]{0} get-tuple-element((f32[896]{0}, f32[896]{0}, f32[896]{0}, f32[896]{0}, f32[224]{0}, /*index=5*/f32[224]{0}, f32[448]{0}, f32[448]{0}, f32[896]{0}, f32[896]{0}, /*index=10*/f32[224]{0}, f32[224]{0}, f32[448]{0}, f32[448]{0}, f32[896]{0}, /*index=15*/f32[896]{0}, f32[448]{0}, f32[448]{0}, f32[896]{0}, f32[896]{0}, /*index=20*/f32[1792]{0}, f32[1792]{0}, f32[1792]{0}, f32[1792]{0}) %fusion.311), index=3, metadata={op_name="parallelize(train_step_func_pipeshard_parallel_mesh_0)/jit(main)/div"}
  %get-tuple-element.401 = f32[224]{0} get-tuple-element((f32[896]{0}, f32[896]{0}, f32[896]{0}, f32[896]{0}, f32[224]{0}, /*index=5*/f32[224]{0}, f32[448]{0}, f32[448]{0}, f32[896]{0}, f32[896]{0}, /*index=10*/f32[224]{0}, f32[224]{0}, f32[448]{0}, f32[448]{0}, f32[896]{0}, /*index=15*/f32[896]{0}, f32[448]{0}, f32[448]{0}, f32[896]{0}, f32[896]{0}, /*index=20*/f32[1792]{0}, f32[1792]{0}, f32[1792]{0}, f32[1792]{0}) %fusion.311), index=4, metadata={op_name="parallelize(train_step_func_pipeshard_parallel_mesh_0)/jit(main)/div"}
  %get-tuple-element.402 = f32[224]{0} get-tuple-element((f32[896]{0}, f32[896]{0}, f32[896]{0}, f32[896]{0}, f32[224]{0}, /*index=5*/f32[224]{0}, f32[448]{0}, f32[448]{0}, f32[896]{0}, f32[896]{0}, /*index=10*/f32[224]{0}, f32[224]{0}, f32[448]{0}, f32[448]{0}, f32[896]{0}, /*index=15*/f32[896]{0}, f32[448]{0}, f32[448]{0}, f32[896]{0}, f32[896]{0}, /*index=20*/f32[1792]{0}, f32[1792]{0}, f32[1792]{0}, f32[1792]{0}) %fusion.311), index=5, metadata={op_name="parallelize(train_step_func_pipeshard_parallel_mesh_0)/jit(main)/div"}
  %get-tuple-element.403 = f32[448]{0} get-tuple-element((f32[896]{0}, f32[896]{0}, f32[896]{0}, f32[896]{0}, f32[224]{0}, /*index=5*/f32[224]{0}, f32[448]{0}, f32[448]{0}, f32[896]{0}, f32[896]{0}, /*index=10*/f32[224]{0}, f32[224]{0}, f32[448]{0}, f32[448]{0}, f32[896]{0}, /*index=15*/f32[896]{0}, f32[448]{0}, f32[448]{0}, f32[896]{0}, f32[896]{0}, /*index=20*/f32[1792]{0}, f32[1792]{0}, f32[1792]{0}, f32[1792]{0}) %fusion.311), index=6, metadata={op_name="parallelize(train_step_func_pipeshard_parallel_mesh_0)/jit(main)/div"}
  %get-tuple-element.404 = f32[448]{0} get-tuple-element((f32[896]{0}, f32[896]{0}, f32[896]{0}, f32[896]{0}, f32[224]{0}, /*index=5*/f32[224]{0}, f32[448]{0}, f32[448]{0}, f32[896]{0}, f32[896]{0}, /*index=10*/f32[224]{0}, f32[224]{0}, f32[448]{0}, f32[448]{0}, f32[896]{0}, /*index=15*/f32[896]{0}, f32[448]{0}, f32[448]{0}, f32[896]{0}, f32[896]{0}, /*index=20*/f32[1792]{0}, f32[1792]{0}, f32[1792]{0}, f32[1792]{0}) %fusion.311), index=7, metadata={op_name="parallelize(train_step_func_pipeshard_parallel_mesh_0)/jit(main)/div"}
  %get-tuple-element.405 = f32[896]{0} get-tuple-element((f32[896]{0}, f32[896]{0}, f32[896]{0}, f32[896]{0}, f32[224]{0}, /*index=5*/f32[224]{0}, f32[448]{0}, f32[448]{0}, f32[896]{0}, f32[896]{0}, /*index=10*/f32[224]{0}, f32[224]{0}, f32[448]{0}, f32[448]{0}, f32[896]{0}, /*index=15*/f32[896]{0}, f32[448]{0}, f32[448]{0}, f32[896]{0}, f32[896]{0}, /*index=20*/f32[1792]{0}, f32[1792]{0}, f32[1792]{0}, f32[1792]{0}) %fusion.311), index=8, metadata={op_name="parallelize(train_step_func_pipeshard_parallel_mesh_0)/jit(main)/div"}
  %get-tuple-element.406 = f32[896]{0} get-tuple-element((f32[896]{0}, f32[896]{0}, f32[896]{0}, f32[896]{0}, f32[224]{0}, /*index=5*/f32[224]{0}, f32[448]{0}, f32[448]{0}, f32[896]{0}, f32[896]{0}, /*index=10*/f32[224]{0}, f32[224]{0}, f32[448]{0}, f32[448]{0}, f32[896]{0}, /*index=15*/f32[896]{0}, f32[448]{0}, f32[448]{0}, f32[896]{0}, f32[896]{0}, /*index=20*/f32[1792]{0}, f32[1792]{0}, f32[1792]{0}, f32[1792]{0}) %fusion.311), index=9, metadata={op_name="parallelize(train_step_func_pipeshard_parallel_mesh_0)/jit(main)/div"}
  %get-tuple-element.407 = f32[224]{0} get-tuple-element((f32[896]{0}, f32[448]{0}, f32[896]{0}, f32[896]{0}, f32[1792]{0}, /*index=5*/f32[1792]{0}, f32[448]{0}, f32[448]{0}, f32[896]{0}, f32[896]{0}, /*index=10*/f32[1792]{0}, f32[1792]{0}, f32[448]{0}, f32[448]{0}, f32[448]{0}, /*index=15*/f32[896]{0}, f32[1792]{0}, f32[1792]{0}, f32[896]{0}, f32[896]{0}, /*index=20*/f32[1792]{0}, f32[1792]{0}, f32[3584]{0}, f32[3584]{0}, f32[3584]{0}, /*index=25*/f32[3584]{0}, f32[224]{0}, f32[224]{0}, f32[224]{0}, f32[224]{0}, /*index=30*/f32[448]{0}, f32[448]{0}) %fusion.310), index=28, metadata={op_name="parallelize(train_step_func_pipeshard_parallel_mesh_0)/jit(main)/div"}
  %get-tuple-element.408 = f32[224]{0} get-tuple-element((f32[896]{0}, f32[896]{0}, f32[896]{0}, f32[896]{0}, f32[224]{0}, /*index=5*/f32[224]{0}, f32[448]{0}, f32[448]{0}, f32[896]{0}, f32[896]{0}, /*index=10*/f32[224]{0}, f32[224]{0}, f32[448]{0}, f32[448]{0}, f32[896]{0}, /*index=15*/f32[896]{0}, f32[448]{0}, f32[448]{0}, f32[896]{0}, f32[896]{0}, /*index=20*/f32[1792]{0}, f32[1792]{0}, f32[1792]{0}, f32[1792]{0}) %fusion.311), index=11, metadata={op_name="parallelize(train_step_func_pipeshard_parallel_mesh_0)/jit(main)/div"}
  %get-tuple-element.409 = f32[448]{0} get-tuple-element((f32[896]{0}, f32[896]{0}, f32[896]{0}, f32[896]{0}, f32[224]{0}, /*index=5*/f32[224]{0}, f32[448]{0}, f32[448]{0}, f32[896]{0}, f32[896]{0}, /*index=10*/f32[224]{0}, f32[224]{0}, f32[448]{0}, f32[448]{0}, f32[896]{0}, /*index=15*/f32[896]{0}, f32[448]{0}, f32[448]{0}, f32[896]{0}, f32[896]{0}, /*index=20*/f32[1792]{0}, f32[1792]{0}, f32[1792]{0}, f32[1792]{0}) %fusion.311), index=12, metadata={op_name="parallelize(train_step_func_pipeshard_parallel_mesh_0)/jit(main)/div"}
  %get-tuple-element.410 = f32[448]{0} get-tuple-element((f32[896]{0}, f32[896]{0}, f32[896]{0}, f32[896]{0}, f32[224]{0}, /*index=5*/f32[224]{0}, f32[448]{0}, f32[448]{0}, f32[896]{0}, f32[896]{0}, /*index=10*/f32[224]{0}, f32[224]{0}, f32[448]{0}, f32[448]{0}, f32[896]{0}, /*index=15*/f32[896]{0}, f32[448]{0}, f32[448]{0}, f32[896]{0}, f32[896]{0}, /*index=20*/f32[1792]{0}, f32[1792]{0}, f32[1792]{0}, f32[1792]{0}) %fusion.311), index=13, metadata={op_name="parallelize(train_step_func_pipeshard_parallel_mesh_0)/jit(main)/div"}
  %get-tuple-element.411 = f32[896]{0} get-tuple-element((f32[896]{0}, f32[896]{0}, f32[896]{0}, f32[896]{0}, f32[224]{0}, /*index=5*/f32[224]{0}, f32[448]{0}, f32[448]{0}, f32[896]{0}, f32[896]{0}, /*index=10*/f32[224]{0}, f32[224]{0}, f32[448]{0}, f32[448]{0}, f32[896]{0}, /*index=15*/f32[896]{0}, f32[448]{0}, f32[448]{0}, f32[896]{0}, f32[896]{0}, /*index=20*/f32[1792]{0}, f32[1792]{0}, f32[1792]{0}, f32[1792]{0}) %fusion.311), index=14, metadata={op_name="parallelize(train_step_func_pipeshard_parallel_mesh_0)/jit(main)/div"}
  %get-tuple-element.412 = f32[896]{0} get-tuple-element((f32[896]{0}, f32[896]{0}, f32[896]{0}, f32[896]{0}, f32[224]{0}, /*index=5*/f32[224]{0}, f32[448]{0}, f32[448]{0}, f32[896]{0}, f32[896]{0}, /*index=10*/f32[224]{0}, f32[224]{0}, f32[448]{0}, f32[448]{0}, f32[896]{0}, /*index=15*/f32[896]{0}, f32[448]{0}, f32[448]{0}, f32[896]{0}, f32[896]{0}, /*index=20*/f32[1792]{0}, f32[1792]{0}, f32[1792]{0}, f32[1792]{0}) %fusion.311), index=15, metadata={op_name="parallelize(train_step_func_pipeshard_parallel_mesh_0)/jit(main)/div"}
  %get-tuple-element.413 = f32[448]{0} get-tuple-element((f32[896]{0}, f32[896]{0}, f32[896]{0}, f32[896]{0}, f32[224]{0}, /*index=5*/f32[224]{0}, f32[448]{0}, f32[448]{0}, f32[896]{0}, f32[896]{0}, /*index=10*/f32[224]{0}, f32[224]{0}, f32[448]{0}, f32[448]{0}, f32[896]{0}, /*index=15*/f32[896]{0}, f32[448]{0}, f32[448]{0}, f32[896]{0}, f32[896]{0}, /*index=20*/f32[1792]{0}, f32[1792]{0}, f32[1792]{0}, f32[1792]{0}) %fusion.311), index=16, metadata={op_name="parallelize(train_step_func_pipeshard_parallel_mesh_0)/jit(main)/div"}
  %get-tuple-element.414 = f32[448]{0} get-tuple-element((f32[896]{0}, f32[896]{0}, f32[896]{0}, f32[896]{0}, f32[224]{0}, /*index=5*/f32[224]{0}, f32[448]{0}, f32[448]{0}, f32[896]{0}, f32[896]{0}, /*index=10*/f32[224]{0}, f32[224]{0}, f32[448]{0}, f32[448]{0}, f32[896]{0}, /*index=15*/f32[896]{0}, f32[448]{0}, f32[448]{0}, f32[896]{0}, f32[896]{0}, /*index=20*/f32[1792]{0}, f32[1792]{0}, f32[1792]{0}, f32[1792]{0}) %fusion.311), index=17, metadata={op_name="parallelize(train_step_func_pipeshard_parallel_mesh_0)/jit(main)/div"}
  %get-tuple-element.415 = f32[896]{0} get-tuple-element((f32[896]{0}, f32[896]{0}, f32[896]{0}, f32[896]{0}, f32[224]{0}, /*index=5*/f32[224]{0}, f32[448]{0}, f32[448]{0}, f32[896]{0}, f32[896]{0}, /*index=10*/f32[224]{0}, f32[224]{0}, f32[448]{0}, f32[448]{0}, f32[896]{0}, /*index=15*/f32[896]{0}, f32[448]{0}, f32[448]{0}, f32[896]{0}, f32[896]{0}, /*index=20*/f32[1792]{0}, f32[1792]{0}, f32[1792]{0}, f32[1792]{0}) %fusion.311), index=18, metadata={op_name="parallelize(train_step_func_pipeshard_parallel_mesh_0)/jit(main)/div"}
  %get-tuple-element.416 = f32[896]{0} get-tuple-element((f32[896]{0}, f32[896]{0}, f32[896]{0}, f32[896]{0}, f32[224]{0}, /*index=5*/f32[224]{0}, f32[448]{0}, f32[448]{0}, f32[896]{0}, f32[896]{0}, /*index=10*/f32[224]{0}, f32[224]{0}, f32[448]{0}, f32[448]{0}, f32[896]{0}, /*index=15*/f32[896]{0}, f32[448]{0}, f32[448]{0}, f32[896]{0}, f32[896]{0}, /*index=20*/f32[1792]{0}, f32[1792]{0}, f32[1792]{0}, f32[1792]{0}) %fusion.311), index=19, metadata={op_name="parallelize(train_step_func_pipeshard_parallel_mesh_0)/jit(main)/div"}
  %get-tuple-element.417 = f32[1792]{0} get-tuple-element((f32[896]{0}, f32[896]{0}, f32[896]{0}, f32[896]{0}, f32[224]{0}, /*index=5*/f32[224]{0}, f32[448]{0}, f32[448]{0}, f32[896]{0}, f32[896]{0}, /*index=10*/f32[224]{0}, f32[224]{0}, f32[448]{0}, f32[448]{0}, f32[896]{0}, /*index=15*/f32[896]{0}, f32[448]{0}, f32[448]{0}, f32[896]{0}, f32[896]{0}, /*index=20*/f32[1792]{0}, f32[1792]{0}, f32[1792]{0}, f32[1792]{0}) %fusion.311), index=20, metadata={op_name="parallelize(train_step_func_pipeshard_parallel_mesh_0)/jit(main)/div"}
  %get-tuple-element.418 = f32[1792]{0} get-tuple-element((f32[896]{0}, f32[896]{0}, f32[896]{0}, f32[896]{0}, f32[224]{0}, /*index=5*/f32[224]{0}, f32[448]{0}, f32[448]{0}, f32[896]{0}, f32[896]{0}, /*index=10*/f32[224]{0}, f32[224]{0}, f32[448]{0}, f32[448]{0}, f32[896]{0}, /*index=15*/f32[896]{0}, f32[448]{0}, f32[448]{0}, f32[896]{0}, f32[896]{0}, /*index=20*/f32[1792]{0}, f32[1792]{0}, f32[1792]{0}, f32[1792]{0}) %fusion.311), index=21, metadata={op_name="parallelize(train_step_func_pipeshard_parallel_mesh_0)/jit(main)/div"}
  %get-tuple-element.419 = f32[1792]{0} get-tuple-element((f32[896]{0}, f32[896]{0}, f32[896]{0}, f32[896]{0}, f32[224]{0}, /*index=5*/f32[224]{0}, f32[448]{0}, f32[448]{0}, f32[896]{0}, f32[896]{0}, /*index=10*/f32[224]{0}, f32[224]{0}, f32[448]{0}, f32[448]{0}, f32[896]{0}, /*index=15*/f32[896]{0}, f32[448]{0}, f32[448]{0}, f32[896]{0}, f32[896]{0}, /*index=20*/f32[1792]{0}, f32[1792]{0}, f32[1792]{0}, f32[1792]{0}) %fusion.311), index=22, metadata={op_name="parallelize(train_step_func_pipeshard_parallel_mesh_0)/jit(main)/div"}
  %get-tuple-element.420 = f32[1792]{0} get-tuple-element((f32[896]{0}, f32[896]{0}, f32[896]{0}, f32[896]{0}, f32[224]{0}, /*index=5*/f32[224]{0}, f32[448]{0}, f32[448]{0}, f32[896]{0}, f32[896]{0}, /*index=10*/f32[224]{0}, f32[224]{0}, f32[448]{0}, f32[448]{0}, f32[896]{0}, /*index=15*/f32[896]{0}, f32[448]{0}, f32[448]{0}, f32[896]{0}, f32[896]{0}, /*index=20*/f32[1792]{0}, f32[1792]{0}, f32[1792]{0}, f32[1792]{0}) %fusion.311), index=23, metadata={op_name="parallelize(train_step_func_pipeshard_parallel_mesh_0)/jit(main)/div"}
  %get-tuple-element.421 = f32[448]{0} get-tuple-element((f32[896]{0}, f32[448]{0}, f32[896]{0}, f32[896]{0}, f32[1792]{0}, /*index=5*/f32[1792]{0}, f32[448]{0}, f32[448]{0}, f32[896]{0}, f32[896]{0}, /*index=10*/f32[1792]{0}, f32[1792]{0}, f32[448]{0}, f32[448]{0}, f32[448]{0}, /*index=15*/f32[896]{0}, f32[1792]{0}, f32[1792]{0}, f32[896]{0}, f32[896]{0}, /*index=20*/f32[1792]{0}, f32[1792]{0}, f32[3584]{0}, f32[3584]{0}, f32[3584]{0}, /*index=25*/f32[3584]{0}, f32[224]{0}, f32[224]{0}, f32[224]{0}, f32[224]{0}, /*index=30*/f32[448]{0}, f32[448]{0}) %fusion.310), index=14, metadata={op_name="parallelize(train_step_func_pipeshard_parallel_mesh_0)/jit(main)/div"}
  %get-tuple-element.422 = f32[448]{0} get-tuple-element((f32[896]{0}, f32[448]{0}, f32[896]{0}, f32[896]{0}, f32[1792]{0}, /*index=5*/f32[1792]{0}, f32[448]{0}, f32[448]{0}, f32[896]{0}, f32[896]{0}, /*index=10*/f32[1792]{0}, f32[1792]{0}, f32[448]{0}, f32[448]{0}, f32[448]{0}, /*index=15*/f32[896]{0}, f32[1792]{0}, f32[1792]{0}, f32[896]{0}, f32[896]{0}, /*index=20*/f32[1792]{0}, f32[1792]{0}, f32[3584]{0}, f32[3584]{0}, f32[3584]{0}, /*index=25*/f32[3584]{0}, f32[224]{0}, f32[224]{0}, f32[224]{0}, f32[224]{0}, /*index=30*/f32[448]{0}, f32[448]{0}) %fusion.310), index=1, metadata={op_name="parallelize(train_step_func_pipeshard_parallel_mesh_0)/jit(main)/div"}
  %get-tuple-element.423 = f32[896]{0} get-tuple-element((f32[896]{0}, f32[448]{0}, f32[896]{0}, f32[896]{0}, f32[1792]{0}, /*index=5*/f32[1792]{0}, f32[448]{0}, f32[448]{0}, f32[896]{0}, f32[896]{0}, /*index=10*/f32[1792]{0}, f32[1792]{0}, f32[448]{0}, f32[448]{0}, f32[448]{0}, /*index=15*/f32[896]{0}, f32[1792]{0}, f32[1792]{0}, f32[896]{0}, f32[896]{0}, /*index=20*/f32[1792]{0}, f32[1792]{0}, f32[3584]{0}, f32[3584]{0}, f32[3584]{0}, /*index=25*/f32[3584]{0}, f32[224]{0}, f32[224]{0}, f32[224]{0}, f32[224]{0}, /*index=30*/f32[448]{0}, f32[448]{0}) %fusion.310), index=2, metadata={op_name="parallelize(train_step_func_pipeshard_parallel_mesh_0)/jit(main)/div"}
  %get-tuple-element.424 = f32[896]{0} get-tuple-element((f32[896]{0}, f32[448]{0}, f32[896]{0}, f32[896]{0}, f32[1792]{0}, /*index=5*/f32[1792]{0}, f32[448]{0}, f32[448]{0}, f32[896]{0}, f32[896]{0}, /*index=10*/f32[1792]{0}, f32[1792]{0}, f32[448]{0}, f32[448]{0}, f32[448]{0}, /*index=15*/f32[896]{0}, f32[1792]{0}, f32[1792]{0}, f32[896]{0}, f32[896]{0}, /*index=20*/f32[1792]{0}, f32[1792]{0}, f32[3584]{0}, f32[3584]{0}, f32[3584]{0}, /*index=25*/f32[3584]{0}, f32[224]{0}, f32[224]{0}, f32[224]{0}, f32[224]{0}, /*index=30*/f32[448]{0}, f32[448]{0}) %fusion.310), index=3, metadata={op_name="parallelize(train_step_func_pipeshard_parallel_mesh_0)/jit(main)/div"}
  %get-tuple-element.425 = f32[1792]{0} get-tuple-element((f32[896]{0}, f32[448]{0}, f32[896]{0}, f32[896]{0}, f32[1792]{0}, /*index=5*/f32[1792]{0}, f32[448]{0}, f32[448]{0}, f32[896]{0}, f32[896]{0}, /*index=10*/f32[1792]{0}, f32[1792]{0}, f32[448]{0}, f32[448]{0}, f32[448]{0}, /*index=15*/f32[896]{0}, f32[1792]{0}, f32[1792]{0}, f32[896]{0}, f32[896]{0}, /*index=20*/f32[1792]{0}, f32[1792]{0}, f32[3584]{0}, f32[3584]{0}, f32[3584]{0}, /*index=25*/f32[3584]{0}, f32[224]{0}, f32[224]{0}, f32[224]{0}, f32[224]{0}, /*index=30*/f32[448]{0}, f32[448]{0}) %fusion.310), index=4, metadata={op_name="parallelize(train_step_func_pipeshard_parallel_mesh_0)/jit(main)/div"}
  %get-tuple-element.426 = f32[1792]{0} get-tuple-element((f32[896]{0}, f32[448]{0}, f32[896]{0}, f32[896]{0}, f32[1792]{0}, /*index=5*/f32[1792]{0}, f32[448]{0}, f32[448]{0}, f32[896]{0}, f32[896]{0}, /*index=10*/f32[1792]{0}, f32[1792]{0}, f32[448]{0}, f32[448]{0}, f32[448]{0}, /*index=15*/f32[896]{0}, f32[1792]{0}, f32[1792]{0}, f32[896]{0}, f32[896]{0}, /*index=20*/f32[1792]{0}, f32[1792]{0}, f32[3584]{0}, f32[3584]{0}, f32[3584]{0}, /*index=25*/f32[3584]{0}, f32[224]{0}, f32[224]{0}, f32[224]{0}, f32[224]{0}, /*index=30*/f32[448]{0}, f32[448]{0}) %fusion.310), index=5, metadata={op_name="parallelize(train_step_func_pipeshard_parallel_mesh_0)/jit(main)/div"}
  %get-tuple-element.427 = f32[448]{0} get-tuple-element((f32[896]{0}, f32[448]{0}, f32[896]{0}, f32[896]{0}, f32[1792]{0}, /*index=5*/f32[1792]{0}, f32[448]{0}, f32[448]{0}, f32[896]{0}, f32[896]{0}, /*index=10*/f32[1792]{0}, f32[1792]{0}, f32[448]{0}, f32[448]{0}, f32[448]{0}, /*index=15*/f32[896]{0}, f32[1792]{0}, f32[1792]{0}, f32[896]{0}, f32[896]{0}, /*index=20*/f32[1792]{0}, f32[1792]{0}, f32[3584]{0}, f32[3584]{0}, f32[3584]{0}, /*index=25*/f32[3584]{0}, f32[224]{0}, f32[224]{0}, f32[224]{0}, f32[224]{0}, /*index=30*/f32[448]{0}, f32[448]{0}) %fusion.310), index=6, metadata={op_name="parallelize(train_step_func_pipeshard_parallel_mesh_0)/jit(main)/div"}
  %get-tuple-element.428 = f32[448]{0} get-tuple-element((f32[896]{0}, f32[448]{0}, f32[896]{0}, f32[896]{0}, f32[1792]{0}, /*index=5*/f32[1792]{0}, f32[448]{0}, f32[448]{0}, f32[896]{0}, f32[896]{0}, /*index=10*/f32[1792]{0}, f32[1792]{0}, f32[448]{0}, f32[448]{0}, f32[448]{0}, /*index=15*/f32[896]{0}, f32[1792]{0}, f32[1792]{0}, f32[896]{0}, f32[896]{0}, /*index=20*/f32[1792]{0}, f32[1792]{0}, f32[3584]{0}, f32[3584]{0}, f32[3584]{0}, /*index=25*/f32[3584]{0}, f32[224]{0}, f32[224]{0}, f32[224]{0}, f32[224]{0}, /*index=30*/f32[448]{0}, f32[448]{0}) %fusion.310), index=7, metadata={op_name="parallelize(train_step_func_pipeshard_parallel_mesh_0)/jit(main)/div"}
  %get-tuple-element.429 = f32[896]{0} get-tuple-element((f32[896]{0}, f32[448]{0}, f32[896]{0}, f32[896]{0}, f32[1792]{0}, /*index=5*/f32[1792]{0}, f32[448]{0}, f32[448]{0}, f32[896]{0}, f32[896]{0}, /*index=10*/f32[1792]{0}, f32[1792]{0}, f32[448]{0}, f32[448]{0}, f32[448]{0}, /*index=15*/f32[896]{0}, f32[1792]{0}, f32[1792]{0}, f32[896]{0}, f32[896]{0}, /*index=20*/f32[1792]{0}, f32[1792]{0}, f32[3584]{0}, f32[3584]{0}, f32[3584]{0}, /*index=25*/f32[3584]{0}, f32[224]{0}, f32[224]{0}, f32[224]{0}, f32[224]{0}, /*index=30*/f32[448]{0}, f32[448]{0}) %fusion.310), index=8, metadata={op_name="parallelize(train_step_func_pipeshard_parallel_mesh_0)/jit(main)/div"}
  %get-tuple-element.430 = f32[896]{0} get-tuple-element((f32[896]{0}, f32[448]{0}, f32[896]{0}, f32[896]{0}, f32[1792]{0}, /*index=5*/f32[1792]{0}, f32[448]{0}, f32[448]{0}, f32[896]{0}, f32[896]{0}, /*index=10*/f32[1792]{0}, f32[1792]{0}, f32[448]{0}, f32[448]{0}, f32[448]{0}, /*index=15*/f32[896]{0}, f32[1792]{0}, f32[1792]{0}, f32[896]{0}, f32[896]{0}, /*index=20*/f32[1792]{0}, f32[1792]{0}, f32[3584]{0}, f32[3584]{0}, f32[3584]{0}, /*index=25*/f32[3584]{0}, f32[224]{0}, f32[224]{0}, f32[224]{0}, f32[224]{0}, /*index=30*/f32[448]{0}, f32[448]{0}) %fusion.310), index=9, metadata={op_name="parallelize(train_step_func_pipeshard_parallel_mesh_0)/jit(main)/div"}
  %get-tuple-element.431 = f32[1792]{0} get-tuple-element((f32[896]{0}, f32[448]{0}, f32[896]{0}, f32[896]{0}, f32[1792]{0}, /*index=5*/f32[1792]{0}, f32[448]{0}, f32[448]{0}, f32[896]{0}, f32[896]{0}, /*index=10*/f32[1792]{0}, f32[1792]{0}, f32[448]{0}, f32[448]{0}, f32[448]{0}, /*index=15*/f32[896]{0}, f32[1792]{0}, f32[1792]{0}, f32[896]{0}, f32[896]{0}, /*index=20*/f32[1792]{0}, f32[1792]{0}, f32[3584]{0}, f32[3584]{0}, f32[3584]{0}, /*index=25*/f32[3584]{0}, f32[224]{0}, f32[224]{0}, f32[224]{0}, f32[224]{0}, /*index=30*/f32[448]{0}, f32[448]{0}) %fusion.310), index=10, metadata={op_name="parallelize(train_step_func_pipeshard_parallel_mesh_0)/jit(main)/div"}
  %get-tuple-element.432 = f32[1792]{0} get-tuple-element((f32[896]{0}, f32[448]{0}, f32[896]{0}, f32[896]{0}, f32[1792]{0}, /*index=5*/f32[1792]{0}, f32[448]{0}, f32[448]{0}, f32[896]{0}, f32[896]{0}, /*index=10*/f32[1792]{0}, f32[1792]{0}, f32[448]{0}, f32[448]{0}, f32[448]{0}, /*index=15*/f32[896]{0}, f32[1792]{0}, f32[1792]{0}, f32[896]{0}, f32[896]{0}, /*index=20*/f32[1792]{0}, f32[1792]{0}, f32[3584]{0}, f32[3584]{0}, f32[3584]{0}, /*index=25*/f32[3584]{0}, f32[224]{0}, f32[224]{0}, f32[224]{0}, f32[224]{0}, /*index=30*/f32[448]{0}, f32[448]{0}) %fusion.310), index=11, metadata={op_name="parallelize(train_step_func_pipeshard_parallel_mesh_0)/jit(main)/div"}
  %get-tuple-element.433 = f32[448]{0} get-tuple-element((f32[896]{0}, f32[448]{0}, f32[896]{0}, f32[896]{0}, f32[1792]{0}, /*index=5*/f32[1792]{0}, f32[448]{0}, f32[448]{0}, f32[896]{0}, f32[896]{0}, /*index=10*/f32[1792]{0}, f32[1792]{0}, f32[448]{0}, f32[448]{0}, f32[448]{0}, /*index=15*/f32[896]{0}, f32[1792]{0}, f32[1792]{0}, f32[896]{0}, f32[896]{0}, /*index=20*/f32[1792]{0}, f32[1792]{0}, f32[3584]{0}, f32[3584]{0}, f32[3584]{0}, /*index=25*/f32[3584]{0}, f32[224]{0}, f32[224]{0}, f32[224]{0}, f32[224]{0}, /*index=30*/f32[448]{0}, f32[448]{0}) %fusion.310), index=12, metadata={op_name="parallelize(train_step_func_pipeshard_parallel_mesh_0)/jit(main)/div"}
  %get-tuple-element.434 = f32[448]{0} get-tuple-element((f32[896]{0}, f32[448]{0}, f32[896]{0}, f32[896]{0}, f32[1792]{0}, /*index=5*/f32[1792]{0}, f32[448]{0}, f32[448]{0}, f32[896]{0}, f32[896]{0}, /*index=10*/f32[1792]{0}, f32[1792]{0}, f32[448]{0}, f32[448]{0}, f32[448]{0}, /*index=15*/f32[896]{0}, f32[1792]{0}, f32[1792]{0}, f32[896]{0}, f32[896]{0}, /*index=20*/f32[1792]{0}, f32[1792]{0}, f32[3584]{0}, f32[3584]{0}, f32[3584]{0}, /*index=25*/f32[3584]{0}, f32[224]{0}, f32[224]{0}, f32[224]{0}, f32[224]{0}, /*index=30*/f32[448]{0}, f32[448]{0}) %fusion.310), index=13, metadata={op_name="parallelize(train_step_func_pipeshard_parallel_mesh_0)/jit(main)/div"}
  %get-tuple-element.435 = f32[896]{0} get-tuple-element((f32[896]{0}, f32[448]{0}, f32[896]{0}, f32[896]{0}, f32[1792]{0}, /*index=5*/f32[1792]{0}, f32[448]{0}, f32[448]{0}, f32[896]{0}, f32[896]{0}, /*index=10*/f32[1792]{0}, f32[1792]{0}, f32[448]{0}, f32[448]{0}, f32[448]{0}, /*index=15*/f32[896]{0}, f32[1792]{0}, f32[1792]{0}, f32[896]{0}, f32[896]{0}, /*index=20*/f32[1792]{0}, f32[1792]{0}, f32[3584]{0}, f32[3584]{0}, f32[3584]{0}, /*index=25*/f32[3584]{0}, f32[224]{0}, f32[224]{0}, f32[224]{0}, f32[224]{0}, /*index=30*/f32[448]{0}, f32[448]{0}) %fusion.310), index=0, metadata={op_name="parallelize(train_step_func_pipeshard_parallel_mesh_0)/jit(main)/div"}
  %get-tuple-element.436 = f32[896]{0} get-tuple-element((f32[896]{0}, f32[448]{0}, f32[896]{0}, f32[896]{0}, f32[1792]{0}, /*index=5*/f32[1792]{0}, f32[448]{0}, f32[448]{0}, f32[896]{0}, f32[896]{0}, /*index=10*/f32[1792]{0}, f32[1792]{0}, f32[448]{0}, f32[448]{0}, f32[448]{0}, /*index=15*/f32[896]{0}, f32[1792]{0}, f32[1792]{0}, f32[896]{0}, f32[896]{0}, /*index=20*/f32[1792]{0}, f32[1792]{0}, f32[3584]{0}, f32[3584]{0}, f32[3584]{0}, /*index=25*/f32[3584]{0}, f32[224]{0}, f32[224]{0}, f32[224]{0}, f32[224]{0}, /*index=30*/f32[448]{0}, f32[448]{0}) %fusion.310), index=15, metadata={op_name="parallelize(train_step_func_pipeshard_parallel_mesh_0)/jit(main)/div"}
  %get-tuple-element.437 = f32[1792]{0} get-tuple-element((f32[896]{0}, f32[448]{0}, f32[896]{0}, f32[896]{0}, f32[1792]{0}, /*index=5*/f32[1792]{0}, f32[448]{0}, f32[448]{0}, f32[896]{0}, f32[896]{0}, /*index=10*/f32[1792]{0}, f32[1792]{0}, f32[448]{0}, f32[448]{0}, f32[448]{0}, /*index=15*/f32[896]{0}, f32[1792]{0}, f32[1792]{0}, f32[896]{0}, f32[896]{0}, /*index=20*/f32[1792]{0}, f32[1792]{0}, f32[3584]{0}, f32[3584]{0}, f32[3584]{0}, /*index=25*/f32[3584]{0}, f32[224]{0}, f32[224]{0}, f32[224]{0}, f32[224]{0}, /*index=30*/f32[448]{0}, f32[448]{0}) %fusion.310), index=16, metadata={op_name="parallelize(train_step_func_pipeshard_parallel_mesh_0)/jit(main)/div"}
  %get-tuple-element.438 = f32[1792]{0} get-tuple-element((f32[896]{0}, f32[448]{0}, f32[896]{0}, f32[896]{0}, f32[1792]{0}, /*index=5*/f32[1792]{0}, f32[448]{0}, f32[448]{0}, f32[896]{0}, f32[896]{0}, /*index=10*/f32[1792]{0}, f32[1792]{0}, f32[448]{0}, f32[448]{0}, f32[448]{0}, /*index=15*/f32[896]{0}, f32[1792]{0}, f32[1792]{0}, f32[896]{0}, f32[896]{0}, /*index=20*/f32[1792]{0}, f32[1792]{0}, f32[3584]{0}, f32[3584]{0}, f32[3584]{0}, /*index=25*/f32[3584]{0}, f32[224]{0}, f32[224]{0}, f32[224]{0}, f32[224]{0}, /*index=30*/f32[448]{0}, f32[448]{0}) %fusion.310), index=17, metadata={op_name="parallelize(train_step_func_pipeshard_parallel_mesh_0)/jit(main)/div"}
  %get-tuple-element.439 = f32[896]{0} get-tuple-element((f32[896]{0}, f32[448]{0}, f32[896]{0}, f32[896]{0}, f32[1792]{0}, /*index=5*/f32[1792]{0}, f32[448]{0}, f32[448]{0}, f32[896]{0}, f32[896]{0}, /*index=10*/f32[1792]{0}, f32[1792]{0}, f32[448]{0}, f32[448]{0}, f32[448]{0}, /*index=15*/f32[896]{0}, f32[1792]{0}, f32[1792]{0}, f32[896]{0}, f32[896]{0}, /*index=20*/f32[1792]{0}, f32[1792]{0}, f32[3584]{0}, f32[3584]{0}, f32[3584]{0}, /*index=25*/f32[3584]{0}, f32[224]{0}, f32[224]{0}, f32[224]{0}, f32[224]{0}, /*index=30*/f32[448]{0}, f32[448]{0}) %fusion.310), index=18, metadata={op_name="parallelize(train_step_func_pipeshard_parallel_mesh_0)/jit(main)/div"}
  %get-tuple-element.440 = f32[896]{0} get-tuple-element((f32[896]{0}, f32[448]{0}, f32[896]{0}, f32[896]{0}, f32[1792]{0}, /*index=5*/f32[1792]{0}, f32[448]{0}, f32[448]{0}, f32[896]{0}, f32[896]{0}, /*index=10*/f32[1792]{0}, f32[1792]{0}, f32[448]{0}, f32[448]{0}, f32[448]{0}, /*index=15*/f32[896]{0}, f32[1792]{0}, f32[1792]{0}, f32[896]{0}, f32[896]{0}, /*index=20*/f32[1792]{0}, f32[1792]{0}, f32[3584]{0}, f32[3584]{0}, f32[3584]{0}, /*index=25*/f32[3584]{0}, f32[224]{0}, f32[224]{0}, f32[224]{0}, f32[224]{0}, /*index=30*/f32[448]{0}, f32[448]{0}) %fusion.310), index=19, metadata={op_name="parallelize(train_step_func_pipeshard_parallel_mesh_0)/jit(main)/div"}
  %get-tuple-element.441 = f32[1792]{0} get-tuple-element((f32[896]{0}, f32[448]{0}, f32[896]{0}, f32[896]{0}, f32[1792]{0}, /*index=5*/f32[1792]{0}, f32[448]{0}, f32[448]{0}, f32[896]{0}, f32[896]{0}, /*index=10*/f32[1792]{0}, f32[1792]{0}, f32[448]{0}, f32[448]{0}, f32[448]{0}, /*index=15*/f32[896]{0}, f32[1792]{0}, f32[1792]{0}, f32[896]{0}, f32[896]{0}, /*index=20*/f32[1792]{0}, f32[1792]{0}, f32[3584]{0}, f32[3584]{0}, f32[3584]{0}, /*index=25*/f32[3584]{0}, f32[224]{0}, f32[224]{0}, f32[224]{0}, f32[224]{0}, /*index=30*/f32[448]{0}, f32[448]{0}) %fusion.310), index=20, metadata={op_name="parallelize(train_step_func_pipeshard_parallel_mesh_0)/jit(main)/div"}
  %get-tuple-element.442 = f32[1792]{0} get-tuple-element((f32[896]{0}, f32[448]{0}, f32[896]{0}, f32[896]{0}, f32[1792]{0}, /*index=5*/f32[1792]{0}, f32[448]{0}, f32[448]{0}, f32[896]{0}, f32[896]{0}, /*index=10*/f32[1792]{0}, f32[1792]{0}, f32[448]{0}, f32[448]{0}, f32[448]{0}, /*index=15*/f32[896]{0}, f32[1792]{0}, f32[1792]{0}, f32[896]{0}, f32[896]{0}, /*index=20*/f32[1792]{0}, f32[1792]{0}, f32[3584]{0}, f32[3584]{0}, f32[3584]{0}, /*index=25*/f32[3584]{0}, f32[224]{0}, f32[224]{0}, f32[224]{0}, f32[224]{0}, /*index=30*/f32[448]{0}, f32[448]{0}) %fusion.310), index=21, metadata={op_name="parallelize(train_step_func_pipeshard_parallel_mesh_0)/jit(main)/div"}
  %get-tuple-element.443 = f32[3584]{0} get-tuple-element((f32[896]{0}, f32[448]{0}, f32[896]{0}, f32[896]{0}, f32[1792]{0}, /*index=5*/f32[1792]{0}, f32[448]{0}, f32[448]{0}, f32[896]{0}, f32[896]{0}, /*index=10*/f32[1792]{0}, f32[1792]{0}, f32[448]{0}, f32[448]{0}, f32[448]{0}, /*index=15*/f32[896]{0}, f32[1792]{0}, f32[1792]{0}, f32[896]{0}, f32[896]{0}, /*index=20*/f32[1792]{0}, f32[1792]{0}, f32[3584]{0}, f32[3584]{0}, f32[3584]{0}, /*index=25*/f32[3584]{0}, f32[224]{0}, f32[224]{0}, f32[224]{0}, f32[224]{0}, /*index=30*/f32[448]{0}, f32[448]{0}) %fusion.310), index=22, metadata={op_name="parallelize(train_step_func_pipeshard_parallel_mesh_0)/jit(main)/div"}
  %get-tuple-element.444 = f32[3584]{0} get-tuple-element((f32[896]{0}, f32[448]{0}, f32[896]{0}, f32[896]{0}, f32[1792]{0}, /*index=5*/f32[1792]{0}, f32[448]{0}, f32[448]{0}, f32[896]{0}, f32[896]{0}, /*index=10*/f32[1792]{0}, f32[1792]{0}, f32[448]{0}, f32[448]{0}, f32[448]{0}, /*index=15*/f32[896]{0}, f32[1792]{0}, f32[1792]{0}, f32[896]{0}, f32[896]{0}, /*index=20*/f32[1792]{0}, f32[1792]{0}, f32[3584]{0}, f32[3584]{0}, f32[3584]{0}, /*index=25*/f32[3584]{0}, f32[224]{0}, f32[224]{0}, f32[224]{0}, f32[224]{0}, /*index=30*/f32[448]{0}, f32[448]{0}) %fusion.310), index=23, metadata={op_name="parallelize(train_step_func_pipeshard_parallel_mesh_0)/jit(main)/div"}
  %get-tuple-element.445 = f32[3584]{0} get-tuple-element((f32[896]{0}, f32[448]{0}, f32[896]{0}, f32[896]{0}, f32[1792]{0}, /*index=5*/f32[1792]{0}, f32[448]{0}, f32[448]{0}, f32[896]{0}, f32[896]{0}, /*index=10*/f32[1792]{0}, f32[1792]{0}, f32[448]{0}, f32[448]{0}, f32[448]{0}, /*index=15*/f32[896]{0}, f32[1792]{0}, f32[1792]{0}, f32[896]{0}, f32[896]{0}, /*index=20*/f32[1792]{0}, f32[1792]{0}, f32[3584]{0}, f32[3584]{0}, f32[3584]{0}, /*index=25*/f32[3584]{0}, f32[224]{0}, f32[224]{0}, f32[224]{0}, f32[224]{0}, /*index=30*/f32[448]{0}, f32[448]{0}) %fusion.310), index=24, metadata={op_name="parallelize(train_step_func_pipeshard_parallel_mesh_0)/jit(main)/div"}
  %get-tuple-element.446 = f32[3584]{0} get-tuple-element((f32[896]{0}, f32[448]{0}, f32[896]{0}, f32[896]{0}, f32[1792]{0}, /*index=5*/f32[1792]{0}, f32[448]{0}, f32[448]{0}, f32[896]{0}, f32[896]{0}, /*index=10*/f32[1792]{0}, f32[1792]{0}, f32[448]{0}, f32[448]{0}, f32[448]{0}, /*index=15*/f32[896]{0}, f32[1792]{0}, f32[1792]{0}, f32[896]{0}, f32[896]{0}, /*index=20*/f32[1792]{0}, f32[1792]{0}, f32[3584]{0}, f32[3584]{0}, f32[3584]{0}, /*index=25*/f32[3584]{0}, f32[224]{0}, f32[224]{0}, f32[224]{0}, f32[224]{0}, /*index=30*/f32[448]{0}, f32[448]{0}) %fusion.310), index=25, metadata={op_name="parallelize(train_step_func_pipeshard_parallel_mesh_0)/jit(main)/div"}
  %get-tuple-element.447 = f32[224]{0} get-tuple-element((f32[896]{0}, f32[448]{0}, f32[896]{0}, f32[896]{0}, f32[1792]{0}, /*index=5*/f32[1792]{0}, f32[448]{0}, f32[448]{0}, f32[896]{0}, f32[896]{0}, /*index=10*/f32[1792]{0}, f32[1792]{0}, f32[448]{0}, f32[448]{0}, f32[448]{0}, /*index=15*/f32[896]{0}, f32[1792]{0}, f32[1792]{0}, f32[896]{0}, f32[896]{0}, /*index=20*/f32[1792]{0}, f32[1792]{0}, f32[3584]{0}, f32[3584]{0}, f32[3584]{0}, /*index=25*/f32[3584]{0}, f32[224]{0}, f32[224]{0}, f32[224]{0}, f32[224]{0}, /*index=30*/f32[448]{0}, f32[448]{0}) %fusion.310), index=26, metadata={op_name="parallelize(train_step_func_pipeshard_parallel_mesh_0)/jit(main)/div"}
  %get-tuple-element.448 = f32[224]{0} get-tuple-element((f32[896]{0}, f32[448]{0}, f32[896]{0}, f32[896]{0}, f32[1792]{0}, /*index=5*/f32[1792]{0}, f32[448]{0}, f32[448]{0}, f32[896]{0}, f32[896]{0}, /*index=10*/f32[1792]{0}, f32[1792]{0}, f32[448]{0}, f32[448]{0}, f32[448]{0}, /*index=15*/f32[896]{0}, f32[1792]{0}, f32[1792]{0}, f32[896]{0}, f32[896]{0}, /*index=20*/f32[1792]{0}, f32[1792]{0}, f32[3584]{0}, f32[3584]{0}, f32[3584]{0}, /*index=25*/f32[3584]{0}, f32[224]{0}, f32[224]{0}, f32[224]{0}, f32[224]{0}, /*index=30*/f32[448]{0}, f32[448]{0}) %fusion.310), index=27, metadata={op_name="parallelize(train_step_func_pipeshard_parallel_mesh_0)/jit(main)/div"}
  ROOT %tuple.134 = (f32[224]{0}, f32[224]{0}, f32[448]{0}, f32[448]{0}, f32[896]{0}, /*index=5*/f32[896]{0}, f32[1,1,224,224]{3,2,1,0}, f32[3,3,224,448]{3,2,1,0}, f32[1,1,448,896]{3,2,1,0}, f32[1,1,224,896]{3,2,1,0}, /*index=10*/f32[896]{0}, f32[896]{0}, f32[224]{0}, f32[224]{0}, f32[448]{0}, /*index=15*/f32[448]{0}, f32[896]{0}, f32[896]{0}, f32[1,1,896,224]{3,2,1,0}, f32[3,3,224,448]{3,2,1,0}, /*index=20*/f32[1,1,448,896]{3,2,1,0}, f32[224]{0}, f32[224]{0}, f32[448]{0}, f32[448]{0}, /*index=25*/f32[896]{0}, f32[896]{0}, f32[1,1,896,224]{3,2,1,0}, f32[3,3,224,448]{3,2,1,0}, f32[1,1,448,896]{3,2,1,0}, /*index=30*/f32[448]{0}, f32[448]{0}, f32[896]{0}, f32[896]{0}, f32[1792]{0}, /*index=35*/f32[1792]{0}, f32[1,1,896,448]{3,2,1,0}, f32[3,3,448,896]{3,2,1,0}, f32[1,1,896,1792]{3,2,1,0}, f32[1,1,896,1792]{3,2,1,0}, /*index=40*/f32[1792]{0}, f32[1792]{0}, f32[448]{0}, f32[448]{0}, f32[896]{0}, /*index=45*/f32[896]{0}, f32[1792]{0}, f32[1792]{0}, f32[1,1,1792,448]{3,2,1,0}, f32[3,3,448,896]{3,2,1,0}, /*index=50*/f32[1,1,896,1792]{3,2,1,0}, f32[448]{0}, f32[448]{0}, f32[896]{0}, f32[896]{0}, /*index=55*/f32[1792]{0}, f32[1792]{0}, f32[1,1,1792,448]{3,2,1,0}, f32[3,3,448,896]{3,2,1,0}, f32[1,1,896,1792]{3,2,1,0}, /*index=60*/f32[448]{0}, f32[448]{0}, f32[896]{0}, f32[896]{0}, f32[1792]{0}, /*index=65*/f32[1792]{0}, f32[1,1,1792,448]{3,2,1,0}, f32[3,3,448,896]{3,2,1,0}, f32[1,1,896,1792]{3,2,1,0}, f32[896]{0}, /*index=70*/f32[896]{0}, f32[1792]{0}, f32[1792]{0}, f32[3584]{0}, f32[3584]{0}, /*index=75*/f32[1,1,1792,896]{3,2,1,0}, f32[3,3,896,1792]{3,2,1,0}, f32[1,1,1792,3584]{3,2,1,0}, f32[1,1,1792,3584]{3,2,1,0}, f32[3584]{0}, /*index=80*/f32[3584]{0}, f32[224]{0}, f32[224]{0}, f32[7,7,3,224]{3,2,1,0}, s32[], /*index=85*/f32[224]{0}, f32[224]{0}, f32[448]{0}, f32[448]{0}, f32[896]{0}, /*index=90*/f32[896]{0}, f32[1,1,224,224]{3,2,1,0}, f32[3,3,224,448]{3,2,1,0}, f32[1,1,448,896]{3,2,1,0}, f32[1,1,224,896]{3,2,1,0}, /*index=95*/f32[896]{0}, f32[896]{0}, f32[224]{0}, f32[224]{0}, f32[448]{0}, /*index=100*/f32[448]{0}, f32[896]{0}, f32[896]{0}, f32[1,1,896,224]{3,2,1,0}, f32[3,3,224,448]{3,2,1,0}, /*index=105*/f32[1,1,448,896]{3,2,1,0}, f32[224]{0}, f32[224]{0}, f32[448]{0}, f32[448]{0}, /*index=110*/f32[896]{0}, f32[896]{0}, f32[1,1,896,224]{3,2,1,0}, f32[3,3,224,448]{3,2,1,0}, f32[1,1,448,896]{3,2,1,0}, /*index=115*/f32[448]{0}, f32[448]{0}, f32[896]{0}, f32[896]{0}, f32[1792]{0}, /*index=120*/f32[1792]{0}, f32[1,1,896,448]{3,2,1,0}, f32[3,3,448,896]{3,2,1,0}, f32[1,1,896,1792]{3,2,1,0}, f32[1,1,896,1792]{3,2,1,0}, /*index=125*/f32[1792]{0}, f32[1792]{0}, f32[448]{0}, f32[448]{0}, f32[896]{0}, /*index=130*/f32[896]{0}, f32[1792]{0}, f32[1792]{0}, f32[1,1,1792,448]{3,2,1,0}, f32[3,3,448,896]{3,2,1,0}, /*index=135*/f32[1,1,896,1792]{3,2,1,0}, f32[448]{0}, f32[448]{0}, f32[896]{0}, f32[896]{0}, /*index=140*/f32[1792]{0}, f32[1792]{0}, f32[1,1,1792,448]{3,2,1,0}, f32[3,3,448,896]{3,2,1,0}, f32[1,1,896,1792]{3,2,1,0}, /*index=145*/f32[448]{0}, f32[448]{0}, f32[896]{0}, f32[896]{0}, f32[1792]{0}, /*index=150*/f32[1792]{0}, f32[1,1,1792,448]{3,2,1,0}, f32[3,3,448,896]{3,2,1,0}, f32[1,1,896,1792]{3,2,1,0}, f32[896]{0}, /*index=155*/f32[896]{0}, f32[1792]{0}, f32[1792]{0}, f32[3584]{0}, f32[3584]{0}, /*index=160*/f32[1,1,1792,896]{3,2,1,0}, f32[3,3,896,1792]{3,2,1,0}, f32[1,1,1792,3584]{3,2,1,0}, f32[1,1,1792,3584]{3,2,1,0}, f32[3584]{0}, /*index=165*/f32[3584]{0}, f32[224]{0}, f32[224]{0}, f32[7,7,3,224]{3,2,1,0}, f32[224]{0}, /*index=170*/f32[224]{0}, f32[448]{0}, f32[448]{0}, f32[896]{0}, f32[896]{0}, /*index=175*/f32[896]{0}, f32[896]{0}, f32[224]{0}, f32[224]{0}, f32[448]{0}, /*index=180*/f32[448]{0}, f32[896]{0}, f32[896]{0}, f32[224]{0}, f32[224]{0}, /*index=185*/f32[448]{0}, f32[448]{0}, f32[896]{0}, f32[896]{0}, f32[448]{0}, /*index=190*/f32[448]{0}, f32[896]{0}, f32[896]{0}, f32[1792]{0}, f32[1792]{0}, /*index=195*/f32[1792]{0}, f32[1792]{0}, f32[448]{0}, f32[448]{0}, f32[896]{0}, /*index=200*/f32[896]{0}, f32[1792]{0}, f32[1792]{0}, f32[448]{0}, f32[448]{0}, /*index=205*/f32[896]{0}, f32[896]{0}, f32[1792]{0}, f32[1792]{0}, f32[448]{0}, /*index=210*/f32[448]{0}, f32[896]{0}, f32[896]{0}, f32[1792]{0}, f32[1792]{0}, /*index=215*/f32[896]{0}, f32[896]{0}, f32[1792]{0}, f32[1792]{0}, f32[3584]{0}, /*index=220*/f32[3584]{0}, f32[3584]{0}, f32[3584]{0}, f32[224]{0}, f32[224]{0}) tuple(f32[224]{0} %get-tuple-element.224, f32[224]{0} %get-tuple-element.225, f32[448]{0} %get-tuple-element.226, f32[448]{0} %get-tuple-element.227, f32[896]{0} %get-tuple-element.228, /*index=5*/f32[896]{0} %get-tuple-element.229, f32[1,1,224,224]{3,2,1,0} %get-tuple-element.230, f32[3,3,224,448]{3,2,1,0} %get-tuple-element.231, f32[1,1,448,896]{3,2,1,0} %get-tuple-element.232, f32[1,1,224,896]{3,2,1,0} %get-tuple-element.233, /*index=10*/f32[896]{0} %get-tuple-element.234, f32[896]{0} %get-tuple-element.235, f32[224]{0} %get-tuple-element.236, f32[224]{0} %get-tuple-element.237, f32[448]{0} %get-tuple-element.238, /*index=15*/f32[448]{0} %get-tuple-element.239, f32[896]{0} %get-tuple-element.240, f32[896]{0} %get-tuple-element.241, f32[1,1,896,224]{3,2,1,0} %get-tuple-element.242, f32[3,3,224,448]{3,2,1,0} %get-tuple-element.243, /*index=20*/f32[1,1,448,896]{3,2,1,0} %get-tuple-element.244, f32[224]{0} %get-tuple-element.245, f32[224]{0} %get-tuple-element.246, f32[448]{0} %get-tuple-element.247, f32[448]{0} %get-tuple-element.248, /*index=25*/f32[896]{0} %get-tuple-element.249, f32[896]{0} %get-tuple-element.250, f32[1,1,896,224]{3,2,1,0} %get-tuple-element.251, f32[3,3,224,448]{3,2,1,0} %get-tuple-element.252, f32[1,1,448,896]{3,2,1,0} %get-tuple-element.253, /*index=30*/f32[448]{0} %get-tuple-element.254, f32[448]{0} %get-tuple-element.255, f32[896]{0} %get-tuple-element.256, f32[896]{0} %get-tuple-element.257, f32[1792]{0} %get-tuple-element.258, /*index=35*/f32[1792]{0} %get-tuple-element.259, f32[1,1,896,448]{3,2,1,0} %get-tuple-element.260, f32[3,3,448,896]{3,2,1,0} %get-tuple-element.261, f32[1,1,896,1792]{3,2,1,0} %get-tuple-element.262, f32[1,1,896,1792]{3,2,1,0} %get-tuple-element.263, /*index=40*/f32[1792]{0} %get-tuple-element.264, f32[1792]{0} %get-tuple-element.265, f32[448]{0} %get-tuple-element.266, f32[448]{0} %get-tuple-element.267, f32[896]{0} %get-tuple-element.268, /*index=45*/f32[896]{0} %get-tuple-element.269, f32[1792]{0} %get-tuple-element.270, f32[1792]{0} %get-tuple-element.271, f32[1,1,1792,448]{3,2,1,0} %get-tuple-element.272, f32[3,3,448,896]{3,2,1,0} %get-tuple-element.273, /*index=50*/f32[1,1,896,1792]{3,2,1,0} %get-tuple-element.274, f32[448]{0} %get-tuple-element.275, f32[448]{0} %get-tuple-element.276, f32[896]{0} %get-tuple-element.277, f32[896]{0} %get-tuple-element.278, /*index=55*/f32[1792]{0} %get-tuple-element.279, f32[1792]{0} %get-tuple-element.280, f32[1,1,1792,448]{3,2,1,0} %get-tuple-element.281, f32[3,3,448,896]{3,2,1,0} %get-tuple-element.282, f32[1,1,896,1792]{3,2,1,0} %get-tuple-element.283, /*index=60*/f32[448]{0} %get-tuple-element.284, f32[448]{0} %get-tuple-element.285, f32[896]{0} %get-tuple-element.286, f32[896]{0} %get-tuple-element.287, f32[1792]{0} %get-tuple-element.288, /*index=65*/f32[1792]{0} %get-tuple-element.289, f32[1,1,1792,448]{3,2,1,0} %get-tuple-element.290, f32[3,3,448,896]{3,2,1,0} %get-tuple-element.291, f32[1,1,896,1792]{3,2,1,0} %get-tuple-element.292, f32[896]{0} %get-tuple-element.293, /*index=70*/f32[896]{0} %get-tuple-element.294, f32[1792]{0} %get-tuple-element.295, f32[1792]{0} %get-tuple-element.296, f32[3584]{0} %get-tuple-element.297, f32[3584]{0} %get-tuple-element.298, /*index=75*/f32[1,1,1792,896]{3,2,1,0} %get-tuple-element.299, f32[3,3,896,1792]{3,2,1,0} %get-tuple-element.300, f32[1,1,1792,3584]{3,2,1,0} %get-tuple-element.301, f32[1,1,1792,3584]{3,2,1,0} %get-tuple-element.302, f32[3584]{0} %get-tuple-element.303, /*index=80*/f32[3584]{0} %get-tuple-element.304, f32[224]{0} %get-tuple-element.305, f32[224]{0} %get-tuple-element.306, f32[7,7,3,224]{3,2,1,0} %get-tuple-element.307, s32[] %fusion.141, /*index=85*/f32[224]{0} %get-tuple-element.309, f32[224]{0} %get-tuple-element.310, f32[448]{0} %get-tuple-element.311, f32[448]{0} %get-tuple-element.312, f32[896]{0} %get-tuple-element.313, /*index=90*/f32[896]{0} %get-tuple-element.314, f32[1,1,224,224]{3,2,1,0} %get-tuple-element.315, f32[3,3,224,448]{3,2,1,0} %get-tuple-element.316, f32[1,1,448,896]{3,2,1,0} %get-tuple-element.317, f32[1,1,224,896]{3,2,1,0} %get-tuple-element.318, /*index=95*/f32[896]{0} %get-tuple-element.319, f32[896]{0} %get-tuple-element.320, f32[224]{0} %get-tuple-element.321, f32[224]{0} %get-tuple-element.322, f32[448]{0} %get-tuple-element.323, /*index=100*/f32[448]{0} %get-tuple-element.324, f32[896]{0} %get-tuple-element.325, f32[896]{0} %get-tuple-element.326, f32[1,1,896,224]{3,2,1,0} %get-tuple-element.327, f32[3,3,224,448]{3,2,1,0} %get-tuple-element.328, /*index=105*/f32[1,1,448,896]{3,2,1,0} %get-tuple-element.329, f32[224]{0} %get-tuple-element.330, f32[224]{0} %get-tuple-element.331, f32[448]{0} %get-tuple-element.332, f32[448]{0} %get-tuple-element.333, /*index=110*/f32[896]{0} %get-tuple-element.334, f32[896]{0} %get-tuple-element.335, f32[1,1,896,224]{3,2,1,0} %get-tuple-element.336, f32[3,3,224,448]{3,2,1,0} %get-tuple-element.337, f32[1,1,448,896]{3,2,1,0} %get-tuple-element.338, /*index=115*/f32[448]{0} %get-tuple-element.339, f32[448]{0} %get-tuple-element.340, f32[896]{0} %get-tuple-element.341, f32[896]{0} %get-tuple-element.342, f32[1792]{0} %get-tuple-element.343, /*index=120*/f32[1792]{0} %get-tuple-element.344, f32[1,1,896,448]{3,2,1,0} %get-tuple-element.345, f32[3,3,448,896]{3,2,1,0} %get-tuple-element.346, f32[1,1,896,1792]{3,2,1,0} %get-tuple-element.347, f32[1,1,896,1792]{3,2,1,0} %get-tuple-element.348, /*index=125*/f32[1792]{0} %get-tuple-element.349, f32[1792]{0} %get-tuple-element.350, f32[448]{0} %get-tuple-element.351, f32[448]{0} %get-tuple-element.352, f32[896]{0} %get-tuple-element.353, /*index=130*/f32[896]{0} %get-tuple-element.354, f32[1792]{0} %get-tuple-element.355, f32[1792]{0} %get-tuple-element.356, f32[1,1,1792,448]{3,2,1,0} %get-tuple-element.357, f32[3,3,448,896]{3,2,1,0} %get-tuple-element.358, /*index=135*/f32[1,1,896,1792]{3,2,1,0} %get-tuple-element.359, f32[448]{0} %get-tuple-element.360, f32[448]{0} %get-tuple-element.361, f32[896]{0} %get-tuple-element.362, f32[896]{0} %get-tuple-element.363, /*index=140*/f32[1792]{0} %get-tuple-element.364, f32[1792]{0} %get-tuple-element.365, f32[1,1,1792,448]{3,2,1,0} %get-tuple-element.366, f32[3,3,448,896]{3,2,1,0} %get-tuple-element.367, f32[1,1,896,1792]{3,2,1,0} %get-tuple-element.368, /*index=145*/f32[448]{0} %get-tuple-element.369, f32[448]{0} %get-tuple-element.370, f32[896]{0} %get-tuple-element.371, f32[896]{0} %get-tuple-element.372, f32[1792]{0} %get-tuple-element.373, /*index=150*/f32[1792]{0} %get-tuple-element.374, f32[1,1,1792,448]{3,2,1,0} %get-tuple-element.375, f32[3,3,448,896]{3,2,1,0} %get-tuple-element.376, f32[1,1,896,1792]{3,2,1,0} %get-tuple-element.377, f32[896]{0} %get-tuple-element.378, /*index=155*/f32[896]{0} %get-tuple-element.379, f32[1792]{0} %get-tuple-element.380, f32[1792]{0} %get-tuple-element.381, f32[3584]{0} %get-tuple-element.382, f32[3584]{0} %get-tuple-element.383, /*index=160*/f32[1,1,1792,896]{3,2,1,0} %get-tuple-element.384, f32[3,3,896,1792]{3,2,1,0} %get-tuple-element.385, f32[1,1,1792,3584]{3,2,1,0} %get-tuple-element.386, f32[1,1,1792,3584]{3,2,1,0} %get-tuple-element.387, f32[3584]{0} %get-tuple-element.388, /*index=165*/f32[3584]{0} %get-tuple-element.389, f32[224]{0} %get-tuple-element.390, f32[224]{0} %get-tuple-element.391, f32[7,7,3,224]{3,2,1,0} %get-tuple-element.392, f32[224]{0} %get-tuple-element.393, /*index=170*/f32[224]{0} %get-tuple-element.394, f32[448]{0} %get-tuple-element.395, f32[448]{0} %get-tuple-element.396, f32[896]{0} %get-tuple-element.397, f32[896]{0} %get-tuple-element.398, /*index=175*/f32[896]{0} %get-tuple-element.399, f32[896]{0} %get-tuple-element.400, f32[224]{0} %get-tuple-element.401, f32[224]{0} %get-tuple-element.402, f32[448]{0} %get-tuple-element.403, /*index=180*/f32[448]{0} %get-tuple-element.404, f32[896]{0} %get-tuple-element.405, f32[896]{0} %get-tuple-element.406, f32[224]{0} %get-tuple-element.407, f32[224]{0} %get-tuple-element.408, /*index=185*/f32[448]{0} %get-tuple-element.409, f32[448]{0} %get-tuple-element.410, f32[896]{0} %get-tuple-element.411, f32[896]{0} %get-tuple-element.412, f32[448]{0} %get-tuple-element.413, /*index=190*/f32[448]{0} %get-tuple-element.414, f32[896]{0} %get-tuple-element.415, f32[896]{0} %get-tuple-element.416, f32[1792]{0} %get-tuple-element.417, f32[1792]{0} %get-tuple-element.418, /*index=195*/f32[1792]{0} %get-tuple-element.419, f32[1792]{0} %get-tuple-element.420, f32[448]{0} %get-tuple-element.421, f32[448]{0} %get-tuple-element.422, f32[896]{0} %get-tuple-element.423, /*index=200*/f32[896]{0} %get-tuple-element.424, f32[1792]{0} %get-tuple-element.425, f32[1792]{0} %get-tuple-element.426, f32[448]{0} %get-tuple-element.427, f32[448]{0} %get-tuple-element.428, /*index=205*/f32[896]{0} %get-tuple-element.429, f32[896]{0} %get-tuple-element.430, f32[1792]{0} %get-tuple-element.431, f32[1792]{0} %get-tuple-element.432, f32[448]{0} %get-tuple-element.433, /*index=210*/f32[448]{0} %get-tuple-element.434, f32[896]{0} %get-tuple-element.435, f32[896]{0} %get-tuple-element.436, f32[1792]{0} %get-tuple-element.437, f32[1792]{0} %get-tuple-element.438, /*index=215*/f32[896]{0} %get-tuple-element.439, f32[896]{0} %get-tuple-element.440, f32[1792]{0} %get-tuple-element.441, f32[1792]{0} %get-tuple-element.442, f32[3584]{0} %get-tuple-element.443, /*index=220*/f32[3584]{0} %get-tuple-element.444, f32[3584]{0} %get-tuple-element.445, f32[3584]{0} %get-tuple-element.446, f32[224]{0} %get-tuple-element.447, f32[224]{0} %get-tuple-element.448)
}

