HloModule train_step_func_pipeshard_parallel_mesh_0-0, input_output_alias={ {0}: (0, {}, may-alias), {1}: (1, {}, may-alias), {2}: (2, {}, may-alias), {3}: (3, {}, may-alias), {4}: (4, {}, may-alias), {5}: (5, {}, may-alias), {6}: (6, {}, may-alias), {7}: (7, {}, may-alias), {8}: (8, {}, may-alias), {9}: (9, {}, may-alias), {10}: (10, {}, may-alias), {11}: (11, {}, may-alias), {12}: (12, {}, may-alias), {13}: (13, {}, may-alias), {14}: (14, {}, may-alias), {15}: (15, {}, may-alias), {16}: (16, {}, may-alias), {17}: (17, {}, may-alias), {18}: (18, {}, may-alias), {19}: (19, {}, may-alias), {20}: (20, {}, may-alias), {21}: (21, {}, may-alias), {22}: (22, {}, may-alias), {23}: (23, {}, may-alias), {24}: (24, {}, may-alias), {25}: (25, {}, may-alias), {26}: (26, {}, may-alias), {27}: (27, {}, may-alias), {28}: (28, {}, may-alias), {29}: (29, {}, may-alias), {30}: (30, {}, may-alias), {31}: (31, {}, may-alias), {32}: (32, {}, may-alias), {33}: (33, {}, may-alias), {34}: (34, {}, may-alias), {35}: (35, {}, may-alias), {36}: (36, {}, may-alias), {37}: (37, {}, may-alias), {38}: (38, {}, may-alias), {39}: (39, {}, may-alias), {40}: (40, {}, may-alias), {41}: (41, {}, may-alias), {42}: (42, {}, may-alias), {43}: (43, {}, may-alias), {44}: (44, {}, may-alias), {45}: (45, {}, may-alias), {46}: (46, {}, may-alias), {47}: (47, {}, may-alias), {48}: (48, {}, may-alias), {49}: (49, {}, may-alias), {50}: (50, {}, may-alias), {51}: (51, {}, may-alias), {52}: (52, {}, may-alias), {53}: (53, {}, may-alias), {54}: (54, {}, may-alias), {55}: (55, {}, may-alias) }, entry_computation_layout={(f32[224]{0},f32[224]{0},f32[224]{0},f32[224]{0},f32[448]{0},f32[448]{0},f32[896]{0},f32[896]{0},f32[896]{0},f32[896]{0},f32[224]{0},f32[224]{0},f32[448]{0},f32[448]{0},f32[896]{0},f32[896]{0},f32[224]{0},f32[224]{0},f32[448]{0},f32[448]{0},f32[896]{0},f32[896]{0},f32[448]{0},f32[448]{0},f32[896]{0},f32[896]{0},f32[1792]{0},f32[1792]{0},f32[1792]{0},f32[1792]{0},f32[448]{0},f32[448]{0},f32[896]{0},f32[896]{0},f32[1792]{0},f32[1792]{0},f32[448]{0},f32[448]{0},f32[896]{0},f32[896]{0},f32[1792]{0},f32[1792]{0},f32[448]{0},f32[448]{0},f32[896]{0},f32[896]{0},f32[1792]{0},f32[1792]{0},f32[896]{0},f32[896]{0},f32[1792]{0},f32[1792]{0},f32[3584]{0},f32[3584]{0},f32[3584]{0},f32[3584]{0},f32[7,7,3,224]{3,2,1,0},f32[224]{0},f32[224]{0},f32[1,1,224,224]{3,2,1,0},f32[224]{0},f32[224]{0},f32[3,3,224,448]{3,2,1,0},f32[448]{0},f32[448]{0},s32[16,224,224,3]{3,2,1,0},f32[224]{0},f32[224]{0},f32[224]{0},f32[224]{0},f32[448]{0},f32[448]{0},f32[1,1,448,896]{3,2,1,0},f32[896]{0},f32[896]{0},f32[1,1,224,896]{3,2,1,0},f32[896]{0},f32[896]{0},f32[1,1,896,224]{3,2,1,0},f32[224]{0},f32[224]{0},f32[3,3,224,448]{3,2,1,0},f32[448]{0},f32[448]{0},f32[1,1,448,896]{3,2,1,0},f32[896]{0},f32[896]{0},f32[896]{0},f32[896]{0},f32[896]{0},f32[896]{0},f32[224]{0},f32[224]{0},f32[448]{0},f32[448]{0},f32[896]{0},f32[896]{0},f32[1,1,896,224]{3,2,1,0},f32[224]{0},f32[224]{0},f32[3,3,224,448]{3,2,1,0},f32[448]{0},f32[448]{0},f32[1,1,448,896]{3,2,1,0},f32[896]{0},f32[896]{0},f32[224]{0},f32[224]{0},f32[448]{0},f32[448]{0},f32[896]{0},f32[896]{0},f32[1,1,896,448]{3,2,1,0},f32[448]{0},f32[448]{0},f32[3,3,448,896]{3,2,1,0},f32[896]{0},f32[896]{0},f32[1,1,896,1792]{3,2,1,0},f32[1792]{0},f32[1792]{0},f32[1,1,896,1792]{3,2,1,0},f32[1792]{0},f32[1792]{0},f32[448]{0},f32[448]{0},f32[896]{0},f32[896]{0},f32[1792]{0},f32[1792]{0},f32[1792]{0},f32[1792]{0},f32[1,1,1792,448]{3,2,1,0},f32[448]{0},f32[448]{0},f32[3,3,448,896]{3,2,1,0},f32[896]{0},f32[896]{0},f32[1,1,896,1792]{3,2,1,0},f32[1792]{0},f32[1792]{0},f32[448]{0},f32[448]{0},f32[896]{0},f32[896]{0},f32[1792]{0},f32[1792]{0},f32[1,1,1792,448]{3,2,1,0},f32[448]{0},f32[448]{0},f32[3,3,448,896]{3,2,1,0},f32[896]{0},f32[896]{0},f32[1,1,896,1792]{3,2,1,0},f32[1792]{0},f32[1792]{0},f32[448]{0},f32[448]{0},f32[896]{0},f32[896]{0},f32[1792]{0},f32[1792]{0},f32[1,1,1792,448]{3,2,1,0},f32[448]{0},f32[448]{0},f32[3,3,448,896]{3,2,1,0},f32[896]{0},f32[896]{0},f32[1,1,896,1792]{3,2,1,0},f32[1792]{0},f32[1792]{0},f32[448]{0},f32[448]{0},f32[896]{0},f32[896]{0},f32[1792]{0},f32[1792]{0},f32[1,1,1792,896]{3,2,1,0},f32[896]{0},f32[896]{0},f32[3,3,896,1792]{3,2,1,0},f32[1792]{0},f32[1792]{0},f32[1,1,1792,3584]{3,2,1,0},f32[3584]{0},f32[3584]{0},f32[1,1,1792,3584]{3,2,1,0},f32[3584]{0},f32[3584]{0},f32[896]{0},f32[896]{0},f32[1792]{0},f32[1792]{0},f32[3584]{0},f32[3584]{0},f32[3584]{0},f32[3584]{0})->(f32[224]{0}, f32[224]{0}, f32[224]{0}, f32[224]{0}, f32[448]{0}, /*index=5*/f32[448]{0}, f32[896]{0}, f32[896]{0}, f32[896]{0}, f32[896]{0}, /*index=10*/f32[224]{0}, f32[224]{0}, f32[448]{0}, f32[448]{0}, f32[896]{0}, /*index=15*/f32[896]{0}, f32[224]{0}, f32[224]{0}, f32[448]{0}, f32[448]{0}, /*index=20*/f32[896]{0}, f32[896]{0}, f32[448]{0}, f32[448]{0}, f32[896]{0}, /*index=25*/f32[896]{0}, f32[1792]{0}, f32[1792]{0}, f32[1792]{0}, f32[1792]{0}, /*index=30*/f32[448]{0}, f32[448]{0}, f32[896]{0}, f32[896]{0}, f32[1792]{0}, /*index=35*/f32[1792]{0}, f32[448]{0}, f32[448]{0}, f32[896]{0}, f32[896]{0}, /*index=40*/f32[1792]{0}, f32[1792]{0}, f32[448]{0}, f32[448]{0}, f32[896]{0}, /*index=45*/f32[896]{0}, f32[1792]{0}, f32[1792]{0}, f32[896]{0}, f32[896]{0}, /*index=50*/f32[1792]{0}, f32[1792]{0}, f32[3584]{0}, f32[3584]{0}, f32[3584]{0}, /*index=55*/f32[3584]{0}, f32[16,56,56,448]{3,2,1,0}, f32[16,56,56,224]{3,2,1,0}, f32[16,56,56,896]{3,2,1,0}, f32[16,56,56,896]{3,2,1,0}, /*index=60*/f32[16,28,28,1792]{3,2,1,0}, f32[16,28,28,1792]{3,2,1,0}, f32[16,28,28,1792]{3,2,1,0}, f32[16,28,28,1792]{3,2,1,0}, f32[16,14,14,3584]{3,2,1,0})}

%region_0.1246.0 (Arg_0.1247: f32[], Arg_1.1248: f32[]) -> f32[] {
  %Arg_0.1247 = f32[] parameter(0)
  %Arg_1.1248 = f32[] parameter(1)
  ROOT %add.1249 = f32[] add(f32[] %Arg_0.1247, f32[] %Arg_1.1248), metadata={op_name="parallelize(train_step_func_pipeshard_parallel_mesh_0)/jit(main)/jit(0)/jit(00)/jvp(WideResNet)/bn_init/reduce_sum[axes=(0, 1, 2)]" source_file="/home/cyxue/miniconda3/envs/alpa/lib/python3.8/site-packages/flax/linen/normalization.py" source_line=82}
}

%fused_computation (param_0.3: f32[3584], param_1.4: f32[3584], param_2.5: f32[3584], param_3.7: f32[16,14,14,3584], param_4.394: f32[3584], param_5.183: f32[3584], param_6.132: f32[3584], param_7.52: f32[16,14,14,3584], param_8.40: f32[3584], param_9.42: f32[3584]) -> f32[16,14,14,3584] {
  %param_7.52 = f32[16,14,14,3584]{2,1,3,0} parameter(7)
  %param_9.42 = f32[3584]{0} parameter(9)
  %constant_727 = f32[] constant(0.000318877544)
  %broadcast.710 = f32[3584]{0} broadcast(f32[] %constant_727), dimensions={}, metadata={op_name="parallelize(train_step_func_pipeshard_parallel_mesh_0)/jit(main)/jit(0)/jit(07)/jvp(WideResNet)/BottleneckResNetBlock_7/BatchNorm_2/div" source_file="/home/cyxue/miniconda3/envs/alpa/lib/python3.8/site-packages/flax/linen/normalization.py" source_line=82}
  %multiply.577 = f32[3584]{0} multiply(f32[3584]{0} %param_9.42, f32[3584]{0} %broadcast.710), metadata={op_name="parallelize(train_step_func_pipeshard_parallel_mesh_0)/jit(main)/jit(0)/jit(07)/jvp(WideResNet)/BottleneckResNetBlock_7/norm_proj/div" source_file="/home/cyxue/miniconda3/envs/alpa/lib/python3.8/site-packages/flax/linen/normalization.py" source_line=82}
  %broadcast.202 = f32[16,14,14,3584]{2,1,3,0} broadcast(f32[3584]{0} %multiply.577), dimensions={3}, metadata={op_name="parallelize(train_step_func_pipeshard_parallel_mesh_0)/jit(main)/jit(0)/jit(07)/jvp(WideResNet)/BottleneckResNetBlock_7/norm_proj/sub" source_file="/home/cyxue/miniconda3/envs/alpa/lib/python3.8/site-packages/flax/linen/normalization.py" source_line=138}
  %subtract.1 = f32[16,14,14,3584]{2,1,3,0} subtract(f32[16,14,14,3584]{2,1,3,0} %param_7.52, f32[16,14,14,3584]{2,1,3,0} %broadcast.202), metadata={op_name="parallelize(train_step_func_pipeshard_parallel_mesh_0)/jit(main)/jit(0)/jit(07)/jvp(WideResNet)/BottleneckResNetBlock_7/norm_proj/sub" source_file="/home/cyxue/miniconda3/envs/alpa/lib/python3.8/site-packages/flax/linen/normalization.py" source_line=138}
  %param_6.132 = f32[3584]{0} parameter(6)
  %constant_88 = f32[] constant(1e-05)
  %broadcast.201 = f32[3584]{0} broadcast(f32[] %constant_88), dimensions={}, metadata={op_name="parallelize(train_step_func_pipeshard_parallel_mesh_0)/jit(main)/jit(0)/jit(07)/jvp(WideResNet)/BottleneckResNetBlock_7/BatchNorm_2/add" source_file="/home/cyxue/miniconda3/envs/alpa/lib/python3.8/site-packages/flax/linen/normalization.py" source_line=139}
  %add.32 = f32[3584]{0} add(f32[3584]{0} %param_6.132, f32[3584]{0} %broadcast.201), metadata={op_name="parallelize(train_step_func_pipeshard_parallel_mesh_0)/jit(main)/jit(0)/jit(07)/jvp(WideResNet)/BottleneckResNetBlock_7/norm_proj/add" source_file="/home/cyxue/miniconda3/envs/alpa/lib/python3.8/site-packages/flax/linen/normalization.py" source_line=139}
  %rsqrt.29 = f32[3584]{0} rsqrt(f32[3584]{0} %add.32), metadata={op_name="parallelize(train_step_func_pipeshard_parallel_mesh_0)/jit(main)/jit(0)/jit(07)/jvp(WideResNet)/BottleneckResNetBlock_7/norm_proj/rsqrt" source_file="/home/cyxue/miniconda3/envs/alpa/lib/python3.8/site-packages/flax/linen/normalization.py" source_line=139}
  %param_5.183 = f32[3584]{0} parameter(5)
  %multiply.143 = f32[3584]{0} multiply(f32[3584]{0} %rsqrt.29, f32[3584]{0} %param_5.183), metadata={op_name="parallelize(train_step_func_pipeshard_parallel_mesh_0)/jit(main)/jit(0)/jit(07)/jvp(WideResNet)/BottleneckResNetBlock_7/norm_proj/mul" source_file="/home/cyxue/miniconda3/envs/alpa/lib/python3.8/site-packages/flax/linen/normalization.py" source_line=144}
  %broadcast.200 = f32[16,14,14,3584]{2,1,3,0} broadcast(f32[3584]{0} %multiply.143), dimensions={3}, metadata={op_name="parallelize(train_step_func_pipeshard_parallel_mesh_0)/jit(main)/jit(0)/jit(07)/jvp(WideResNet)/BottleneckResNetBlock_7/norm_proj/mul" source_file="/home/cyxue/miniconda3/envs/alpa/lib/python3.8/site-packages/flax/linen/normalization.py" source_line=146}
  %multiply.142 = f32[16,14,14,3584]{2,1,3,0} multiply(f32[16,14,14,3584]{2,1,3,0} %subtract.1, f32[16,14,14,3584]{2,1,3,0} %broadcast.200), metadata={op_name="parallelize(train_step_func_pipeshard_parallel_mesh_0)/jit(main)/jit(0)/jit(07)/jvp(WideResNet)/BottleneckResNetBlock_7/norm_proj/mul" source_file="/home/cyxue/miniconda3/envs/alpa/lib/python3.8/site-packages/flax/linen/normalization.py" source_line=146}
  %param_4.394 = f32[3584]{0} parameter(4)
  %broadcast.199 = f32[16,14,14,3584]{2,1,3,0} broadcast(f32[3584]{0} %param_4.394), dimensions={3}, metadata={op_name="parallelize(train_step_func_pipeshard_parallel_mesh_0)/jit(main)/jit(0)/jit(07)/jvp(WideResNet)/BottleneckResNetBlock_7/norm_proj/add" source_file="/home/cyxue/miniconda3/envs/alpa/lib/python3.8/site-packages/flax/linen/normalization.py" source_line=150}
  %add.31 = f32[16,14,14,3584]{2,1,3,0} add(f32[16,14,14,3584]{2,1,3,0} %multiply.142, f32[16,14,14,3584]{2,1,3,0} %broadcast.199), metadata={op_name="parallelize(train_step_func_pipeshard_parallel_mesh_0)/jit(main)/jit(0)/jit(07)/jvp(WideResNet)/BottleneckResNetBlock_7/norm_proj/add" source_file="/home/cyxue/miniconda3/envs/alpa/lib/python3.8/site-packages/flax/linen/normalization.py" source_line=150}
  %param_3.7 = f32[16,14,14,3584]{2,1,3,0} parameter(3)
  %param_8.40 = f32[3584]{0} parameter(8)
  %multiply.573 = f32[3584]{0} multiply(f32[3584]{0} %param_8.40, f32[3584]{0} %broadcast.710), metadata={op_name="parallelize(train_step_func_pipeshard_parallel_mesh_0)/jit(main)/jit(0)/jit(07)/jvp(WideResNet)/BottleneckResNetBlock_7/BatchNorm_2/div" source_file="/home/cyxue/miniconda3/envs/alpa/lib/python3.8/site-packages/flax/linen/normalization.py" source_line=82}
  %broadcast.198 = f32[16,14,14,3584]{2,1,3,0} broadcast(f32[3584]{0} %multiply.573), dimensions={3}, metadata={op_name="parallelize(train_step_func_pipeshard_parallel_mesh_0)/jit(main)/jit(0)/jit(07)/jvp(WideResNet)/BottleneckResNetBlock_7/BatchNorm_2/sub" source_file="/home/cyxue/miniconda3/envs/alpa/lib/python3.8/site-packages/flax/linen/normalization.py" source_line=138}
  %subtract.0 = f32[16,14,14,3584]{2,1,3,0} subtract(f32[16,14,14,3584]{2,1,3,0} %param_3.7, f32[16,14,14,3584]{2,1,3,0} %broadcast.198), metadata={op_name="parallelize(train_step_func_pipeshard_parallel_mesh_0)/jit(main)/jit(0)/jit(07)/jvp(WideResNet)/BottleneckResNetBlock_7/BatchNorm_2/sub" source_file="/home/cyxue/miniconda3/envs/alpa/lib/python3.8/site-packages/flax/linen/normalization.py" source_line=138}
  %param_2.5 = f32[3584]{0} parameter(2)
  %add.30 = f32[3584]{0} add(f32[3584]{0} %param_2.5, f32[3584]{0} %broadcast.201), metadata={op_name="parallelize(train_step_func_pipeshard_parallel_mesh_0)/jit(main)/jit(0)/jit(07)/jvp(WideResNet)/BottleneckResNetBlock_7/BatchNorm_2/add" source_file="/home/cyxue/miniconda3/envs/alpa/lib/python3.8/site-packages/flax/linen/normalization.py" source_line=139}
  %rsqrt.28 = f32[3584]{0} rsqrt(f32[3584]{0} %add.30), metadata={op_name="parallelize(train_step_func_pipeshard_parallel_mesh_0)/jit(main)/jit(0)/jit(07)/jvp(WideResNet)/BottleneckResNetBlock_7/BatchNorm_2/rsqrt" source_file="/home/cyxue/miniconda3/envs/alpa/lib/python3.8/site-packages/flax/linen/normalization.py" source_line=139}
  %param_1.4 = f32[3584]{0} parameter(1)
  %multiply.141 = f32[3584]{0} multiply(f32[3584]{0} %rsqrt.28, f32[3584]{0} %param_1.4), metadata={op_name="parallelize(train_step_func_pipeshard_parallel_mesh_0)/jit(main)/jit(0)/jit(07)/jvp(WideResNet)/BottleneckResNetBlock_7/BatchNorm_2/mul" source_file="/home/cyxue/miniconda3/envs/alpa/lib/python3.8/site-packages/flax/linen/normalization.py" source_line=144}
  %broadcast.197 = f32[16,14,14,3584]{2,1,3,0} broadcast(f32[3584]{0} %multiply.141), dimensions={3}, metadata={op_name="parallelize(train_step_func_pipeshard_parallel_mesh_0)/jit(main)/jit(0)/jit(07)/jvp(WideResNet)/BottleneckResNetBlock_7/BatchNorm_2/mul" source_file="/home/cyxue/miniconda3/envs/alpa/lib/python3.8/site-packages/flax/linen/normalization.py" source_line=146}
  %multiply.140 = f32[16,14,14,3584]{2,1,3,0} multiply(f32[16,14,14,3584]{2,1,3,0} %subtract.0, f32[16,14,14,3584]{2,1,3,0} %broadcast.197), metadata={op_name="parallelize(train_step_func_pipeshard_parallel_mesh_0)/jit(main)/jit(0)/jit(07)/jvp(WideResNet)/BottleneckResNetBlock_7/BatchNorm_2/mul" source_file="/home/cyxue/miniconda3/envs/alpa/lib/python3.8/site-packages/flax/linen/normalization.py" source_line=146}
  %param_0.3 = f32[3584]{0} parameter(0)
  %broadcast.196 = f32[16,14,14,3584]{2,1,3,0} broadcast(f32[3584]{0} %param_0.3), dimensions={3}, metadata={op_name="parallelize(train_step_func_pipeshard_parallel_mesh_0)/jit(main)/jit(0)/jit(07)/jvp(WideResNet)/BottleneckResNetBlock_7/BatchNorm_2/add" source_file="/home/cyxue/miniconda3/envs/alpa/lib/python3.8/site-packages/flax/linen/normalization.py" source_line=150}
  %add.29 = f32[16,14,14,3584]{2,1,3,0} add(f32[16,14,14,3584]{2,1,3,0} %multiply.140, f32[16,14,14,3584]{2,1,3,0} %broadcast.196), metadata={op_name="parallelize(train_step_func_pipeshard_parallel_mesh_0)/jit(main)/jit(0)/jit(07)/jvp(WideResNet)/BottleneckResNetBlock_7/BatchNorm_2/add" source_file="/home/cyxue/miniconda3/envs/alpa/lib/python3.8/site-packages/flax/linen/normalization.py" source_line=150}
  %add.28 = f32[16,14,14,3584]{2,1,3,0} add(f32[16,14,14,3584]{2,1,3,0} %add.31, f32[16,14,14,3584]{2,1,3,0} %add.29), metadata={op_name="parallelize(train_step_func_pipeshard_parallel_mesh_0)/jit(main)/jit(0)/jit(07)/jvp(WideResNet)/BottleneckResNetBlock_7/add" source_file="/home/cyxue/Projects/crius/Crius/runtime/crius_worker/jax/model/wide_resnet.py" source_line=98}
  ROOT %copy.39 = f32[16,14,14,3584]{3,2,1,0} copy(f32[16,14,14,3584]{2,1,3,0} %add.28), metadata={op_name="tuple.66"}
}

%fused_computation.1 (param_0.4: f32[3584], param_1.663: f32[3584], param_2.598: f32[3584], param_3.574: f32[16,3584], param_4.400: f32[3584], param_5.190: f32[3584]) -> (f32[3584], f32[3584], f32[3584]) {
  %param_0.4 = f32[3584]{0} parameter(0)
  %param_1.663 = f32[3584]{0} parameter(1)
  %constant_90 = f32[] constant(0.9)
  %broadcast.204 = f32[3584]{0} broadcast(f32[] %constant_90), dimensions={}, metadata={op_name="parallelize(train_step_func_pipeshard_parallel_mesh_0)/jit(main)/jit(0)/jit(07)/jvp(WideResNet)/BottleneckResNetBlock_7/BatchNorm_2/mul" source_file="/home/cyxue/miniconda3/envs/alpa/lib/python3.8/site-packages/flax/linen/normalization.py" source_line=265}
  %multiply.145 = f32[3584]{0} multiply(f32[3584]{0} %param_1.663, f32[3584]{0} %broadcast.204), metadata={op_name="parallelize(train_step_func_pipeshard_parallel_mesh_0)/jit(main)/jit(0)/jit(07)/jvp(WideResNet)/BottleneckResNetBlock_7/norm_proj/mul" source_file="/home/cyxue/miniconda3/envs/alpa/lib/python3.8/site-packages/flax/linen/normalization.py" source_line=267}
  %param_3.574 = f32[16,3584]{1,0} parameter(3)
  %constant_92_clone_1 = f32[] constant(0)
  %reduce.280.clone.1 = f32[3584]{0} reduce(f32[16,3584]{1,0} %param_3.574, f32[] %constant_92_clone_1), dimensions={0}, to_apply=%region_0.1246.0, metadata={op_name="parallelize(train_step_func_pipeshard_parallel_mesh_0)/jit(main)/jit(0)/jit(07)/jvp(WideResNet)/BottleneckResNetBlock_7/norm_proj/reduce_sum[axes=(0, 1, 2)]" source_file="/home/cyxue/miniconda3/envs/alpa/lib/python3.8/site-packages/flax/linen/normalization.py" source_line=83}
  %constant_736_clone_1 = f32[] constant(0.000318877544)
  %broadcast.206.clone.1 = f32[3584]{0} broadcast(f32[] %constant_736_clone_1), dimensions={}, metadata={op_name="parallelize(train_step_func_pipeshard_parallel_mesh_0)/jit(main)/jit(0)/jit(07)/jvp(WideResNet)/BottleneckResNetBlock_7/BatchNorm_2/div" source_file="/home/cyxue/miniconda3/envs/alpa/lib/python3.8/site-packages/flax/linen/normalization.py" source_line=82}
  %multiply.147.clone.1 = f32[3584]{0} multiply(f32[3584]{0} %reduce.280.clone.1, f32[3584]{0} %broadcast.206.clone.1), metadata={op_name="parallelize(train_step_func_pipeshard_parallel_mesh_0)/jit(main)/jit(0)/jit(07)/jvp(WideResNet)/BottleneckResNetBlock_7/norm_proj/div" source_file="/home/cyxue/miniconda3/envs/alpa/lib/python3.8/site-packages/flax/linen/normalization.py" source_line=83}
  %param_2.598 = f32[3584]{0} parameter(2)
  %multiply.579.clone.1 = f32[3584]{0} multiply(f32[3584]{0} %param_2.598, f32[3584]{0} %broadcast.206.clone.1), metadata={op_name="parallelize(train_step_func_pipeshard_parallel_mesh_0)/jit(main)/jit(0)/jit(07)/jvp(WideResNet)/BottleneckResNetBlock_7/norm_proj/div" source_file="/home/cyxue/miniconda3/envs/alpa/lib/python3.8/site-packages/flax/linen/normalization.py" source_line=82}
  %multiply.146.clone.1 = f32[3584]{0} multiply(f32[3584]{0} %multiply.579.clone.1, f32[3584]{0} %multiply.579.clone.1), metadata={op_name="parallelize(train_step_func_pipeshard_parallel_mesh_0)/jit(main)/jit(0)/jit(07)/jvp(WideResNet)/BottleneckResNetBlock_7/norm_proj/mul" source_file="/home/cyxue/miniconda3/envs/alpa/lib/python3.8/site-packages/flax/linen/normalization.py" source_line=46}
  %subtract.2.clone.1 = f32[3584]{0} subtract(f32[3584]{0} %multiply.147.clone.1, f32[3584]{0} %multiply.146.clone.1), metadata={op_name="parallelize(train_step_func_pipeshard_parallel_mesh_0)/jit(main)/jit(0)/jit(07)/jvp(WideResNet)/BottleneckResNetBlock_7/norm_proj/sub" source_file="/home/cyxue/miniconda3/envs/alpa/lib/python3.8/site-packages/flax/linen/normalization.py" source_line=93}
  %broadcast.205.clone.1 = f32[3584]{0} broadcast(f32[] %constant_92_clone_1), dimensions={}, metadata={op_name="parallelize(train_step_func_pipeshard_parallel_mesh_0)/jit(main)/jit(0)/jit(07)/jvp(WideResNet)/BottleneckResNetBlock_7/BatchNorm_2/max" source_file="/home/cyxue/miniconda3/envs/alpa/lib/python3.8/site-packages/flax/linen/normalization.py" source_line=93}
  %maximum.0.clone.1 = f32[3584]{0} maximum(f32[3584]{0} %subtract.2.clone.1, f32[3584]{0} %broadcast.205.clone.1), metadata={op_name="parallelize(train_step_func_pipeshard_parallel_mesh_0)/jit(main)/jit(0)/jit(07)/jvp(WideResNet)/BottleneckResNetBlock_7/norm_proj/max" source_file="/home/cyxue/miniconda3/envs/alpa/lib/python3.8/site-packages/flax/linen/normalization.py" source_line=93}
  %constant_89 = f32[] constant(0.1)
  %broadcast.203 = f32[3584]{0} broadcast(f32[] %constant_89), dimensions={}, metadata={op_name="parallelize(train_step_func_pipeshard_parallel_mesh_0)/jit(main)/jit(0)/jit(07)/jvp(WideResNet)/BottleneckResNetBlock_7/BatchNorm_2/mul" source_file="/home/cyxue/miniconda3/envs/alpa/lib/python3.8/site-packages/flax/linen/normalization.py" source_line=265}
  %multiply.144 = f32[3584]{0} multiply(f32[3584]{0} %maximum.0.clone.1, f32[3584]{0} %broadcast.203), metadata={op_name="parallelize(train_step_func_pipeshard_parallel_mesh_0)/jit(main)/jit(0)/jit(07)/jvp(WideResNet)/BottleneckResNetBlock_7/norm_proj/mul" source_file="/home/cyxue/miniconda3/envs/alpa/lib/python3.8/site-packages/flax/linen/normalization.py" source_line=267}
  %add.34 = f32[3584]{0} add(f32[3584]{0} %multiply.145, f32[3584]{0} %multiply.144), metadata={op_name="parallelize(train_step_func_pipeshard_parallel_mesh_0)/jit(main)/jit(0)/jit(07)/jvp(WideResNet)/BottleneckResNetBlock_7/norm_proj/add" source_file="/home/cyxue/miniconda3/envs/alpa/lib/python3.8/site-packages/flax/linen/normalization.py" source_line=267}
  %add.33 = f32[3584]{0} add(f32[3584]{0} %param_0.4, f32[3584]{0} %add.34), metadata={op_name="parallelize(train_step_func_pipeshard_parallel_mesh_0)/jit(main)/jit(0)/jit(07)/add"}
  %param_4.400 = f32[3584]{0} parameter(4)
  %param_5.190 = f32[3584]{0} parameter(5)
  %multiply.151.clone.1 = f32[3584]{0} multiply(f32[3584]{0} %param_5.190, f32[3584]{0} %broadcast.204), metadata={op_name="parallelize(train_step_func_pipeshard_parallel_mesh_0)/jit(main)/jit(0)/jit(07)/jvp(WideResNet)/BottleneckResNetBlock_7/norm_proj/mul" source_file="/home/cyxue/miniconda3/envs/alpa/lib/python3.8/site-packages/flax/linen/normalization.py" source_line=265}
  %constant_95_clone_1 = f32[] constant(3.18877537e-05)
  %broadcast.208.clone.1 = f32[3584]{0} broadcast(f32[] %constant_95_clone_1), dimensions={}, metadata={op_name="parallelize(train_step_func_pipeshard_parallel_mesh_0)/jit(main)/jit(0)/jit(07)/jvp(WideResNet)/BottleneckResNetBlock_7/BatchNorm_2/mul" source_file="/home/cyxue/miniconda3/envs/alpa/lib/python3.8/site-packages/flax/linen/normalization.py" source_line=265}
  %multiply.150.clone.1 = f32[3584]{0} multiply(f32[3584]{0} %param_2.598, f32[3584]{0} %broadcast.208.clone.1), metadata={op_name="parallelize(train_step_func_pipeshard_parallel_mesh_0)/jit(main)/jit(0)/jit(07)/jvp(WideResNet)/BottleneckResNetBlock_7/norm_proj/mul" source_file="/home/cyxue/miniconda3/envs/alpa/lib/python3.8/site-packages/flax/linen/normalization.py" source_line=265}
  %add.36.clone.1 = f32[3584]{0} add(f32[3584]{0} %multiply.151.clone.1, f32[3584]{0} %multiply.150.clone.1), metadata={op_name="parallelize(train_step_func_pipeshard_parallel_mesh_0)/jit(main)/jit(0)/jit(07)/jvp(WideResNet)/BottleneckResNetBlock_7/norm_proj/add" source_file="/home/cyxue/miniconda3/envs/alpa/lib/python3.8/site-packages/flax/linen/normalization.py" source_line=265}
  %add.35.clone.1 = f32[3584]{0} add(f32[3584]{0} %param_4.400, f32[3584]{0} %add.36.clone.1), metadata={op_name="parallelize(train_step_func_pipeshard_parallel_mesh_0)/jit(main)/jit(0)/jit(07)/add"}
  ROOT %tuple.2 = (f32[3584]{0}, f32[3584]{0}, f32[3584]{0}) tuple(f32[3584]{0} %add.33, f32[3584]{0} %maximum.0.clone.1, f32[3584]{0} %add.35.clone.1)
}

%fused_computation.7 (param_0.14: f32[3584], param_1.666: f32[3584], param_2.602: f32[3584], param_3.579: f32[16,3584], param_4.406: f32[3584], param_5.197: f32[3584]) -> (f32[3584], f32[3584], f32[3584]) {
  %param_0.14 = f32[3584]{0} parameter(0)
  %param_1.666 = f32[3584]{0} parameter(1)
  %constant_99 = f32[] constant(0.9)
  %broadcast.211 = f32[3584]{0} broadcast(f32[] %constant_99), dimensions={}, metadata={op_name="parallelize(train_step_func_pipeshard_parallel_mesh_0)/jit(main)/jit(0)/jit(07)/jvp(WideResNet)/BottleneckResNetBlock_7/BatchNorm_2/mul" source_file="/home/cyxue/miniconda3/envs/alpa/lib/python3.8/site-packages/flax/linen/normalization.py" source_line=265}
  %multiply.153 = f32[3584]{0} multiply(f32[3584]{0} %param_1.666, f32[3584]{0} %broadcast.211), metadata={op_name="parallelize(train_step_func_pipeshard_parallel_mesh_0)/jit(main)/jit(0)/jit(07)/jvp(WideResNet)/BottleneckResNetBlock_7/BatchNorm_2/mul" source_file="/home/cyxue/miniconda3/envs/alpa/lib/python3.8/site-packages/flax/linen/normalization.py" source_line=267}
  %param_3.579 = f32[16,3584]{1,0} parameter(3)
  %constant_101_clone_1 = f32[] constant(0)
  %reduce.283.clone.1 = f32[3584]{0} reduce(f32[16,3584]{1,0} %param_3.579, f32[] %constant_101_clone_1), dimensions={0}, to_apply=%region_0.1246.0, metadata={op_name="parallelize(train_step_func_pipeshard_parallel_mesh_0)/jit(main)/jit(0)/jit(07)/jvp(WideResNet)/BottleneckResNetBlock_7/BatchNorm_2/reduce_sum[axes=(0, 1, 2)]" source_file="/home/cyxue/miniconda3/envs/alpa/lib/python3.8/site-packages/flax/linen/normalization.py" source_line=83}
  %constant_730_clone_1 = f32[] constant(0.000318877544)
  %broadcast.213.clone.1 = f32[3584]{0} broadcast(f32[] %constant_730_clone_1), dimensions={}, metadata={op_name="parallelize(train_step_func_pipeshard_parallel_mesh_0)/jit(main)/jit(0)/jit(07)/jvp(WideResNet)/BottleneckResNetBlock_7/BatchNorm_2/div" source_file="/home/cyxue/miniconda3/envs/alpa/lib/python3.8/site-packages/flax/linen/normalization.py" source_line=82}
  %multiply.155.clone.1 = f32[3584]{0} multiply(f32[3584]{0} %reduce.283.clone.1, f32[3584]{0} %broadcast.213.clone.1), metadata={op_name="parallelize(train_step_func_pipeshard_parallel_mesh_0)/jit(main)/jit(0)/jit(07)/jvp(WideResNet)/BottleneckResNetBlock_7/BatchNorm_2/div" source_file="/home/cyxue/miniconda3/envs/alpa/lib/python3.8/site-packages/flax/linen/normalization.py" source_line=83}
  %param_2.602 = f32[3584]{0} parameter(2)
  %multiply.575.clone.1 = f32[3584]{0} multiply(f32[3584]{0} %param_2.602, f32[3584]{0} %broadcast.213.clone.1), metadata={op_name="parallelize(train_step_func_pipeshard_parallel_mesh_0)/jit(main)/jit(0)/jit(07)/jvp(WideResNet)/BottleneckResNetBlock_7/BatchNorm_2/div" source_file="/home/cyxue/miniconda3/envs/alpa/lib/python3.8/site-packages/flax/linen/normalization.py" source_line=82}
  %multiply.154.clone.1 = f32[3584]{0} multiply(f32[3584]{0} %multiply.575.clone.1, f32[3584]{0} %multiply.575.clone.1), metadata={op_name="parallelize(train_step_func_pipeshard_parallel_mesh_0)/jit(main)/jit(0)/jit(07)/jvp(WideResNet)/BottleneckResNetBlock_7/BatchNorm_2/mul" source_file="/home/cyxue/miniconda3/envs/alpa/lib/python3.8/site-packages/flax/linen/normalization.py" source_line=46}
  %subtract.3.clone.1 = f32[3584]{0} subtract(f32[3584]{0} %multiply.155.clone.1, f32[3584]{0} %multiply.154.clone.1), metadata={op_name="parallelize(train_step_func_pipeshard_parallel_mesh_0)/jit(main)/jit(0)/jit(07)/jvp(WideResNet)/BottleneckResNetBlock_7/BatchNorm_2/sub" source_file="/home/cyxue/miniconda3/envs/alpa/lib/python3.8/site-packages/flax/linen/normalization.py" source_line=93}
  %broadcast.212.clone.1 = f32[3584]{0} broadcast(f32[] %constant_101_clone_1), dimensions={}, metadata={op_name="parallelize(train_step_func_pipeshard_parallel_mesh_0)/jit(main)/jit(0)/jit(07)/jvp(WideResNet)/BottleneckResNetBlock_7/BatchNorm_2/max" source_file="/home/cyxue/miniconda3/envs/alpa/lib/python3.8/site-packages/flax/linen/normalization.py" source_line=93}
  %maximum.1.clone.1 = f32[3584]{0} maximum(f32[3584]{0} %subtract.3.clone.1, f32[3584]{0} %broadcast.212.clone.1), metadata={op_name="parallelize(train_step_func_pipeshard_parallel_mesh_0)/jit(main)/jit(0)/jit(07)/jvp(WideResNet)/BottleneckResNetBlock_7/BatchNorm_2/max" source_file="/home/cyxue/miniconda3/envs/alpa/lib/python3.8/site-packages/flax/linen/normalization.py" source_line=93}
  %constant_98 = f32[] constant(0.1)
  %broadcast.210 = f32[3584]{0} broadcast(f32[] %constant_98), dimensions={}, metadata={op_name="parallelize(train_step_func_pipeshard_parallel_mesh_0)/jit(main)/jit(0)/jit(07)/jvp(WideResNet)/BottleneckResNetBlock_7/BatchNorm_2/mul" source_file="/home/cyxue/miniconda3/envs/alpa/lib/python3.8/site-packages/flax/linen/normalization.py" source_line=265}
  %multiply.152 = f32[3584]{0} multiply(f32[3584]{0} %maximum.1.clone.1, f32[3584]{0} %broadcast.210), metadata={op_name="parallelize(train_step_func_pipeshard_parallel_mesh_0)/jit(main)/jit(0)/jit(07)/jvp(WideResNet)/BottleneckResNetBlock_7/BatchNorm_2/mul" source_file="/home/cyxue/miniconda3/envs/alpa/lib/python3.8/site-packages/flax/linen/normalization.py" source_line=267}
  %add.38 = f32[3584]{0} add(f32[3584]{0} %multiply.153, f32[3584]{0} %multiply.152), metadata={op_name="parallelize(train_step_func_pipeshard_parallel_mesh_0)/jit(main)/jit(0)/jit(07)/jvp(WideResNet)/BottleneckResNetBlock_7/BatchNorm_2/add" source_file="/home/cyxue/miniconda3/envs/alpa/lib/python3.8/site-packages/flax/linen/normalization.py" source_line=267}
  %add.37 = f32[3584]{0} add(f32[3584]{0} %param_0.14, f32[3584]{0} %add.38), metadata={op_name="parallelize(train_step_func_pipeshard_parallel_mesh_0)/jit(main)/jit(0)/jit(07)/add"}
  %param_4.406 = f32[3584]{0} parameter(4)
  %param_5.197 = f32[3584]{0} parameter(5)
  %multiply.159.clone.1 = f32[3584]{0} multiply(f32[3584]{0} %param_5.197, f32[3584]{0} %broadcast.211), metadata={op_name="parallelize(train_step_func_pipeshard_parallel_mesh_0)/jit(main)/jit(0)/jit(07)/jvp(WideResNet)/BottleneckResNetBlock_7/BatchNorm_2/mul" source_file="/home/cyxue/miniconda3/envs/alpa/lib/python3.8/site-packages/flax/linen/normalization.py" source_line=265}
  %constant_104_clone_1 = f32[] constant(3.18877537e-05)
  %broadcast.215.clone.1 = f32[3584]{0} broadcast(f32[] %constant_104_clone_1), dimensions={}, metadata={op_name="parallelize(train_step_func_pipeshard_parallel_mesh_0)/jit(main)/jit(0)/jit(07)/jvp(WideResNet)/BottleneckResNetBlock_7/BatchNorm_2/mul" source_file="/home/cyxue/miniconda3/envs/alpa/lib/python3.8/site-packages/flax/linen/normalization.py" source_line=265}
  %multiply.158.clone.1 = f32[3584]{0} multiply(f32[3584]{0} %param_2.602, f32[3584]{0} %broadcast.215.clone.1), metadata={op_name="parallelize(train_step_func_pipeshard_parallel_mesh_0)/jit(main)/jit(0)/jit(07)/jvp(WideResNet)/BottleneckResNetBlock_7/BatchNorm_2/mul" source_file="/home/cyxue/miniconda3/envs/alpa/lib/python3.8/site-packages/flax/linen/normalization.py" source_line=265}
  %add.40.clone.1 = f32[3584]{0} add(f32[3584]{0} %multiply.159.clone.1, f32[3584]{0} %multiply.158.clone.1), metadata={op_name="parallelize(train_step_func_pipeshard_parallel_mesh_0)/jit(main)/jit(0)/jit(07)/jvp(WideResNet)/BottleneckResNetBlock_7/BatchNorm_2/add" source_file="/home/cyxue/miniconda3/envs/alpa/lib/python3.8/site-packages/flax/linen/normalization.py" source_line=265}
  %add.39.clone.1 = f32[3584]{0} add(f32[3584]{0} %param_4.406, f32[3584]{0} %add.40.clone.1), metadata={op_name="parallelize(train_step_func_pipeshard_parallel_mesh_0)/jit(main)/jit(0)/jit(07)/add"}
  ROOT %tuple.5 = (f32[3584]{0}, f32[3584]{0}, f32[3584]{0}) tuple(f32[3584]{0} %add.37, f32[3584]{0} %maximum.1.clone.1, f32[3584]{0} %add.39.clone.1)
}

%fused_computation.13 (param_0.349: f32[1792], param_1.592: f32[1792], param_2.480: f32[1792], param_3.470: f32[16,14,14,1792], param_4.393: f32[1792]) -> f32[16,14,14,1792] {
  %param_3.470 = f32[16,14,14,1792]{2,1,3,0} parameter(3)
  %param_4.393 = f32[1792]{0} parameter(4)
  %constant_721 = f32[] constant(0.000318877544)
  %broadcast.702 = f32[1792]{0} broadcast(f32[] %constant_721), dimensions={}, metadata={op_name="parallelize(train_step_func_pipeshard_parallel_mesh_0)/jit(main)/jit(0)/jit(07)/jvp(WideResNet)/BottleneckResNetBlock_7/BatchNorm_1/div" source_file="/home/cyxue/miniconda3/envs/alpa/lib/python3.8/site-packages/flax/linen/normalization.py" source_line=82}
  %multiply.569 = f32[1792]{0} multiply(f32[1792]{0} %param_4.393, f32[1792]{0} %broadcast.702), metadata={op_name="parallelize(train_step_func_pipeshard_parallel_mesh_0)/jit(main)/jit(0)/jit(07)/jvp(WideResNet)/BottleneckResNetBlock_7/BatchNorm_1/div" source_file="/home/cyxue/miniconda3/envs/alpa/lib/python3.8/site-packages/flax/linen/normalization.py" source_line=82}
  %broadcast.220 = f32[16,14,14,1792]{2,1,3,0} broadcast(f32[1792]{0} %multiply.569), dimensions={3}, metadata={op_name="parallelize(train_step_func_pipeshard_parallel_mesh_0)/jit(main)/jit(0)/jit(07)/jvp(WideResNet)/BottleneckResNetBlock_7/BatchNorm_1/sub" source_file="/home/cyxue/miniconda3/envs/alpa/lib/python3.8/site-packages/flax/linen/normalization.py" source_line=138}
  %subtract.4 = f32[16,14,14,1792]{2,1,3,0} subtract(f32[16,14,14,1792]{2,1,3,0} %param_3.470, f32[16,14,14,1792]{2,1,3,0} %broadcast.220), metadata={op_name="parallelize(train_step_func_pipeshard_parallel_mesh_0)/jit(main)/jit(0)/jit(07)/jvp(WideResNet)/BottleneckResNetBlock_7/BatchNorm_1/sub" source_file="/home/cyxue/miniconda3/envs/alpa/lib/python3.8/site-packages/flax/linen/normalization.py" source_line=138}
  %param_2.480 = f32[1792]{0} parameter(2)
  %constant_107 = f32[] constant(1e-05)
  %broadcast.221 = f32[1792]{0} broadcast(f32[] %constant_107), dimensions={}, metadata={op_name="parallelize(train_step_func_pipeshard_parallel_mesh_0)/jit(main)/jit(0)/jit(03)/jvp(WideResNet)/BottleneckResNetBlock_3/BatchNorm_2/add" source_file="/home/cyxue/miniconda3/envs/alpa/lib/python3.8/site-packages/flax/linen/normalization.py" source_line=139}
  %add.42 = f32[1792]{0} add(f32[1792]{0} %param_2.480, f32[1792]{0} %broadcast.221), metadata={op_name="parallelize(train_step_func_pipeshard_parallel_mesh_0)/jit(main)/jit(0)/jit(07)/jvp(WideResNet)/BottleneckResNetBlock_7/BatchNorm_1/add" source_file="/home/cyxue/miniconda3/envs/alpa/lib/python3.8/site-packages/flax/linen/normalization.py" source_line=139}
  %rsqrt.30 = f32[1792]{0} rsqrt(f32[1792]{0} %add.42), metadata={op_name="parallelize(train_step_func_pipeshard_parallel_mesh_0)/jit(main)/jit(0)/jit(07)/jvp(WideResNet)/BottleneckResNetBlock_7/BatchNorm_1/rsqrt" source_file="/home/cyxue/miniconda3/envs/alpa/lib/python3.8/site-packages/flax/linen/normalization.py" source_line=139}
  %param_1.592 = f32[1792]{0} parameter(1)
  %multiply.161 = f32[1792]{0} multiply(f32[1792]{0} %rsqrt.30, f32[1792]{0} %param_1.592), metadata={op_name="parallelize(train_step_func_pipeshard_parallel_mesh_0)/jit(main)/jit(0)/jit(07)/jvp(WideResNet)/BottleneckResNetBlock_7/BatchNorm_1/mul" source_file="/home/cyxue/miniconda3/envs/alpa/lib/python3.8/site-packages/flax/linen/normalization.py" source_line=144}
  %broadcast.219 = f32[16,14,14,1792]{2,1,3,0} broadcast(f32[1792]{0} %multiply.161), dimensions={3}, metadata={op_name="parallelize(train_step_func_pipeshard_parallel_mesh_0)/jit(main)/jit(0)/jit(07)/jvp(WideResNet)/BottleneckResNetBlock_7/BatchNorm_1/mul" source_file="/home/cyxue/miniconda3/envs/alpa/lib/python3.8/site-packages/flax/linen/normalization.py" source_line=146}
  %multiply.160 = f32[16,14,14,1792]{2,1,3,0} multiply(f32[16,14,14,1792]{2,1,3,0} %subtract.4, f32[16,14,14,1792]{2,1,3,0} %broadcast.219), metadata={op_name="parallelize(train_step_func_pipeshard_parallel_mesh_0)/jit(main)/jit(0)/jit(07)/jvp(WideResNet)/BottleneckResNetBlock_7/BatchNorm_1/mul" source_file="/home/cyxue/miniconda3/envs/alpa/lib/python3.8/site-packages/flax/linen/normalization.py" source_line=146}
  %param_0.349 = f32[1792]{0} parameter(0)
  %broadcast.218 = f32[16,14,14,1792]{2,1,3,0} broadcast(f32[1792]{0} %param_0.349), dimensions={3}, metadata={op_name="parallelize(train_step_func_pipeshard_parallel_mesh_0)/jit(main)/jit(0)/jit(07)/jvp(WideResNet)/BottleneckResNetBlock_7/BatchNorm_1/add" source_file="/home/cyxue/miniconda3/envs/alpa/lib/python3.8/site-packages/flax/linen/normalization.py" source_line=150}
  %add.41 = f32[16,14,14,1792]{2,1,3,0} add(f32[16,14,14,1792]{2,1,3,0} %multiply.160, f32[16,14,14,1792]{2,1,3,0} %broadcast.218), metadata={op_name="parallelize(train_step_func_pipeshard_parallel_mesh_0)/jit(main)/jit(0)/jit(07)/jvp(WideResNet)/BottleneckResNetBlock_7/BatchNorm_1/add" source_file="/home/cyxue/miniconda3/envs/alpa/lib/python3.8/site-packages/flax/linen/normalization.py" source_line=150}
  %constant_108 = f32[] constant(0)
  %broadcast.217 = f32[16,14,14,1792]{2,1,3,0} broadcast(f32[] %constant_108), dimensions={}, metadata={op_name="parallelize(train_step_func_pipeshard_parallel_mesh_0)/jit(main)/jit(0)/jit(07)/jvp(WideResNet)/BottleneckResNetBlock_7/max" source_file="/home/cyxue/Projects/crius/Crius/runtime/crius_worker/jax/model/wide_resnet.py" source_line=88}
  ROOT %maximum.2 = f32[16,14,14,1792]{2,1,3,0} maximum(f32[16,14,14,1792]{2,1,3,0} %add.41, f32[16,14,14,1792]{2,1,3,0} %broadcast.217), metadata={op_name="parallelize(train_step_func_pipeshard_parallel_mesh_0)/jit(main)/jit(0)/jit(07)/jvp(WideResNet)/BottleneckResNetBlock_7/max" source_file="/home/cyxue/Projects/crius/Crius/runtime/crius_worker/jax/model/wide_resnet.py" source_line=88}
}

%fused_computation.14 (param_0.25: f32[1792], param_1.669: f32[1792], param_2.606: f32[1792], param_3.584: f32[16,1792], param_4.412: f32[1792], param_5.204: f32[1792]) -> (f32[1792], f32[1792], f32[1792]) {
  %param_0.25 = f32[1792]{0} parameter(0)
  %param_1.669 = f32[1792]{0} parameter(1)
  %constant_110 = f32[] constant(0.9)
  %broadcast.223 = f32[1792]{0} broadcast(f32[] %constant_110), dimensions={}, metadata={op_name="parallelize(train_step_func_pipeshard_parallel_mesh_0)/jit(main)/jit(0)/jit(03)/jvp(WideResNet)/BottleneckResNetBlock_3/BatchNorm_2/mul" source_file="/home/cyxue/miniconda3/envs/alpa/lib/python3.8/site-packages/flax/linen/normalization.py" source_line=265}
  %multiply.163 = f32[1792]{0} multiply(f32[1792]{0} %param_1.669, f32[1792]{0} %broadcast.223), metadata={op_name="parallelize(train_step_func_pipeshard_parallel_mesh_0)/jit(main)/jit(0)/jit(07)/jvp(WideResNet)/BottleneckResNetBlock_7/BatchNorm_1/mul" source_file="/home/cyxue/miniconda3/envs/alpa/lib/python3.8/site-packages/flax/linen/normalization.py" source_line=267}
  %param_3.584 = f32[16,1792]{1,0} parameter(3)
  %constant_112_clone_1 = f32[] constant(0)
  %reduce.286.clone.1 = f32[1792]{0} reduce(f32[16,1792]{1,0} %param_3.584, f32[] %constant_112_clone_1), dimensions={0}, to_apply=%region_0.1246.0, metadata={op_name="parallelize(train_step_func_pipeshard_parallel_mesh_0)/jit(main)/jit(0)/jit(07)/jvp(WideResNet)/BottleneckResNetBlock_7/BatchNorm_1/reduce_sum[axes=(0, 1, 2)]" source_file="/home/cyxue/miniconda3/envs/alpa/lib/python3.8/site-packages/flax/linen/normalization.py" source_line=83}
  %constant_724_clone_1 = f32[] constant(0.000318877544)
  %broadcast.224.clone.1 = f32[1792]{0} broadcast(f32[] %constant_724_clone_1), dimensions={}, metadata={op_name="parallelize(train_step_func_pipeshard_parallel_mesh_0)/jit(main)/jit(0)/jit(07)/jvp(WideResNet)/BottleneckResNetBlock_7/BatchNorm_1/div" source_file="/home/cyxue/miniconda3/envs/alpa/lib/python3.8/site-packages/flax/linen/normalization.py" source_line=82}
  %multiply.165.clone.1 = f32[1792]{0} multiply(f32[1792]{0} %reduce.286.clone.1, f32[1792]{0} %broadcast.224.clone.1), metadata={op_name="parallelize(train_step_func_pipeshard_parallel_mesh_0)/jit(main)/jit(0)/jit(07)/jvp(WideResNet)/BottleneckResNetBlock_7/BatchNorm_1/div" source_file="/home/cyxue/miniconda3/envs/alpa/lib/python3.8/site-packages/flax/linen/normalization.py" source_line=83}
  %param_2.606 = f32[1792]{0} parameter(2)
  %multiply.571.clone.1 = f32[1792]{0} multiply(f32[1792]{0} %param_2.606, f32[1792]{0} %broadcast.224.clone.1), metadata={op_name="parallelize(train_step_func_pipeshard_parallel_mesh_0)/jit(main)/jit(0)/jit(07)/jvp(WideResNet)/BottleneckResNetBlock_7/BatchNorm_1/div" source_file="/home/cyxue/miniconda3/envs/alpa/lib/python3.8/site-packages/flax/linen/normalization.py" source_line=82}
  %multiply.164.clone.1 = f32[1792]{0} multiply(f32[1792]{0} %multiply.571.clone.1, f32[1792]{0} %multiply.571.clone.1), metadata={op_name="parallelize(train_step_func_pipeshard_parallel_mesh_0)/jit(main)/jit(0)/jit(07)/jvp(WideResNet)/BottleneckResNetBlock_7/BatchNorm_1/mul" source_file="/home/cyxue/miniconda3/envs/alpa/lib/python3.8/site-packages/flax/linen/normalization.py" source_line=46}
  %subtract.5.clone.1 = f32[1792]{0} subtract(f32[1792]{0} %multiply.165.clone.1, f32[1792]{0} %multiply.164.clone.1), metadata={op_name="parallelize(train_step_func_pipeshard_parallel_mesh_0)/jit(main)/jit(0)/jit(07)/jvp(WideResNet)/BottleneckResNetBlock_7/BatchNorm_1/sub" source_file="/home/cyxue/miniconda3/envs/alpa/lib/python3.8/site-packages/flax/linen/normalization.py" source_line=93}
  %broadcast.225.clone.1 = f32[1792]{0} broadcast(f32[] %constant_112_clone_1), dimensions={}, metadata={op_name="parallelize(train_step_func_pipeshard_parallel_mesh_0)/jit(main)/jit(0)/jit(03)/jvp(WideResNet)/BottleneckResNetBlock_3/BatchNorm_2/max" source_file="/home/cyxue/miniconda3/envs/alpa/lib/python3.8/site-packages/flax/linen/normalization.py" source_line=93}
  %maximum.3.clone.1 = f32[1792]{0} maximum(f32[1792]{0} %subtract.5.clone.1, f32[1792]{0} %broadcast.225.clone.1), metadata={op_name="parallelize(train_step_func_pipeshard_parallel_mesh_0)/jit(main)/jit(0)/jit(07)/jvp(WideResNet)/BottleneckResNetBlock_7/BatchNorm_1/max" source_file="/home/cyxue/miniconda3/envs/alpa/lib/python3.8/site-packages/flax/linen/normalization.py" source_line=93}
  %constant_109 = f32[] constant(0.1)
  %broadcast.222 = f32[1792]{0} broadcast(f32[] %constant_109), dimensions={}, metadata={op_name="parallelize(train_step_func_pipeshard_parallel_mesh_0)/jit(main)/jit(0)/jit(03)/jvp(WideResNet)/BottleneckResNetBlock_3/BatchNorm_2/mul" source_file="/home/cyxue/miniconda3/envs/alpa/lib/python3.8/site-packages/flax/linen/normalization.py" source_line=265}
  %multiply.162 = f32[1792]{0} multiply(f32[1792]{0} %maximum.3.clone.1, f32[1792]{0} %broadcast.222), metadata={op_name="parallelize(train_step_func_pipeshard_parallel_mesh_0)/jit(main)/jit(0)/jit(07)/jvp(WideResNet)/BottleneckResNetBlock_7/BatchNorm_1/mul" source_file="/home/cyxue/miniconda3/envs/alpa/lib/python3.8/site-packages/flax/linen/normalization.py" source_line=267}
  %add.44 = f32[1792]{0} add(f32[1792]{0} %multiply.163, f32[1792]{0} %multiply.162), metadata={op_name="parallelize(train_step_func_pipeshard_parallel_mesh_0)/jit(main)/jit(0)/jit(07)/jvp(WideResNet)/BottleneckResNetBlock_7/BatchNorm_1/add" source_file="/home/cyxue/miniconda3/envs/alpa/lib/python3.8/site-packages/flax/linen/normalization.py" source_line=267}
  %add.43 = f32[1792]{0} add(f32[1792]{0} %param_0.25, f32[1792]{0} %add.44), metadata={op_name="parallelize(train_step_func_pipeshard_parallel_mesh_0)/jit(main)/jit(0)/jit(07)/add"}
  %param_4.412 = f32[1792]{0} parameter(4)
  %param_5.204 = f32[1792]{0} parameter(5)
  %multiply.169.clone.1 = f32[1792]{0} multiply(f32[1792]{0} %param_5.204, f32[1792]{0} %broadcast.223), metadata={op_name="parallelize(train_step_func_pipeshard_parallel_mesh_0)/jit(main)/jit(0)/jit(07)/jvp(WideResNet)/BottleneckResNetBlock_7/BatchNorm_1/mul" source_file="/home/cyxue/miniconda3/envs/alpa/lib/python3.8/site-packages/flax/linen/normalization.py" source_line=265}
  %constant_115_clone_1 = f32[] constant(3.18877537e-05)
  %broadcast.227.clone.1 = f32[1792]{0} broadcast(f32[] %constant_115_clone_1), dimensions={}, metadata={op_name="parallelize(train_step_func_pipeshard_parallel_mesh_0)/jit(main)/jit(0)/jit(07)/jvp(WideResNet)/BottleneckResNetBlock_7/BatchNorm_1/mul" source_file="/home/cyxue/miniconda3/envs/alpa/lib/python3.8/site-packages/flax/linen/normalization.py" source_line=265}
  %multiply.168.clone.1 = f32[1792]{0} multiply(f32[1792]{0} %param_2.606, f32[1792]{0} %broadcast.227.clone.1), metadata={op_name="parallelize(train_step_func_pipeshard_parallel_mesh_0)/jit(main)/jit(0)/jit(07)/jvp(WideResNet)/BottleneckResNetBlock_7/BatchNorm_1/mul" source_file="/home/cyxue/miniconda3/envs/alpa/lib/python3.8/site-packages/flax/linen/normalization.py" source_line=265}
  %add.46.clone.1 = f32[1792]{0} add(f32[1792]{0} %multiply.169.clone.1, f32[1792]{0} %multiply.168.clone.1), metadata={op_name="parallelize(train_step_func_pipeshard_parallel_mesh_0)/jit(main)/jit(0)/jit(07)/jvp(WideResNet)/BottleneckResNetBlock_7/BatchNorm_1/add" source_file="/home/cyxue/miniconda3/envs/alpa/lib/python3.8/site-packages/flax/linen/normalization.py" source_line=265}
  %add.45.clone.1 = f32[1792]{0} add(f32[1792]{0} %param_4.412, f32[1792]{0} %add.46.clone.1), metadata={op_name="parallelize(train_step_func_pipeshard_parallel_mesh_0)/jit(main)/jit(0)/jit(07)/add"}
  ROOT %tuple.8 = (f32[1792]{0}, f32[1792]{0}, f32[1792]{0}) tuple(f32[1792]{0} %add.43, f32[1792]{0} %maximum.3.clone.1, f32[1792]{0} %add.45.clone.1)
}

%fused_computation.20 (param_0.352: f32[896], param_1.594: f32[896], param_2.483: f32[896], param_3.473: f32[16,28,28,896], param_4.392: f32[896]) -> f32[16,29,29,896] {
  %param_3.473 = f32[16,28,28,896]{2,1,3,0} parameter(3)
  %param_4.392 = f32[896]{0} parameter(4)
  %constant_715 = f32[] constant(7.97193861e-05)
  %broadcast.698 = f32[896]{0} broadcast(f32[] %constant_715), dimensions={}, metadata={op_name="parallelize(train_step_func_pipeshard_parallel_mesh_0)/jit(main)/jit(0)/jit(03)/jvp(WideResNet)/BottleneckResNetBlock_3/BatchNorm_1/div" source_file="/home/cyxue/miniconda3/envs/alpa/lib/python3.8/site-packages/flax/linen/normalization.py" source_line=82}
  %multiply.565 = f32[896]{0} multiply(f32[896]{0} %param_4.392, f32[896]{0} %broadcast.698), metadata={op_name="parallelize(train_step_func_pipeshard_parallel_mesh_0)/jit(main)/jit(0)/jit(07)/jvp(WideResNet)/BottleneckResNetBlock_7/BatchNorm_0/div" source_file="/home/cyxue/miniconda3/envs/alpa/lib/python3.8/site-packages/flax/linen/normalization.py" source_line=82}
  %broadcast.231 = f32[16,28,28,896]{2,1,3,0} broadcast(f32[896]{0} %multiply.565), dimensions={3}, metadata={op_name="parallelize(train_step_func_pipeshard_parallel_mesh_0)/jit(main)/jit(0)/jit(07)/jvp(WideResNet)/BottleneckResNetBlock_7/BatchNorm_0/sub" source_file="/home/cyxue/miniconda3/envs/alpa/lib/python3.8/site-packages/flax/linen/normalization.py" source_line=138}
  %subtract.6 = f32[16,28,28,896]{2,1,3,0} subtract(f32[16,28,28,896]{2,1,3,0} %param_3.473, f32[16,28,28,896]{2,1,3,0} %broadcast.231), metadata={op_name="parallelize(train_step_func_pipeshard_parallel_mesh_0)/jit(main)/jit(0)/jit(07)/jvp(WideResNet)/BottleneckResNetBlock_7/BatchNorm_0/sub" source_file="/home/cyxue/miniconda3/envs/alpa/lib/python3.8/site-packages/flax/linen/normalization.py" source_line=138}
  %param_2.483 = f32[896]{0} parameter(2)
  %constant_118 = f32[] constant(1e-05)
  %broadcast.233 = f32[896]{0} broadcast(f32[] %constant_118), dimensions={}, metadata={op_name="parallelize(train_step_func_pipeshard_parallel_mesh_0)/jit(main)/jit(0)/jit(01)/jvp(WideResNet)/BottleneckResNetBlock_0/BatchNorm_2/add" source_file="/home/cyxue/miniconda3/envs/alpa/lib/python3.8/site-packages/flax/linen/normalization.py" source_line=139}
  %add.48 = f32[896]{0} add(f32[896]{0} %param_2.483, f32[896]{0} %broadcast.233), metadata={op_name="parallelize(train_step_func_pipeshard_parallel_mesh_0)/jit(main)/jit(0)/jit(07)/jvp(WideResNet)/BottleneckResNetBlock_7/BatchNorm_0/add" source_file="/home/cyxue/miniconda3/envs/alpa/lib/python3.8/site-packages/flax/linen/normalization.py" source_line=139}
  %rsqrt.31 = f32[896]{0} rsqrt(f32[896]{0} %add.48), metadata={op_name="parallelize(train_step_func_pipeshard_parallel_mesh_0)/jit(main)/jit(0)/jit(07)/jvp(WideResNet)/BottleneckResNetBlock_7/BatchNorm_0/rsqrt" source_file="/home/cyxue/miniconda3/envs/alpa/lib/python3.8/site-packages/flax/linen/normalization.py" source_line=139}
  %param_1.594 = f32[896]{0} parameter(1)
  %multiply.171 = f32[896]{0} multiply(f32[896]{0} %rsqrt.31, f32[896]{0} %param_1.594), metadata={op_name="parallelize(train_step_func_pipeshard_parallel_mesh_0)/jit(main)/jit(0)/jit(07)/jvp(WideResNet)/BottleneckResNetBlock_7/BatchNorm_0/mul" source_file="/home/cyxue/miniconda3/envs/alpa/lib/python3.8/site-packages/flax/linen/normalization.py" source_line=144}
  %broadcast.230 = f32[16,28,28,896]{2,1,3,0} broadcast(f32[896]{0} %multiply.171), dimensions={3}, metadata={op_name="parallelize(train_step_func_pipeshard_parallel_mesh_0)/jit(main)/jit(0)/jit(07)/jvp(WideResNet)/BottleneckResNetBlock_7/BatchNorm_0/mul" source_file="/home/cyxue/miniconda3/envs/alpa/lib/python3.8/site-packages/flax/linen/normalization.py" source_line=146}
  %multiply.170 = f32[16,28,28,896]{2,1,3,0} multiply(f32[16,28,28,896]{2,1,3,0} %subtract.6, f32[16,28,28,896]{2,1,3,0} %broadcast.230), metadata={op_name="parallelize(train_step_func_pipeshard_parallel_mesh_0)/jit(main)/jit(0)/jit(07)/jvp(WideResNet)/BottleneckResNetBlock_7/BatchNorm_0/mul" source_file="/home/cyxue/miniconda3/envs/alpa/lib/python3.8/site-packages/flax/linen/normalization.py" source_line=146}
  %param_0.352 = f32[896]{0} parameter(0)
  %broadcast.229 = f32[16,28,28,896]{2,1,3,0} broadcast(f32[896]{0} %param_0.352), dimensions={3}, metadata={op_name="parallelize(train_step_func_pipeshard_parallel_mesh_0)/jit(main)/jit(0)/jit(07)/jvp(WideResNet)/BottleneckResNetBlock_7/BatchNorm_0/add" source_file="/home/cyxue/miniconda3/envs/alpa/lib/python3.8/site-packages/flax/linen/normalization.py" source_line=150}
  %add.47 = f32[16,28,28,896]{2,1,3,0} add(f32[16,28,28,896]{2,1,3,0} %multiply.170, f32[16,28,28,896]{2,1,3,0} %broadcast.229), metadata={op_name="parallelize(train_step_func_pipeshard_parallel_mesh_0)/jit(main)/jit(0)/jit(07)/jvp(WideResNet)/BottleneckResNetBlock_7/BatchNorm_0/add" source_file="/home/cyxue/miniconda3/envs/alpa/lib/python3.8/site-packages/flax/linen/normalization.py" source_line=150}
  %constant_119 = f32[] constant(0)
  %broadcast.232 = f32[16,28,28,896]{2,1,3,0} broadcast(f32[] %constant_119), dimensions={}, metadata={op_name="parallelize(train_step_func_pipeshard_parallel_mesh_0)/jit(main)/jit(0)/jit(03)/jvp(WideResNet)/BottleneckResNetBlock_3/max" source_file="/home/cyxue/Projects/crius/Crius/runtime/crius_worker/jax/model/wide_resnet.py" source_line=88}
  %maximum.4 = f32[16,28,28,896]{2,1,3,0} maximum(f32[16,28,28,896]{2,1,3,0} %add.47, f32[16,28,28,896]{2,1,3,0} %broadcast.232), metadata={op_name="parallelize(train_step_func_pipeshard_parallel_mesh_0)/jit(main)/jit(0)/jit(07)/jvp(WideResNet)/BottleneckResNetBlock_7/max" source_file="/home/cyxue/Projects/crius/Crius/runtime/crius_worker/jax/model/wide_resnet.py" source_line=85}
  ROOT %pad.2 = f32[16,29,29,896]{2,1,3,0} pad(f32[16,28,28,896]{2,1,3,0} %maximum.4, f32[] %constant_119), padding=0_0x0_1x0_1x0_0, metadata={op_name="parallelize(train_step_func_pipeshard_parallel_mesh_0)/jit(main)/jit(0)/jit(07)/jvp(WideResNet)/BottleneckResNetBlock_7/max" source_file="/home/cyxue/Projects/crius/Crius/runtime/crius_worker/jax/model/wide_resnet.py" source_line=85}
}

%fused_computation.21 (param_0.37: f32[896], param_1.672: f32[896], param_2.610: f32[896], param_3.589: f32[16,896], param_4.418: f32[896], param_5.211: f32[896]) -> (f32[896], f32[896], f32[896]) {
  %param_0.37 = f32[896]{0} parameter(0)
  %param_1.672 = f32[896]{0} parameter(1)
  %constant_121 = f32[] constant(0.9)
  %broadcast.235 = f32[896]{0} broadcast(f32[] %constant_121), dimensions={}, metadata={op_name="parallelize(train_step_func_pipeshard_parallel_mesh_0)/jit(main)/jit(0)/jit(01)/jvp(WideResNet)/BottleneckResNetBlock_0/BatchNorm_2/mul" source_file="/home/cyxue/miniconda3/envs/alpa/lib/python3.8/site-packages/flax/linen/normalization.py" source_line=265}
  %multiply.173 = f32[896]{0} multiply(f32[896]{0} %param_1.672, f32[896]{0} %broadcast.235), metadata={op_name="parallelize(train_step_func_pipeshard_parallel_mesh_0)/jit(main)/jit(0)/jit(07)/jvp(WideResNet)/BottleneckResNetBlock_7/BatchNorm_0/mul" source_file="/home/cyxue/miniconda3/envs/alpa/lib/python3.8/site-packages/flax/linen/normalization.py" source_line=267}
  %param_3.589 = f32[16,896]{1,0} parameter(3)
  %constant_123_clone_1 = f32[] constant(0)
  %reduce.289.clone.1 = f32[896]{0} reduce(f32[16,896]{1,0} %param_3.589, f32[] %constant_123_clone_1), dimensions={0}, to_apply=%region_0.1246.0, metadata={op_name="parallelize(train_step_func_pipeshard_parallel_mesh_0)/jit(main)/jit(0)/jit(07)/jvp(WideResNet)/BottleneckResNetBlock_7/BatchNorm_0/reduce_sum[axes=(0, 1, 2)]" source_file="/home/cyxue/miniconda3/envs/alpa/lib/python3.8/site-packages/flax/linen/normalization.py" source_line=83}
  %constant_718_clone_1 = f32[] constant(7.97193861e-05)
  %broadcast.236.clone.1 = f32[896]{0} broadcast(f32[] %constant_718_clone_1), dimensions={}, metadata={op_name="parallelize(train_step_func_pipeshard_parallel_mesh_0)/jit(main)/jit(0)/jit(03)/jvp(WideResNet)/BottleneckResNetBlock_3/BatchNorm_1/div" source_file="/home/cyxue/miniconda3/envs/alpa/lib/python3.8/site-packages/flax/linen/normalization.py" source_line=82}
  %multiply.175.clone.1 = f32[896]{0} multiply(f32[896]{0} %reduce.289.clone.1, f32[896]{0} %broadcast.236.clone.1), metadata={op_name="parallelize(train_step_func_pipeshard_parallel_mesh_0)/jit(main)/jit(0)/jit(07)/jvp(WideResNet)/BottleneckResNetBlock_7/BatchNorm_0/div" source_file="/home/cyxue/miniconda3/envs/alpa/lib/python3.8/site-packages/flax/linen/normalization.py" source_line=83}
  %param_2.610 = f32[896]{0} parameter(2)
  %multiply.567.clone.1 = f32[896]{0} multiply(f32[896]{0} %param_2.610, f32[896]{0} %broadcast.236.clone.1), metadata={op_name="parallelize(train_step_func_pipeshard_parallel_mesh_0)/jit(main)/jit(0)/jit(07)/jvp(WideResNet)/BottleneckResNetBlock_7/BatchNorm_0/div" source_file="/home/cyxue/miniconda3/envs/alpa/lib/python3.8/site-packages/flax/linen/normalization.py" source_line=82}
  %multiply.174.clone.1 = f32[896]{0} multiply(f32[896]{0} %multiply.567.clone.1, f32[896]{0} %multiply.567.clone.1), metadata={op_name="parallelize(train_step_func_pipeshard_parallel_mesh_0)/jit(main)/jit(0)/jit(07)/jvp(WideResNet)/BottleneckResNetBlock_7/BatchNorm_0/mul" source_file="/home/cyxue/miniconda3/envs/alpa/lib/python3.8/site-packages/flax/linen/normalization.py" source_line=46}
  %subtract.7.clone.1 = f32[896]{0} subtract(f32[896]{0} %multiply.175.clone.1, f32[896]{0} %multiply.174.clone.1), metadata={op_name="parallelize(train_step_func_pipeshard_parallel_mesh_0)/jit(main)/jit(0)/jit(07)/jvp(WideResNet)/BottleneckResNetBlock_7/BatchNorm_0/sub" source_file="/home/cyxue/miniconda3/envs/alpa/lib/python3.8/site-packages/flax/linen/normalization.py" source_line=93}
  %broadcast.237.clone.1 = f32[896]{0} broadcast(f32[] %constant_123_clone_1), dimensions={}, metadata={op_name="parallelize(train_step_func_pipeshard_parallel_mesh_0)/jit(main)/jit(0)/jit(01)/jvp(WideResNet)/BottleneckResNetBlock_0/BatchNorm_2/max" source_file="/home/cyxue/miniconda3/envs/alpa/lib/python3.8/site-packages/flax/linen/normalization.py" source_line=93}
  %maximum.5.clone.1 = f32[896]{0} maximum(f32[896]{0} %subtract.7.clone.1, f32[896]{0} %broadcast.237.clone.1), metadata={op_name="parallelize(train_step_func_pipeshard_parallel_mesh_0)/jit(main)/jit(0)/jit(07)/jvp(WideResNet)/BottleneckResNetBlock_7/BatchNorm_0/max" source_file="/home/cyxue/miniconda3/envs/alpa/lib/python3.8/site-packages/flax/linen/normalization.py" source_line=93}
  %constant_120 = f32[] constant(0.1)
  %broadcast.234 = f32[896]{0} broadcast(f32[] %constant_120), dimensions={}, metadata={op_name="parallelize(train_step_func_pipeshard_parallel_mesh_0)/jit(main)/jit(0)/jit(01)/jvp(WideResNet)/BottleneckResNetBlock_0/BatchNorm_2/mul" source_file="/home/cyxue/miniconda3/envs/alpa/lib/python3.8/site-packages/flax/linen/normalization.py" source_line=265}
  %multiply.172 = f32[896]{0} multiply(f32[896]{0} %maximum.5.clone.1, f32[896]{0} %broadcast.234), metadata={op_name="parallelize(train_step_func_pipeshard_parallel_mesh_0)/jit(main)/jit(0)/jit(07)/jvp(WideResNet)/BottleneckResNetBlock_7/BatchNorm_0/mul" source_file="/home/cyxue/miniconda3/envs/alpa/lib/python3.8/site-packages/flax/linen/normalization.py" source_line=267}
  %add.50 = f32[896]{0} add(f32[896]{0} %multiply.173, f32[896]{0} %multiply.172), metadata={op_name="parallelize(train_step_func_pipeshard_parallel_mesh_0)/jit(main)/jit(0)/jit(07)/jvp(WideResNet)/BottleneckResNetBlock_7/BatchNorm_0/add" source_file="/home/cyxue/miniconda3/envs/alpa/lib/python3.8/site-packages/flax/linen/normalization.py" source_line=267}
  %add.49 = f32[896]{0} add(f32[896]{0} %param_0.37, f32[896]{0} %add.50), metadata={op_name="parallelize(train_step_func_pipeshard_parallel_mesh_0)/jit(main)/jit(0)/jit(07)/add"}
  %param_4.418 = f32[896]{0} parameter(4)
  %param_5.211 = f32[896]{0} parameter(5)
  %multiply.179.clone.1 = f32[896]{0} multiply(f32[896]{0} %param_5.211, f32[896]{0} %broadcast.235), metadata={op_name="parallelize(train_step_func_pipeshard_parallel_mesh_0)/jit(main)/jit(0)/jit(07)/jvp(WideResNet)/BottleneckResNetBlock_7/BatchNorm_0/mul" source_file="/home/cyxue/miniconda3/envs/alpa/lib/python3.8/site-packages/flax/linen/normalization.py" source_line=265}
  %constant_126_clone_1 = f32[] constant(7.97193843e-06)
  %broadcast.239.clone.1 = f32[896]{0} broadcast(f32[] %constant_126_clone_1), dimensions={}, metadata={op_name="parallelize(train_step_func_pipeshard_parallel_mesh_0)/jit(main)/jit(0)/jit(03)/jvp(WideResNet)/BottleneckResNetBlock_3/BatchNorm_1/mul" source_file="/home/cyxue/miniconda3/envs/alpa/lib/python3.8/site-packages/flax/linen/normalization.py" source_line=265}
  %multiply.178.clone.1 = f32[896]{0} multiply(f32[896]{0} %param_2.610, f32[896]{0} %broadcast.239.clone.1), metadata={op_name="parallelize(train_step_func_pipeshard_parallel_mesh_0)/jit(main)/jit(0)/jit(07)/jvp(WideResNet)/BottleneckResNetBlock_7/BatchNorm_0/mul" source_file="/home/cyxue/miniconda3/envs/alpa/lib/python3.8/site-packages/flax/linen/normalization.py" source_line=265}
  %add.52.clone.1 = f32[896]{0} add(f32[896]{0} %multiply.179.clone.1, f32[896]{0} %multiply.178.clone.1), metadata={op_name="parallelize(train_step_func_pipeshard_parallel_mesh_0)/jit(main)/jit(0)/jit(07)/jvp(WideResNet)/BottleneckResNetBlock_7/BatchNorm_0/add" source_file="/home/cyxue/miniconda3/envs/alpa/lib/python3.8/site-packages/flax/linen/normalization.py" source_line=265}
  %add.51.clone.1 = f32[896]{0} add(f32[896]{0} %param_4.418, f32[896]{0} %add.52.clone.1), metadata={op_name="parallelize(train_step_func_pipeshard_parallel_mesh_0)/jit(main)/jit(0)/jit(07)/add"}
  ROOT %tuple.11 = (f32[896]{0}, f32[896]{0}, f32[896]{0}) tuple(f32[896]{0} %add.49, f32[896]{0} %maximum.5.clone.1, f32[896]{0} %add.51.clone.1)
}

%fused_computation.28 (param_0.50: f32[1792], param_1.680: f32[1792], param_2.618: f32[1792], param_3.599: f32[16,1792], param_4.428: f32[1792], param_5.223: f32[1792]) -> (f32[1792], f32[1792], f32[1792]) {
  %param_0.50 = f32[1792]{0} parameter(0)
  %param_1.680 = f32[1792]{0} parameter(1)
  %constant_132 = f32[] constant(0.9)
  %broadcast.247 = f32[1792]{0} broadcast(f32[] %constant_132), dimensions={}, metadata={op_name="parallelize(train_step_func_pipeshard_parallel_mesh_0)/jit(main)/jit(0)/jit(03)/jvp(WideResNet)/BottleneckResNetBlock_3/BatchNorm_2/mul" source_file="/home/cyxue/miniconda3/envs/alpa/lib/python3.8/site-packages/flax/linen/normalization.py" source_line=265}
  %multiply.183 = f32[1792]{0} multiply(f32[1792]{0} %param_1.680, f32[1792]{0} %broadcast.247), metadata={op_name="parallelize(train_step_func_pipeshard_parallel_mesh_0)/jit(main)/jit(0)/jit(06)/jvp(WideResNet)/BottleneckResNetBlock_6/BatchNorm_2/mul" source_file="/home/cyxue/miniconda3/envs/alpa/lib/python3.8/site-packages/flax/linen/normalization.py" source_line=267}
  %param_3.599 = f32[16,1792]{1,0} parameter(3)
  %constant_134_clone_1 = f32[] constant(0)
  %reduce.292.clone.1 = f32[1792]{0} reduce(f32[16,1792]{1,0} %param_3.599, f32[] %constant_134_clone_1), dimensions={0}, to_apply=%region_0.1246.0, metadata={op_name="parallelize(train_step_func_pipeshard_parallel_mesh_0)/jit(main)/jit(0)/jit(06)/jvp(WideResNet)/BottleneckResNetBlock_6/BatchNorm_2/reduce_sum[axes=(0, 1, 2)]" source_file="/home/cyxue/miniconda3/envs/alpa/lib/python3.8/site-packages/flax/linen/normalization.py" source_line=83}
  %constant_712_clone_1 = f32[] constant(7.97193861e-05)
  %broadcast.249.clone.1 = f32[1792]{0} broadcast(f32[] %constant_712_clone_1), dimensions={}, metadata={op_name="parallelize(train_step_func_pipeshard_parallel_mesh_0)/jit(main)/jit(0)/jit(03)/jvp(WideResNet)/BottleneckResNetBlock_3/BatchNorm_2/div" source_file="/home/cyxue/miniconda3/envs/alpa/lib/python3.8/site-packages/flax/linen/normalization.py" source_line=82}
  %multiply.185.clone.1 = f32[1792]{0} multiply(f32[1792]{0} %reduce.292.clone.1, f32[1792]{0} %broadcast.249.clone.1), metadata={op_name="parallelize(train_step_func_pipeshard_parallel_mesh_0)/jit(main)/jit(0)/jit(06)/jvp(WideResNet)/BottleneckResNetBlock_6/BatchNorm_2/div" source_file="/home/cyxue/miniconda3/envs/alpa/lib/python3.8/site-packages/flax/linen/normalization.py" source_line=83}
  %param_2.618 = f32[1792]{0} parameter(2)
  %multiply.563.clone.1 = f32[1792]{0} multiply(f32[1792]{0} %param_2.618, f32[1792]{0} %broadcast.249.clone.1), metadata={op_name="parallelize(train_step_func_pipeshard_parallel_mesh_0)/jit(main)/jit(0)/jit(06)/jvp(WideResNet)/BottleneckResNetBlock_6/BatchNorm_2/div" source_file="/home/cyxue/miniconda3/envs/alpa/lib/python3.8/site-packages/flax/linen/normalization.py" source_line=82}
  %multiply.184.clone.1 = f32[1792]{0} multiply(f32[1792]{0} %multiply.563.clone.1, f32[1792]{0} %multiply.563.clone.1), metadata={op_name="parallelize(train_step_func_pipeshard_parallel_mesh_0)/jit(main)/jit(0)/jit(06)/jvp(WideResNet)/BottleneckResNetBlock_6/BatchNorm_2/mul" source_file="/home/cyxue/miniconda3/envs/alpa/lib/python3.8/site-packages/flax/linen/normalization.py" source_line=46}
  %subtract.9.clone.1 = f32[1792]{0} subtract(f32[1792]{0} %multiply.185.clone.1, f32[1792]{0} %multiply.184.clone.1), metadata={op_name="parallelize(train_step_func_pipeshard_parallel_mesh_0)/jit(main)/jit(0)/jit(06)/jvp(WideResNet)/BottleneckResNetBlock_6/BatchNorm_2/sub" source_file="/home/cyxue/miniconda3/envs/alpa/lib/python3.8/site-packages/flax/linen/normalization.py" source_line=93}
  %broadcast.248.clone.1 = f32[1792]{0} broadcast(f32[] %constant_134_clone_1), dimensions={}, metadata={op_name="parallelize(train_step_func_pipeshard_parallel_mesh_0)/jit(main)/jit(0)/jit(03)/jvp(WideResNet)/BottleneckResNetBlock_3/BatchNorm_2/max" source_file="/home/cyxue/miniconda3/envs/alpa/lib/python3.8/site-packages/flax/linen/normalization.py" source_line=93}
  %maximum.7.clone.1 = f32[1792]{0} maximum(f32[1792]{0} %subtract.9.clone.1, f32[1792]{0} %broadcast.248.clone.1), metadata={op_name="parallelize(train_step_func_pipeshard_parallel_mesh_0)/jit(main)/jit(0)/jit(06)/jvp(WideResNet)/BottleneckResNetBlock_6/BatchNorm_2/max" source_file="/home/cyxue/miniconda3/envs/alpa/lib/python3.8/site-packages/flax/linen/normalization.py" source_line=93}
  %constant_131 = f32[] constant(0.1)
  %broadcast.246 = f32[1792]{0} broadcast(f32[] %constant_131), dimensions={}, metadata={op_name="parallelize(train_step_func_pipeshard_parallel_mesh_0)/jit(main)/jit(0)/jit(03)/jvp(WideResNet)/BottleneckResNetBlock_3/BatchNorm_2/mul" source_file="/home/cyxue/miniconda3/envs/alpa/lib/python3.8/site-packages/flax/linen/normalization.py" source_line=265}
  %multiply.182 = f32[1792]{0} multiply(f32[1792]{0} %maximum.7.clone.1, f32[1792]{0} %broadcast.246), metadata={op_name="parallelize(train_step_func_pipeshard_parallel_mesh_0)/jit(main)/jit(0)/jit(06)/jvp(WideResNet)/BottleneckResNetBlock_6/BatchNorm_2/mul" source_file="/home/cyxue/miniconda3/envs/alpa/lib/python3.8/site-packages/flax/linen/normalization.py" source_line=267}
  %add.57 = f32[1792]{0} add(f32[1792]{0} %multiply.183, f32[1792]{0} %multiply.182), metadata={op_name="parallelize(train_step_func_pipeshard_parallel_mesh_0)/jit(main)/jit(0)/jit(06)/jvp(WideResNet)/BottleneckResNetBlock_6/BatchNorm_2/add" source_file="/home/cyxue/miniconda3/envs/alpa/lib/python3.8/site-packages/flax/linen/normalization.py" source_line=267}
  %add.56 = f32[1792]{0} add(f32[1792]{0} %param_0.50, f32[1792]{0} %add.57), metadata={op_name="parallelize(train_step_func_pipeshard_parallel_mesh_0)/jit(main)/jit(0)/jit(06)/add"}
  %param_4.428 = f32[1792]{0} parameter(4)
  %param_5.223 = f32[1792]{0} parameter(5)
  %multiply.189.clone.1 = f32[1792]{0} multiply(f32[1792]{0} %param_5.223, f32[1792]{0} %broadcast.247), metadata={op_name="parallelize(train_step_func_pipeshard_parallel_mesh_0)/jit(main)/jit(0)/jit(06)/jvp(WideResNet)/BottleneckResNetBlock_6/BatchNorm_2/mul" source_file="/home/cyxue/miniconda3/envs/alpa/lib/python3.8/site-packages/flax/linen/normalization.py" source_line=265}
  %constant_137_clone_1 = f32[] constant(7.97193843e-06)
  %broadcast.251.clone.1 = f32[1792]{0} broadcast(f32[] %constant_137_clone_1), dimensions={}, metadata={op_name="parallelize(train_step_func_pipeshard_parallel_mesh_0)/jit(main)/jit(0)/jit(03)/jvp(WideResNet)/BottleneckResNetBlock_3/BatchNorm_2/mul" source_file="/home/cyxue/miniconda3/envs/alpa/lib/python3.8/site-packages/flax/linen/normalization.py" source_line=265}
  %multiply.188.clone.1 = f32[1792]{0} multiply(f32[1792]{0} %param_2.618, f32[1792]{0} %broadcast.251.clone.1), metadata={op_name="parallelize(train_step_func_pipeshard_parallel_mesh_0)/jit(main)/jit(0)/jit(06)/jvp(WideResNet)/BottleneckResNetBlock_6/BatchNorm_2/mul" source_file="/home/cyxue/miniconda3/envs/alpa/lib/python3.8/site-packages/flax/linen/normalization.py" source_line=265}
  %add.59.clone.1 = f32[1792]{0} add(f32[1792]{0} %multiply.189.clone.1, f32[1792]{0} %multiply.188.clone.1), metadata={op_name="parallelize(train_step_func_pipeshard_parallel_mesh_0)/jit(main)/jit(0)/jit(06)/jvp(WideResNet)/BottleneckResNetBlock_6/BatchNorm_2/add" source_file="/home/cyxue/miniconda3/envs/alpa/lib/python3.8/site-packages/flax/linen/normalization.py" source_line=265}
  %add.58.clone.1 = f32[1792]{0} add(f32[1792]{0} %param_4.428, f32[1792]{0} %add.59.clone.1), metadata={op_name="parallelize(train_step_func_pipeshard_parallel_mesh_0)/jit(main)/jit(0)/jit(06)/add"}
  ROOT %tuple.15 = (f32[1792]{0}, f32[1792]{0}, f32[1792]{0}) tuple(f32[1792]{0} %add.56, f32[1792]{0} %maximum.7.clone.1, f32[1792]{0} %add.58.clone.1)
}

%fused_computation.34 (param_0.62: f32[896], param_1.106: f32[896], param_2.86: f32[896], param_3.85: f32[16,28,28,896], param_4.391: f32[896]) -> f32[16,28,28,896] {
  %param_3.85 = f32[16,28,28,896]{2,1,3,0} parameter(3)
  %param_4.391 = f32[896]{0} parameter(4)
  %constant_703 = f32[] constant(7.97193861e-05)
  %broadcast.690 = f32[896]{0} broadcast(f32[] %constant_703), dimensions={}, metadata={op_name="parallelize(train_step_func_pipeshard_parallel_mesh_0)/jit(main)/jit(0)/jit(03)/jvp(WideResNet)/BottleneckResNetBlock_3/BatchNorm_1/div" source_file="/home/cyxue/miniconda3/envs/alpa/lib/python3.8/site-packages/flax/linen/normalization.py" source_line=82}
  %multiply.557 = f32[896]{0} multiply(f32[896]{0} %param_4.391, f32[896]{0} %broadcast.690), metadata={op_name="parallelize(train_step_func_pipeshard_parallel_mesh_0)/jit(main)/jit(0)/jit(06)/jvp(WideResNet)/BottleneckResNetBlock_6/BatchNorm_1/div" source_file="/home/cyxue/miniconda3/envs/alpa/lib/python3.8/site-packages/flax/linen/normalization.py" source_line=82}
  %broadcast.255 = f32[16,28,28,896]{2,1,3,0} broadcast(f32[896]{0} %multiply.557), dimensions={3}, metadata={op_name="parallelize(train_step_func_pipeshard_parallel_mesh_0)/jit(main)/jit(0)/jit(06)/jvp(WideResNet)/BottleneckResNetBlock_6/BatchNorm_1/sub" source_file="/home/cyxue/miniconda3/envs/alpa/lib/python3.8/site-packages/flax/linen/normalization.py" source_line=138}
  %subtract.10 = f32[16,28,28,896]{2,1,3,0} subtract(f32[16,28,28,896]{2,1,3,0} %param_3.85, f32[16,28,28,896]{2,1,3,0} %broadcast.255), metadata={op_name="parallelize(train_step_func_pipeshard_parallel_mesh_0)/jit(main)/jit(0)/jit(06)/jvp(WideResNet)/BottleneckResNetBlock_6/BatchNorm_1/sub" source_file="/home/cyxue/miniconda3/envs/alpa/lib/python3.8/site-packages/flax/linen/normalization.py" source_line=138}
  %param_2.86 = f32[896]{0} parameter(2)
  %constant_140 = f32[] constant(1e-05)
  %broadcast.257 = f32[896]{0} broadcast(f32[] %constant_140), dimensions={}, metadata={op_name="parallelize(train_step_func_pipeshard_parallel_mesh_0)/jit(main)/jit(0)/jit(01)/jvp(WideResNet)/BottleneckResNetBlock_0/BatchNorm_2/add" source_file="/home/cyxue/miniconda3/envs/alpa/lib/python3.8/site-packages/flax/linen/normalization.py" source_line=139}
  %add.61 = f32[896]{0} add(f32[896]{0} %param_2.86, f32[896]{0} %broadcast.257), metadata={op_name="parallelize(train_step_func_pipeshard_parallel_mesh_0)/jit(main)/jit(0)/jit(06)/jvp(WideResNet)/BottleneckResNetBlock_6/BatchNorm_1/add" source_file="/home/cyxue/miniconda3/envs/alpa/lib/python3.8/site-packages/flax/linen/normalization.py" source_line=139}
  %rsqrt.33 = f32[896]{0} rsqrt(f32[896]{0} %add.61), metadata={op_name="parallelize(train_step_func_pipeshard_parallel_mesh_0)/jit(main)/jit(0)/jit(06)/jvp(WideResNet)/BottleneckResNetBlock_6/BatchNorm_1/rsqrt" source_file="/home/cyxue/miniconda3/envs/alpa/lib/python3.8/site-packages/flax/linen/normalization.py" source_line=139}
  %param_1.106 = f32[896]{0} parameter(1)
  %multiply.191 = f32[896]{0} multiply(f32[896]{0} %rsqrt.33, f32[896]{0} %param_1.106), metadata={op_name="parallelize(train_step_func_pipeshard_parallel_mesh_0)/jit(main)/jit(0)/jit(06)/jvp(WideResNet)/BottleneckResNetBlock_6/BatchNorm_1/mul" source_file="/home/cyxue/miniconda3/envs/alpa/lib/python3.8/site-packages/flax/linen/normalization.py" source_line=144}
  %broadcast.254 = f32[16,28,28,896]{2,1,3,0} broadcast(f32[896]{0} %multiply.191), dimensions={3}, metadata={op_name="parallelize(train_step_func_pipeshard_parallel_mesh_0)/jit(main)/jit(0)/jit(06)/jvp(WideResNet)/BottleneckResNetBlock_6/BatchNorm_1/mul" source_file="/home/cyxue/miniconda3/envs/alpa/lib/python3.8/site-packages/flax/linen/normalization.py" source_line=146}
  %multiply.190 = f32[16,28,28,896]{2,1,3,0} multiply(f32[16,28,28,896]{2,1,3,0} %subtract.10, f32[16,28,28,896]{2,1,3,0} %broadcast.254), metadata={op_name="parallelize(train_step_func_pipeshard_parallel_mesh_0)/jit(main)/jit(0)/jit(06)/jvp(WideResNet)/BottleneckResNetBlock_6/BatchNorm_1/mul" source_file="/home/cyxue/miniconda3/envs/alpa/lib/python3.8/site-packages/flax/linen/normalization.py" source_line=146}
  %param_0.62 = f32[896]{0} parameter(0)
  %broadcast.253 = f32[16,28,28,896]{2,1,3,0} broadcast(f32[896]{0} %param_0.62), dimensions={3}, metadata={op_name="parallelize(train_step_func_pipeshard_parallel_mesh_0)/jit(main)/jit(0)/jit(06)/jvp(WideResNet)/BottleneckResNetBlock_6/BatchNorm_1/add" source_file="/home/cyxue/miniconda3/envs/alpa/lib/python3.8/site-packages/flax/linen/normalization.py" source_line=150}
  %add.60 = f32[16,28,28,896]{2,1,3,0} add(f32[16,28,28,896]{2,1,3,0} %multiply.190, f32[16,28,28,896]{2,1,3,0} %broadcast.253), metadata={op_name="parallelize(train_step_func_pipeshard_parallel_mesh_0)/jit(main)/jit(0)/jit(06)/jvp(WideResNet)/BottleneckResNetBlock_6/BatchNorm_1/add" source_file="/home/cyxue/miniconda3/envs/alpa/lib/python3.8/site-packages/flax/linen/normalization.py" source_line=150}
  %constant_141 = f32[] constant(0)
  %broadcast.256 = f32[16,28,28,896]{2,1,3,0} broadcast(f32[] %constant_141), dimensions={}, metadata={op_name="parallelize(train_step_func_pipeshard_parallel_mesh_0)/jit(main)/jit(0)/jit(03)/jvp(WideResNet)/BottleneckResNetBlock_3/max" source_file="/home/cyxue/Projects/crius/Crius/runtime/crius_worker/jax/model/wide_resnet.py" source_line=88}
  ROOT %maximum.8 = f32[16,28,28,896]{2,1,3,0} maximum(f32[16,28,28,896]{2,1,3,0} %add.60, f32[16,28,28,896]{2,1,3,0} %broadcast.256), metadata={op_name="parallelize(train_step_func_pipeshard_parallel_mesh_0)/jit(main)/jit(0)/jit(06)/jvp(WideResNet)/BottleneckResNetBlock_6/max" source_file="/home/cyxue/Projects/crius/Crius/runtime/crius_worker/jax/model/wide_resnet.py" source_line=88}
}

%fused_computation.35 (param_0.63: f32[896], param_1.683: f32[896], param_2.622: f32[896], param_3.604: f32[16,896], param_4.434: f32[896], param_5.230: f32[896]) -> (f32[896], f32[896], f32[896]) {
  %param_0.63 = f32[896]{0} parameter(0)
  %param_1.683 = f32[896]{0} parameter(1)
  %constant_143 = f32[] constant(0.9)
  %broadcast.259 = f32[896]{0} broadcast(f32[] %constant_143), dimensions={}, metadata={op_name="parallelize(train_step_func_pipeshard_parallel_mesh_0)/jit(main)/jit(0)/jit(01)/jvp(WideResNet)/BottleneckResNetBlock_0/BatchNorm_2/mul" source_file="/home/cyxue/miniconda3/envs/alpa/lib/python3.8/site-packages/flax/linen/normalization.py" source_line=265}
  %multiply.193 = f32[896]{0} multiply(f32[896]{0} %param_1.683, f32[896]{0} %broadcast.259), metadata={op_name="parallelize(train_step_func_pipeshard_parallel_mesh_0)/jit(main)/jit(0)/jit(06)/jvp(WideResNet)/BottleneckResNetBlock_6/BatchNorm_1/mul" source_file="/home/cyxue/miniconda3/envs/alpa/lib/python3.8/site-packages/flax/linen/normalization.py" source_line=267}
  %param_3.604 = f32[16,896]{1,0} parameter(3)
  %constant_145_clone_1 = f32[] constant(0)
  %reduce.295.clone.1 = f32[896]{0} reduce(f32[16,896]{1,0} %param_3.604, f32[] %constant_145_clone_1), dimensions={0}, to_apply=%region_0.1246.0, metadata={op_name="parallelize(train_step_func_pipeshard_parallel_mesh_0)/jit(main)/jit(0)/jit(06)/jvp(WideResNet)/BottleneckResNetBlock_6/BatchNorm_1/reduce_sum[axes=(0, 1, 2)]" source_file="/home/cyxue/miniconda3/envs/alpa/lib/python3.8/site-packages/flax/linen/normalization.py" source_line=83}
  %constant_706_clone_1 = f32[] constant(7.97193861e-05)
  %broadcast.260.clone.1 = f32[896]{0} broadcast(f32[] %constant_706_clone_1), dimensions={}, metadata={op_name="parallelize(train_step_func_pipeshard_parallel_mesh_0)/jit(main)/jit(0)/jit(03)/jvp(WideResNet)/BottleneckResNetBlock_3/BatchNorm_1/div" source_file="/home/cyxue/miniconda3/envs/alpa/lib/python3.8/site-packages/flax/linen/normalization.py" source_line=82}
  %multiply.195.clone.1 = f32[896]{0} multiply(f32[896]{0} %reduce.295.clone.1, f32[896]{0} %broadcast.260.clone.1), metadata={op_name="parallelize(train_step_func_pipeshard_parallel_mesh_0)/jit(main)/jit(0)/jit(06)/jvp(WideResNet)/BottleneckResNetBlock_6/BatchNorm_1/div" source_file="/home/cyxue/miniconda3/envs/alpa/lib/python3.8/site-packages/flax/linen/normalization.py" source_line=83}
  %param_2.622 = f32[896]{0} parameter(2)
  %multiply.559.clone.1 = f32[896]{0} multiply(f32[896]{0} %param_2.622, f32[896]{0} %broadcast.260.clone.1), metadata={op_name="parallelize(train_step_func_pipeshard_parallel_mesh_0)/jit(main)/jit(0)/jit(06)/jvp(WideResNet)/BottleneckResNetBlock_6/BatchNorm_1/div" source_file="/home/cyxue/miniconda3/envs/alpa/lib/python3.8/site-packages/flax/linen/normalization.py" source_line=82}
  %multiply.194.clone.1 = f32[896]{0} multiply(f32[896]{0} %multiply.559.clone.1, f32[896]{0} %multiply.559.clone.1), metadata={op_name="parallelize(train_step_func_pipeshard_parallel_mesh_0)/jit(main)/jit(0)/jit(06)/jvp(WideResNet)/BottleneckResNetBlock_6/BatchNorm_1/mul" source_file="/home/cyxue/miniconda3/envs/alpa/lib/python3.8/site-packages/flax/linen/normalization.py" source_line=46}
  %subtract.11.clone.1 = f32[896]{0} subtract(f32[896]{0} %multiply.195.clone.1, f32[896]{0} %multiply.194.clone.1), metadata={op_name="parallelize(train_step_func_pipeshard_parallel_mesh_0)/jit(main)/jit(0)/jit(06)/jvp(WideResNet)/BottleneckResNetBlock_6/BatchNorm_1/sub" source_file="/home/cyxue/miniconda3/envs/alpa/lib/python3.8/site-packages/flax/linen/normalization.py" source_line=93}
  %broadcast.261.clone.1 = f32[896]{0} broadcast(f32[] %constant_145_clone_1), dimensions={}, metadata={op_name="parallelize(train_step_func_pipeshard_parallel_mesh_0)/jit(main)/jit(0)/jit(01)/jvp(WideResNet)/BottleneckResNetBlock_0/BatchNorm_2/max" source_file="/home/cyxue/miniconda3/envs/alpa/lib/python3.8/site-packages/flax/linen/normalization.py" source_line=93}
  %maximum.9.clone.1 = f32[896]{0} maximum(f32[896]{0} %subtract.11.clone.1, f32[896]{0} %broadcast.261.clone.1), metadata={op_name="parallelize(train_step_func_pipeshard_parallel_mesh_0)/jit(main)/jit(0)/jit(06)/jvp(WideResNet)/BottleneckResNetBlock_6/BatchNorm_1/max" source_file="/home/cyxue/miniconda3/envs/alpa/lib/python3.8/site-packages/flax/linen/normalization.py" source_line=93}
  %constant_142 = f32[] constant(0.1)
  %broadcast.258 = f32[896]{0} broadcast(f32[] %constant_142), dimensions={}, metadata={op_name="parallelize(train_step_func_pipeshard_parallel_mesh_0)/jit(main)/jit(0)/jit(01)/jvp(WideResNet)/BottleneckResNetBlock_0/BatchNorm_2/mul" source_file="/home/cyxue/miniconda3/envs/alpa/lib/python3.8/site-packages/flax/linen/normalization.py" source_line=265}
  %multiply.192 = f32[896]{0} multiply(f32[896]{0} %maximum.9.clone.1, f32[896]{0} %broadcast.258), metadata={op_name="parallelize(train_step_func_pipeshard_parallel_mesh_0)/jit(main)/jit(0)/jit(06)/jvp(WideResNet)/BottleneckResNetBlock_6/BatchNorm_1/mul" source_file="/home/cyxue/miniconda3/envs/alpa/lib/python3.8/site-packages/flax/linen/normalization.py" source_line=267}
  %add.63 = f32[896]{0} add(f32[896]{0} %multiply.193, f32[896]{0} %multiply.192), metadata={op_name="parallelize(train_step_func_pipeshard_parallel_mesh_0)/jit(main)/jit(0)/jit(06)/jvp(WideResNet)/BottleneckResNetBlock_6/BatchNorm_1/add" source_file="/home/cyxue/miniconda3/envs/alpa/lib/python3.8/site-packages/flax/linen/normalization.py" source_line=267}
  %add.62 = f32[896]{0} add(f32[896]{0} %param_0.63, f32[896]{0} %add.63), metadata={op_name="parallelize(train_step_func_pipeshard_parallel_mesh_0)/jit(main)/jit(0)/jit(06)/add"}
  %param_4.434 = f32[896]{0} parameter(4)
  %param_5.230 = f32[896]{0} parameter(5)
  %multiply.199.clone.1 = f32[896]{0} multiply(f32[896]{0} %param_5.230, f32[896]{0} %broadcast.259), metadata={op_name="parallelize(train_step_func_pipeshard_parallel_mesh_0)/jit(main)/jit(0)/jit(06)/jvp(WideResNet)/BottleneckResNetBlock_6/BatchNorm_1/mul" source_file="/home/cyxue/miniconda3/envs/alpa/lib/python3.8/site-packages/flax/linen/normalization.py" source_line=265}
  %constant_148_clone_1 = f32[] constant(7.97193843e-06)
  %broadcast.263.clone.1 = f32[896]{0} broadcast(f32[] %constant_148_clone_1), dimensions={}, metadata={op_name="parallelize(train_step_func_pipeshard_parallel_mesh_0)/jit(main)/jit(0)/jit(03)/jvp(WideResNet)/BottleneckResNetBlock_3/BatchNorm_1/mul" source_file="/home/cyxue/miniconda3/envs/alpa/lib/python3.8/site-packages/flax/linen/normalization.py" source_line=265}
  %multiply.198.clone.1 = f32[896]{0} multiply(f32[896]{0} %param_2.622, f32[896]{0} %broadcast.263.clone.1), metadata={op_name="parallelize(train_step_func_pipeshard_parallel_mesh_0)/jit(main)/jit(0)/jit(06)/jvp(WideResNet)/BottleneckResNetBlock_6/BatchNorm_1/mul" source_file="/home/cyxue/miniconda3/envs/alpa/lib/python3.8/site-packages/flax/linen/normalization.py" source_line=265}
  %add.65.clone.1 = f32[896]{0} add(f32[896]{0} %multiply.199.clone.1, f32[896]{0} %multiply.198.clone.1), metadata={op_name="parallelize(train_step_func_pipeshard_parallel_mesh_0)/jit(main)/jit(0)/jit(06)/jvp(WideResNet)/BottleneckResNetBlock_6/BatchNorm_1/add" source_file="/home/cyxue/miniconda3/envs/alpa/lib/python3.8/site-packages/flax/linen/normalization.py" source_line=265}
  %add.64.clone.1 = f32[896]{0} add(f32[896]{0} %param_4.434, f32[896]{0} %add.65.clone.1), metadata={op_name="parallelize(train_step_func_pipeshard_parallel_mesh_0)/jit(main)/jit(0)/jit(06)/add"}
  ROOT %tuple.18 = (f32[896]{0}, f32[896]{0}, f32[896]{0}) tuple(f32[896]{0} %add.62, f32[896]{0} %maximum.9.clone.1, f32[896]{0} %add.64.clone.1)
}

%fused_computation.41 (param_0.75: f32[448], param_1.127: f32[448], param_2.105: f32[448], param_3.104: f32[16,28,28,448], param_4.390: f32[448]) -> f32[16,28,28,448] {
  %param_3.104 = f32[16,28,28,448]{2,1,3,0} parameter(3)
  %param_4.390 = f32[448]{0} parameter(4)
  %constant_697 = f32[] constant(7.97193861e-05)
  %broadcast.686 = f32[448]{0} broadcast(f32[] %constant_697), dimensions={}, metadata={op_name="parallelize(train_step_func_pipeshard_parallel_mesh_0)/jit(main)/jit(0)/jit(04)/jvp(WideResNet)/BottleneckResNetBlock_4/BatchNorm_0/div" source_file="/home/cyxue/miniconda3/envs/alpa/lib/python3.8/site-packages/flax/linen/normalization.py" source_line=82}
  %multiply.553 = f32[448]{0} multiply(f32[448]{0} %param_4.390, f32[448]{0} %broadcast.686), metadata={op_name="parallelize(train_step_func_pipeshard_parallel_mesh_0)/jit(main)/jit(0)/jit(06)/jvp(WideResNet)/BottleneckResNetBlock_6/BatchNorm_0/div" source_file="/home/cyxue/miniconda3/envs/alpa/lib/python3.8/site-packages/flax/linen/normalization.py" source_line=82}
  %broadcast.267 = f32[16,28,28,448]{2,1,3,0} broadcast(f32[448]{0} %multiply.553), dimensions={3}, metadata={op_name="parallelize(train_step_func_pipeshard_parallel_mesh_0)/jit(main)/jit(0)/jit(06)/jvp(WideResNet)/BottleneckResNetBlock_6/BatchNorm_0/sub" source_file="/home/cyxue/miniconda3/envs/alpa/lib/python3.8/site-packages/flax/linen/normalization.py" source_line=138}
  %subtract.12 = f32[16,28,28,448]{2,1,3,0} subtract(f32[16,28,28,448]{2,1,3,0} %param_3.104, f32[16,28,28,448]{2,1,3,0} %broadcast.267), metadata={op_name="parallelize(train_step_func_pipeshard_parallel_mesh_0)/jit(main)/jit(0)/jit(06)/jvp(WideResNet)/BottleneckResNetBlock_6/BatchNorm_0/sub" source_file="/home/cyxue/miniconda3/envs/alpa/lib/python3.8/site-packages/flax/linen/normalization.py" source_line=138}
  %param_2.105 = f32[448]{0} parameter(2)
  %constant_151 = f32[] constant(1e-05)
  %broadcast.269 = f32[448]{0} broadcast(f32[] %constant_151), dimensions={}, metadata={op_name="parallelize(train_step_func_pipeshard_parallel_mesh_0)/jit(main)/jit(0)/jit(00)/jvp(WideResNet)/BottleneckResNetBlock_0/BatchNorm_1/add" source_file="/home/cyxue/miniconda3/envs/alpa/lib/python3.8/site-packages/flax/linen/normalization.py" source_line=139}
  %add.67 = f32[448]{0} add(f32[448]{0} %param_2.105, f32[448]{0} %broadcast.269), metadata={op_name="parallelize(train_step_func_pipeshard_parallel_mesh_0)/jit(main)/jit(0)/jit(06)/jvp(WideResNet)/BottleneckResNetBlock_6/BatchNorm_0/add" source_file="/home/cyxue/miniconda3/envs/alpa/lib/python3.8/site-packages/flax/linen/normalization.py" source_line=139}
  %rsqrt.34 = f32[448]{0} rsqrt(f32[448]{0} %add.67), metadata={op_name="parallelize(train_step_func_pipeshard_parallel_mesh_0)/jit(main)/jit(0)/jit(06)/jvp(WideResNet)/BottleneckResNetBlock_6/BatchNorm_0/rsqrt" source_file="/home/cyxue/miniconda3/envs/alpa/lib/python3.8/site-packages/flax/linen/normalization.py" source_line=139}
  %param_1.127 = f32[448]{0} parameter(1)
  %multiply.201 = f32[448]{0} multiply(f32[448]{0} %rsqrt.34, f32[448]{0} %param_1.127), metadata={op_name="parallelize(train_step_func_pipeshard_parallel_mesh_0)/jit(main)/jit(0)/jit(06)/jvp(WideResNet)/BottleneckResNetBlock_6/BatchNorm_0/mul" source_file="/home/cyxue/miniconda3/envs/alpa/lib/python3.8/site-packages/flax/linen/normalization.py" source_line=144}
  %broadcast.266 = f32[16,28,28,448]{2,1,3,0} broadcast(f32[448]{0} %multiply.201), dimensions={3}, metadata={op_name="parallelize(train_step_func_pipeshard_parallel_mesh_0)/jit(main)/jit(0)/jit(06)/jvp(WideResNet)/BottleneckResNetBlock_6/BatchNorm_0/mul" source_file="/home/cyxue/miniconda3/envs/alpa/lib/python3.8/site-packages/flax/linen/normalization.py" source_line=146}
  %multiply.200 = f32[16,28,28,448]{2,1,3,0} multiply(f32[16,28,28,448]{2,1,3,0} %subtract.12, f32[16,28,28,448]{2,1,3,0} %broadcast.266), metadata={op_name="parallelize(train_step_func_pipeshard_parallel_mesh_0)/jit(main)/jit(0)/jit(06)/jvp(WideResNet)/BottleneckResNetBlock_6/BatchNorm_0/mul" source_file="/home/cyxue/miniconda3/envs/alpa/lib/python3.8/site-packages/flax/linen/normalization.py" source_line=146}
  %param_0.75 = f32[448]{0} parameter(0)
  %broadcast.265 = f32[16,28,28,448]{2,1,3,0} broadcast(f32[448]{0} %param_0.75), dimensions={3}, metadata={op_name="parallelize(train_step_func_pipeshard_parallel_mesh_0)/jit(main)/jit(0)/jit(06)/jvp(WideResNet)/BottleneckResNetBlock_6/BatchNorm_0/add" source_file="/home/cyxue/miniconda3/envs/alpa/lib/python3.8/site-packages/flax/linen/normalization.py" source_line=150}
  %add.66 = f32[16,28,28,448]{2,1,3,0} add(f32[16,28,28,448]{2,1,3,0} %multiply.200, f32[16,28,28,448]{2,1,3,0} %broadcast.265), metadata={op_name="parallelize(train_step_func_pipeshard_parallel_mesh_0)/jit(main)/jit(0)/jit(06)/jvp(WideResNet)/BottleneckResNetBlock_6/BatchNorm_0/add" source_file="/home/cyxue/miniconda3/envs/alpa/lib/python3.8/site-packages/flax/linen/normalization.py" source_line=150}
  %constant_152 = f32[] constant(0)
  %broadcast.268 = f32[16,28,28,448]{2,1,3,0} broadcast(f32[] %constant_152), dimensions={}, metadata={op_name="parallelize(train_step_func_pipeshard_parallel_mesh_0)/jit(main)/jit(0)/jit(04)/jvp(WideResNet)/BottleneckResNetBlock_4/max" source_file="/home/cyxue/Projects/crius/Crius/runtime/crius_worker/jax/model/wide_resnet.py" source_line=85}
  ROOT %maximum.10 = f32[16,28,28,448]{2,1,3,0} maximum(f32[16,28,28,448]{2,1,3,0} %add.66, f32[16,28,28,448]{2,1,3,0} %broadcast.268), metadata={op_name="parallelize(train_step_func_pipeshard_parallel_mesh_0)/jit(main)/jit(0)/jit(06)/jvp(WideResNet)/BottleneckResNetBlock_6/max" source_file="/home/cyxue/Projects/crius/Crius/runtime/crius_worker/jax/model/wide_resnet.py" source_line=85}
}

%fused_computation.42 (param_0.76: f32[448], param_1.686: f32[448], param_2.626: f32[448], param_3.609: f32[16,448], param_4.440: f32[448], param_5.237: f32[448]) -> (f32[448], f32[448], f32[448]) {
  %param_0.76 = f32[448]{0} parameter(0)
  %param_1.686 = f32[448]{0} parameter(1)
  %constant_154 = f32[] constant(0.9)
  %broadcast.271 = f32[448]{0} broadcast(f32[] %constant_154), dimensions={}, metadata={op_name="parallelize(train_step_func_pipeshard_parallel_mesh_0)/jit(main)/jit(0)/jit(00)/jvp(WideResNet)/BottleneckResNetBlock_0/BatchNorm_1/mul" source_file="/home/cyxue/miniconda3/envs/alpa/lib/python3.8/site-packages/flax/linen/normalization.py" source_line=265}
  %multiply.203 = f32[448]{0} multiply(f32[448]{0} %param_1.686, f32[448]{0} %broadcast.271), metadata={op_name="parallelize(train_step_func_pipeshard_parallel_mesh_0)/jit(main)/jit(0)/jit(06)/jvp(WideResNet)/BottleneckResNetBlock_6/BatchNorm_0/mul" source_file="/home/cyxue/miniconda3/envs/alpa/lib/python3.8/site-packages/flax/linen/normalization.py" source_line=267}
  %param_3.609 = f32[16,448]{1,0} parameter(3)
  %constant_156_clone_1 = f32[] constant(0)
  %reduce.298.clone.1 = f32[448]{0} reduce(f32[16,448]{1,0} %param_3.609, f32[] %constant_156_clone_1), dimensions={0}, to_apply=%region_0.1246.0, metadata={op_name="parallelize(train_step_func_pipeshard_parallel_mesh_0)/jit(main)/jit(0)/jit(06)/jvp(WideResNet)/BottleneckResNetBlock_6/BatchNorm_0/reduce_sum[axes=(0, 1, 2)]" source_file="/home/cyxue/miniconda3/envs/alpa/lib/python3.8/site-packages/flax/linen/normalization.py" source_line=83}
  %constant_700_clone_1 = f32[] constant(7.97193861e-05)
  %broadcast.272.clone.1 = f32[448]{0} broadcast(f32[] %constant_700_clone_1), dimensions={}, metadata={op_name="parallelize(train_step_func_pipeshard_parallel_mesh_0)/jit(main)/jit(0)/jit(04)/jvp(WideResNet)/BottleneckResNetBlock_4/BatchNorm_0/div" source_file="/home/cyxue/miniconda3/envs/alpa/lib/python3.8/site-packages/flax/linen/normalization.py" source_line=82}
  %multiply.205.clone.1 = f32[448]{0} multiply(f32[448]{0} %reduce.298.clone.1, f32[448]{0} %broadcast.272.clone.1), metadata={op_name="parallelize(train_step_func_pipeshard_parallel_mesh_0)/jit(main)/jit(0)/jit(06)/jvp(WideResNet)/BottleneckResNetBlock_6/BatchNorm_0/div" source_file="/home/cyxue/miniconda3/envs/alpa/lib/python3.8/site-packages/flax/linen/normalization.py" source_line=83}
  %param_2.626 = f32[448]{0} parameter(2)
  %multiply.555.clone.1 = f32[448]{0} multiply(f32[448]{0} %param_2.626, f32[448]{0} %broadcast.272.clone.1), metadata={op_name="parallelize(train_step_func_pipeshard_parallel_mesh_0)/jit(main)/jit(0)/jit(06)/jvp(WideResNet)/BottleneckResNetBlock_6/BatchNorm_0/div" source_file="/home/cyxue/miniconda3/envs/alpa/lib/python3.8/site-packages/flax/linen/normalization.py" source_line=82}
  %multiply.204.clone.1 = f32[448]{0} multiply(f32[448]{0} %multiply.555.clone.1, f32[448]{0} %multiply.555.clone.1), metadata={op_name="parallelize(train_step_func_pipeshard_parallel_mesh_0)/jit(main)/jit(0)/jit(06)/jvp(WideResNet)/BottleneckResNetBlock_6/BatchNorm_0/mul" source_file="/home/cyxue/miniconda3/envs/alpa/lib/python3.8/site-packages/flax/linen/normalization.py" source_line=46}
  %subtract.13.clone.1 = f32[448]{0} subtract(f32[448]{0} %multiply.205.clone.1, f32[448]{0} %multiply.204.clone.1), metadata={op_name="parallelize(train_step_func_pipeshard_parallel_mesh_0)/jit(main)/jit(0)/jit(06)/jvp(WideResNet)/BottleneckResNetBlock_6/BatchNorm_0/sub" source_file="/home/cyxue/miniconda3/envs/alpa/lib/python3.8/site-packages/flax/linen/normalization.py" source_line=93}
  %broadcast.273.clone.1 = f32[448]{0} broadcast(f32[] %constant_156_clone_1), dimensions={}, metadata={op_name="parallelize(train_step_func_pipeshard_parallel_mesh_0)/jit(main)/jit(0)/jit(00)/jvp(WideResNet)/BottleneckResNetBlock_0/BatchNorm_1/max" source_file="/home/cyxue/miniconda3/envs/alpa/lib/python3.8/site-packages/flax/linen/normalization.py" source_line=93}
  %maximum.11.clone.1 = f32[448]{0} maximum(f32[448]{0} %subtract.13.clone.1, f32[448]{0} %broadcast.273.clone.1), metadata={op_name="parallelize(train_step_func_pipeshard_parallel_mesh_0)/jit(main)/jit(0)/jit(06)/jvp(WideResNet)/BottleneckResNetBlock_6/BatchNorm_0/max" source_file="/home/cyxue/miniconda3/envs/alpa/lib/python3.8/site-packages/flax/linen/normalization.py" source_line=93}
  %constant_153 = f32[] constant(0.1)
  %broadcast.270 = f32[448]{0} broadcast(f32[] %constant_153), dimensions={}, metadata={op_name="parallelize(train_step_func_pipeshard_parallel_mesh_0)/jit(main)/jit(0)/jit(00)/jvp(WideResNet)/BottleneckResNetBlock_0/BatchNorm_1/mul" source_file="/home/cyxue/miniconda3/envs/alpa/lib/python3.8/site-packages/flax/linen/normalization.py" source_line=265}
  %multiply.202 = f32[448]{0} multiply(f32[448]{0} %maximum.11.clone.1, f32[448]{0} %broadcast.270), metadata={op_name="parallelize(train_step_func_pipeshard_parallel_mesh_0)/jit(main)/jit(0)/jit(06)/jvp(WideResNet)/BottleneckResNetBlock_6/BatchNorm_0/mul" source_file="/home/cyxue/miniconda3/envs/alpa/lib/python3.8/site-packages/flax/linen/normalization.py" source_line=267}
  %add.69 = f32[448]{0} add(f32[448]{0} %multiply.203, f32[448]{0} %multiply.202), metadata={op_name="parallelize(train_step_func_pipeshard_parallel_mesh_0)/jit(main)/jit(0)/jit(06)/jvp(WideResNet)/BottleneckResNetBlock_6/BatchNorm_0/add" source_file="/home/cyxue/miniconda3/envs/alpa/lib/python3.8/site-packages/flax/linen/normalization.py" source_line=267}
  %add.68 = f32[448]{0} add(f32[448]{0} %param_0.76, f32[448]{0} %add.69), metadata={op_name="parallelize(train_step_func_pipeshard_parallel_mesh_0)/jit(main)/jit(0)/jit(06)/add"}
  %param_4.440 = f32[448]{0} parameter(4)
  %param_5.237 = f32[448]{0} parameter(5)
  %multiply.209.clone.1 = f32[448]{0} multiply(f32[448]{0} %param_5.237, f32[448]{0} %broadcast.271), metadata={op_name="parallelize(train_step_func_pipeshard_parallel_mesh_0)/jit(main)/jit(0)/jit(06)/jvp(WideResNet)/BottleneckResNetBlock_6/BatchNorm_0/mul" source_file="/home/cyxue/miniconda3/envs/alpa/lib/python3.8/site-packages/flax/linen/normalization.py" source_line=265}
  %constant_159_clone_1 = f32[] constant(7.97193843e-06)
  %broadcast.275.clone.1 = f32[448]{0} broadcast(f32[] %constant_159_clone_1), dimensions={}, metadata={op_name="parallelize(train_step_func_pipeshard_parallel_mesh_0)/jit(main)/jit(0)/jit(04)/jvp(WideResNet)/BottleneckResNetBlock_4/BatchNorm_0/mul" source_file="/home/cyxue/miniconda3/envs/alpa/lib/python3.8/site-packages/flax/linen/normalization.py" source_line=265}
  %multiply.208.clone.1 = f32[448]{0} multiply(f32[448]{0} %param_2.626, f32[448]{0} %broadcast.275.clone.1), metadata={op_name="parallelize(train_step_func_pipeshard_parallel_mesh_0)/jit(main)/jit(0)/jit(06)/jvp(WideResNet)/BottleneckResNetBlock_6/BatchNorm_0/mul" source_file="/home/cyxue/miniconda3/envs/alpa/lib/python3.8/site-packages/flax/linen/normalization.py" source_line=265}
  %add.71.clone.1 = f32[448]{0} add(f32[448]{0} %multiply.209.clone.1, f32[448]{0} %multiply.208.clone.1), metadata={op_name="parallelize(train_step_func_pipeshard_parallel_mesh_0)/jit(main)/jit(0)/jit(06)/jvp(WideResNet)/BottleneckResNetBlock_6/BatchNorm_0/add" source_file="/home/cyxue/miniconda3/envs/alpa/lib/python3.8/site-packages/flax/linen/normalization.py" source_line=265}
  %add.70.clone.1 = f32[448]{0} add(f32[448]{0} %param_4.440, f32[448]{0} %add.71.clone.1), metadata={op_name="parallelize(train_step_func_pipeshard_parallel_mesh_0)/jit(main)/jit(0)/jit(06)/add"}
  ROOT %tuple.21 = (f32[448]{0}, f32[448]{0}, f32[448]{0}) tuple(f32[448]{0} %add.68, f32[448]{0} %maximum.11.clone.1, f32[448]{0} %add.70.clone.1)
}

%fused_computation.48 (param_0.88: f32[16,28,28,1792], param_1.147: f32[1792], param_2.123: f32[1792], param_3.121: f32[1792], param_4.92: f32[16,28,28,1792], param_5.173: f32[1792]) -> f32[16,28,28,1792] {
  %param_0.88 = f32[16,28,28,1792]{2,1,3,0} parameter(0)
  %param_4.92 = f32[16,28,28,1792]{2,1,3,0} parameter(4)
  %param_5.173 = f32[1792]{0} parameter(5)
  %constant_691 = f32[] constant(7.97193861e-05)
  %broadcast.682 = f32[1792]{0} broadcast(f32[] %constant_691), dimensions={}, metadata={op_name="parallelize(train_step_func_pipeshard_parallel_mesh_0)/jit(main)/jit(0)/jit(03)/jvp(WideResNet)/BottleneckResNetBlock_3/BatchNorm_2/div" source_file="/home/cyxue/miniconda3/envs/alpa/lib/python3.8/site-packages/flax/linen/normalization.py" source_line=82}
  %multiply.549 = f32[1792]{0} multiply(f32[1792]{0} %param_5.173, f32[1792]{0} %broadcast.682), metadata={op_name="parallelize(train_step_func_pipeshard_parallel_mesh_0)/jit(main)/jit(0)/jit(05)/jvp(WideResNet)/BottleneckResNetBlock_5/BatchNorm_2/div" source_file="/home/cyxue/miniconda3/envs/alpa/lib/python3.8/site-packages/flax/linen/normalization.py" source_line=82}
  %broadcast.279 = f32[16,28,28,1792]{2,1,3,0} broadcast(f32[1792]{0} %multiply.549), dimensions={3}, metadata={op_name="parallelize(train_step_func_pipeshard_parallel_mesh_0)/jit(main)/jit(0)/jit(05)/jvp(WideResNet)/BottleneckResNetBlock_5/BatchNorm_2/sub" source_file="/home/cyxue/miniconda3/envs/alpa/lib/python3.8/site-packages/flax/linen/normalization.py" source_line=138}
  %subtract.14 = f32[16,28,28,1792]{2,1,3,0} subtract(f32[16,28,28,1792]{2,1,3,0} %param_4.92, f32[16,28,28,1792]{2,1,3,0} %broadcast.279), metadata={op_name="parallelize(train_step_func_pipeshard_parallel_mesh_0)/jit(main)/jit(0)/jit(05)/jvp(WideResNet)/BottleneckResNetBlock_5/BatchNorm_2/sub" source_file="/home/cyxue/miniconda3/envs/alpa/lib/python3.8/site-packages/flax/linen/normalization.py" source_line=138}
  %param_3.121 = f32[1792]{0} parameter(3)
  %constant_162 = f32[] constant(1e-05)
  %broadcast.281 = f32[1792]{0} broadcast(f32[] %constant_162), dimensions={}, metadata={op_name="parallelize(train_step_func_pipeshard_parallel_mesh_0)/jit(main)/jit(0)/jit(03)/jvp(WideResNet)/BottleneckResNetBlock_3/BatchNorm_2/add" source_file="/home/cyxue/miniconda3/envs/alpa/lib/python3.8/site-packages/flax/linen/normalization.py" source_line=139}
  %add.74 = f32[1792]{0} add(f32[1792]{0} %param_3.121, f32[1792]{0} %broadcast.281), metadata={op_name="parallelize(train_step_func_pipeshard_parallel_mesh_0)/jit(main)/jit(0)/jit(05)/jvp(WideResNet)/BottleneckResNetBlock_5/BatchNorm_2/add" source_file="/home/cyxue/miniconda3/envs/alpa/lib/python3.8/site-packages/flax/linen/normalization.py" source_line=139}
  %rsqrt.35 = f32[1792]{0} rsqrt(f32[1792]{0} %add.74), metadata={op_name="parallelize(train_step_func_pipeshard_parallel_mesh_0)/jit(main)/jit(0)/jit(05)/jvp(WideResNet)/BottleneckResNetBlock_5/BatchNorm_2/rsqrt" source_file="/home/cyxue/miniconda3/envs/alpa/lib/python3.8/site-packages/flax/linen/normalization.py" source_line=139}
  %param_2.123 = f32[1792]{0} parameter(2)
  %multiply.211 = f32[1792]{0} multiply(f32[1792]{0} %rsqrt.35, f32[1792]{0} %param_2.123), metadata={op_name="parallelize(train_step_func_pipeshard_parallel_mesh_0)/jit(main)/jit(0)/jit(05)/jvp(WideResNet)/BottleneckResNetBlock_5/BatchNorm_2/mul" source_file="/home/cyxue/miniconda3/envs/alpa/lib/python3.8/site-packages/flax/linen/normalization.py" source_line=144}
  %broadcast.278 = f32[16,28,28,1792]{2,1,3,0} broadcast(f32[1792]{0} %multiply.211), dimensions={3}, metadata={op_name="parallelize(train_step_func_pipeshard_parallel_mesh_0)/jit(main)/jit(0)/jit(05)/jvp(WideResNet)/BottleneckResNetBlock_5/BatchNorm_2/mul" source_file="/home/cyxue/miniconda3/envs/alpa/lib/python3.8/site-packages/flax/linen/normalization.py" source_line=146}
  %multiply.210 = f32[16,28,28,1792]{2,1,3,0} multiply(f32[16,28,28,1792]{2,1,3,0} %subtract.14, f32[16,28,28,1792]{2,1,3,0} %broadcast.278), metadata={op_name="parallelize(train_step_func_pipeshard_parallel_mesh_0)/jit(main)/jit(0)/jit(05)/jvp(WideResNet)/BottleneckResNetBlock_5/BatchNorm_2/mul" source_file="/home/cyxue/miniconda3/envs/alpa/lib/python3.8/site-packages/flax/linen/normalization.py" source_line=146}
  %param_1.147 = f32[1792]{0} parameter(1)
  %broadcast.277 = f32[16,28,28,1792]{2,1,3,0} broadcast(f32[1792]{0} %param_1.147), dimensions={3}, metadata={op_name="parallelize(train_step_func_pipeshard_parallel_mesh_0)/jit(main)/jit(0)/jit(05)/jvp(WideResNet)/BottleneckResNetBlock_5/BatchNorm_2/add" source_file="/home/cyxue/miniconda3/envs/alpa/lib/python3.8/site-packages/flax/linen/normalization.py" source_line=150}
  %add.73 = f32[16,28,28,1792]{2,1,3,0} add(f32[16,28,28,1792]{2,1,3,0} %multiply.210, f32[16,28,28,1792]{2,1,3,0} %broadcast.277), metadata={op_name="parallelize(train_step_func_pipeshard_parallel_mesh_0)/jit(main)/jit(0)/jit(05)/jvp(WideResNet)/BottleneckResNetBlock_5/BatchNorm_2/add" source_file="/home/cyxue/miniconda3/envs/alpa/lib/python3.8/site-packages/flax/linen/normalization.py" source_line=150}
  %add.72 = f32[16,28,28,1792]{2,1,3,0} add(f32[16,28,28,1792]{2,1,3,0} %param_0.88, f32[16,28,28,1792]{2,1,3,0} %add.73), metadata={op_name="parallelize(train_step_func_pipeshard_parallel_mesh_0)/jit(main)/jit(0)/jit(05)/jvp(WideResNet)/BottleneckResNetBlock_5/add" source_file="/home/cyxue/Projects/crius/Crius/runtime/crius_worker/jax/model/wide_resnet.py" source_line=98}
  %constant_163 = f32[] constant(0)
  %broadcast.280 = f32[16,28,28,1792]{2,1,3,0} broadcast(f32[] %constant_163), dimensions={}, metadata={op_name="parallelize(train_step_func_pipeshard_parallel_mesh_0)/jit(main)/jit(0)/jit(04)/jvp(WideResNet)/BottleneckResNetBlock_3/max" source_file="/home/cyxue/Projects/crius/Crius/runtime/crius_worker/jax/model/wide_resnet.py" source_line=98}
  ROOT %maximum.12 = f32[16,28,28,1792]{2,1,3,0} maximum(f32[16,28,28,1792]{2,1,3,0} %add.72, f32[16,28,28,1792]{2,1,3,0} %broadcast.280), metadata={op_name="parallelize(train_step_func_pipeshard_parallel_mesh_0)/jit(main)/jit(0)/jit(05)/jvp(WideResNet)/BottleneckResNetBlock_5/max" source_file="/home/cyxue/Projects/crius/Crius/runtime/crius_worker/jax/model/wide_resnet.py" source_line=98}
}

%fused_computation.49 (param_0.89: f32[1792], param_1.689: f32[1792], param_2.630: f32[1792], param_3.614: f32[16,1792], param_4.446: f32[1792], param_5.244: f32[1792]) -> (f32[1792], f32[1792], f32[1792]) {
  %param_0.89 = f32[1792]{0} parameter(0)
  %param_1.689 = f32[1792]{0} parameter(1)
  %constant_165 = f32[] constant(0.9)
  %broadcast.283 = f32[1792]{0} broadcast(f32[] %constant_165), dimensions={}, metadata={op_name="parallelize(train_step_func_pipeshard_parallel_mesh_0)/jit(main)/jit(0)/jit(03)/jvp(WideResNet)/BottleneckResNetBlock_3/BatchNorm_2/mul" source_file="/home/cyxue/miniconda3/envs/alpa/lib/python3.8/site-packages/flax/linen/normalization.py" source_line=265}
  %multiply.213 = f32[1792]{0} multiply(f32[1792]{0} %param_1.689, f32[1792]{0} %broadcast.283), metadata={op_name="parallelize(train_step_func_pipeshard_parallel_mesh_0)/jit(main)/jit(0)/jit(05)/jvp(WideResNet)/BottleneckResNetBlock_5/BatchNorm_2/mul" source_file="/home/cyxue/miniconda3/envs/alpa/lib/python3.8/site-packages/flax/linen/normalization.py" source_line=267}
  %param_3.614 = f32[16,1792]{1,0} parameter(3)
  %constant_167_clone_1 = f32[] constant(0)
  %reduce.301.clone.1 = f32[1792]{0} reduce(f32[16,1792]{1,0} %param_3.614, f32[] %constant_167_clone_1), dimensions={0}, to_apply=%region_0.1246.0, metadata={op_name="parallelize(train_step_func_pipeshard_parallel_mesh_0)/jit(main)/jit(0)/jit(05)/jvp(WideResNet)/BottleneckResNetBlock_5/BatchNorm_2/reduce_sum[axes=(0, 1, 2)]" source_file="/home/cyxue/miniconda3/envs/alpa/lib/python3.8/site-packages/flax/linen/normalization.py" source_line=83}
  %constant_694_clone_1 = f32[] constant(7.97193861e-05)
  %broadcast.285.clone.1 = f32[1792]{0} broadcast(f32[] %constant_694_clone_1), dimensions={}, metadata={op_name="parallelize(train_step_func_pipeshard_parallel_mesh_0)/jit(main)/jit(0)/jit(03)/jvp(WideResNet)/BottleneckResNetBlock_3/BatchNorm_2/div" source_file="/home/cyxue/miniconda3/envs/alpa/lib/python3.8/site-packages/flax/linen/normalization.py" source_line=82}
  %multiply.215.clone.1 = f32[1792]{0} multiply(f32[1792]{0} %reduce.301.clone.1, f32[1792]{0} %broadcast.285.clone.1), metadata={op_name="parallelize(train_step_func_pipeshard_parallel_mesh_0)/jit(main)/jit(0)/jit(05)/jvp(WideResNet)/BottleneckResNetBlock_5/BatchNorm_2/div" source_file="/home/cyxue/miniconda3/envs/alpa/lib/python3.8/site-packages/flax/linen/normalization.py" source_line=83}
  %param_2.630 = f32[1792]{0} parameter(2)
  %multiply.551.clone.1 = f32[1792]{0} multiply(f32[1792]{0} %param_2.630, f32[1792]{0} %broadcast.285.clone.1), metadata={op_name="parallelize(train_step_func_pipeshard_parallel_mesh_0)/jit(main)/jit(0)/jit(05)/jvp(WideResNet)/BottleneckResNetBlock_5/BatchNorm_2/div" source_file="/home/cyxue/miniconda3/envs/alpa/lib/python3.8/site-packages/flax/linen/normalization.py" source_line=82}
  %multiply.214.clone.1 = f32[1792]{0} multiply(f32[1792]{0} %multiply.551.clone.1, f32[1792]{0} %multiply.551.clone.1), metadata={op_name="parallelize(train_step_func_pipeshard_parallel_mesh_0)/jit(main)/jit(0)/jit(05)/jvp(WideResNet)/BottleneckResNetBlock_5/BatchNorm_2/mul" source_file="/home/cyxue/miniconda3/envs/alpa/lib/python3.8/site-packages/flax/linen/normalization.py" source_line=46}
  %subtract.15.clone.1 = f32[1792]{0} subtract(f32[1792]{0} %multiply.215.clone.1, f32[1792]{0} %multiply.214.clone.1), metadata={op_name="parallelize(train_step_func_pipeshard_parallel_mesh_0)/jit(main)/jit(0)/jit(05)/jvp(WideResNet)/BottleneckResNetBlock_5/BatchNorm_2/sub" source_file="/home/cyxue/miniconda3/envs/alpa/lib/python3.8/site-packages/flax/linen/normalization.py" source_line=93}
  %broadcast.284.clone.1 = f32[1792]{0} broadcast(f32[] %constant_167_clone_1), dimensions={}, metadata={op_name="parallelize(train_step_func_pipeshard_parallel_mesh_0)/jit(main)/jit(0)/jit(03)/jvp(WideResNet)/BottleneckResNetBlock_3/BatchNorm_2/max" source_file="/home/cyxue/miniconda3/envs/alpa/lib/python3.8/site-packages/flax/linen/normalization.py" source_line=93}
  %maximum.13.clone.1 = f32[1792]{0} maximum(f32[1792]{0} %subtract.15.clone.1, f32[1792]{0} %broadcast.284.clone.1), metadata={op_name="parallelize(train_step_func_pipeshard_parallel_mesh_0)/jit(main)/jit(0)/jit(05)/jvp(WideResNet)/BottleneckResNetBlock_5/BatchNorm_2/max" source_file="/home/cyxue/miniconda3/envs/alpa/lib/python3.8/site-packages/flax/linen/normalization.py" source_line=93}
  %constant_164 = f32[] constant(0.1)
  %broadcast.282 = f32[1792]{0} broadcast(f32[] %constant_164), dimensions={}, metadata={op_name="parallelize(train_step_func_pipeshard_parallel_mesh_0)/jit(main)/jit(0)/jit(03)/jvp(WideResNet)/BottleneckResNetBlock_3/BatchNorm_2/mul" source_file="/home/cyxue/miniconda3/envs/alpa/lib/python3.8/site-packages/flax/linen/normalization.py" source_line=265}
  %multiply.212 = f32[1792]{0} multiply(f32[1792]{0} %maximum.13.clone.1, f32[1792]{0} %broadcast.282), metadata={op_name="parallelize(train_step_func_pipeshard_parallel_mesh_0)/jit(main)/jit(0)/jit(05)/jvp(WideResNet)/BottleneckResNetBlock_5/BatchNorm_2/mul" source_file="/home/cyxue/miniconda3/envs/alpa/lib/python3.8/site-packages/flax/linen/normalization.py" source_line=267}
  %add.76 = f32[1792]{0} add(f32[1792]{0} %multiply.213, f32[1792]{0} %multiply.212), metadata={op_name="parallelize(train_step_func_pipeshard_parallel_mesh_0)/jit(main)/jit(0)/jit(05)/jvp(WideResNet)/BottleneckResNetBlock_5/BatchNorm_2/add" source_file="/home/cyxue/miniconda3/envs/alpa/lib/python3.8/site-packages/flax/linen/normalization.py" source_line=267}
  %add.75 = f32[1792]{0} add(f32[1792]{0} %param_0.89, f32[1792]{0} %add.76), metadata={op_name="parallelize(train_step_func_pipeshard_parallel_mesh_0)/jit(main)/jit(0)/jit(05)/add"}
  %param_4.446 = f32[1792]{0} parameter(4)
  %param_5.244 = f32[1792]{0} parameter(5)
  %multiply.219.clone.1 = f32[1792]{0} multiply(f32[1792]{0} %param_5.244, f32[1792]{0} %broadcast.283), metadata={op_name="parallelize(train_step_func_pipeshard_parallel_mesh_0)/jit(main)/jit(0)/jit(05)/jvp(WideResNet)/BottleneckResNetBlock_5/BatchNorm_2/mul" source_file="/home/cyxue/miniconda3/envs/alpa/lib/python3.8/site-packages/flax/linen/normalization.py" source_line=265}
  %constant_170_clone_1 = f32[] constant(7.97193843e-06)
  %broadcast.287.clone.1 = f32[1792]{0} broadcast(f32[] %constant_170_clone_1), dimensions={}, metadata={op_name="parallelize(train_step_func_pipeshard_parallel_mesh_0)/jit(main)/jit(0)/jit(03)/jvp(WideResNet)/BottleneckResNetBlock_3/BatchNorm_2/mul" source_file="/home/cyxue/miniconda3/envs/alpa/lib/python3.8/site-packages/flax/linen/normalization.py" source_line=265}
  %multiply.218.clone.1 = f32[1792]{0} multiply(f32[1792]{0} %param_2.630, f32[1792]{0} %broadcast.287.clone.1), metadata={op_name="parallelize(train_step_func_pipeshard_parallel_mesh_0)/jit(main)/jit(0)/jit(05)/jvp(WideResNet)/BottleneckResNetBlock_5/BatchNorm_2/mul" source_file="/home/cyxue/miniconda3/envs/alpa/lib/python3.8/site-packages/flax/linen/normalization.py" source_line=265}
  %add.78.clone.1 = f32[1792]{0} add(f32[1792]{0} %multiply.219.clone.1, f32[1792]{0} %multiply.218.clone.1), metadata={op_name="parallelize(train_step_func_pipeshard_parallel_mesh_0)/jit(main)/jit(0)/jit(05)/jvp(WideResNet)/BottleneckResNetBlock_5/BatchNorm_2/add" source_file="/home/cyxue/miniconda3/envs/alpa/lib/python3.8/site-packages/flax/linen/normalization.py" source_line=265}
  %add.77.clone.1 = f32[1792]{0} add(f32[1792]{0} %param_4.446, f32[1792]{0} %add.78.clone.1), metadata={op_name="parallelize(train_step_func_pipeshard_parallel_mesh_0)/jit(main)/jit(0)/jit(05)/add"}
  ROOT %tuple.25 = (f32[1792]{0}, f32[1792]{0}, f32[1792]{0}) tuple(f32[1792]{0} %add.75, f32[1792]{0} %maximum.13.clone.1, f32[1792]{0} %add.77.clone.1)
}

%fused_computation.55 (param_0.101: f32[896], param_1.169: f32[896], param_2.142: f32[896], param_3.140: f32[16,28,28,896], param_4.389: f32[896]) -> f32[16,28,28,896] {
  %param_3.140 = f32[16,28,28,896]{2,1,3,0} parameter(3)
  %param_4.389 = f32[896]{0} parameter(4)
  %constant_685 = f32[] constant(7.97193861e-05)
  %broadcast.678 = f32[896]{0} broadcast(f32[] %constant_685), dimensions={}, metadata={op_name="parallelize(train_step_func_pipeshard_parallel_mesh_0)/jit(main)/jit(0)/jit(03)/jvp(WideResNet)/BottleneckResNetBlock_3/BatchNorm_1/div" source_file="/home/cyxue/miniconda3/envs/alpa/lib/python3.8/site-packages/flax/linen/normalization.py" source_line=82}
  %multiply.545 = f32[896]{0} multiply(f32[896]{0} %param_4.389, f32[896]{0} %broadcast.678), metadata={op_name="parallelize(train_step_func_pipeshard_parallel_mesh_0)/jit(main)/jit(0)/jit(05)/jvp(WideResNet)/BottleneckResNetBlock_5/BatchNorm_1/div" source_file="/home/cyxue/miniconda3/envs/alpa/lib/python3.8/site-packages/flax/linen/normalization.py" source_line=82}
  %broadcast.291 = f32[16,28,28,896]{2,1,3,0} broadcast(f32[896]{0} %multiply.545), dimensions={3}, metadata={op_name="parallelize(train_step_func_pipeshard_parallel_mesh_0)/jit(main)/jit(0)/jit(05)/jvp(WideResNet)/BottleneckResNetBlock_5/BatchNorm_1/sub" source_file="/home/cyxue/miniconda3/envs/alpa/lib/python3.8/site-packages/flax/linen/normalization.py" source_line=138}
  %subtract.16 = f32[16,28,28,896]{2,1,3,0} subtract(f32[16,28,28,896]{2,1,3,0} %param_3.140, f32[16,28,28,896]{2,1,3,0} %broadcast.291), metadata={op_name="parallelize(train_step_func_pipeshard_parallel_mesh_0)/jit(main)/jit(0)/jit(05)/jvp(WideResNet)/BottleneckResNetBlock_5/BatchNorm_1/sub" source_file="/home/cyxue/miniconda3/envs/alpa/lib/python3.8/site-packages/flax/linen/normalization.py" source_line=138}
  %param_2.142 = f32[896]{0} parameter(2)
  %constant_173 = f32[] constant(1e-05)
  %broadcast.293 = f32[896]{0} broadcast(f32[] %constant_173), dimensions={}, metadata={op_name="parallelize(train_step_func_pipeshard_parallel_mesh_0)/jit(main)/jit(0)/jit(01)/jvp(WideResNet)/BottleneckResNetBlock_0/BatchNorm_2/add" source_file="/home/cyxue/miniconda3/envs/alpa/lib/python3.8/site-packages/flax/linen/normalization.py" source_line=139}
  %add.80 = f32[896]{0} add(f32[896]{0} %param_2.142, f32[896]{0} %broadcast.293), metadata={op_name="parallelize(train_step_func_pipeshard_parallel_mesh_0)/jit(main)/jit(0)/jit(05)/jvp(WideResNet)/BottleneckResNetBlock_5/BatchNorm_1/add" source_file="/home/cyxue/miniconda3/envs/alpa/lib/python3.8/site-packages/flax/linen/normalization.py" source_line=139}
  %rsqrt.36 = f32[896]{0} rsqrt(f32[896]{0} %add.80), metadata={op_name="parallelize(train_step_func_pipeshard_parallel_mesh_0)/jit(main)/jit(0)/jit(05)/jvp(WideResNet)/BottleneckResNetBlock_5/BatchNorm_1/rsqrt" source_file="/home/cyxue/miniconda3/envs/alpa/lib/python3.8/site-packages/flax/linen/normalization.py" source_line=139}
  %param_1.169 = f32[896]{0} parameter(1)
  %multiply.221 = f32[896]{0} multiply(f32[896]{0} %rsqrt.36, f32[896]{0} %param_1.169), metadata={op_name="parallelize(train_step_func_pipeshard_parallel_mesh_0)/jit(main)/jit(0)/jit(05)/jvp(WideResNet)/BottleneckResNetBlock_5/BatchNorm_1/mul" source_file="/home/cyxue/miniconda3/envs/alpa/lib/python3.8/site-packages/flax/linen/normalization.py" source_line=144}
  %broadcast.290 = f32[16,28,28,896]{2,1,3,0} broadcast(f32[896]{0} %multiply.221), dimensions={3}, metadata={op_name="parallelize(train_step_func_pipeshard_parallel_mesh_0)/jit(main)/jit(0)/jit(05)/jvp(WideResNet)/BottleneckResNetBlock_5/BatchNorm_1/mul" source_file="/home/cyxue/miniconda3/envs/alpa/lib/python3.8/site-packages/flax/linen/normalization.py" source_line=146}
  %multiply.220 = f32[16,28,28,896]{2,1,3,0} multiply(f32[16,28,28,896]{2,1,3,0} %subtract.16, f32[16,28,28,896]{2,1,3,0} %broadcast.290), metadata={op_name="parallelize(train_step_func_pipeshard_parallel_mesh_0)/jit(main)/jit(0)/jit(05)/jvp(WideResNet)/BottleneckResNetBlock_5/BatchNorm_1/mul" source_file="/home/cyxue/miniconda3/envs/alpa/lib/python3.8/site-packages/flax/linen/normalization.py" source_line=146}
  %param_0.101 = f32[896]{0} parameter(0)
  %broadcast.289 = f32[16,28,28,896]{2,1,3,0} broadcast(f32[896]{0} %param_0.101), dimensions={3}, metadata={op_name="parallelize(train_step_func_pipeshard_parallel_mesh_0)/jit(main)/jit(0)/jit(05)/jvp(WideResNet)/BottleneckResNetBlock_5/BatchNorm_1/add" source_file="/home/cyxue/miniconda3/envs/alpa/lib/python3.8/site-packages/flax/linen/normalization.py" source_line=150}
  %add.79 = f32[16,28,28,896]{2,1,3,0} add(f32[16,28,28,896]{2,1,3,0} %multiply.220, f32[16,28,28,896]{2,1,3,0} %broadcast.289), metadata={op_name="parallelize(train_step_func_pipeshard_parallel_mesh_0)/jit(main)/jit(0)/jit(05)/jvp(WideResNet)/BottleneckResNetBlock_5/BatchNorm_1/add" source_file="/home/cyxue/miniconda3/envs/alpa/lib/python3.8/site-packages/flax/linen/normalization.py" source_line=150}
  %constant_174 = f32[] constant(0)
  %broadcast.292 = f32[16,28,28,896]{2,1,3,0} broadcast(f32[] %constant_174), dimensions={}, metadata={op_name="parallelize(train_step_func_pipeshard_parallel_mesh_0)/jit(main)/jit(0)/jit(03)/jvp(WideResNet)/BottleneckResNetBlock_3/max" source_file="/home/cyxue/Projects/crius/Crius/runtime/crius_worker/jax/model/wide_resnet.py" source_line=88}
  ROOT %maximum.14 = f32[16,28,28,896]{2,1,3,0} maximum(f32[16,28,28,896]{2,1,3,0} %add.79, f32[16,28,28,896]{2,1,3,0} %broadcast.292), metadata={op_name="parallelize(train_step_func_pipeshard_parallel_mesh_0)/jit(main)/jit(0)/jit(05)/jvp(WideResNet)/BottleneckResNetBlock_5/max" source_file="/home/cyxue/Projects/crius/Crius/runtime/crius_worker/jax/model/wide_resnet.py" source_line=88}
}

%fused_computation.56 (param_0.102: f32[896], param_1.692: f32[896], param_2.634: f32[896], param_3.619: f32[16,896], param_4.452: f32[896], param_5.251: f32[896]) -> (f32[896], f32[896], f32[896]) {
  %param_0.102 = f32[896]{0} parameter(0)
  %param_1.692 = f32[896]{0} parameter(1)
  %constant_176 = f32[] constant(0.9)
  %broadcast.295 = f32[896]{0} broadcast(f32[] %constant_176), dimensions={}, metadata={op_name="parallelize(train_step_func_pipeshard_parallel_mesh_0)/jit(main)/jit(0)/jit(01)/jvp(WideResNet)/BottleneckResNetBlock_0/BatchNorm_2/mul" source_file="/home/cyxue/miniconda3/envs/alpa/lib/python3.8/site-packages/flax/linen/normalization.py" source_line=265}
  %multiply.223 = f32[896]{0} multiply(f32[896]{0} %param_1.692, f32[896]{0} %broadcast.295), metadata={op_name="parallelize(train_step_func_pipeshard_parallel_mesh_0)/jit(main)/jit(0)/jit(05)/jvp(WideResNet)/BottleneckResNetBlock_5/BatchNorm_1/mul" source_file="/home/cyxue/miniconda3/envs/alpa/lib/python3.8/site-packages/flax/linen/normalization.py" source_line=267}
  %param_3.619 = f32[16,896]{1,0} parameter(3)
  %constant_178_clone_1 = f32[] constant(0)
  %reduce.304.clone.1 = f32[896]{0} reduce(f32[16,896]{1,0} %param_3.619, f32[] %constant_178_clone_1), dimensions={0}, to_apply=%region_0.1246.0, metadata={op_name="parallelize(train_step_func_pipeshard_parallel_mesh_0)/jit(main)/jit(0)/jit(05)/jvp(WideResNet)/BottleneckResNetBlock_5/BatchNorm_1/reduce_sum[axes=(0, 1, 2)]" source_file="/home/cyxue/miniconda3/envs/alpa/lib/python3.8/site-packages/flax/linen/normalization.py" source_line=83}
  %constant_688_clone_1 = f32[] constant(7.97193861e-05)
  %broadcast.296.clone.1 = f32[896]{0} broadcast(f32[] %constant_688_clone_1), dimensions={}, metadata={op_name="parallelize(train_step_func_pipeshard_parallel_mesh_0)/jit(main)/jit(0)/jit(03)/jvp(WideResNet)/BottleneckResNetBlock_3/BatchNorm_1/div" source_file="/home/cyxue/miniconda3/envs/alpa/lib/python3.8/site-packages/flax/linen/normalization.py" source_line=82}
  %multiply.225.clone.1 = f32[896]{0} multiply(f32[896]{0} %reduce.304.clone.1, f32[896]{0} %broadcast.296.clone.1), metadata={op_name="parallelize(train_step_func_pipeshard_parallel_mesh_0)/jit(main)/jit(0)/jit(05)/jvp(WideResNet)/BottleneckResNetBlock_5/BatchNorm_1/div" source_file="/home/cyxue/miniconda3/envs/alpa/lib/python3.8/site-packages/flax/linen/normalization.py" source_line=83}
  %param_2.634 = f32[896]{0} parameter(2)
  %multiply.547.clone.1 = f32[896]{0} multiply(f32[896]{0} %param_2.634, f32[896]{0} %broadcast.296.clone.1), metadata={op_name="parallelize(train_step_func_pipeshard_parallel_mesh_0)/jit(main)/jit(0)/jit(05)/jvp(WideResNet)/BottleneckResNetBlock_5/BatchNorm_1/div" source_file="/home/cyxue/miniconda3/envs/alpa/lib/python3.8/site-packages/flax/linen/normalization.py" source_line=82}
  %multiply.224.clone.1 = f32[896]{0} multiply(f32[896]{0} %multiply.547.clone.1, f32[896]{0} %multiply.547.clone.1), metadata={op_name="parallelize(train_step_func_pipeshard_parallel_mesh_0)/jit(main)/jit(0)/jit(05)/jvp(WideResNet)/BottleneckResNetBlock_5/BatchNorm_1/mul" source_file="/home/cyxue/miniconda3/envs/alpa/lib/python3.8/site-packages/flax/linen/normalization.py" source_line=46}
  %subtract.17.clone.1 = f32[896]{0} subtract(f32[896]{0} %multiply.225.clone.1, f32[896]{0} %multiply.224.clone.1), metadata={op_name="parallelize(train_step_func_pipeshard_parallel_mesh_0)/jit(main)/jit(0)/jit(05)/jvp(WideResNet)/BottleneckResNetBlock_5/BatchNorm_1/sub" source_file="/home/cyxue/miniconda3/envs/alpa/lib/python3.8/site-packages/flax/linen/normalization.py" source_line=93}
  %broadcast.297.clone.1 = f32[896]{0} broadcast(f32[] %constant_178_clone_1), dimensions={}, metadata={op_name="parallelize(train_step_func_pipeshard_parallel_mesh_0)/jit(main)/jit(0)/jit(01)/jvp(WideResNet)/BottleneckResNetBlock_0/BatchNorm_2/max" source_file="/home/cyxue/miniconda3/envs/alpa/lib/python3.8/site-packages/flax/linen/normalization.py" source_line=93}
  %maximum.15.clone.1 = f32[896]{0} maximum(f32[896]{0} %subtract.17.clone.1, f32[896]{0} %broadcast.297.clone.1), metadata={op_name="parallelize(train_step_func_pipeshard_parallel_mesh_0)/jit(main)/jit(0)/jit(05)/jvp(WideResNet)/BottleneckResNetBlock_5/BatchNorm_1/max" source_file="/home/cyxue/miniconda3/envs/alpa/lib/python3.8/site-packages/flax/linen/normalization.py" source_line=93}
  %constant_175 = f32[] constant(0.1)
  %broadcast.294 = f32[896]{0} broadcast(f32[] %constant_175), dimensions={}, metadata={op_name="parallelize(train_step_func_pipeshard_parallel_mesh_0)/jit(main)/jit(0)/jit(01)/jvp(WideResNet)/BottleneckResNetBlock_0/BatchNorm_2/mul" source_file="/home/cyxue/miniconda3/envs/alpa/lib/python3.8/site-packages/flax/linen/normalization.py" source_line=265}
  %multiply.222 = f32[896]{0} multiply(f32[896]{0} %maximum.15.clone.1, f32[896]{0} %broadcast.294), metadata={op_name="parallelize(train_step_func_pipeshard_parallel_mesh_0)/jit(main)/jit(0)/jit(05)/jvp(WideResNet)/BottleneckResNetBlock_5/BatchNorm_1/mul" source_file="/home/cyxue/miniconda3/envs/alpa/lib/python3.8/site-packages/flax/linen/normalization.py" source_line=267}
  %add.82 = f32[896]{0} add(f32[896]{0} %multiply.223, f32[896]{0} %multiply.222), metadata={op_name="parallelize(train_step_func_pipeshard_parallel_mesh_0)/jit(main)/jit(0)/jit(05)/jvp(WideResNet)/BottleneckResNetBlock_5/BatchNorm_1/add" source_file="/home/cyxue/miniconda3/envs/alpa/lib/python3.8/site-packages/flax/linen/normalization.py" source_line=267}
  %add.81 = f32[896]{0} add(f32[896]{0} %param_0.102, f32[896]{0} %add.82), metadata={op_name="parallelize(train_step_func_pipeshard_parallel_mesh_0)/jit(main)/jit(0)/jit(05)/add"}
  %param_4.452 = f32[896]{0} parameter(4)
  %param_5.251 = f32[896]{0} parameter(5)
  %multiply.229.clone.1 = f32[896]{0} multiply(f32[896]{0} %param_5.251, f32[896]{0} %broadcast.295), metadata={op_name="parallelize(train_step_func_pipeshard_parallel_mesh_0)/jit(main)/jit(0)/jit(05)/jvp(WideResNet)/BottleneckResNetBlock_5/BatchNorm_1/mul" source_file="/home/cyxue/miniconda3/envs/alpa/lib/python3.8/site-packages/flax/linen/normalization.py" source_line=265}
  %constant_181_clone_1 = f32[] constant(7.97193843e-06)
  %broadcast.299.clone.1 = f32[896]{0} broadcast(f32[] %constant_181_clone_1), dimensions={}, metadata={op_name="parallelize(train_step_func_pipeshard_parallel_mesh_0)/jit(main)/jit(0)/jit(03)/jvp(WideResNet)/BottleneckResNetBlock_3/BatchNorm_1/mul" source_file="/home/cyxue/miniconda3/envs/alpa/lib/python3.8/site-packages/flax/linen/normalization.py" source_line=265}
  %multiply.228.clone.1 = f32[896]{0} multiply(f32[896]{0} %param_2.634, f32[896]{0} %broadcast.299.clone.1), metadata={op_name="parallelize(train_step_func_pipeshard_parallel_mesh_0)/jit(main)/jit(0)/jit(05)/jvp(WideResNet)/BottleneckResNetBlock_5/BatchNorm_1/mul" source_file="/home/cyxue/miniconda3/envs/alpa/lib/python3.8/site-packages/flax/linen/normalization.py" source_line=265}
  %add.84.clone.1 = f32[896]{0} add(f32[896]{0} %multiply.229.clone.1, f32[896]{0} %multiply.228.clone.1), metadata={op_name="parallelize(train_step_func_pipeshard_parallel_mesh_0)/jit(main)/jit(0)/jit(05)/jvp(WideResNet)/BottleneckResNetBlock_5/BatchNorm_1/add" source_file="/home/cyxue/miniconda3/envs/alpa/lib/python3.8/site-packages/flax/linen/normalization.py" source_line=265}
  %add.83.clone.1 = f32[896]{0} add(f32[896]{0} %param_4.452, f32[896]{0} %add.84.clone.1), metadata={op_name="parallelize(train_step_func_pipeshard_parallel_mesh_0)/jit(main)/jit(0)/jit(05)/add"}
  ROOT %tuple.28 = (f32[896]{0}, f32[896]{0}, f32[896]{0}) tuple(f32[896]{0} %add.81, f32[896]{0} %maximum.15.clone.1, f32[896]{0} %add.83.clone.1)
}

%fused_computation.62 (param_0.114: f32[448], param_1.190: f32[448], param_2.161: f32[448], param_3.159: f32[16,28,28,448], param_4.388: f32[448]) -> f32[16,28,28,448] {
  %param_3.159 = f32[16,28,28,448]{2,1,3,0} parameter(3)
  %param_4.388 = f32[448]{0} parameter(4)
  %constant_679 = f32[] constant(7.97193861e-05)
  %broadcast.674 = f32[448]{0} broadcast(f32[] %constant_679), dimensions={}, metadata={op_name="parallelize(train_step_func_pipeshard_parallel_mesh_0)/jit(main)/jit(0)/jit(04)/jvp(WideResNet)/BottleneckResNetBlock_4/BatchNorm_0/div" source_file="/home/cyxue/miniconda3/envs/alpa/lib/python3.8/site-packages/flax/linen/normalization.py" source_line=82}
  %multiply.541 = f32[448]{0} multiply(f32[448]{0} %param_4.388, f32[448]{0} %broadcast.674), metadata={op_name="parallelize(train_step_func_pipeshard_parallel_mesh_0)/jit(main)/jit(0)/jit(05)/jvp(WideResNet)/BottleneckResNetBlock_5/BatchNorm_0/div" source_file="/home/cyxue/miniconda3/envs/alpa/lib/python3.8/site-packages/flax/linen/normalization.py" source_line=82}
  %broadcast.303 = f32[16,28,28,448]{2,1,3,0} broadcast(f32[448]{0} %multiply.541), dimensions={3}, metadata={op_name="parallelize(train_step_func_pipeshard_parallel_mesh_0)/jit(main)/jit(0)/jit(05)/jvp(WideResNet)/BottleneckResNetBlock_5/BatchNorm_0/sub" source_file="/home/cyxue/miniconda3/envs/alpa/lib/python3.8/site-packages/flax/linen/normalization.py" source_line=138}
  %subtract.18 = f32[16,28,28,448]{2,1,3,0} subtract(f32[16,28,28,448]{2,1,3,0} %param_3.159, f32[16,28,28,448]{2,1,3,0} %broadcast.303), metadata={op_name="parallelize(train_step_func_pipeshard_parallel_mesh_0)/jit(main)/jit(0)/jit(05)/jvp(WideResNet)/BottleneckResNetBlock_5/BatchNorm_0/sub" source_file="/home/cyxue/miniconda3/envs/alpa/lib/python3.8/site-packages/flax/linen/normalization.py" source_line=138}
  %param_2.161 = f32[448]{0} parameter(2)
  %constant_184 = f32[] constant(1e-05)
  %broadcast.305 = f32[448]{0} broadcast(f32[] %constant_184), dimensions={}, metadata={op_name="parallelize(train_step_func_pipeshard_parallel_mesh_0)/jit(main)/jit(0)/jit(00)/jvp(WideResNet)/BottleneckResNetBlock_0/BatchNorm_1/add" source_file="/home/cyxue/miniconda3/envs/alpa/lib/python3.8/site-packages/flax/linen/normalization.py" source_line=139}
  %add.86 = f32[448]{0} add(f32[448]{0} %param_2.161, f32[448]{0} %broadcast.305), metadata={op_name="parallelize(train_step_func_pipeshard_parallel_mesh_0)/jit(main)/jit(0)/jit(05)/jvp(WideResNet)/BottleneckResNetBlock_5/BatchNorm_0/add" source_file="/home/cyxue/miniconda3/envs/alpa/lib/python3.8/site-packages/flax/linen/normalization.py" source_line=139}
  %rsqrt.37 = f32[448]{0} rsqrt(f32[448]{0} %add.86), metadata={op_name="parallelize(train_step_func_pipeshard_parallel_mesh_0)/jit(main)/jit(0)/jit(05)/jvp(WideResNet)/BottleneckResNetBlock_5/BatchNorm_0/rsqrt" source_file="/home/cyxue/miniconda3/envs/alpa/lib/python3.8/site-packages/flax/linen/normalization.py" source_line=139}
  %param_1.190 = f32[448]{0} parameter(1)
  %multiply.231 = f32[448]{0} multiply(f32[448]{0} %rsqrt.37, f32[448]{0} %param_1.190), metadata={op_name="parallelize(train_step_func_pipeshard_parallel_mesh_0)/jit(main)/jit(0)/jit(05)/jvp(WideResNet)/BottleneckResNetBlock_5/BatchNorm_0/mul" source_file="/home/cyxue/miniconda3/envs/alpa/lib/python3.8/site-packages/flax/linen/normalization.py" source_line=144}
  %broadcast.302 = f32[16,28,28,448]{2,1,3,0} broadcast(f32[448]{0} %multiply.231), dimensions={3}, metadata={op_name="parallelize(train_step_func_pipeshard_parallel_mesh_0)/jit(main)/jit(0)/jit(05)/jvp(WideResNet)/BottleneckResNetBlock_5/BatchNorm_0/mul" source_file="/home/cyxue/miniconda3/envs/alpa/lib/python3.8/site-packages/flax/linen/normalization.py" source_line=146}
  %multiply.230 = f32[16,28,28,448]{2,1,3,0} multiply(f32[16,28,28,448]{2,1,3,0} %subtract.18, f32[16,28,28,448]{2,1,3,0} %broadcast.302), metadata={op_name="parallelize(train_step_func_pipeshard_parallel_mesh_0)/jit(main)/jit(0)/jit(05)/jvp(WideResNet)/BottleneckResNetBlock_5/BatchNorm_0/mul" source_file="/home/cyxue/miniconda3/envs/alpa/lib/python3.8/site-packages/flax/linen/normalization.py" source_line=146}
  %param_0.114 = f32[448]{0} parameter(0)
  %broadcast.301 = f32[16,28,28,448]{2,1,3,0} broadcast(f32[448]{0} %param_0.114), dimensions={3}, metadata={op_name="parallelize(train_step_func_pipeshard_parallel_mesh_0)/jit(main)/jit(0)/jit(05)/jvp(WideResNet)/BottleneckResNetBlock_5/BatchNorm_0/add" source_file="/home/cyxue/miniconda3/envs/alpa/lib/python3.8/site-packages/flax/linen/normalization.py" source_line=150}
  %add.85 = f32[16,28,28,448]{2,1,3,0} add(f32[16,28,28,448]{2,1,3,0} %multiply.230, f32[16,28,28,448]{2,1,3,0} %broadcast.301), metadata={op_name="parallelize(train_step_func_pipeshard_parallel_mesh_0)/jit(main)/jit(0)/jit(05)/jvp(WideResNet)/BottleneckResNetBlock_5/BatchNorm_0/add" source_file="/home/cyxue/miniconda3/envs/alpa/lib/python3.8/site-packages/flax/linen/normalization.py" source_line=150}
  %constant_185 = f32[] constant(0)
  %broadcast.304 = f32[16,28,28,448]{2,1,3,0} broadcast(f32[] %constant_185), dimensions={}, metadata={op_name="parallelize(train_step_func_pipeshard_parallel_mesh_0)/jit(main)/jit(0)/jit(04)/jvp(WideResNet)/BottleneckResNetBlock_4/max" source_file="/home/cyxue/Projects/crius/Crius/runtime/crius_worker/jax/model/wide_resnet.py" source_line=85}
  ROOT %maximum.16 = f32[16,28,28,448]{2,1,3,0} maximum(f32[16,28,28,448]{2,1,3,0} %add.85, f32[16,28,28,448]{2,1,3,0} %broadcast.304), metadata={op_name="parallelize(train_step_func_pipeshard_parallel_mesh_0)/jit(main)/jit(0)/jit(05)/jvp(WideResNet)/BottleneckResNetBlock_5/max" source_file="/home/cyxue/Projects/crius/Crius/runtime/crius_worker/jax/model/wide_resnet.py" source_line=85}
}

%fused_computation.63 (param_0.115: f32[448], param_1.695: f32[448], param_2.638: f32[448], param_3.624: f32[16,448], param_4.458: f32[448], param_5.258: f32[448]) -> (f32[448], f32[448], f32[448]) {
  %param_0.115 = f32[448]{0} parameter(0)
  %param_1.695 = f32[448]{0} parameter(1)
  %constant_187 = f32[] constant(0.9)
  %broadcast.307 = f32[448]{0} broadcast(f32[] %constant_187), dimensions={}, metadata={op_name="parallelize(train_step_func_pipeshard_parallel_mesh_0)/jit(main)/jit(0)/jit(00)/jvp(WideResNet)/BottleneckResNetBlock_0/BatchNorm_1/mul" source_file="/home/cyxue/miniconda3/envs/alpa/lib/python3.8/site-packages/flax/linen/normalization.py" source_line=265}
  %multiply.233 = f32[448]{0} multiply(f32[448]{0} %param_1.695, f32[448]{0} %broadcast.307), metadata={op_name="parallelize(train_step_func_pipeshard_parallel_mesh_0)/jit(main)/jit(0)/jit(05)/jvp(WideResNet)/BottleneckResNetBlock_5/BatchNorm_0/mul" source_file="/home/cyxue/miniconda3/envs/alpa/lib/python3.8/site-packages/flax/linen/normalization.py" source_line=267}
  %param_3.624 = f32[16,448]{1,0} parameter(3)
  %constant_189_clone_1 = f32[] constant(0)
  %reduce.307.clone.1 = f32[448]{0} reduce(f32[16,448]{1,0} %param_3.624, f32[] %constant_189_clone_1), dimensions={0}, to_apply=%region_0.1246.0, metadata={op_name="parallelize(train_step_func_pipeshard_parallel_mesh_0)/jit(main)/jit(0)/jit(05)/jvp(WideResNet)/BottleneckResNetBlock_5/BatchNorm_0/reduce_sum[axes=(0, 1, 2)]" source_file="/home/cyxue/miniconda3/envs/alpa/lib/python3.8/site-packages/flax/linen/normalization.py" source_line=83}
  %constant_682_clone_1 = f32[] constant(7.97193861e-05)
  %broadcast.308.clone.1 = f32[448]{0} broadcast(f32[] %constant_682_clone_1), dimensions={}, metadata={op_name="parallelize(train_step_func_pipeshard_parallel_mesh_0)/jit(main)/jit(0)/jit(04)/jvp(WideResNet)/BottleneckResNetBlock_4/BatchNorm_0/div" source_file="/home/cyxue/miniconda3/envs/alpa/lib/python3.8/site-packages/flax/linen/normalization.py" source_line=82}
  %multiply.235.clone.1 = f32[448]{0} multiply(f32[448]{0} %reduce.307.clone.1, f32[448]{0} %broadcast.308.clone.1), metadata={op_name="parallelize(train_step_func_pipeshard_parallel_mesh_0)/jit(main)/jit(0)/jit(05)/jvp(WideResNet)/BottleneckResNetBlock_5/BatchNorm_0/div" source_file="/home/cyxue/miniconda3/envs/alpa/lib/python3.8/site-packages/flax/linen/normalization.py" source_line=83}
  %param_2.638 = f32[448]{0} parameter(2)
  %multiply.543.clone.1 = f32[448]{0} multiply(f32[448]{0} %param_2.638, f32[448]{0} %broadcast.308.clone.1), metadata={op_name="parallelize(train_step_func_pipeshard_parallel_mesh_0)/jit(main)/jit(0)/jit(05)/jvp(WideResNet)/BottleneckResNetBlock_5/BatchNorm_0/div" source_file="/home/cyxue/miniconda3/envs/alpa/lib/python3.8/site-packages/flax/linen/normalization.py" source_line=82}
  %multiply.234.clone.1 = f32[448]{0} multiply(f32[448]{0} %multiply.543.clone.1, f32[448]{0} %multiply.543.clone.1), metadata={op_name="parallelize(train_step_func_pipeshard_parallel_mesh_0)/jit(main)/jit(0)/jit(05)/jvp(WideResNet)/BottleneckResNetBlock_5/BatchNorm_0/mul" source_file="/home/cyxue/miniconda3/envs/alpa/lib/python3.8/site-packages/flax/linen/normalization.py" source_line=46}
  %subtract.19.clone.1 = f32[448]{0} subtract(f32[448]{0} %multiply.235.clone.1, f32[448]{0} %multiply.234.clone.1), metadata={op_name="parallelize(train_step_func_pipeshard_parallel_mesh_0)/jit(main)/jit(0)/jit(05)/jvp(WideResNet)/BottleneckResNetBlock_5/BatchNorm_0/sub" source_file="/home/cyxue/miniconda3/envs/alpa/lib/python3.8/site-packages/flax/linen/normalization.py" source_line=93}
  %broadcast.309.clone.1 = f32[448]{0} broadcast(f32[] %constant_189_clone_1), dimensions={}, metadata={op_name="parallelize(train_step_func_pipeshard_parallel_mesh_0)/jit(main)/jit(0)/jit(00)/jvp(WideResNet)/BottleneckResNetBlock_0/BatchNorm_1/max" source_file="/home/cyxue/miniconda3/envs/alpa/lib/python3.8/site-packages/flax/linen/normalization.py" source_line=93}
  %maximum.17.clone.1 = f32[448]{0} maximum(f32[448]{0} %subtract.19.clone.1, f32[448]{0} %broadcast.309.clone.1), metadata={op_name="parallelize(train_step_func_pipeshard_parallel_mesh_0)/jit(main)/jit(0)/jit(05)/jvp(WideResNet)/BottleneckResNetBlock_5/BatchNorm_0/max" source_file="/home/cyxue/miniconda3/envs/alpa/lib/python3.8/site-packages/flax/linen/normalization.py" source_line=93}
  %constant_186 = f32[] constant(0.1)
  %broadcast.306 = f32[448]{0} broadcast(f32[] %constant_186), dimensions={}, metadata={op_name="parallelize(train_step_func_pipeshard_parallel_mesh_0)/jit(main)/jit(0)/jit(00)/jvp(WideResNet)/BottleneckResNetBlock_0/BatchNorm_1/mul" source_file="/home/cyxue/miniconda3/envs/alpa/lib/python3.8/site-packages/flax/linen/normalization.py" source_line=265}
  %multiply.232 = f32[448]{0} multiply(f32[448]{0} %maximum.17.clone.1, f32[448]{0} %broadcast.306), metadata={op_name="parallelize(train_step_func_pipeshard_parallel_mesh_0)/jit(main)/jit(0)/jit(05)/jvp(WideResNet)/BottleneckResNetBlock_5/BatchNorm_0/mul" source_file="/home/cyxue/miniconda3/envs/alpa/lib/python3.8/site-packages/flax/linen/normalization.py" source_line=267}
  %add.88 = f32[448]{0} add(f32[448]{0} %multiply.233, f32[448]{0} %multiply.232), metadata={op_name="parallelize(train_step_func_pipeshard_parallel_mesh_0)/jit(main)/jit(0)/jit(05)/jvp(WideResNet)/BottleneckResNetBlock_5/BatchNorm_0/add" source_file="/home/cyxue/miniconda3/envs/alpa/lib/python3.8/site-packages/flax/linen/normalization.py" source_line=267}
  %add.87 = f32[448]{0} add(f32[448]{0} %param_0.115, f32[448]{0} %add.88), metadata={op_name="parallelize(train_step_func_pipeshard_parallel_mesh_0)/jit(main)/jit(0)/jit(05)/add"}
  %param_4.458 = f32[448]{0} parameter(4)
  %param_5.258 = f32[448]{0} parameter(5)
  %multiply.239.clone.1 = f32[448]{0} multiply(f32[448]{0} %param_5.258, f32[448]{0} %broadcast.307), metadata={op_name="parallelize(train_step_func_pipeshard_parallel_mesh_0)/jit(main)/jit(0)/jit(05)/jvp(WideResNet)/BottleneckResNetBlock_5/BatchNorm_0/mul" source_file="/home/cyxue/miniconda3/envs/alpa/lib/python3.8/site-packages/flax/linen/normalization.py" source_line=265}
  %constant_192_clone_1 = f32[] constant(7.97193843e-06)
  %broadcast.311.clone.1 = f32[448]{0} broadcast(f32[] %constant_192_clone_1), dimensions={}, metadata={op_name="parallelize(train_step_func_pipeshard_parallel_mesh_0)/jit(main)/jit(0)/jit(04)/jvp(WideResNet)/BottleneckResNetBlock_4/BatchNorm_0/mul" source_file="/home/cyxue/miniconda3/envs/alpa/lib/python3.8/site-packages/flax/linen/normalization.py" source_line=265}
  %multiply.238.clone.1 = f32[448]{0} multiply(f32[448]{0} %param_2.638, f32[448]{0} %broadcast.311.clone.1), metadata={op_name="parallelize(train_step_func_pipeshard_parallel_mesh_0)/jit(main)/jit(0)/jit(05)/jvp(WideResNet)/BottleneckResNetBlock_5/BatchNorm_0/mul" source_file="/home/cyxue/miniconda3/envs/alpa/lib/python3.8/site-packages/flax/linen/normalization.py" source_line=265}
  %add.90.clone.1 = f32[448]{0} add(f32[448]{0} %multiply.239.clone.1, f32[448]{0} %multiply.238.clone.1), metadata={op_name="parallelize(train_step_func_pipeshard_parallel_mesh_0)/jit(main)/jit(0)/jit(05)/jvp(WideResNet)/BottleneckResNetBlock_5/BatchNorm_0/add" source_file="/home/cyxue/miniconda3/envs/alpa/lib/python3.8/site-packages/flax/linen/normalization.py" source_line=265}
  %add.89.clone.1 = f32[448]{0} add(f32[448]{0} %param_4.458, f32[448]{0} %add.90.clone.1), metadata={op_name="parallelize(train_step_func_pipeshard_parallel_mesh_0)/jit(main)/jit(0)/jit(05)/add"}
  ROOT %tuple.42 = (f32[448]{0}, f32[448]{0}, f32[448]{0}) tuple(f32[448]{0} %add.87, f32[448]{0} %maximum.17.clone.1, f32[448]{0} %add.89.clone.1)
}

%fused_computation.69 (param_0.484: f32[16,28,28,1792], param_1.652: f32[1792], param_2.575: f32[1792], param_3.569: f32[1792], param_4.387: f32[16,28,28,1792], param_5.168: f32[1792]) -> f32[16,28,28,1792] {
  %param_0.484 = f32[16,28,28,1792]{2,1,3,0} parameter(0)
  %param_4.387 = f32[16,28,28,1792]{2,1,3,0} parameter(4)
  %param_5.168 = f32[1792]{0} parameter(5)
  %constant_676 = f32[] constant(7.97193861e-05)
  %broadcast.672 = f32[1792]{0} broadcast(f32[] %constant_676), dimensions={}, metadata={op_name="parallelize(train_step_func_pipeshard_parallel_mesh_0)/jit(main)/jit(0)/jit(03)/jvp(WideResNet)/BottleneckResNetBlock_3/BatchNorm_2/div" source_file="/home/cyxue/miniconda3/envs/alpa/lib/python3.8/site-packages/flax/linen/normalization.py" source_line=82}
  %multiply.539 = f32[1792]{0} multiply(f32[1792]{0} %param_5.168, f32[1792]{0} %broadcast.672), metadata={op_name="parallelize(train_step_func_pipeshard_parallel_mesh_0)/jit(main)/jit(0)/jit(04)/jvp(WideResNet)/BottleneckResNetBlock_4/BatchNorm_2/div" source_file="/home/cyxue/miniconda3/envs/alpa/lib/python3.8/site-packages/flax/linen/normalization.py" source_line=82}
  %broadcast.671 = f32[16,28,28,1792]{2,1,3,0} broadcast(f32[1792]{0} %multiply.539), dimensions={3}, metadata={op_name="parallelize(train_step_func_pipeshard_parallel_mesh_0)/jit(main)/jit(0)/jit(04)/jvp(WideResNet)/BottleneckResNetBlock_4/BatchNorm_2/sub" source_file="/home/cyxue/miniconda3/envs/alpa/lib/python3.8/site-packages/flax/linen/normalization.py" source_line=138}
  %subtract.71 = f32[16,28,28,1792]{2,1,3,0} subtract(f32[16,28,28,1792]{2,1,3,0} %param_4.387, f32[16,28,28,1792]{2,1,3,0} %broadcast.671), metadata={op_name="parallelize(train_step_func_pipeshard_parallel_mesh_0)/jit(main)/jit(0)/jit(04)/jvp(WideResNet)/BottleneckResNetBlock_4/BatchNorm_2/sub" source_file="/home/cyxue/miniconda3/envs/alpa/lib/python3.8/site-packages/flax/linen/normalization.py" source_line=138}
  %param_3.569 = f32[1792]{0} parameter(3)
  %constant_675 = f32[] constant(1e-05)
  %broadcast.670 = f32[1792]{0} broadcast(f32[] %constant_675), dimensions={}, metadata={op_name="parallelize(train_step_func_pipeshard_parallel_mesh_0)/jit(main)/jit(0)/jit(03)/jvp(WideResNet)/BottleneckResNetBlock_3/BatchNorm_2/add" source_file="/home/cyxue/miniconda3/envs/alpa/lib/python3.8/site-packages/flax/linen/normalization.py" source_line=139}
  %add.247 = f32[1792]{0} add(f32[1792]{0} %param_3.569, f32[1792]{0} %broadcast.670), metadata={op_name="parallelize(train_step_func_pipeshard_parallel_mesh_0)/jit(main)/jit(0)/jit(04)/jvp(WideResNet)/BottleneckResNetBlock_4/BatchNorm_2/add" source_file="/home/cyxue/miniconda3/envs/alpa/lib/python3.8/site-packages/flax/linen/normalization.py" source_line=139}
  %rsqrt.99 = f32[1792]{0} rsqrt(f32[1792]{0} %add.247), metadata={op_name="parallelize(train_step_func_pipeshard_parallel_mesh_0)/jit(main)/jit(0)/jit(04)/jvp(WideResNet)/BottleneckResNetBlock_4/BatchNorm_2/rsqrt" source_file="/home/cyxue/miniconda3/envs/alpa/lib/python3.8/site-packages/flax/linen/normalization.py" source_line=139}
  %param_2.575 = f32[1792]{0} parameter(2)
  %multiply.538 = f32[1792]{0} multiply(f32[1792]{0} %rsqrt.99, f32[1792]{0} %param_2.575), metadata={op_name="parallelize(train_step_func_pipeshard_parallel_mesh_0)/jit(main)/jit(0)/jit(04)/jvp(WideResNet)/BottleneckResNetBlock_4/BatchNorm_2/mul" source_file="/home/cyxue/miniconda3/envs/alpa/lib/python3.8/site-packages/flax/linen/normalization.py" source_line=144}
  %broadcast.669 = f32[16,28,28,1792]{2,1,3,0} broadcast(f32[1792]{0} %multiply.538), dimensions={3}, metadata={op_name="parallelize(train_step_func_pipeshard_parallel_mesh_0)/jit(main)/jit(0)/jit(04)/jvp(WideResNet)/BottleneckResNetBlock_4/BatchNorm_2/mul" source_file="/home/cyxue/miniconda3/envs/alpa/lib/python3.8/site-packages/flax/linen/normalization.py" source_line=146}
  %multiply.537 = f32[16,28,28,1792]{2,1,3,0} multiply(f32[16,28,28,1792]{2,1,3,0} %subtract.71, f32[16,28,28,1792]{2,1,3,0} %broadcast.669), metadata={op_name="parallelize(train_step_func_pipeshard_parallel_mesh_0)/jit(main)/jit(0)/jit(04)/jvp(WideResNet)/BottleneckResNetBlock_4/BatchNorm_2/mul" source_file="/home/cyxue/miniconda3/envs/alpa/lib/python3.8/site-packages/flax/linen/normalization.py" source_line=146}
  %param_1.652 = f32[1792]{0} parameter(1)
  %broadcast.668 = f32[16,28,28,1792]{2,1,3,0} broadcast(f32[1792]{0} %param_1.652), dimensions={3}, metadata={op_name="parallelize(train_step_func_pipeshard_parallel_mesh_0)/jit(main)/jit(0)/jit(04)/jvp(WideResNet)/BottleneckResNetBlock_4/BatchNorm_2/add" source_file="/home/cyxue/miniconda3/envs/alpa/lib/python3.8/site-packages/flax/linen/normalization.py" source_line=150}
  %add.246 = f32[16,28,28,1792]{2,1,3,0} add(f32[16,28,28,1792]{2,1,3,0} %multiply.537, f32[16,28,28,1792]{2,1,3,0} %broadcast.668), metadata={op_name="parallelize(train_step_func_pipeshard_parallel_mesh_0)/jit(main)/jit(0)/jit(04)/jvp(WideResNet)/BottleneckResNetBlock_4/BatchNorm_2/add" source_file="/home/cyxue/miniconda3/envs/alpa/lib/python3.8/site-packages/flax/linen/normalization.py" source_line=150}
  %add.245 = f32[16,28,28,1792]{2,1,3,0} add(f32[16,28,28,1792]{2,1,3,0} %param_0.484, f32[16,28,28,1792]{2,1,3,0} %add.246), metadata={op_name="parallelize(train_step_func_pipeshard_parallel_mesh_0)/jit(main)/jit(0)/jit(04)/jvp(WideResNet)/BottleneckResNetBlock_4/add" source_file="/home/cyxue/Projects/crius/Crius/runtime/crius_worker/jax/model/wide_resnet.py" source_line=98}
  %constant_195 = f32[] constant(0)
  %broadcast.313 = f32[16,28,28,1792]{2,1,3,0} broadcast(f32[] %constant_195), dimensions={}, metadata={op_name="parallelize(train_step_func_pipeshard_parallel_mesh_0)/jit(main)/jit(0)/jit(04)/jvp(WideResNet)/BottleneckResNetBlock_3/max" source_file="/home/cyxue/Projects/crius/Crius/runtime/crius_worker/jax/model/wide_resnet.py" source_line=98}
  ROOT %maximum.18 = f32[16,28,28,1792]{2,1,3,0} maximum(f32[16,28,28,1792]{2,1,3,0} %add.245, f32[16,28,28,1792]{2,1,3,0} %broadcast.313), metadata={op_name="parallelize(train_step_func_pipeshard_parallel_mesh_0)/jit(main)/jit(0)/jit(05)/jvp(WideResNet)/BottleneckResNetBlock_4/max" source_file="/home/cyxue/Projects/crius/Crius/runtime/crius_worker/jax/model/wide_resnet.py" source_line=98}
}

%fused_computation.71 (param_0.127: f32[1792], param_1.698: f32[1792], param_2.642: f32[1792], param_3.629: f32[16,1792], param_4.464: f32[1792], param_5.265: f32[1792]) -> (f32[1792], f32[1792], f32[1792]) {
  %param_0.127 = f32[1792]{0} parameter(0)
  %param_1.698 = f32[1792]{0} parameter(1)
  %constant_198 = f32[] constant(0.9)
  %broadcast.319 = f32[1792]{0} broadcast(f32[] %constant_198), dimensions={}, metadata={op_name="parallelize(train_step_func_pipeshard_parallel_mesh_0)/jit(main)/jit(0)/jit(03)/jvp(WideResNet)/BottleneckResNetBlock_3/BatchNorm_2/mul" source_file="/home/cyxue/miniconda3/envs/alpa/lib/python3.8/site-packages/flax/linen/normalization.py" source_line=265}
  %multiply.243 = f32[1792]{0} multiply(f32[1792]{0} %param_1.698, f32[1792]{0} %broadcast.319), metadata={op_name="parallelize(train_step_func_pipeshard_parallel_mesh_0)/jit(main)/jit(0)/jit(04)/jvp(WideResNet)/BottleneckResNetBlock_4/BatchNorm_2/mul" source_file="/home/cyxue/miniconda3/envs/alpa/lib/python3.8/site-packages/flax/linen/normalization.py" source_line=267}
  %param_3.629 = f32[16,1792]{1,0} parameter(3)
  %constant_200_clone_1 = f32[] constant(0)
  %reduce.310.clone.1 = f32[1792]{0} reduce(f32[16,1792]{1,0} %param_3.629, f32[] %constant_200_clone_1), dimensions={0}, to_apply=%region_0.1246.0, metadata={op_name="parallelize(train_step_func_pipeshard_parallel_mesh_0)/jit(main)/jit(0)/jit(04)/jvp(WideResNet)/BottleneckResNetBlock_4/BatchNorm_2/reduce_sum[axes=(0, 1, 2)]" source_file="/home/cyxue/miniconda3/envs/alpa/lib/python3.8/site-packages/flax/linen/normalization.py" source_line=83}
  %constant_666_clone_1 = f32[] constant(7.97193861e-05)
  %broadcast.321.clone.1 = f32[1792]{0} broadcast(f32[] %constant_666_clone_1), dimensions={}, metadata={op_name="parallelize(train_step_func_pipeshard_parallel_mesh_0)/jit(main)/jit(0)/jit(03)/jvp(WideResNet)/BottleneckResNetBlock_3/BatchNorm_2/div" source_file="/home/cyxue/miniconda3/envs/alpa/lib/python3.8/site-packages/flax/linen/normalization.py" source_line=82}
  %multiply.245.clone.1 = f32[1792]{0} multiply(f32[1792]{0} %reduce.310.clone.1, f32[1792]{0} %broadcast.321.clone.1), metadata={op_name="parallelize(train_step_func_pipeshard_parallel_mesh_0)/jit(main)/jit(0)/jit(04)/jvp(WideResNet)/BottleneckResNetBlock_4/BatchNorm_2/div" source_file="/home/cyxue/miniconda3/envs/alpa/lib/python3.8/site-packages/flax/linen/normalization.py" source_line=83}
  %param_2.642 = f32[1792]{0} parameter(2)
  %multiply.527.clone.1 = f32[1792]{0} multiply(f32[1792]{0} %param_2.642, f32[1792]{0} %broadcast.321.clone.1), metadata={op_name="parallelize(train_step_func_pipeshard_parallel_mesh_0)/jit(main)/jit(0)/jit(04)/jvp(WideResNet)/BottleneckResNetBlock_4/BatchNorm_2/div" source_file="/home/cyxue/miniconda3/envs/alpa/lib/python3.8/site-packages/flax/linen/normalization.py" source_line=82}
  %multiply.244.clone.1 = f32[1792]{0} multiply(f32[1792]{0} %multiply.527.clone.1, f32[1792]{0} %multiply.527.clone.1), metadata={op_name="parallelize(train_step_func_pipeshard_parallel_mesh_0)/jit(main)/jit(0)/jit(04)/jvp(WideResNet)/BottleneckResNetBlock_4/BatchNorm_2/mul" source_file="/home/cyxue/miniconda3/envs/alpa/lib/python3.8/site-packages/flax/linen/normalization.py" source_line=46}
  %subtract.21.clone.1 = f32[1792]{0} subtract(f32[1792]{0} %multiply.245.clone.1, f32[1792]{0} %multiply.244.clone.1), metadata={op_name="parallelize(train_step_func_pipeshard_parallel_mesh_0)/jit(main)/jit(0)/jit(04)/jvp(WideResNet)/BottleneckResNetBlock_4/BatchNorm_2/sub" source_file="/home/cyxue/miniconda3/envs/alpa/lib/python3.8/site-packages/flax/linen/normalization.py" source_line=93}
  %broadcast.320.clone.1 = f32[1792]{0} broadcast(f32[] %constant_200_clone_1), dimensions={}, metadata={op_name="parallelize(train_step_func_pipeshard_parallel_mesh_0)/jit(main)/jit(0)/jit(03)/jvp(WideResNet)/BottleneckResNetBlock_3/BatchNorm_2/max" source_file="/home/cyxue/miniconda3/envs/alpa/lib/python3.8/site-packages/flax/linen/normalization.py" source_line=93}
  %maximum.19.clone.1 = f32[1792]{0} maximum(f32[1792]{0} %subtract.21.clone.1, f32[1792]{0} %broadcast.320.clone.1), metadata={op_name="parallelize(train_step_func_pipeshard_parallel_mesh_0)/jit(main)/jit(0)/jit(04)/jvp(WideResNet)/BottleneckResNetBlock_4/BatchNorm_2/max" source_file="/home/cyxue/miniconda3/envs/alpa/lib/python3.8/site-packages/flax/linen/normalization.py" source_line=93}
  %constant_197 = f32[] constant(0.1)
  %broadcast.318 = f32[1792]{0} broadcast(f32[] %constant_197), dimensions={}, metadata={op_name="parallelize(train_step_func_pipeshard_parallel_mesh_0)/jit(main)/jit(0)/jit(03)/jvp(WideResNet)/BottleneckResNetBlock_3/BatchNorm_2/mul" source_file="/home/cyxue/miniconda3/envs/alpa/lib/python3.8/site-packages/flax/linen/normalization.py" source_line=265}
  %multiply.242 = f32[1792]{0} multiply(f32[1792]{0} %maximum.19.clone.1, f32[1792]{0} %broadcast.318), metadata={op_name="parallelize(train_step_func_pipeshard_parallel_mesh_0)/jit(main)/jit(0)/jit(04)/jvp(WideResNet)/BottleneckResNetBlock_4/BatchNorm_2/mul" source_file="/home/cyxue/miniconda3/envs/alpa/lib/python3.8/site-packages/flax/linen/normalization.py" source_line=267}
  %add.95 = f32[1792]{0} add(f32[1792]{0} %multiply.243, f32[1792]{0} %multiply.242), metadata={op_name="parallelize(train_step_func_pipeshard_parallel_mesh_0)/jit(main)/jit(0)/jit(04)/jvp(WideResNet)/BottleneckResNetBlock_4/BatchNorm_2/add" source_file="/home/cyxue/miniconda3/envs/alpa/lib/python3.8/site-packages/flax/linen/normalization.py" source_line=267}
  %add.94 = f32[1792]{0} add(f32[1792]{0} %param_0.127, f32[1792]{0} %add.95), metadata={op_name="parallelize(train_step_func_pipeshard_parallel_mesh_0)/jit(main)/jit(0)/jit(04)/add"}
  %param_4.464 = f32[1792]{0} parameter(4)
  %param_5.265 = f32[1792]{0} parameter(5)
  %multiply.249.clone.1 = f32[1792]{0} multiply(f32[1792]{0} %param_5.265, f32[1792]{0} %broadcast.319), metadata={op_name="parallelize(train_step_func_pipeshard_parallel_mesh_0)/jit(main)/jit(0)/jit(04)/jvp(WideResNet)/BottleneckResNetBlock_4/BatchNorm_2/mul" source_file="/home/cyxue/miniconda3/envs/alpa/lib/python3.8/site-packages/flax/linen/normalization.py" source_line=265}
  %constant_203_clone_1 = f32[] constant(7.97193843e-06)
  %broadcast.323.clone.1 = f32[1792]{0} broadcast(f32[] %constant_203_clone_1), dimensions={}, metadata={op_name="parallelize(train_step_func_pipeshard_parallel_mesh_0)/jit(main)/jit(0)/jit(03)/jvp(WideResNet)/BottleneckResNetBlock_3/BatchNorm_2/mul" source_file="/home/cyxue/miniconda3/envs/alpa/lib/python3.8/site-packages/flax/linen/normalization.py" source_line=265}
  %multiply.248.clone.1 = f32[1792]{0} multiply(f32[1792]{0} %param_2.642, f32[1792]{0} %broadcast.323.clone.1), metadata={op_name="parallelize(train_step_func_pipeshard_parallel_mesh_0)/jit(main)/jit(0)/jit(04)/jvp(WideResNet)/BottleneckResNetBlock_4/BatchNorm_2/mul" source_file="/home/cyxue/miniconda3/envs/alpa/lib/python3.8/site-packages/flax/linen/normalization.py" source_line=265}
  %add.97.clone.1 = f32[1792]{0} add(f32[1792]{0} %multiply.249.clone.1, f32[1792]{0} %multiply.248.clone.1), metadata={op_name="parallelize(train_step_func_pipeshard_parallel_mesh_0)/jit(main)/jit(0)/jit(04)/jvp(WideResNet)/BottleneckResNetBlock_4/BatchNorm_2/add" source_file="/home/cyxue/miniconda3/envs/alpa/lib/python3.8/site-packages/flax/linen/normalization.py" source_line=265}
  %add.96.clone.1 = f32[1792]{0} add(f32[1792]{0} %param_4.464, f32[1792]{0} %add.97.clone.1), metadata={op_name="parallelize(train_step_func_pipeshard_parallel_mesh_0)/jit(main)/jit(0)/jit(04)/add"}
  ROOT %tuple.45 = (f32[1792]{0}, f32[1792]{0}, f32[1792]{0}) tuple(f32[1792]{0} %add.94, f32[1792]{0} %maximum.19.clone.1, f32[1792]{0} %add.96.clone.1)
}

%fused_computation.77 (param_0.139: f32[896], param_1.234: f32[896], param_2.198: f32[896], param_3.195: f32[16,28,28,896], param_4.377: f32[896]) -> f32[16,28,28,896] {
  %param_3.195 = f32[16,28,28,896]{2,1,3,0} parameter(3)
  %param_4.377 = f32[896]{0} parameter(4)
  %constant_657 = f32[] constant(7.97193861e-05)
  %broadcast.646 = f32[896]{0} broadcast(f32[] %constant_657), dimensions={}, metadata={op_name="parallelize(train_step_func_pipeshard_parallel_mesh_0)/jit(main)/jit(0)/jit(03)/jvp(WideResNet)/BottleneckResNetBlock_3/BatchNorm_1/div" source_file="/home/cyxue/miniconda3/envs/alpa/lib/python3.8/site-packages/flax/linen/normalization.py" source_line=82}
  %multiply.521 = f32[896]{0} multiply(f32[896]{0} %param_4.377, f32[896]{0} %broadcast.646), metadata={op_name="parallelize(train_step_func_pipeshard_parallel_mesh_0)/jit(main)/jit(0)/jit(04)/jvp(WideResNet)/BottleneckResNetBlock_4/BatchNorm_1/div" source_file="/home/cyxue/miniconda3/envs/alpa/lib/python3.8/site-packages/flax/linen/normalization.py" source_line=82}
  %broadcast.327 = f32[16,28,28,896]{2,1,3,0} broadcast(f32[896]{0} %multiply.521), dimensions={3}, metadata={op_name="parallelize(train_step_func_pipeshard_parallel_mesh_0)/jit(main)/jit(0)/jit(04)/jvp(WideResNet)/BottleneckResNetBlock_4/BatchNorm_1/sub" source_file="/home/cyxue/miniconda3/envs/alpa/lib/python3.8/site-packages/flax/linen/normalization.py" source_line=138}
  %subtract.22 = f32[16,28,28,896]{2,1,3,0} subtract(f32[16,28,28,896]{2,1,3,0} %param_3.195, f32[16,28,28,896]{2,1,3,0} %broadcast.327), metadata={op_name="parallelize(train_step_func_pipeshard_parallel_mesh_0)/jit(main)/jit(0)/jit(04)/jvp(WideResNet)/BottleneckResNetBlock_4/BatchNorm_1/sub" source_file="/home/cyxue/miniconda3/envs/alpa/lib/python3.8/site-packages/flax/linen/normalization.py" source_line=138}
  %param_2.198 = f32[896]{0} parameter(2)
  %constant_206 = f32[] constant(1e-05)
…
  %cudnn-conv.18 = (f32[16,28,28,448]{2,1,3,0}, u8[0]{0}) custom-call(f32[16,28,28,1792]{2,1,3,0} %fusion.69, f32[1,1,1792,448]{1,0,2,3} %copy.19), window={size=1x1}, dim_labels=b01f_01io->b01f, custom_call_target="__cudnn$convForward", metadata={op_name="parallelize(train_step_func_pipeshard_parallel_mesh_0)/jit(main)/jit(0)/jit(05)/jvp(WideResNet)/BottleneckResNetBlock_5/Conv_0/conv_general_dilated[window_strides=(1, 1) padding=((0, 0), (0, 0)) lhs_dilation=(1, 1) rhs_dilation=(1, 1) dimension_numbers=ConvDimensionNumbers(lhs_spec=(0, 3, 1, 2), rhs_spec=(3, 2, 0, 1), out_spec=(0, 3, 1, 2)) feature_group_count=1 batch_group_count=1 lhs_shape=(16, 28, 28, 1792) rhs_shape=(1, 1, 1792, 448) precision=None preferred_element_type=None]" source_file="/home/cyxue/miniconda3/envs/alpa/lib/python3.8/site-packages/flax/linen/linear.py" source_line=435}, backend_config="{\"conv_result_scale\":1,\"activation_mode\":\"0\",\"side_input_scale\":0}"
  %get-tuple-element.18 = f32[16,28,28,448]{2,1,3,0} get-tuple-element((f32[16,28,28,448]{2,1,3,0}, u8[0]{0}) %cudnn-conv.18), index=0, metadata={op_name="parallelize(train_step_func_pipeshard_parallel_mesh_0)/jit(main)/jit(0)/jit(05)/jvp(WideResNet)/BottleneckResNetBlock_5/Conv_0/conv_general_dilated[window_strides=(1, 1) padding=((0, 0), (0, 0)) lhs_dilation=(1, 1) rhs_dilation=(1, 1) dimension_numbers=ConvDimensionNumbers(lhs_spec=(0, 3, 1, 2), rhs_spec=(3, 2, 0, 1), out_spec=(0, 3, 1, 2)) feature_group_count=1 batch_group_count=1 lhs_shape=(16, 28, 28, 1792) rhs_shape=(1, 1, 1792, 448) precision=None preferred_element_type=None]" source_file="/home/cyxue/miniconda3/envs/alpa/lib/python3.8/site-packages/flax/linen/linear.py" source_line=435}
  %bitcast.263 = f32[16,448,784]{2,1,0} bitcast(f32[16,28,28,448]{2,1,3,0} %get-tuple-element.18)
  %fusion.68 = (f32[16,448]{1,0}, f32[16,448]{1,0}) fusion(f32[16,448,784]{2,1,0} %bitcast.263), kind=kInput, calls=%fused_computation.68.clone
  %get-tuple-element.144 = f32[16,448]{1,0} get-tuple-element((f32[16,448]{1,0}, f32[16,448]{1,0}) %fusion.68), index=0
  %reduce.232 = f32[448]{0} reduce(f32[16,448]{1,0} %get-tuple-element.144, f32[] %constant_519), dimensions={0}, to_apply=%region_0.1246.0, metadata={op_name="parallelize(train_step_func_pipeshard_parallel_mesh_0)/jit(main)/jit(0)/jit(05)/jvp(WideResNet)/BottleneckResNetBlock_5/BatchNorm_0/reduce_sum[axes=(0, 1, 2)]" source_file="/home/cyxue/miniconda3/envs/alpa/lib/python3.8/site-packages/flax/linen/normalization.py" source_line=82}
  %get-tuple-element.145 = f32[16,448]{1,0} get-tuple-element((f32[16,448]{1,0}, f32[16,448]{1,0}) %fusion.68), index=1
  %param_36 = f32[448]{0} parameter(36), metadata={op_name="0$start"}
  %param_156 = f32[448]{0} parameter(156), metadata={op_name="0$start"}
  %fusion.63 = (f32[448]{0}, f32[448]{0}, f32[448]{0}) fusion(f32[448]{0} %param_37, f32[448]{0} %param_157, f32[448]{0} %reduce.232, f32[16,448]{1,0} %get-tuple-element.145, f32[448]{0} %param_36, /*index=5*/f32[448]{0} %param_156), kind=kLoop, calls=%fused_computation.63, metadata={op_name="parallelize(train_step_func_pipeshard_parallel_mesh_0)/jit(main)/jit(0)/jit(05)/add"}
  %get-tuple-element.278 = f32[448]{0} get-tuple-element((f32[448]{0}, f32[448]{0}, f32[448]{0}) %fusion.63), index=2
  %get-tuple-element.279 = f32[448]{0} get-tuple-element((f32[448]{0}, f32[448]{0}, f32[448]{0}) %fusion.63), index=0
  %param_39 = f32[896]{0} parameter(39), metadata={op_name="0$start"}
  %param_159 = f32[896]{0} parameter(159), metadata={op_name="0$start"}
  %param_149 = f32[448]{0} parameter(149), metadata={op_name="0$start"}
  %param_148 = f32[448]{0} parameter(148), metadata={op_name="0$start"}
  %get-tuple-element.142 = f32[448]{0} get-tuple-element((f32[448]{0}, f32[448]{0}, f32[448]{0}) %fusion.63), index=1
  %fusion.62 = f32[16,28,28,448]{2,1,3,0} fusion(f32[448]{0} %param_149, f32[448]{0} %param_148, f32[448]{0} %get-tuple-element.142, f32[16,28,28,448]{2,1,3,0} %get-tuple-element.18, f32[448]{0} %reduce.232), kind=kLoop, calls=%fused_computation.62, metadata={op_name="parallelize(train_step_func_pipeshard_parallel_mesh_0)/jit(main)/jit(0)/jit(05)/jvp(WideResNet)/BottleneckResNetBlock_5/max" source_file="/home/cyxue/Projects/crius/Crius/runtime/crius_worker/jax/model/wide_resnet.py" source_line=85}
  %param_150 = f32[3,3,448,896]{3,2,1,0} parameter(150), metadata={op_name="0$start"}
  %copy.20 = f32[3,3,448,896]{1,0,2,3} copy(f32[3,3,448,896]{3,2,1,0} %param_150), metadata={op_name="0$start"}
  %cudnn-conv.19 = (f32[16,28,28,896]{2,1,3,0}, u8[0]{0}) custom-call(f32[16,28,28,448]{2,1,3,0} %fusion.62, f32[3,3,448,896]{1,0,2,3} %copy.20), window={size=3x3 pad=1_1x1_1}, dim_labels=b01f_01io->b01f, custom_call_target="__cudnn$convForward", metadata={op_name="parallelize(train_step_func_pipeshard_parallel_mesh_0)/jit(main)/jit(0)/jit(05)/jvp(WideResNet)/BottleneckResNetBlock_5/Conv_1/conv_general_dilated[window_strides=(1, 1) padding=((1, 1), (1, 1)) lhs_dilation=(1, 1) rhs_dilation=(1, 1) dimension_numbers=ConvDimensionNumbers(lhs_spec=(0, 3, 1, 2), rhs_spec=(3, 2, 0, 1), out_spec=(0, 3, 1, 2)) feature_group_count=1 batch_group_count=1 lhs_shape=(16, 28, 28, 448) rhs_shape=(3, 3, 448, 896) precision=None preferred_element_type=None]" source_file="/home/cyxue/miniconda3/envs/alpa/lib/python3.8/site-packages/flax/linen/linear.py" source_line=435}, backend_config="{\"conv_result_scale\":1,\"activation_mode\":\"0\",\"side_input_scale\":0}"
  %get-tuple-element.19 = f32[16,28,28,896]{2,1,3,0} get-tuple-element((f32[16,28,28,896]{2,1,3,0}, u8[0]{0}) %cudnn-conv.19), index=0, metadata={op_name="parallelize(train_step_func_pipeshard_parallel_mesh_0)/jit(main)/jit(0)/jit(05)/jvp(WideResNet)/BottleneckResNetBlock_5/Conv_1/conv_general_dilated[window_strides=(1, 1) padding=((1, 1), (1, 1)) lhs_dilation=(1, 1) rhs_dilation=(1, 1) dimension_numbers=ConvDimensionNumbers(lhs_spec=(0, 3, 1, 2), rhs_spec=(3, 2, 0, 1), out_spec=(0, 3, 1, 2)) feature_group_count=1 batch_group_count=1 lhs_shape=(16, 28, 28, 448) rhs_shape=(3, 3, 448, 896) precision=None preferred_element_type=None]" source_file="/home/cyxue/miniconda3/envs/alpa/lib/python3.8/site-packages/flax/linen/linear.py" source_line=435}
  %bitcast.259 = f32[16,896,784]{2,1,0} bitcast(f32[16,28,28,896]{2,1,3,0} %get-tuple-element.19)
  %fusion.61 = (f32[16,896]{1,0}, f32[16,896]{1,0}) fusion(f32[16,896,784]{2,1,0} %bitcast.259), kind=kInput, calls=%fused_computation.61.clone
  %get-tuple-element.139 = f32[16,896]{1,0} get-tuple-element((f32[16,896]{1,0}, f32[16,896]{1,0}) %fusion.61), index=0
  %reduce.234 = f32[896]{0} reduce(f32[16,896]{1,0} %get-tuple-element.139, f32[] %constant_519), dimensions={0}, to_apply=%region_0.1246.0, metadata={op_name="parallelize(train_step_func_pipeshard_parallel_mesh_0)/jit(main)/jit(0)/jit(05)/jvp(WideResNet)/BottleneckResNetBlock_5/BatchNorm_1/reduce_sum[axes=(0, 1, 2)]" source_file="/home/cyxue/miniconda3/envs/alpa/lib/python3.8/site-packages/flax/linen/normalization.py" source_line=82}
  %get-tuple-element.140 = f32[16,896]{1,0} get-tuple-element((f32[16,896]{1,0}, f32[16,896]{1,0}) %fusion.61), index=1
  %param_38 = f32[896]{0} parameter(38), metadata={op_name="0$start"}
  %param_158 = f32[896]{0} parameter(158), metadata={op_name="0$start"}
  %fusion.56 = (f32[896]{0}, f32[896]{0}, f32[896]{0}) fusion(f32[896]{0} %param_39, f32[896]{0} %param_159, f32[896]{0} %reduce.234, f32[16,896]{1,0} %get-tuple-element.140, f32[896]{0} %param_38, /*index=5*/f32[896]{0} %param_158), kind=kLoop, calls=%fused_computation.56, metadata={op_name="parallelize(train_step_func_pipeshard_parallel_mesh_0)/jit(main)/jit(0)/jit(05)/add"}
  %get-tuple-element.280 = f32[896]{0} get-tuple-element((f32[896]{0}, f32[896]{0}, f32[896]{0}) %fusion.56), index=2
  %get-tuple-element.281 = f32[896]{0} get-tuple-element((f32[896]{0}, f32[896]{0}, f32[896]{0}) %fusion.56), index=0
  %param_41 = f32[1792]{0} parameter(41), metadata={op_name="0$start"}
  %param_161 = f32[1792]{0} parameter(161), metadata={op_name="0$start"}
  %param_152 = f32[896]{0} parameter(152), metadata={op_name="0$start"}
  %param_151 = f32[896]{0} parameter(151), metadata={op_name="0$start"}
  %get-tuple-element.137 = f32[896]{0} get-tuple-element((f32[896]{0}, f32[896]{0}, f32[896]{0}) %fusion.56), index=1
  %fusion.55 = f32[16,28,28,896]{2,1,3,0} fusion(f32[896]{0} %param_152, f32[896]{0} %param_151, f32[896]{0} %get-tuple-element.137, f32[16,28,28,896]{2,1,3,0} %get-tuple-element.19, f32[896]{0} %reduce.234), kind=kLoop, calls=%fused_computation.55, metadata={op_name="parallelize(train_step_func_pipeshard_parallel_mesh_0)/jit(main)/jit(0)/jit(05)/jvp(WideResNet)/BottleneckResNetBlock_5/max" source_file="/home/cyxue/Projects/crius/Crius/runtime/crius_worker/jax/model/wide_resnet.py" source_line=88}
  %param_153 = f32[1,1,896,1792]{3,2,1,0} parameter(153), metadata={op_name="0$start"}
  %copy.21 = f32[1,1,896,1792]{1,0,2,3} copy(f32[1,1,896,1792]{3,2,1,0} %param_153), metadata={op_name="0$start"}
  %cudnn-conv.20 = (f32[16,28,28,1792]{2,1,3,0}, u8[0]{0}) custom-call(f32[16,28,28,896]{2,1,3,0} %fusion.55, f32[1,1,896,1792]{1,0,2,3} %copy.21), window={size=1x1}, dim_labels=b01f_01io->b01f, custom_call_target="__cudnn$convForward", metadata={op_name="parallelize(train_step_func_pipeshard_parallel_mesh_0)/jit(main)/jit(0)/jit(05)/jvp(WideResNet)/BottleneckResNetBlock_5/Conv_2/conv_general_dilated[window_strides=(1, 1) padding=((0, 0), (0, 0)) lhs_dilation=(1, 1) rhs_dilation=(1, 1) dimension_numbers=ConvDimensionNumbers(lhs_spec=(0, 3, 1, 2), rhs_spec=(3, 2, 0, 1), out_spec=(0, 3, 1, 2)) feature_group_count=1 batch_group_count=1 lhs_shape=(16, 28, 28, 896) rhs_shape=(1, 1, 896, 1792) precision=None preferred_element_type=None]" source_file="/home/cyxue/miniconda3/envs/alpa/lib/python3.8/site-packages/flax/linen/linear.py" source_line=435}, backend_config="{\"conv_result_scale\":1,\"activation_mode\":\"0\",\"side_input_scale\":0}"
  %get-tuple-element.20 = f32[16,28,28,1792]{2,1,3,0} get-tuple-element((f32[16,28,28,1792]{2,1,3,0}, u8[0]{0}) %cudnn-conv.20), index=0, metadata={op_name="parallelize(train_step_func_pipeshard_parallel_mesh_0)/jit(main)/jit(0)/jit(05)/jvp(WideResNet)/BottleneckResNetBlock_5/Conv_2/conv_general_dilated[window_strides=(1, 1) padding=((0, 0), (0, 0)) lhs_dilation=(1, 1) rhs_dilation=(1, 1) dimension_numbers=ConvDimensionNumbers(lhs_spec=(0, 3, 1, 2), rhs_spec=(3, 2, 0, 1), out_spec=(0, 3, 1, 2)) feature_group_count=1 batch_group_count=1 lhs_shape=(16, 28, 28, 896) rhs_shape=(1, 1, 896, 1792) precision=None preferred_element_type=None]" source_file="/home/cyxue/miniconda3/envs/alpa/lib/python3.8/site-packages/flax/linen/linear.py" source_line=435}
  %bitcast.255 = f32[16,1792,784]{2,1,0} bitcast(f32[16,28,28,1792]{2,1,3,0} %get-tuple-element.20)
  %fusion.54 = (f32[16,1792]{1,0}, f32[16,1792]{1,0}) fusion(f32[16,1792,784]{2,1,0} %bitcast.255), kind=kInput, calls=%fused_computation.54.clone
  %get-tuple-element.134 = f32[16,1792]{1,0} get-tuple-element((f32[16,1792]{1,0}, f32[16,1792]{1,0}) %fusion.54), index=0
  %reduce.236 = f32[1792]{0} reduce(f32[16,1792]{1,0} %get-tuple-element.134, f32[] %constant_519), dimensions={0}, to_apply=%region_0.1246.0, metadata={op_name="parallelize(train_step_func_pipeshard_parallel_mesh_0)/jit(main)/jit(0)/jit(05)/jvp(WideResNet)/BottleneckResNetBlock_5/BatchNorm_2/reduce_sum[axes=(0, 1, 2)]" source_file="/home/cyxue/miniconda3/envs/alpa/lib/python3.8/site-packages/flax/linen/normalization.py" source_line=82}
  %get-tuple-element.135 = f32[16,1792]{1,0} get-tuple-element((f32[16,1792]{1,0}, f32[16,1792]{1,0}) %fusion.54), index=1
  %param_40 = f32[1792]{0} parameter(40), metadata={op_name="0$start"}
  %param_160 = f32[1792]{0} parameter(160), metadata={op_name="0$start"}
  %fusion.49 = (f32[1792]{0}, f32[1792]{0}, f32[1792]{0}) fusion(f32[1792]{0} %param_41, f32[1792]{0} %param_161, f32[1792]{0} %reduce.236, f32[16,1792]{1,0} %get-tuple-element.135, f32[1792]{0} %param_40, /*index=5*/f32[1792]{0} %param_160), kind=kLoop, calls=%fused_computation.49, metadata={op_name="parallelize(train_step_func_pipeshard_parallel_mesh_0)/jit(main)/jit(0)/jit(05)/add"}
  %get-tuple-element.282 = f32[1792]{0} get-tuple-element((f32[1792]{0}, f32[1792]{0}, f32[1792]{0}) %fusion.49), index=2
  %get-tuple-element.283 = f32[1792]{0} get-tuple-element((f32[1792]{0}, f32[1792]{0}, f32[1792]{0}) %fusion.49), index=0
  %param_43 = f32[448]{0} parameter(43), metadata={op_name="0$start"}
  %param_172 = f32[448]{0} parameter(172), metadata={op_name="0$start"}
  %param_155 = f32[1792]{0} parameter(155), metadata={op_name="0$start"}
  %param_154 = f32[1792]{0} parameter(154), metadata={op_name="0$start"}
  %get-tuple-element.132 = f32[1792]{0} get-tuple-element((f32[1792]{0}, f32[1792]{0}, f32[1792]{0}) %fusion.49), index=1
  %fusion.48 = f32[16,28,28,1792]{2,1,3,0} fusion(f32[16,28,28,1792]{2,1,3,0} %fusion.69, f32[1792]{0} %param_155, f32[1792]{0} %param_154, f32[1792]{0} %get-tuple-element.132, f32[16,28,28,1792]{2,1,3,0} %get-tuple-element.20, /*index=5*/f32[1792]{0} %reduce.236), kind=kLoop, calls=%fused_computation.48, metadata={op_name="parallelize(train_step_func_pipeshard_parallel_mesh_0)/jit(main)/jit(0)/jit(05)/jvp(WideResNet)/BottleneckResNetBlock_5/max" source_file="/home/cyxue/Projects/crius/Crius/runtime/crius_worker/jax/model/wide_resnet.py" source_line=98}
  %param_162 = f32[1,1,1792,448]{3,2,1,0} parameter(162), metadata={op_name="0$start"}
  %copy.22 = f32[1,1,1792,448]{1,0,2,3} copy(f32[1,1,1792,448]{3,2,1,0} %param_162), metadata={op_name="0$start"}
  %cudnn-conv.21 = (f32[16,28,28,448]{2,1,3,0}, u8[0]{0}) custom-call(f32[16,28,28,1792]{2,1,3,0} %fusion.48, f32[1,1,1792,448]{1,0,2,3} %copy.22), window={size=1x1}, dim_labels=b01f_01io->b01f, custom_call_target="__cudnn$convForward", metadata={op_name="parallelize(train_step_func_pipeshard_parallel_mesh_0)/jit(main)/jit(0)/jit(06)/jvp(WideResNet)/BottleneckResNetBlock_6/Conv_0/conv_general_dilated[window_strides=(1, 1) padding=((0, 0), (0, 0)) lhs_dilation=(1, 1) rhs_dilation=(1, 1) dimension_numbers=ConvDimensionNumbers(lhs_spec=(0, 3, 1, 2), rhs_spec=(3, 2, 0, 1), out_spec=(0, 3, 1, 2)) feature_group_count=1 batch_group_count=1 lhs_shape=(16, 28, 28, 1792) rhs_shape=(1, 1, 1792, 448) precision=None preferred_element_type=None]" source_file="/home/cyxue/miniconda3/envs/alpa/lib/python3.8/site-packages/flax/linen/linear.py" source_line=435}, backend_config="{\"conv_result_scale\":1,\"activation_mode\":\"0\",\"side_input_scale\":0}"
  %get-tuple-element.21 = f32[16,28,28,448]{2,1,3,0} get-tuple-element((f32[16,28,28,448]{2,1,3,0}, u8[0]{0}) %cudnn-conv.21), index=0, metadata={op_name="parallelize(train_step_func_pipeshard_parallel_mesh_0)/jit(main)/jit(0)/jit(06)/jvp(WideResNet)/BottleneckResNetBlock_6/Conv_0/conv_general_dilated[window_strides=(1, 1) padding=((0, 0), (0, 0)) lhs_dilation=(1, 1) rhs_dilation=(1, 1) dimension_numbers=ConvDimensionNumbers(lhs_spec=(0, 3, 1, 2), rhs_spec=(3, 2, 0, 1), out_spec=(0, 3, 1, 2)) feature_group_count=1 batch_group_count=1 lhs_shape=(16, 28, 28, 1792) rhs_shape=(1, 1, 1792, 448) precision=None preferred_element_type=None]" source_file="/home/cyxue/miniconda3/envs/alpa/lib/python3.8/site-packages/flax/linen/linear.py" source_line=435}
  %bitcast.251 = f32[16,448,784]{2,1,0} bitcast(f32[16,28,28,448]{2,1,3,0} %get-tuple-element.21)
  %fusion.47 = (f32[16,448]{1,0}, f32[16,448]{1,0}) fusion(f32[16,448,784]{2,1,0} %bitcast.251), kind=kInput, calls=%fused_computation.47.clone
  %get-tuple-element.128 = f32[16,448]{1,0} get-tuple-element((f32[16,448]{1,0}, f32[16,448]{1,0}) %fusion.47), index=0
  %reduce.238 = f32[448]{0} reduce(f32[16,448]{1,0} %get-tuple-element.128, f32[] %constant_519), dimensions={0}, to_apply=%region_0.1246.0, metadata={op_name="parallelize(train_step_func_pipeshard_parallel_mesh_0)/jit(main)/jit(0)/jit(06)/jvp(WideResNet)/BottleneckResNetBlock_6/BatchNorm_0/reduce_sum[axes=(0, 1, 2)]" source_file="/home/cyxue/miniconda3/envs/alpa/lib/python3.8/site-packages/flax/linen/normalization.py" source_line=82}
  %get-tuple-element.129 = f32[16,448]{1,0} get-tuple-element((f32[16,448]{1,0}, f32[16,448]{1,0}) %fusion.47), index=1
  %param_42 = f32[448]{0} parameter(42), metadata={op_name="0$start"}
  %param_171 = f32[448]{0} parameter(171), metadata={op_name="0$start"}
  %fusion.42 = (f32[448]{0}, f32[448]{0}, f32[448]{0}) fusion(f32[448]{0} %param_43, f32[448]{0} %param_172, f32[448]{0} %reduce.238, f32[16,448]{1,0} %get-tuple-element.129, f32[448]{0} %param_42, /*index=5*/f32[448]{0} %param_171), kind=kLoop, calls=%fused_computation.42, metadata={op_name="parallelize(train_step_func_pipeshard_parallel_mesh_0)/jit(main)/jit(0)/jit(06)/add"}
  %get-tuple-element.284 = f32[448]{0} get-tuple-element((f32[448]{0}, f32[448]{0}, f32[448]{0}) %fusion.42), index=2
  %get-tuple-element.285 = f32[448]{0} get-tuple-element((f32[448]{0}, f32[448]{0}, f32[448]{0}) %fusion.42), index=0
  %param_45 = f32[896]{0} parameter(45), metadata={op_name="0$start"}
  %param_174 = f32[896]{0} parameter(174), metadata={op_name="0$start"}
  %param_164 = f32[448]{0} parameter(164), metadata={op_name="0$start"}
  %param_163 = f32[448]{0} parameter(163), metadata={op_name="0$start"}
  %get-tuple-element.126 = f32[448]{0} get-tuple-element((f32[448]{0}, f32[448]{0}, f32[448]{0}) %fusion.42), index=1
  %fusion.41 = f32[16,28,28,448]{2,1,3,0} fusion(f32[448]{0} %param_164, f32[448]{0} %param_163, f32[448]{0} %get-tuple-element.126, f32[16,28,28,448]{2,1,3,0} %get-tuple-element.21, f32[448]{0} %reduce.238), kind=kLoop, calls=%fused_computation.41, metadata={op_name="parallelize(train_step_func_pipeshard_parallel_mesh_0)/jit(main)/jit(0)/jit(06)/jvp(WideResNet)/BottleneckResNetBlock_6/max" source_file="/home/cyxue/Projects/crius/Crius/runtime/crius_worker/jax/model/wide_resnet.py" source_line=85}
  %param_165 = f32[3,3,448,896]{3,2,1,0} parameter(165), metadata={op_name="0$start"}
  %copy.23 = f32[3,3,448,896]{1,0,2,3} copy(f32[3,3,448,896]{3,2,1,0} %param_165), metadata={op_name="0$start"}
  %cudnn-conv.22 = (f32[16,28,28,896]{2,1,3,0}, u8[0]{0}) custom-call(f32[16,28,28,448]{2,1,3,0} %fusion.41, f32[3,3,448,896]{1,0,2,3} %copy.23), window={size=3x3 pad=1_1x1_1}, dim_labels=b01f_01io->b01f, custom_call_target="__cudnn$convForward", metadata={op_name="parallelize(train_step_func_pipeshard_parallel_mesh_0)/jit(main)/jit(0)/jit(06)/jvp(WideResNet)/BottleneckResNetBlock_6/Conv_1/conv_general_dilated[window_strides=(1, 1) padding=((1, 1), (1, 1)) lhs_dilation=(1, 1) rhs_dilation=(1, 1) dimension_numbers=ConvDimensionNumbers(lhs_spec=(0, 3, 1, 2), rhs_spec=(3, 2, 0, 1), out_spec=(0, 3, 1, 2)) feature_group_count=1 batch_group_count=1 lhs_shape=(16, 28, 28, 448) rhs_shape=(3, 3, 448, 896) precision=None preferred_element_type=None]" source_file="/home/cyxue/miniconda3/envs/alpa/lib/python3.8/site-packages/flax/linen/linear.py" source_line=435}, backend_config="{\"conv_result_scale\":1,\"activation_mode\":\"0\",\"side_input_scale\":0}"
  %get-tuple-element.22 = f32[16,28,28,896]{2,1,3,0} get-tuple-element((f32[16,28,28,896]{2,1,3,0}, u8[0]{0}) %cudnn-conv.22), index=0, metadata={op_name="parallelize(train_step_func_pipeshard_parallel_mesh_0)/jit(main)/jit(0)/jit(06)/jvp(WideResNet)/BottleneckResNetBlock_6/Conv_1/conv_general_dilated[window_strides=(1, 1) padding=((1, 1), (1, 1)) lhs_dilation=(1, 1) rhs_dilation=(1, 1) dimension_numbers=ConvDimensionNumbers(lhs_spec=(0, 3, 1, 2), rhs_spec=(3, 2, 0, 1), out_spec=(0, 3, 1, 2)) feature_group_count=1 batch_group_count=1 lhs_shape=(16, 28, 28, 448) rhs_shape=(3, 3, 448, 896) precision=None preferred_element_type=None]" source_file="/home/cyxue/miniconda3/envs/alpa/lib/python3.8/site-packages/flax/linen/linear.py" source_line=435}
  %bitcast.247 = f32[16,896,784]{2,1,0} bitcast(f32[16,28,28,896]{2,1,3,0} %get-tuple-element.22)
  %fusion.40 = (f32[16,896]{1,0}, f32[16,896]{1,0}) fusion(f32[16,896,784]{2,1,0} %bitcast.247), kind=kInput, calls=%fused_computation.40.clone
  %get-tuple-element.123 = f32[16,896]{1,0} get-tuple-element((f32[16,896]{1,0}, f32[16,896]{1,0}) %fusion.40), index=0
  %reduce.240 = f32[896]{0} reduce(f32[16,896]{1,0} %get-tuple-element.123, f32[] %constant_519), dimensions={0}, to_apply=%region_0.1246.0, metadata={op_name="parallelize(train_step_func_pipeshard_parallel_mesh_0)/jit(main)/jit(0)/jit(06)/jvp(WideResNet)/BottleneckResNetBlock_6/BatchNorm_1/reduce_sum[axes=(0, 1, 2)]" source_file="/home/cyxue/miniconda3/envs/alpa/lib/python3.8/site-packages/flax/linen/normalization.py" source_line=82}
  %get-tuple-element.124 = f32[16,896]{1,0} get-tuple-element((f32[16,896]{1,0}, f32[16,896]{1,0}) %fusion.40), index=1
  %param_44 = f32[896]{0} parameter(44), metadata={op_name="0$start"}
  %param_173 = f32[896]{0} parameter(173), metadata={op_name="0$start"}
  %fusion.35 = (f32[896]{0}, f32[896]{0}, f32[896]{0}) fusion(f32[896]{0} %param_45, f32[896]{0} %param_174, f32[896]{0} %reduce.240, f32[16,896]{1,0} %get-tuple-element.124, f32[896]{0} %param_44, /*index=5*/f32[896]{0} %param_173), kind=kLoop, calls=%fused_computation.35, metadata={op_name="parallelize(train_step_func_pipeshard_parallel_mesh_0)/jit(main)/jit(0)/jit(06)/add"}
  %get-tuple-element.286 = f32[896]{0} get-tuple-element((f32[896]{0}, f32[896]{0}, f32[896]{0}) %fusion.35), index=2
  %get-tuple-element.287 = f32[896]{0} get-tuple-element((f32[896]{0}, f32[896]{0}, f32[896]{0}) %fusion.35), index=0
  %param_47 = f32[1792]{0} parameter(47), metadata={op_name="0$start"}
  %param_176 = f32[1792]{0} parameter(176), metadata={op_name="0$start"}
  %param_167 = f32[896]{0} parameter(167), metadata={op_name="0$start"}
  %param_166 = f32[896]{0} parameter(166), metadata={op_name="0$start"}
  %get-tuple-element.121 = f32[896]{0} get-tuple-element((f32[896]{0}, f32[896]{0}, f32[896]{0}) %fusion.35), index=1
  %fusion.34 = f32[16,28,28,896]{2,1,3,0} fusion(f32[896]{0} %param_167, f32[896]{0} %param_166, f32[896]{0} %get-tuple-element.121, f32[16,28,28,896]{2,1,3,0} %get-tuple-element.22, f32[896]{0} %reduce.240), kind=kLoop, calls=%fused_computation.34, metadata={op_name="parallelize(train_step_func_pipeshard_parallel_mesh_0)/jit(main)/jit(0)/jit(06)/jvp(WideResNet)/BottleneckResNetBlock_6/max" source_file="/home/cyxue/Projects/crius/Crius/runtime/crius_worker/jax/model/wide_resnet.py" source_line=88}
  %param_168 = f32[1,1,896,1792]{3,2,1,0} parameter(168), metadata={op_name="0$start"}
  %copy.24 = f32[1,1,896,1792]{1,0,2,3} copy(f32[1,1,896,1792]{3,2,1,0} %param_168), metadata={op_name="0$start"}
  %cudnn-conv.23 = (f32[16,28,28,1792]{2,1,3,0}, u8[0]{0}) custom-call(f32[16,28,28,896]{2,1,3,0} %fusion.34, f32[1,1,896,1792]{1,0,2,3} %copy.24), window={size=1x1}, dim_labels=b01f_01io->b01f, custom_call_target="__cudnn$convForward", metadata={op_name="parallelize(train_step_func_pipeshard_parallel_mesh_0)/jit(main)/jit(0)/jit(06)/jvp(WideResNet)/BottleneckResNetBlock_6/Conv_2/conv_general_dilated[window_strides=(1, 1) padding=((0, 0), (0, 0)) lhs_dilation=(1, 1) rhs_dilation=(1, 1) dimension_numbers=ConvDimensionNumbers(lhs_spec=(0, 3, 1, 2), rhs_spec=(3, 2, 0, 1), out_spec=(0, 3, 1, 2)) feature_group_count=1 batch_group_count=1 lhs_shape=(16, 28, 28, 896) rhs_shape=(1, 1, 896, 1792) precision=None preferred_element_type=None]" source_file="/home/cyxue/miniconda3/envs/alpa/lib/python3.8/site-packages/flax/linen/linear.py" source_line=435}, backend_config="{\"conv_result_scale\":1,\"activation_mode\":\"0\",\"side_input_scale\":0}"
  %get-tuple-element.23 = f32[16,28,28,1792]{2,1,3,0} get-tuple-element((f32[16,28,28,1792]{2,1,3,0}, u8[0]{0}) %cudnn-conv.23), index=0, metadata={op_name="parallelize(train_step_func_pipeshard_parallel_mesh_0)/jit(main)/jit(0)/jit(06)/jvp(WideResNet)/BottleneckResNetBlock_6/Conv_2/conv_general_dilated[window_strides=(1, 1) padding=((0, 0), (0, 0)) lhs_dilation=(1, 1) rhs_dilation=(1, 1) dimension_numbers=ConvDimensionNumbers(lhs_spec=(0, 3, 1, 2), rhs_spec=(3, 2, 0, 1), out_spec=(0, 3, 1, 2)) feature_group_count=1 batch_group_count=1 lhs_shape=(16, 28, 28, 896) rhs_shape=(1, 1, 896, 1792) precision=None preferred_element_type=None]" source_file="/home/cyxue/miniconda3/envs/alpa/lib/python3.8/site-packages/flax/linen/linear.py" source_line=435}
  %bitcast.243 = f32[16,1792,784]{2,1,0} bitcast(f32[16,28,28,1792]{2,1,3,0} %get-tuple-element.23)
  %fusion.33 = (f32[16,1792]{1,0}, f32[16,1792]{1,0}) fusion(f32[16,1792,784]{2,1,0} %bitcast.243), kind=kInput, calls=%fused_computation.33.clone
  %get-tuple-element.118 = f32[16,1792]{1,0} get-tuple-element((f32[16,1792]{1,0}, f32[16,1792]{1,0}) %fusion.33), index=0
  %reduce.242 = f32[1792]{0} reduce(f32[16,1792]{1,0} %get-tuple-element.118, f32[] %constant_519), dimensions={0}, to_apply=%region_0.1246.0, metadata={op_name="parallelize(train_step_func_pipeshard_parallel_mesh_0)/jit(main)/jit(0)/jit(06)/jvp(WideResNet)/BottleneckResNetBlock_6/BatchNorm_2/reduce_sum[axes=(0, 1, 2)]" source_file="/home/cyxue/miniconda3/envs/alpa/lib/python3.8/site-packages/flax/linen/normalization.py" source_line=82}
  %get-tuple-element.119 = f32[16,1792]{1,0} get-tuple-element((f32[16,1792]{1,0}, f32[16,1792]{1,0}) %fusion.33), index=1
  %param_46 = f32[1792]{0} parameter(46), metadata={op_name="0$start"}
  %param_175 = f32[1792]{0} parameter(175), metadata={op_name="0$start"}
  %fusion.28 = (f32[1792]{0}, f32[1792]{0}, f32[1792]{0}) fusion(f32[1792]{0} %param_47, f32[1792]{0} %param_176, f32[1792]{0} %reduce.242, f32[16,1792]{1,0} %get-tuple-element.119, f32[1792]{0} %param_46, /*index=5*/f32[1792]{0} %param_175), kind=kLoop, calls=%fused_computation.28, metadata={op_name="parallelize(train_step_func_pipeshard_parallel_mesh_0)/jit(main)/jit(0)/jit(06)/add"}
  %get-tuple-element.288 = f32[1792]{0} get-tuple-element((f32[1792]{0}, f32[1792]{0}, f32[1792]{0}) %fusion.28), index=2
  %get-tuple-element.289 = f32[1792]{0} get-tuple-element((f32[1792]{0}, f32[1792]{0}, f32[1792]{0}) %fusion.28), index=0
  %param_49 = f32[896]{0} parameter(49), metadata={op_name="0$start"}
  %param_190 = f32[896]{0} parameter(190), metadata={op_name="0$start"}
  %param_170 = f32[1792]{0} parameter(170), metadata={op_name="0$start"}
  %param_169 = f32[1792]{0} parameter(169), metadata={op_name="0$start"}
  %get-tuple-element.116 = f32[1792]{0} get-tuple-element((f32[1792]{0}, f32[1792]{0}, f32[1792]{0}) %fusion.28), index=1
  %fusion.200 = (f32[16,28,28,1792]{3,2,1,0}, f32[16,28,28,1792]{2,1,3,0}, f32[16,28,28,1792]{3,2,1,0}) fusion(f32[16,28,28,1792]{2,1,3,0} %fusion.48, f32[1792]{0} %param_170, f32[1792]{0} %param_169, f32[1792]{0} %get-tuple-element.116, f32[16,28,28,1792]{2,1,3,0} %get-tuple-element.23, /*index=5*/f32[1792]{0} %reduce.242), kind=kInput, calls=%fused_computation.200, metadata={op_name="tuple.66"}
  %get-tuple-element.114 = f32[16,28,28,1792]{2,1,3,0} get-tuple-element((f32[16,28,28,1792]{3,2,1,0}, f32[16,28,28,1792]{2,1,3,0}, f32[16,28,28,1792]{3,2,1,0}) %fusion.200), index=1
  %param_177 = f32[1,1,1792,896]{3,2,1,0} parameter(177), metadata={op_name="0$start"}
  %copy.25 = f32[1,1,1792,896]{1,0,2,3} copy(f32[1,1,1792,896]{3,2,1,0} %param_177), metadata={op_name="0$start"}
  %cudnn-conv.25 = (f32[16,28,28,896]{2,1,3,0}, u8[0]{0}) custom-call(f32[16,28,28,1792]{2,1,3,0} %get-tuple-element.114, f32[1,1,1792,896]{1,0,2,3} %copy.25), window={size=1x1}, dim_labels=b01f_01io->b01f, custom_call_target="__cudnn$convForward", metadata={op_name="parallelize(train_step_func_pipeshard_parallel_mesh_0)/jit(main)/jit(0)/jit(07)/jvp(WideResNet)/BottleneckResNetBlock_7/Conv_0/conv_general_dilated[window_strides=(1, 1) padding=((0, 0), (0, 0)) lhs_dilation=(1, 1) rhs_dilation=(1, 1) dimension_numbers=ConvDimensionNumbers(lhs_spec=(0, 3, 1, 2), rhs_spec=(3, 2, 0, 1), out_spec=(0, 3, 1, 2)) feature_group_count=1 batch_group_count=1 lhs_shape=(16, 28, 28, 1792) rhs_shape=(1, 1, 1792, 896) precision=None preferred_element_type=None]" source_file="/home/cyxue/miniconda3/envs/alpa/lib/python3.8/site-packages/flax/linen/linear.py" source_line=435}, backend_config="{\"conv_result_scale\":1,\"activation_mode\":\"0\",\"side_input_scale\":0}"
  %get-tuple-element.25 = f32[16,28,28,896]{2,1,3,0} get-tuple-element((f32[16,28,28,896]{2,1,3,0}, u8[0]{0}) %cudnn-conv.25), index=0, metadata={op_name="parallelize(train_step_func_pipeshard_parallel_mesh_0)/jit(main)/jit(0)/jit(07)/jvp(WideResNet)/BottleneckResNetBlock_7/Conv_0/conv_general_dilated[window_strides=(1, 1) padding=((0, 0), (0, 0)) lhs_dilation=(1, 1) rhs_dilation=(1, 1) dimension_numbers=ConvDimensionNumbers(lhs_spec=(0, 3, 1, 2), rhs_spec=(3, 2, 0, 1), out_spec=(0, 3, 1, 2)) feature_group_count=1 batch_group_count=1 lhs_shape=(16, 28, 28, 1792) rhs_shape=(1, 1, 1792, 896) precision=None preferred_element_type=None]" source_file="/home/cyxue/miniconda3/envs/alpa/lib/python3.8/site-packages/flax/linen/linear.py" source_line=435}
  %bitcast.239 = f32[16,896,784]{2,1,0} bitcast(f32[16,28,28,896]{2,1,3,0} %get-tuple-element.25)
  %fusion.26 = (f32[16,896]{1,0}, f32[16,896]{1,0}) fusion(f32[16,896,784]{2,1,0} %bitcast.239), kind=kInput, calls=%fused_computation.26.clone
  %get-tuple-element.111 = f32[16,896]{1,0} get-tuple-element((f32[16,896]{1,0}, f32[16,896]{1,0}) %fusion.26), index=0
  %reduce.246 = f32[896]{0} reduce(f32[16,896]{1,0} %get-tuple-element.111, f32[] %constant_519), dimensions={0}, to_apply=%region_0.1246.0, metadata={op_name="parallelize(train_step_func_pipeshard_parallel_mesh_0)/jit(main)/jit(0)/jit(07)/jvp(WideResNet)/BottleneckResNetBlock_7/BatchNorm_0/reduce_sum[axes=(0, 1, 2)]" source_file="/home/cyxue/miniconda3/envs/alpa/lib/python3.8/site-packages/flax/linen/normalization.py" source_line=82}
  %get-tuple-element.112 = f32[16,896]{1,0} get-tuple-element((f32[16,896]{1,0}, f32[16,896]{1,0}) %fusion.26), index=1
  %param_48 = f32[896]{0} parameter(48), metadata={op_name="0$start"}
  %param_189 = f32[896]{0} parameter(189), metadata={op_name="0$start"}
  %fusion.21 = (f32[896]{0}, f32[896]{0}, f32[896]{0}) fusion(f32[896]{0} %param_49, f32[896]{0} %param_190, f32[896]{0} %reduce.246, f32[16,896]{1,0} %get-tuple-element.112, f32[896]{0} %param_48, /*index=5*/f32[896]{0} %param_189), kind=kLoop, calls=%fused_computation.21, metadata={op_name="parallelize(train_step_func_pipeshard_parallel_mesh_0)/jit(main)/jit(0)/jit(07)/add"}
  %get-tuple-element.290 = f32[896]{0} get-tuple-element((f32[896]{0}, f32[896]{0}, f32[896]{0}) %fusion.21), index=2
  %get-tuple-element.291 = f32[896]{0} get-tuple-element((f32[896]{0}, f32[896]{0}, f32[896]{0}) %fusion.21), index=0
  %param_51 = f32[1792]{0} parameter(51), metadata={op_name="0$start"}
  %param_192 = f32[1792]{0} parameter(192), metadata={op_name="0$start"}
  %param_179 = f32[896]{0} parameter(179), metadata={op_name="0$start"}
  %param_178 = f32[896]{0} parameter(178), metadata={op_name="0$start"}
  %get-tuple-element.109 = f32[896]{0} get-tuple-element((f32[896]{0}, f32[896]{0}, f32[896]{0}) %fusion.21), index=1
  %fusion.20 = f32[16,29,29,896]{2,1,3,0} fusion(f32[896]{0} %param_179, f32[896]{0} %param_178, f32[896]{0} %get-tuple-element.109, f32[16,28,28,896]{2,1,3,0} %get-tuple-element.25, f32[896]{0} %reduce.246), kind=kLoop, calls=%fused_computation.20, metadata={op_name="parallelize(train_step_func_pipeshard_parallel_mesh_0)/jit(main)/jit(0)/jit(07)/jvp(WideResNet)/BottleneckResNetBlock_7/max" source_file="/home/cyxue/Projects/crius/Crius/runtime/crius_worker/jax/model/wide_resnet.py" source_line=85}
  %param_180 = f32[3,3,896,1792]{3,2,1,0} parameter(180), metadata={op_name="0$start"}
  %copy.26 = f32[3,3,896,1792]{1,0,2,3} copy(f32[3,3,896,1792]{3,2,1,0} %param_180), metadata={op_name="0$start"}
  %cudnn-conv.26 = (f32[16,14,14,1792]{2,1,3,0}, u8[0]{0}) custom-call(f32[16,29,29,896]{2,1,3,0} %fusion.20, f32[3,3,896,1792]{1,0,2,3} %copy.26), window={size=3x3 stride=2x2}, dim_labels=b01f_01io->b01f, custom_call_target="__cudnn$convForward", metadata={op_name="parallelize(train_step_func_pipeshard_parallel_mesh_0)/jit(main)/jit(0)/jit(07)/jvp(WideResNet)/BottleneckResNetBlock_7/Conv_1/conv_general_dilated[window_strides=(2, 2) padding=((0, 1), (0, 1)) lhs_dilation=(1, 1) rhs_dilation=(1, 1) dimension_numbers=ConvDimensionNumbers(lhs_spec=(0, 3, 1, 2), rhs_spec=(3, 2, 0, 1), out_spec=(0, 3, 1, 2)) feature_group_count=1 batch_group_count=1 lhs_shape=(16, 28, 28, 896) rhs_shape=(3, 3, 896, 1792) precision=None preferred_element_type=None]" source_file="/home/cyxue/miniconda3/envs/alpa/lib/python3.8/site-packages/flax/linen/linear.py" source_line=435}, backend_config="{\"conv_result_scale\":1,\"activation_mode\":\"0\",\"side_input_scale\":0}"
  %get-tuple-element.26 = f32[16,14,14,1792]{2,1,3,0} get-tuple-element((f32[16,14,14,1792]{2,1,3,0}, u8[0]{0}) %cudnn-conv.26), index=0, metadata={op_name="parallelize(train_step_func_pipeshard_parallel_mesh_0)/jit(main)/jit(0)/jit(07)/jvp(WideResNet)/BottleneckResNetBlock_7/Conv_1/conv_general_dilated[window_strides=(2, 2) padding=((0, 1), (0, 1)) lhs_dilation=(1, 1) rhs_dilation=(1, 1) dimension_numbers=ConvDimensionNumbers(lhs_spec=(0, 3, 1, 2), rhs_spec=(3, 2, 0, 1), out_spec=(0, 3, 1, 2)) feature_group_count=1 batch_group_count=1 lhs_shape=(16, 28, 28, 896) rhs_shape=(3, 3, 896, 1792) precision=None preferred_element_type=None]" source_file="/home/cyxue/miniconda3/envs/alpa/lib/python3.8/site-packages/flax/linen/linear.py" source_line=435}
  %bitcast.235 = f32[16,1792,196]{2,1,0} bitcast(f32[16,14,14,1792]{2,1,3,0} %get-tuple-element.26)
  %fusion.19 = (f32[16,1792]{1,0}, f32[16,1792]{1,0}) fusion(f32[16,1792,196]{2,1,0} %bitcast.235), kind=kInput, calls=%fused_computation.19.clone
  %get-tuple-element.106 = f32[16,1792]{1,0} get-tuple-element((f32[16,1792]{1,0}, f32[16,1792]{1,0}) %fusion.19), index=0
  %reduce.248 = f32[1792]{0} reduce(f32[16,1792]{1,0} %get-tuple-element.106, f32[] %constant_519), dimensions={0}, to_apply=%region_0.1246.0, metadata={op_name="parallelize(train_step_func_pipeshard_parallel_mesh_0)/jit(main)/jit(0)/jit(07)/jvp(WideResNet)/BottleneckResNetBlock_7/BatchNorm_1/reduce_sum[axes=(0, 1, 2)]" source_file="/home/cyxue/miniconda3/envs/alpa/lib/python3.8/site-packages/flax/linen/normalization.py" source_line=82}
  %get-tuple-element.107 = f32[16,1792]{1,0} get-tuple-element((f32[16,1792]{1,0}, f32[16,1792]{1,0}) %fusion.19), index=1
  %param_50 = f32[1792]{0} parameter(50), metadata={op_name="0$start"}
  %param_191 = f32[1792]{0} parameter(191), metadata={op_name="0$start"}
  %fusion.14 = (f32[1792]{0}, f32[1792]{0}, f32[1792]{0}) fusion(f32[1792]{0} %param_51, f32[1792]{0} %param_192, f32[1792]{0} %reduce.248, f32[16,1792]{1,0} %get-tuple-element.107, f32[1792]{0} %param_50, /*index=5*/f32[1792]{0} %param_191), kind=kLoop, calls=%fused_computation.14, metadata={op_name="parallelize(train_step_func_pipeshard_parallel_mesh_0)/jit(main)/jit(0)/jit(07)/add"}
  %get-tuple-element.292 = f32[1792]{0} get-tuple-element((f32[1792]{0}, f32[1792]{0}, f32[1792]{0}) %fusion.14), index=2
  %get-tuple-element.358 = f32[1792]{0} get-tuple-element((f32[1792]{0}, f32[1792]{0}, f32[1792]{0}) %fusion.14), index=0
  %param_53 = f32[3584]{0} parameter(53), metadata={op_name="0$start"}
  %param_194 = f32[3584]{0} parameter(194), metadata={op_name="0$start"}
  %param_182 = f32[1792]{0} parameter(182), metadata={op_name="0$start"}
  %param_181 = f32[1792]{0} parameter(181), metadata={op_name="0$start"}
  %get-tuple-element.104 = f32[1792]{0} get-tuple-element((f32[1792]{0}, f32[1792]{0}, f32[1792]{0}) %fusion.14), index=1
  %fusion.13 = f32[16,14,14,1792]{2,1,3,0} fusion(f32[1792]{0} %param_182, f32[1792]{0} %param_181, f32[1792]{0} %get-tuple-element.104, f32[16,14,14,1792]{2,1,3,0} %get-tuple-element.26, f32[1792]{0} %reduce.248), kind=kLoop, calls=%fused_computation.13, metadata={op_name="parallelize(train_step_func_pipeshard_parallel_mesh_0)/jit(main)/jit(0)/jit(07)/jvp(WideResNet)/BottleneckResNetBlock_7/max" source_file="/home/cyxue/Projects/crius/Crius/runtime/crius_worker/jax/model/wide_resnet.py" source_line=88}
  %param_183 = f32[1,1,1792,3584]{3,2,1,0} parameter(183), metadata={op_name="0$start"}
  %copy.27 = f32[1,1,1792,3584]{1,0,2,3} copy(f32[1,1,1792,3584]{3,2,1,0} %param_183), metadata={op_name="0$start"}
  %cudnn-conv.27 = (f32[16,14,14,3584]{2,1,3,0}, u8[0]{0}) custom-call(f32[16,14,14,1792]{2,1,3,0} %fusion.13, f32[1,1,1792,3584]{1,0,2,3} %copy.27), window={size=1x1}, dim_labels=b01f_01io->b01f, custom_call_target="__cudnn$convForward", metadata={op_name="parallelize(train_step_func_pipeshard_parallel_mesh_0)/jit(main)/jit(0)/jit(07)/jvp(WideResNet)/BottleneckResNetBlock_7/Conv_2/conv_general_dilated[window_strides=(1, 1) padding=((0, 0), (0, 0)) lhs_dilation=(1, 1) rhs_dilation=(1, 1) dimension_numbers=ConvDimensionNumbers(lhs_spec=(0, 3, 1, 2), rhs_spec=(3, 2, 0, 1), out_spec=(0, 3, 1, 2)) feature_group_count=1 batch_group_count=1 lhs_shape=(16, 14, 14, 1792) rhs_shape=(1, 1, 1792, 3584) precision=None preferred_element_type=None]" source_file="/home/cyxue/miniconda3/envs/alpa/lib/python3.8/site-packages/flax/linen/linear.py" source_line=435}, backend_config="{\"conv_result_scale\":1,\"activation_mode\":\"0\",\"side_input_scale\":0}"
  %get-tuple-element.27 = f32[16,14,14,3584]{2,1,3,0} get-tuple-element((f32[16,14,14,3584]{2,1,3,0}, u8[0]{0}) %cudnn-conv.27), index=0, metadata={op_name="parallelize(train_step_func_pipeshard_parallel_mesh_0)/jit(main)/jit(0)/jit(07)/jvp(WideResNet)/BottleneckResNetBlock_7/Conv_2/conv_general_dilated[window_strides=(1, 1) padding=((0, 0), (0, 0)) lhs_dilation=(1, 1) rhs_dilation=(1, 1) dimension_numbers=ConvDimensionNumbers(lhs_spec=(0, 3, 1, 2), rhs_spec=(3, 2, 0, 1), out_spec=(0, 3, 1, 2)) feature_group_count=1 batch_group_count=1 lhs_shape=(16, 14, 14, 1792) rhs_shape=(1, 1, 1792, 3584) precision=None preferred_element_type=None]" source_file="/home/cyxue/miniconda3/envs/alpa/lib/python3.8/site-packages/flax/linen/linear.py" source_line=435}
  %bitcast.231 = f32[16,3584,196]{2,1,0} bitcast(f32[16,14,14,3584]{2,1,3,0} %get-tuple-element.27)
  %fusion.12 = (f32[16,3584]{1,0}, f32[16,3584]{1,0}) fusion(f32[16,3584,196]{2,1,0} %bitcast.231), kind=kInput, calls=%fused_computation.12.clone
  %get-tuple-element.101 = f32[16,3584]{1,0} get-tuple-element((f32[16,3584]{1,0}, f32[16,3584]{1,0}) %fusion.12), index=0
  %reduce.250 = f32[3584]{0} reduce(f32[16,3584]{1,0} %get-tuple-element.101, f32[] %constant_519), dimensions={0}, to_apply=%region_0.1246.0, metadata={op_name="parallelize(train_step_func_pipeshard_parallel_mesh_0)/jit(main)/jit(0)/jit(07)/jvp(WideResNet)/BottleneckResNetBlock_7/BatchNorm_2/reduce_sum[axes=(0, 1, 2)]" source_file="/home/cyxue/miniconda3/envs/alpa/lib/python3.8/site-packages/flax/linen/normalization.py" source_line=82}
  %get-tuple-element.102 = f32[16,3584]{1,0} get-tuple-element((f32[16,3584]{1,0}, f32[16,3584]{1,0}) %fusion.12), index=1
  %param_52 = f32[3584]{0} parameter(52), metadata={op_name="0$start"}
  %param_193 = f32[3584]{0} parameter(193), metadata={op_name="0$start"}
  %fusion.7 = (f32[3584]{0}, f32[3584]{0}, f32[3584]{0}) fusion(f32[3584]{0} %param_53, f32[3584]{0} %param_194, f32[3584]{0} %reduce.250, f32[16,3584]{1,0} %get-tuple-element.102, f32[3584]{0} %param_52, /*index=5*/f32[3584]{0} %param_193), kind=kLoop, calls=%fused_computation.7, metadata={op_name="parallelize(train_step_func_pipeshard_parallel_mesh_0)/jit(main)/jit(0)/jit(07)/add"}
  %get-tuple-element.359 = f32[3584]{0} get-tuple-element((f32[3584]{0}, f32[3584]{0}, f32[3584]{0}) %fusion.7), index=2
  %get-tuple-element.360 = f32[3584]{0} get-tuple-element((f32[3584]{0}, f32[3584]{0}, f32[3584]{0}) %fusion.7), index=0
  %param_55 = f32[3584]{0} parameter(55), metadata={op_name="0$start"}
  %param_196 = f32[3584]{0} parameter(196), metadata={op_name="0$start"}
  %param_186 = f32[1,1,1792,3584]{3,2,1,0} parameter(186), metadata={op_name="0$start"}
  %copy.28 = f32[1,1,1792,3584]{1,0,2,3} copy(f32[1,1,1792,3584]{3,2,1,0} %param_186), metadata={op_name="0$start"}
  %cudnn-conv.24 = (f32[16,14,14,3584]{2,1,3,0}, u8[0]{0}) custom-call(f32[16,28,28,1792]{2,1,3,0} %get-tuple-element.114, f32[1,1,1792,3584]{1,0,2,3} %copy.28), window={size=1x1 stride=2x2}, dim_labels=b01f_01io->b01f, custom_call_target="__cudnn$convForward", metadata={op_name="parallelize(train_step_func_pipeshard_parallel_mesh_0)/jit(main)/jit(0)/jit(07)/jvp(WideResNet)/BottleneckResNetBlock_7/conv_proj/conv_general_dilated[window_strides=(2, 2) padding=((0, 0), (0, 0)) lhs_dilation=(1, 1) rhs_dilation=(1, 1) dimension_numbers=ConvDimensionNumbers(lhs_spec=(0, 3, 1, 2), rhs_spec=(3, 2, 0, 1), out_spec=(0, 3, 1, 2)) feature_group_count=1 batch_group_count=1 lhs_shape=(16, 28, 28, 1792) rhs_shape=(1, 1, 1792, 3584) precision=None preferred_element_type=None]" source_file="/home/cyxue/miniconda3/envs/alpa/lib/python3.8/site-packages/flax/linen/linear.py" source_line=435}, backend_config="{\"conv_result_scale\":1,\"activation_mode\":\"0\",\"side_input_scale\":0}"
  %get-tuple-element.24 = f32[16,14,14,3584]{2,1,3,0} get-tuple-element((f32[16,14,14,3584]{2,1,3,0}, u8[0]{0}) %cudnn-conv.24), index=0, metadata={op_name="parallelize(train_step_func_pipeshard_parallel_mesh_0)/jit(main)/jit(0)/jit(07)/jvp(WideResNet)/BottleneckResNetBlock_7/conv_proj/conv_general_dilated[window_strides=(2, 2) padding=((0, 0), (0, 0)) lhs_dilation=(1, 1) rhs_dilation=(1, 1) dimension_numbers=ConvDimensionNumbers(lhs_spec=(0, 3, 1, 2), rhs_spec=(3, 2, 0, 1), out_spec=(0, 3, 1, 2)) feature_group_count=1 batch_group_count=1 lhs_shape=(16, 28, 28, 1792) rhs_shape=(1, 1, 1792, 3584) precision=None preferred_element_type=None]" source_file="/home/cyxue/miniconda3/envs/alpa/lib/python3.8/site-packages/flax/linen/linear.py" source_line=435}
  %bitcast.227 = f32[16,3584,196]{2,1,0} bitcast(f32[16,14,14,3584]{2,1,3,0} %get-tuple-element.24)
  %fusion.6 = (f32[16,3584]{1,0}, f32[16,3584]{1,0}) fusion(f32[16,3584,196]{2,1,0} %bitcast.227), kind=kInput, calls=%fused_computation.6.clone
  %get-tuple-element.96 = f32[16,3584]{1,0} get-tuple-element((f32[16,3584]{1,0}, f32[16,3584]{1,0}) %fusion.6), index=0
  %reduce.244 = f32[3584]{0} reduce(f32[16,3584]{1,0} %get-tuple-element.96, f32[] %constant_519), dimensions={0}, to_apply=%region_0.1246.0, metadata={op_name="parallelize(train_step_func_pipeshard_parallel_mesh_0)/jit(main)/jit(0)/jit(07)/jvp(WideResNet)/BottleneckResNetBlock_7/norm_proj/reduce_sum[axes=(0, 1, 2)]" source_file="/home/cyxue/miniconda3/envs/alpa/lib/python3.8/site-packages/flax/linen/normalization.py" source_line=82}
  %get-tuple-element.97 = f32[16,3584]{1,0} get-tuple-element((f32[16,3584]{1,0}, f32[16,3584]{1,0}) %fusion.6), index=1
  %param_54 = f32[3584]{0} parameter(54), metadata={op_name="0$start"}
  %param_195 = f32[3584]{0} parameter(195), metadata={op_name="0$start"}
  %fusion.1 = (f32[3584]{0}, f32[3584]{0}, f32[3584]{0}) fusion(f32[3584]{0} %param_55, f32[3584]{0} %param_196, f32[3584]{0} %reduce.244, f32[16,3584]{1,0} %get-tuple-element.97, f32[3584]{0} %param_54, /*index=5*/f32[3584]{0} %param_195), kind=kLoop, calls=%fused_computation.1, metadata={op_name="parallelize(train_step_func_pipeshard_parallel_mesh_0)/jit(main)/jit(0)/jit(07)/add"}
  %get-tuple-element.361 = f32[3584]{0} get-tuple-element((f32[3584]{0}, f32[3584]{0}, f32[3584]{0}) %fusion.1), index=2
  %get-tuple-element.362 = f32[3584]{0} get-tuple-element((f32[3584]{0}, f32[3584]{0}, f32[3584]{0}) %fusion.1), index=0
  %get-tuple-element.363 = f32[16,56,56,448]{3,2,1,0} get-tuple-element((f32[16,56,56,448]{3,2,1,0}, f32[16,56,56,448]{2,1,3,0}) %fusion.202), index=0
  %get-tuple-element.364 = f32[16,56,56,224]{3,2,1,0} get-tuple-element((f32[16,56,56,224]{3,2,1,0}, f32[16,56,56,224]{2,1,3,0}) %fusion.203), index=0
  %fusion.197 = f32[16,56,56,896]{3,2,1,0} fusion(f32[16,56,56,896]{2,1,3,0} %fusion.162, f32[896]{0} %param_86, f32[896]{0} %param_85, f32[896]{0} %get-tuple-element.199, f32[16,56,56,896]{2,1,3,0} %get-tuple-element.7, /*index=5*/f32[896]{0} %reduce.210), kind=kInput, calls=%fused_computation.197, metadata={op_name="tuple.66"}
  %get-tuple-element.366 = f32[16,56,56,896]{3,2,1,0} get-tuple-element((f32[16,56,56,896]{3,2,1,0}, f32[16,56,56,896]{2,1,3,0}) %fusion.201), index=0
  %fusion.198 = f32[16,28,28,1792]{3,2,1,0} fusion(f32[1792]{0} %param_120, f32[1792]{0} %param_119, f32[1792]{0} %get-tuple-element.167, f32[16,28,28,1792]{2,1,3,0} %get-tuple-element.14, f32[1792]{0} %reduce.224, /*index=5*/f32[1792]{0} %param_123, f32[1792]{0} %param_122, f32[1792]{0} %get-tuple-element.162, f32[16,28,28,1792]{2,1,3,0} %get-tuple-element.11, f32[1792]{0} %reduce.218), kind=kInput, calls=%fused_computation.198, metadata={op_name="tuple.66"}
  %fusion.199 = f32[16,28,28,1792]{3,2,1,0} fusion(f32[16,28,28,1792]{2,1,3,0} %fusion.91, f32[1792]{0} %param_140, f32[1792]{0} %param_139, f32[1792]{0} %get-tuple-element.147, f32[16,28,28,1792]{2,1,3,0} %get-tuple-element.17, /*index=5*/f32[1792]{0} %reduce.230), kind=kInput, calls=%fused_computation.199, metadata={op_name="tuple.66"}
  %get-tuple-element.369 = f32[16,28,28,1792]{3,2,1,0} get-tuple-element((f32[16,28,28,1792]{3,2,1,0}, f32[16,28,28,1792]{2,1,3,0}, f32[16,28,28,1792]{3,2,1,0}) %fusion.200), index=2
  %get-tuple-element.370 = f32[16,28,28,1792]{3,2,1,0} get-tuple-element((f32[16,28,28,1792]{3,2,1,0}, f32[16,28,28,1792]{2,1,3,0}, f32[16,28,28,1792]{3,2,1,0}) %fusion.200), index=0
  %param_185 = f32[3584]{0} parameter(185), metadata={op_name="0$start"}
  %param_184 = f32[3584]{0} parameter(184), metadata={op_name="0$start"}
  %get-tuple-element.99 = f32[3584]{0} get-tuple-element((f32[3584]{0}, f32[3584]{0}, f32[3584]{0}) %fusion.7), index=1
  %param_188 = f32[3584]{0} parameter(188), metadata={op_name="0$start"}
  %param_187 = f32[3584]{0} parameter(187), metadata={op_name="0$start"}
  %get-tuple-element.94 = f32[3584]{0} get-tuple-element((f32[3584]{0}, f32[3584]{0}, f32[3584]{0}) %fusion.1), index=1
  %fusion = f32[16,14,14,3584]{3,2,1,0} fusion(f32[3584]{0} %param_185, f32[3584]{0} %param_184, f32[3584]{0} %get-tuple-element.99, f32[16,14,14,3584]{2,1,3,0} %get-tuple-element.27, f32[3584]{0} %param_188, /*index=5*/f32[3584]{0} %param_187, f32[3584]{0} %get-tuple-element.94, f32[16,14,14,3584]{2,1,3,0} %get-tuple-element.24, f32[3584]{0} %reduce.250, f32[3584]{0} %reduce.244), kind=kInput, calls=%fused_computation, metadata={op_name="tuple.66"}
  ROOT %tuple.129 = (f32[224]{0}, f32[224]{0}, f32[224]{0}, f32[224]{0}, f32[448]{0}, /*index=5*/f32[448]{0}, f32[896]{0}, f32[896]{0}, f32[896]{0}, f32[896]{0}, /*index=10*/f32[224]{0}, f32[224]{0}, f32[448]{0}, f32[448]{0}, f32[896]{0}, /*index=15*/f32[896]{0}, f32[224]{0}, f32[224]{0}, f32[448]{0}, f32[448]{0}, /*index=20*/f32[896]{0}, f32[896]{0}, f32[448]{0}, f32[448]{0}, f32[896]{0}, /*index=25*/f32[896]{0}, f32[1792]{0}, f32[1792]{0}, f32[1792]{0}, f32[1792]{0}, /*index=30*/f32[448]{0}, f32[448]{0}, f32[896]{0}, f32[896]{0}, f32[1792]{0}, /*index=35*/f32[1792]{0}, f32[448]{0}, f32[448]{0}, f32[896]{0}, f32[896]{0}, /*index=40*/f32[1792]{0}, f32[1792]{0}, f32[448]{0}, f32[448]{0}, f32[896]{0}, /*index=45*/f32[896]{0}, f32[1792]{0}, f32[1792]{0}, f32[896]{0}, f32[896]{0}, /*index=50*/f32[1792]{0}, f32[1792]{0}, f32[3584]{0}, f32[3584]{0}, f32[3584]{0}, /*index=55*/f32[3584]{0}, f32[16,56,56,448]{3,2,1,0}, f32[16,56,56,224]{3,2,1,0}, f32[16,56,56,896]{3,2,1,0}, f32[16,56,56,896]{3,2,1,0}, /*index=60*/f32[16,28,28,1792]{3,2,1,0}, f32[16,28,28,1792]{3,2,1,0}, f32[16,28,28,1792]{3,2,1,0}, f32[16,28,28,1792]{3,2,1,0}, f32[16,14,14,3584]{3,2,1,0}) tuple(f32[224]{0} %get-tuple-element.242, f32[224]{0} %get-tuple-element.243, f32[224]{0} %get-tuple-element.244, f32[224]{0} %get-tuple-element.245, f32[448]{0} %get-tuple-element.246, /*index=5*/f32[448]{0} %get-tuple-element.247, f32[896]{0} %get-tuple-element.248, f32[896]{0} %get-tuple-element.249, f32[896]{0} %get-tuple-element.250, f32[896]{0} %get-tuple-element.251, /*index=10*/f32[224]{0} %get-tuple-element.252, f32[224]{0} %get-tuple-element.253, f32[448]{0} %get-tuple-element.254, f32[448]{0} %get-tuple-element.255, f32[896]{0} %get-tuple-element.256, /*index=15*/f32[896]{0} %get-tuple-element.257, f32[224]{0} %get-tuple-element.258, f32[224]{0} %get-tuple-element.259, f32[448]{0} %get-tuple-element.260, f32[448]{0} %get-tuple-element.261, /*index=20*/f32[896]{0} %get-tuple-element.262, f32[896]{0} %get-tuple-element.263, f32[448]{0} %get-tuple-element.264, f32[448]{0} %get-tuple-element.265, f32[896]{0} %get-tuple-element.266, /*index=25*/f32[896]{0} %get-tuple-element.267, f32[1792]{0} %get-tuple-element.268, f32[1792]{0} %get-tuple-element.269, f32[1792]{0} %get-tuple-element.270, f32[1792]{0} %get-tuple-element.271, /*index=30*/f32[448]{0} %get-tuple-element.272, f32[448]{0} %get-tuple-element.273, f32[896]{0} %get-tuple-element.274, f32[896]{0} %get-tuple-element.275, f32[1792]{0} %get-tuple-element.276, /*index=35*/f32[1792]{0} %get-tuple-element.277, f32[448]{0} %get-tuple-element.278, f32[448]{0} %get-tuple-element.279, f32[896]{0} %get-tuple-element.280, f32[896]{0} %get-tuple-element.281, /*index=40*/f32[1792]{0} %get-tuple-element.282, f32[1792]{0} %get-tuple-element.283, f32[448]{0} %get-tuple-element.284, f32[448]{0} %get-tuple-element.285, f32[896]{0} %get-tuple-element.286, /*index=45*/f32[896]{0} %get-tuple-element.287, f32[1792]{0} %get-tuple-element.288, f32[1792]{0} %get-tuple-element.289, f32[896]{0} %get-tuple-element.290, f32[896]{0} %get-tuple-element.291, /*index=50*/f32[1792]{0} %get-tuple-element.292, f32[1792]{0} %get-tuple-element.358, f32[3584]{0} %get-tuple-element.359, f32[3584]{0} %get-tuple-element.360, f32[3584]{0} %get-tuple-element.361, /*index=55*/f32[3584]{0} %get-tuple-element.362, f32[16,56,56,448]{3,2,1,0} %get-tuple-element.363, f32[16,56,56,224]{3,2,1,0} %get-tuple-element.364, f32[16,56,56,896]{3,2,1,0} %fusion.197, f32[16,56,56,896]{3,2,1,0} %get-tuple-element.366, /*index=60*/f32[16,28,28,1792]{3,2,1,0} %fusion.198, f32[16,28,28,1792]{3,2,1,0} %fusion.199, f32[16,28,28,1792]{3,2,1,0} %get-tuple-element.369, f32[16,28,28,1792]{3,2,1,0} %get-tuple-element.370, f32[16,14,14,3584]{3,2,1,0} %fusion)
}

