HloModule train_step_func_pipeshard_parallel_mesh_1-2, input_output_alias={ {0}: (0, {}, may-alias), {1}: (1, {}, may-alias), {2}: (2, {}, may-alias), {3}: (3, {}, may-alias), {4}: (4, {}, may-alias), {5}: (5, {}, may-alias), {6}: (6, {}, may-alias), {7}: (7, {}, may-alias), {8}: (8, {}, may-alias), {9}: (9, {}, may-alias), {10}: (10, {}, may-alias), {11}: (11, {}, may-alias), {12}: (12, {}, may-alias), {13}: (13, {}, may-alias), {14}: (14, {}, may-alias), {15}: (15, {}, may-alias), {16}: (16, {}, may-alias), {17}: (17, {}, may-alias), {18}: (18, {}, may-alias), {19}: (19, {}, may-alias), {20}: (20, {}, may-alias), {21}: (21, {}, may-alias), {22}: (22, {}, may-alias), {23}: (23, {}, may-alias), {24}: (24, {}, may-alias), {25}: (25, {}, may-alias), {26}: (26, {}, may-alias), {27}: (27, {}, may-alias), {28}: (28, {}, may-alias), {29}: (29, {}, may-alias), {30}: (30, {}, may-alias), {31}: (31, {}, may-alias), {32}: (32, {}, may-alias), {33}: (33, {}, may-alias), {34}: (34, {}, may-alias), {35}: (35, {}, may-alias), {36}: (36, {}, may-alias), {37}: (37, {}, may-alias), {38}: (38, {}, may-alias), {39}: (39, {}, may-alias), {40}: (40, {}, may-alias), {41}: (41, {}, may-alias), {42}: (42, {}, may-alias), {43}: (43, {}, may-alias), {44}: (44, {}, may-alias), {45}: (45, {}, may-alias), {46}: (46, {}, may-alias), {47}: (47, {}, may-alias), {48}: (48, {}, may-alias), {49}: (49, {}, may-alias), {50}: (50, {}, may-alias), {51}: (51, {}, may-alias), {52}: (52, {}, may-alias), {53}: (53, {}, may-alias), {54}: (54, {}, may-alias), {55}: (55, {}, may-alias), {56}: (56, {}, may-alias), {57}: (57, {}, may-alias), {58}: (58, {}, may-alias), {59}: (59, {}, may-alias), {60}: (60, {}, may-alias), {61}: (61, {}, may-alias), {62}: (62, {}, may-alias), {63}: (63, {}, may-alias), {64}: (64, {}, may-alias), {65}: (65, {}, may-alias), {66}: (66, {}, may-alias), {67}: (67, {}, may-alias), {68}: (68, {}, may-alias), {69}: (69, {}, may-alias), {70}: (70, {}, may-alias), {71}: (71, {}, may-alias), {72}: (72, {}, may-alias), {73}: (73, {}, may-alias), {74}: (74, {}, may-alias), {75}: (75, {}, may-alias), {76}: (76, {}, may-alias) }, entry_computation_layout={(f32[1,1,7168,1792]{3,2,1,0},f32[1792]{0},f32[1792]{0},f32[3,3,1792,3584]{3,2,1,0},f32[3584]{0},f32[3584]{0},f32[1,1,3584,7168]{3,2,1,0},f32[7168]{0},f32[7168]{0},f32[7168,1024]{1,0},f32[1024]{0},f32[1,1,7168,1792]{3,2,1,0},f32[1792]{0},f32[1792]{0},f32[3,3,1792,3584]{3,2,1,0},f32[3584]{0},f32[3584]{0},f32[1,1,3584,7168]{3,2,1,0},f32[7168]{0},f32[7168]{0},f32[1,1,3584,1792]{3,2,1,0},f32[1792]{0},f32[1792]{0},f32[3,3,1792,3584]{3,2,1,0},f32[3584]{0},f32[3584]{0},f32[1,1,3584,7168]{3,2,1,0},f32[7168]{0},f32[7168]{0},f32[1,1,3584,7168]{3,2,1,0},f32[7168]{0},f32[7168]{0},f32[1,1,3584,896]{3,2,1,0},f32[896]{0},f32[896]{0},f32[3,3,896,1792]{3,2,1,0},f32[1792]{0},f32[1792]{0},f32[1,1,1792,3584]{3,2,1,0},f32[3584]{0},f32[3584]{0},f32[1,1,3584,896]{3,2,1,0},f32[896]{0},f32[896]{0},f32[3,3,896,1792]{3,2,1,0},f32[1792]{0},f32[1792]{0},f32[1,1,1792,3584]{3,2,1,0},f32[3584]{0},f32[3584]{0},f32[1,1,3584,896]{3,2,1,0},f32[896]{0},f32[896]{0},f32[3,3,896,1792]{3,2,1,0},f32[1792]{0},f32[1792]{0},f32[1,1,1792,3584]{3,2,1,0},f32[3584]{0},f32[3584]{0},f32[1,1,3584,896]{3,2,1,0},f32[896]{0},f32[896]{0},f32[3,3,896,1792]{3,2,1,0},f32[1792]{0},f32[1792]{0},f32[1,1,1792,3584]{3,2,1,0},f32[3584]{0},f32[3584]{0},f32[1,1,3584,896]{3,2,1,0},f32[896]{0},f32[896]{0},f32[3,3,896,1792]{3,2,1,0},f32[1792]{0},f32[1792]{0},f32[1,1,1792,3584]{3,2,1,0},f32[3584]{0},f32[3584]{0},s32[16]{0},f32[16,7,7,7168]{3,2,1,0},f32[1,1,7168,1792]{3,2,1,0},f32[1792]{0},f32[1792]{0},f32[3,3,1792,3584]{3,2,1,0},f32[3584]{0},f32[3584]{0},f32[1,1,3584,7168]{3,2,1,0},f32[7168]{0},f32[7168]{0},f32[7168,1024]{1,0},f32[1024]{0},f32[16,7,7,7168]{3,2,1,0},f32[1,1,7168,1792]{3,2,1,0},f32[1792]{0},f32[1792]{0},f32[3,3,1792,3584]{3,2,1,0},f32[3584]{0},f32[3584]{0},f32[1,1,3584,7168]{3,2,1,0},f32[7168]{0},f32[7168]{0},f32[16,14,14,3584]{3,2,1,0},f32[1,1,3584,1792]{3,2,1,0},f32[1792]{0},f32[1792]{0},f32[3,3,1792,3584]{3,2,1,0},f32[3584]{0},f32[3584]{0},f32[1,1,3584,7168]{3,2,1,0},f32[7168]{0},f32[1,1,3584,7168]{3,2,1,0},f32[7168]{0},f32[16,14,14,3584]{3,2,1,0},f32[1,1,3584,896]{3,2,1,0},f32[896]{0},f32[896]{0},f32[3,3,896,1792]{3,2,1,0},f32[1792]{0},f32[1792]{0},f32[1,1,1792,3584]{3,2,1,0},f32[3584]{0},f32[3584]{0},f32[16,14,14,3584]{3,2,1,0},f32[1,1,3584,896]{3,2,1,0},f32[896]{0},f32[896]{0},f32[3,3,896,1792]{3,2,1,0},f32[1792]{0},f32[1792]{0},f32[1,1,1792,3584]{3,2,1,0},f32[3584]{0},f32[3584]{0},f32[16,14,14,3584]{3,2,1,0},f32[1,1,3584,896]{3,2,1,0},f32[896]{0},f32[896]{0},f32[3,3,896,1792]{3,2,1,0},f32[1792]{0},f32[1792]{0},f32[1,1,1792,3584]{3,2,1,0},f32[3584]{0},f32[3584]{0},f32[16,14,14,3584]{3,2,1,0},f32[1,1,3584,896]{3,2,1,0},f32[896]{0},f32[896]{0},f32[3,3,896,1792]{3,2,1,0},f32[1792]{0},f32[1792]{0},f32[1,1,1792,3584]{3,2,1,0},f32[3584]{0},f32[3584]{0},f32[16,14,14,3584]{3,2,1,0},f32[1,1,3584,896]{3,2,1,0},f32[896]{0},f32[896]{0},f32[3,3,896,1792]{3,2,1,0},f32[1792]{0},f32[1792]{0},f32[1,1,1792,3584]{3,2,1,0},f32[3584]{0})->(f32[1,1,7168,1792]{3,2,1,0}, f32[1792]{0}, f32[1792]{0}, f32[3,3,1792,3584]{3,2,1,0}, f32[3584]{0}, /*index=5*/f32[3584]{0}, f32[1,1,3584,7168]{3,2,1,0}, f32[7168]{0}, f32[7168]{0}, f32[7168,1024]{1,0}, /*index=10*/f32[1024]{0}, f32[1,1,7168,1792]{3,2,1,0}, f32[1792]{0}, f32[1792]{0}, f32[3,3,1792,3584]{3,2,1,0}, /*index=15*/f32[3584]{0}, f32[3584]{0}, f32[1,1,3584,7168]{3,2,1,0}, f32[7168]{0}, f32[7168]{0}, /*index=20*/f32[1,1,3584,1792]{3,2,1,0}, f32[1792]{0}, f32[1792]{0}, f32[3,3,1792,3584]{3,2,1,0}, f32[3584]{0}, /*index=25*/f32[3584]{0}, f32[1,1,3584,7168]{3,2,1,0}, f32[7168]{0}, f32[7168]{0}, f32[1,1,3584,7168]{3,2,1,0}, /*index=30*/f32[7168]{0}, f32[7168]{0}, f32[1,1,3584,896]{3,2,1,0}, f32[896]{0}, f32[896]{0}, /*index=35*/f32[3,3,896,1792]{3,2,1,0}, f32[1792]{0}, f32[1792]{0}, f32[1,1,1792,3584]{3,2,1,0}, f32[3584]{0}, /*index=40*/f32[3584]{0}, f32[1,1,3584,896]{3,2,1,0}, f32[896]{0}, f32[896]{0}, f32[3,3,896,1792]{3,2,1,0}, /*index=45*/f32[1792]{0}, f32[1792]{0}, f32[1,1,1792,3584]{3,2,1,0}, f32[3584]{0}, f32[3584]{0}, /*index=50*/f32[1,1,3584,896]{3,2,1,0}, f32[896]{0}, f32[896]{0}, f32[3,3,896,1792]{3,2,1,0}, f32[1792]{0}, /*index=55*/f32[1792]{0}, f32[1,1,1792,3584]{3,2,1,0}, f32[3584]{0}, f32[3584]{0}, f32[1,1,3584,896]{3,2,1,0}, /*index=60*/f32[896]{0}, f32[896]{0}, f32[3,3,896,1792]{3,2,1,0}, f32[1792]{0}, f32[1792]{0}, /*index=65*/f32[1,1,1792,3584]{3,2,1,0}, f32[3584]{0}, f32[3584]{0}, f32[1,1,3584,896]{3,2,1,0}, f32[896]{0}, /*index=70*/f32[896]{0}, f32[3,3,896,1792]{3,2,1,0}, f32[1792]{0}, f32[1792]{0}, f32[1,1,1792,3584]{3,2,1,0}, /*index=75*/f32[3584]{0}, f32[3584]{0}, f32[16,14,14,3584]{3,2,1,0})}

%region_64.4142.2 (Arg_0.4143: f32[], Arg_1.4144: f32[]) -> f32[] {
  %Arg_0.4143 = f32[] parameter(0)
  %Arg_1.4144 = f32[] parameter(1)
  ROOT %maximum.4145 = f32[] maximum(f32[] %Arg_0.4143, f32[] %Arg_1.4144), metadata={op_name="parallelize(train_step_func_pipeshard_parallel_mesh_1)/jit(main)/jit(2)/jit(20)/transpose(jvp(remat))/reduce_max[axes=(1,)]" source_file="/home/cyxue/miniconda3/envs/alpa/lib/python3.8/site-packages/optax/_src/loss.py" source_line=170}
}

%region_57.4114.2 (Arg_0.4115: f32[], Arg_1.4116: f32[]) -> f32[] {
  %Arg_0.4115 = f32[] parameter(0)
  %Arg_1.4116 = f32[] parameter(1)
  ROOT %add.4117 = f32[] add(f32[] %Arg_0.4115, f32[] %Arg_1.4116), metadata={op_name="parallelize(train_step_func_pipeshard_parallel_mesh_1)/jit(main)/jit(2)/jit(20)/transpose(jvp(remat))/WideResNet/BottleneckResNetBlock_15/BatchNorm_0/reduce_sum[axes=(0, 1, 2)]" source_file="/home/cyxue/miniconda3/envs/alpa/lib/python3.8/site-packages/flax/linen/normalization.py" source_line=82}
}

%fused_computation (param_0.3: f32[16,14,14,3584], param_1.3: f32[16,14,14,3584]) -> f32[16,14,14,3584] {
  %param_1.3 = f32[16,14,14,3584]{2,1,3,0} parameter(1)
  %constant_165 = f32[] constant(0)
  %broadcast.289 = f32[16,14,14,3584]{2,1,3,0} broadcast(f32[] %constant_165), dimensions={}, metadata={op_name="parallelize(train_step_func_pipeshard_parallel_mesh_1)/jit(main)/jit(2)/jit(23)/transpose(jvp(remat))/WideResNet/BottleneckResNetBlock_12/gt" source_file="/home/cyxue/Projects/crius/Crius/runtime/crius_worker/jax/model/wide_resnet.py" source_line=98}
  %compare.0 = pred[16,14,14,3584]{2,1,3,0} compare(f32[16,14,14,3584]{2,1,3,0} %param_1.3, f32[16,14,14,3584]{2,1,3,0} %broadcast.289), direction=GT, metadata={op_name="parallelize(train_step_func_pipeshard_parallel_mesh_1)/jit(main)/jit(2)/jit(27)/transpose(jvp(remat))/WideResNet/BottleneckResNetBlock_7/gt" source_file="/home/cyxue/Projects/crius/Crius/runtime/crius_worker/jax/model/wide_resnet.py" source_line=98}
  %param_0.3 = f32[16,14,14,3584]{2,1,3,0} parameter(0)
  %select.0 = f32[16,14,14,3584]{2,1,3,0} select(pred[16,14,14,3584]{2,1,3,0} %compare.0, f32[16,14,14,3584]{2,1,3,0} %param_0.3, f32[16,14,14,3584]{2,1,3,0} %broadcast.289), metadata={op_name="parallelize(train_step_func_pipeshard_parallel_mesh_1)/jit(main)/jit(2)/jit(27)/transpose(jvp(remat))/WideResNet/BottleneckResNetBlock_7/select_n" source_file="/home/cyxue/Projects/crius/Crius/runtime/crius_worker/jax/model/wide_resnet.py" source_line=98}
  ROOT %copy.123 = f32[16,14,14,3584]{3,2,1,0} copy(f32[16,14,14,3584]{2,1,3,0} %select.0), metadata={op_name="tuple.79"}
}

%fused_computation.3 (param_0.7: f32[3584], param_1.1257: f32[1,1,1,3584], param_2.1614: f32[3584], param_3.1404: f32[16,3584]) -> (f32[3584], f32[3584]) {
  %param_0.7 = f32[3584]{0} parameter(0)
  %param_3.1404 = f32[16,3584]{1,0} parameter(3)
  %constant_2968 = f32[] constant(0)
  %reduce.644.clone.1 = f32[3584]{0} reduce(f32[16,3584]{1,0} %param_3.1404, f32[] %constant_2968), dimensions={0}, to_apply=%region_57.4114.2, metadata={op_name="parallelize(train_step_func_pipeshard_parallel_mesh_1)/jit(main)/jit(2)/jit(27)/transpose(jvp(remat))/WideResNet/BottleneckResNetBlock_8/BatchNorm_2/reduce_sum[axes=(0, 1, 2)]" source_file="/home/cyxue/miniconda3/envs/alpa/lib/python3.8/site-packages/flax/linen/normalization.py" source_line=83}
  %constant_2944_clone_1 = f32[] constant(0.000318877544)
  %broadcast.322.clone.1 = f32[3584]{0} broadcast(f32[] %constant_2944_clone_1), dimensions={}, metadata={op_name="parallelize(train_step_func_pipeshard_parallel_mesh_1)/jit(main)/jit(2)/jit(23)/transpose(jvp(remat))/WideResNet/BottleneckResNetBlock_12/BatchNorm_2/div" source_file="/home/cyxue/miniconda3/envs/alpa/lib/python3.8/site-packages/flax/linen/normalization.py" source_line=82}
  %multiply.291.clone.1 = f32[3584]{0} multiply(f32[3584]{0} %reduce.644.clone.1, f32[3584]{0} %broadcast.322.clone.1), metadata={op_name="parallelize(train_step_func_pipeshard_parallel_mesh_1)/jit(main)/jit(2)/jit(27)/transpose(jvp(remat))/WideResNet/BottleneckResNetBlock_8/BatchNorm_2/div" source_file="/home/cyxue/miniconda3/envs/alpa/lib/python3.8/site-packages/flax/linen/normalization.py" source_line=83}
  %param_2.1614 = f32[3584]{0} parameter(2)
  %multiply.2159.clone.1 = f32[3584]{0} multiply(f32[3584]{0} %param_2.1614, f32[3584]{0} %broadcast.322.clone.1), metadata={op_name="parallelize(train_step_func_pipeshard_parallel_mesh_1)/jit(main)/jit(2)/jit(27)/transpose(jvp(remat))/WideResNet/BottleneckResNetBlock_8/BatchNorm_2/div" source_file="/home/cyxue/miniconda3/envs/alpa/lib/python3.8/site-packages/flax/linen/normalization.py" source_line=82}
  %multiply.290.clone.1 = f32[3584]{0} multiply(f32[3584]{0} %multiply.2159.clone.1, f32[3584]{0} %multiply.2159.clone.1), metadata={op_name="parallelize(train_step_func_pipeshard_parallel_mesh_1)/jit(main)/jit(2)/jit(27)/transpose(jvp(remat))/WideResNet/BottleneckResNetBlock_8/BatchNorm_2/mul" source_file="/home/cyxue/miniconda3/envs/alpa/lib/python3.8/site-packages/flax/linen/normalization.py" source_line=46}
  %subtract.1.clone.1 = f32[3584]{0} subtract(f32[3584]{0} %multiply.291.clone.1, f32[3584]{0} %multiply.290.clone.1), metadata={op_name="parallelize(train_step_func_pipeshard_parallel_mesh_1)/jit(main)/jit(2)/jit(27)/transpose(jvp(remat))/WideResNet/BottleneckResNetBlock_8/BatchNorm_2/sub" source_file="/home/cyxue/miniconda3/envs/alpa/lib/python3.8/site-packages/flax/linen/normalization.py" source_line=93}
  %broadcast.3703 = f32[3584]{0} broadcast(f32[] %constant_2968), dimensions={}, metadata={op_name="parallelize(train_step_func_pipeshard_parallel_mesh_1)/jit(main)/jit(2)/jit(20)/transpose(jvp(remat))/WideResNet/BottleneckResNetBlock_15/BatchNorm_1/max" source_file="/home/cyxue/miniconda3/envs/alpa/lib/python3.8/site-packages/flax/linen/normalization.py" source_line=93}
  %maximum.723 = f32[3584]{0} maximum(f32[3584]{0} %subtract.1.clone.1, f32[3584]{0} %broadcast.3703), metadata={op_name="parallelize(train_step_func_pipeshard_parallel_mesh_1)/jit(main)/jit(2)/jit(27)/transpose(jvp(remat))/WideResNet/BottleneckResNetBlock_8/BatchNorm_2/max" source_file="/home/cyxue/miniconda3/envs/alpa/lib/python3.8/site-packages/flax/linen/normalization.py" source_line=93}
  %constant_2967 = f32[] constant(1e-05)
  %broadcast.3702 = f32[3584]{0} broadcast(f32[] %constant_2967), dimensions={}, metadata={op_name="parallelize(train_step_func_pipeshard_parallel_mesh_1)/jit(main)/jit(2)/jit(20)/transpose(jvp(remat))/WideResNet/BottleneckResNetBlock_15/BatchNorm_1/add" source_file="/home/cyxue/miniconda3/envs/alpa/lib/python3.8/site-packages/flax/linen/normalization.py" source_line=139}
  %add.1188 = f32[3584]{0} add(f32[3584]{0} %maximum.723, f32[3584]{0} %broadcast.3702), metadata={op_name="parallelize(train_step_func_pipeshard_parallel_mesh_1)/jit(main)/jit(2)/jit(27)/transpose(jvp(remat))/WideResNet/BottleneckResNetBlock_8/BatchNorm_2/add" source_file="/home/cyxue/miniconda3/envs/alpa/lib/python3.8/site-packages/flax/linen/normalization.py" source_line=139}
  %bitcast.2142 = f32[1,1,1,3584]{3,2,1,0} bitcast(f32[3584]{0} %add.1188), metadata={op_name="parallelize(train_step_func_pipeshard_parallel_mesh_1)/jit(main)/jit(2)/jit(27)/transpose(jvp(remat))/WideResNet/BottleneckResNetBlock_8/BatchNorm_2/add" source_file="/home/cyxue/miniconda3/envs/alpa/lib/python3.8/site-packages/flax/linen/normalization.py" source_line=139}
  %rsqrt.0 = f32[1,1,1,3584]{3,2,1,0} rsqrt(f32[1,1,1,3584]{3,2,1,0} %bitcast.2142), metadata={op_name="parallelize(train_step_func_pipeshard_parallel_mesh_1)/jit(main)/jit(2)/jit(27)/transpose(jvp(remat))/WideResNet/BottleneckResNetBlock_8/BatchNorm_2/rsqrt" source_file="/home/cyxue/miniconda3/envs/alpa/lib/python3.8/site-packages/flax/linen/normalization.py" source_line=139}
  %param_1.1257 = f32[1,1,1,3584]{3,2,1,0} parameter(1)
  %multiply.253 = f32[1,1,1,3584]{3,2,1,0} multiply(f32[1,1,1,3584]{3,2,1,0} %rsqrt.0, f32[1,1,1,3584]{3,2,1,0} %param_1.1257), metadata={op_name="parallelize(train_step_func_pipeshard_parallel_mesh_1)/jit(main)/jit(2)/jit(27)/transpose(jvp(remat))/WideResNet/BottleneckResNetBlock_8/BatchNorm_2/mul" source_file="/home/cyxue/miniconda3/envs/alpa/lib/python3.8/site-packages/flax/linen/normalization.py" source_line=144}
  %bitcast.542 = f32[3584]{0} bitcast(f32[1,1,1,3584]{3,2,1,0} %multiply.253), metadata={op_name="parallelize(train_step_func_pipeshard_parallel_mesh_1)/jit(main)/jit(2)/jit(27)/transpose(jvp(remat))/WideResNet/BottleneckResNetBlock_8/BatchNorm_2/reshape[new_sizes=(3584,) dimensions=None]" source_file="/home/cyxue/miniconda3/envs/alpa/lib/python3.8/site-packages/flax/linen/normalization.py" source_line=142}
  %add.26 = f32[3584]{0} add(f32[3584]{0} %param_0.7, f32[3584]{0} %bitcast.542), metadata={op_name="parallelize(train_step_func_pipeshard_parallel_mesh_1)/jit(main)/jit(2)/jit(27)/add"}
  ROOT %tuple.6 = (f32[3584]{0}, f32[3584]{0}) tuple(f32[3584]{0} %add.26, f32[3584]{0} %subtract.1.clone.1)
}

%fused_computation.4 (param_0.10: f32[1,1,1792,3584], param_1.12: f32[1,1,1792,3584]) -> f32[1,1,1792,3584] {
  %param_1.12 = f32[1,1,1792,3584]{3,2,1,0} parameter(1)
  %copy.125 = f32[1,1,1792,3584]{1,0,2,3} copy(f32[1,1,1792,3584]{3,2,1,0} %param_1.12), metadata={op_name="2$start"}
  %param_0.10 = f32[1,1,1792,3584]{1,0,2,3} parameter(0)
  %add.27 = f32[1,1,1792,3584]{1,0,2,3} add(f32[1,1,1792,3584]{1,0,2,3} %copy.125, f32[1,1,1792,3584]{1,0,2,3} %param_0.10), metadata={op_name="parallelize(train_step_func_pipeshard_parallel_mesh_1)/jit(main)/jit(2)/jit(27)/add"}
  ROOT %copy.124 = f32[1,1,1792,3584]{3,2,1,0} copy(f32[1,1,1792,3584]{1,0,2,3} %add.27), metadata={op_name="tuple.79"}
}

%fused_computation.6 (param_0.1604: f32[16,14,14,1792], param_1.2203: f32[1792], param_2.1576: f32[1792], param_3.1356: f32[1792], param_4.1191: f32[16,14,14,1792], param_5.1198: f32[1792]) -> (f32[16,1792], f32[16,1792], f32[16,1792]) {
  %param_4.1191 = f32[16,14,14,1792]{2,1,3,0} parameter(4)
  %param_5.1198 = f32[1792]{0} parameter(5)
  %constant_3005 = f32[] constant(0.000318877544)
  %broadcast.3757 = f32[1792]{0} broadcast(f32[] %constant_3005), dimensions={}, metadata={op_name="parallelize(train_step_func_pipeshard_parallel_mesh_1)/jit(main)/jit(2)/jit(22)/transpose(jvp(remat))/WideResNet/BottleneckResNetBlock_13/BatchNorm_0/div" source_file="/home/cyxue/miniconda3/envs/alpa/lib/python3.8/site-packages/flax/linen/normalization.py" source_line=82}
  %multiply.2187 = f32[1792]{0} multiply(f32[1792]{0} %param_5.1198, f32[1792]{0} %broadcast.3757), metadata={op_name="parallelize(train_step_func_pipeshard_parallel_mesh_1)/jit(main)/jit(2)/jit(27)/transpose(jvp(remat))/WideResNet/BottleneckResNetBlock_8/BatchNorm_1/div" source_file="/home/cyxue/miniconda3/envs/alpa/lib/python3.8/site-packages/flax/linen/normalization.py" source_line=82}
  %broadcast.3756 = f32[16,14,14,1792]{2,1,3,0} broadcast(f32[1792]{0} %multiply.2187), dimensions={3}, metadata={op_name="parallelize(train_step_func_pipeshard_parallel_mesh_1)/jit(main)/jit(2)/jit(27)/transpose(jvp(remat))/WideResNet/BottleneckResNetBlock_8/BatchNorm_1/sub" source_file="/home/cyxue/miniconda3/envs/alpa/lib/python3.8/site-packages/flax/linen/normalization.py" source_line=138}
  %subtract.407 = f32[16,14,14,1792]{2,1,3,0} subtract(f32[16,14,14,1792]{2,1,3,0} %param_4.1191, f32[16,14,14,1792]{2,1,3,0} %broadcast.3756), metadata={op_name="parallelize(train_step_func_pipeshard_parallel_mesh_1)/jit(main)/jit(2)/jit(27)/transpose(jvp(remat))/WideResNet/BottleneckResNetBlock_8/BatchNorm_1/sub" source_file="/home/cyxue/miniconda3/envs/alpa/lib/python3.8/site-packages/flax/linen/normalization.py" source_line=138}
  %param_3.1356 = f32[1792]{0} parameter(3)
  %constant_169 = f32[] constant(0)
  %broadcast.3755 = f32[1792]{0} broadcast(f32[] %constant_169), dimensions={}, metadata={op_name="parallelize(train_step_func_pipeshard_parallel_mesh_1)/jit(main)/jit(2)/jit(20)/transpose(jvp(remat))/WideResNet/BottleneckResNetBlock_15/BatchNorm_0/max" source_file="/home/cyxue/miniconda3/envs/alpa/lib/python3.8/site-packages/flax/linen/normalization.py" source_line=93}
  %maximum.733 = f32[1792]{0} maximum(f32[1792]{0} %param_3.1356, f32[1792]{0} %broadcast.3755), metadata={op_name="parallelize(train_step_func_pipeshard_parallel_mesh_1)/jit(main)/jit(2)/jit(27)/transpose(jvp(remat))/WideResNet/BottleneckResNetBlock_8/BatchNorm_1/max" source_file="/home/cyxue/miniconda3/envs/alpa/lib/python3.8/site-packages/flax/linen/normalization.py" source_line=93}
  %constant_3003 = f32[] constant(1e-05)
  %broadcast.3754 = f32[1792]{0} broadcast(f32[] %constant_3003), dimensions={}, metadata={op_name="parallelize(train_step_func_pipeshard_parallel_mesh_1)/jit(main)/jit(2)/jit(20)/transpose(jvp(remat))/WideResNet/BottleneckResNetBlock_15/BatchNorm_0/add" source_file="/home/cyxue/miniconda3/envs/alpa/lib/python3.8/site-packages/flax/linen/normalization.py" source_line=139}
  %add.1204 = f32[1792]{0} add(f32[1792]{0} %maximum.733, f32[1792]{0} %broadcast.3754), metadata={op_name="parallelize(train_step_func_pipeshard_parallel_mesh_1)/jit(main)/jit(2)/jit(27)/transpose(jvp(remat))/WideResNet/BottleneckResNetBlock_8/BatchNorm_1/add" source_file="/home/cyxue/miniconda3/envs/alpa/lib/python3.8/site-packages/flax/linen/normalization.py" source_line=139}
  %bitcast.2172 = f32[1,1,1,1792]{3,2,1,0} bitcast(f32[1792]{0} %add.1204), metadata={op_name="parallelize(train_step_func_pipeshard_parallel_mesh_1)/jit(main)/jit(2)/jit(27)/transpose(jvp(remat))/WideResNet/BottleneckResNetBlock_8/BatchNorm_1/add" source_file="/home/cyxue/miniconda3/envs/alpa/lib/python3.8/site-packages/flax/linen/normalization.py" source_line=139}
  %rsqrt.493 = f32[1,1,1,1792]{3,2,1,0} rsqrt(f32[1,1,1,1792]{3,2,1,0} %bitcast.2172), metadata={op_name="parallelize(train_step_func_pipeshard_parallel_mesh_1)/jit(main)/jit(2)/jit(27)/transpose(jvp(remat))/WideResNet/BottleneckResNetBlock_8/BatchNorm_1/rsqrt" source_file="/home/cyxue/miniconda3/envs/alpa/lib/python3.8/site-packages/flax/linen/normalization.py" source_line=139}
  %param_2.1576 = f32[1792]{0} parameter(2)
  %bitcast.2171 = f32[1,1,1,1792]{3,2,1,0} bitcast(f32[1792]{0} %param_2.1576), metadata={op_name="parallelize(train_step_func_pipeshard_parallel_mesh_1)/jit(main)/jit(2)/jit(27)/transpose(jvp(remat))/WideResNet/BottleneckResNetBlock_8/BatchNorm_1/reshape[new_sizes=(1, 1, 1, 1792) dimensions=None]" source_file="/home/cyxue/miniconda3/envs/alpa/lib/python3.8/site-packages/flax/linen/normalization.py" source_line=142}
  %multiply.2186 = f32[1,1,1,1792]{3,2,1,0} multiply(f32[1,1,1,1792]{3,2,1,0} %rsqrt.493, f32[1,1,1,1792]{3,2,1,0} %bitcast.2171), metadata={op_name="parallelize(train_step_func_pipeshard_parallel_mesh_1)/jit(main)/jit(2)/jit(27)/transpose(jvp(remat))/WideResNet/BottleneckResNetBlock_8/BatchNorm_1/mul" source_file="/home/cyxue/miniconda3/envs/alpa/lib/python3.8/site-packages/flax/linen/normalization.py" source_line=144}
  %bitcast.2170 = f32[1792]{0} bitcast(f32[1,1,1,1792]{3,2,1,0} %multiply.2186), metadata={op_name="parallelize(train_step_func_pipeshard_parallel_mesh_1)/jit(main)/jit(2)/jit(27)/transpose(jvp(remat))/WideResNet/BottleneckResNetBlock_8/BatchNorm_1/mul" source_file="/home/cyxue/miniconda3/envs/alpa/lib/python3.8/site-packages/flax/linen/normalization.py" source_line=146}
  %broadcast.3753 = f32[16,14,14,1792]{2,1,3,0} broadcast(f32[1792]{0} %bitcast.2170), dimensions={3}, metadata={op_name="parallelize(train_step_func_pipeshard_parallel_mesh_1)/jit(main)/jit(2)/jit(27)/transpose(jvp(remat))/WideResNet/BottleneckResNetBlock_8/BatchNorm_1/mul" source_file="/home/cyxue/miniconda3/envs/alpa/lib/python3.8/site-packages/flax/linen/normalization.py" source_line=146}
  %multiply.2185 = f32[16,14,14,1792]{2,1,3,0} multiply(f32[16,14,14,1792]{2,1,3,0} %subtract.407, f32[16,14,14,1792]{2,1,3,0} %broadcast.3753), metadata={op_name="parallelize(train_step_func_pipeshard_parallel_mesh_1)/jit(main)/jit(2)/jit(27)/transpose(jvp(remat))/WideResNet/BottleneckResNetBlock_8/BatchNorm_1/mul" source_file="/home/cyxue/miniconda3/envs/alpa/lib/python3.8/site-packages/flax/linen/normalization.py" source_line=146}
  %param_1.2203 = f32[1792]{0} parameter(1)
  %broadcast.3752 = f32[16,14,14,1792]{2,1,3,0} broadcast(f32[1792]{0} %param_1.2203), dimensions={3}, metadata={op_name="parallelize(train_step_func_pipeshard_parallel_mesh_1)/jit(main)/jit(2)/jit(27)/transpose(jvp(remat))/WideResNet/BottleneckResNetBlock_8/BatchNorm_1/add" source_file="/home/cyxue/miniconda3/envs/alpa/lib/python3.8/site-packages/flax/linen/normalization.py" source_line=150}
  %add.1203 = f32[16,14,14,1792]{2,1,3,0} add(f32[16,14,14,1792]{2,1,3,0} %multiply.2185, f32[16,14,14,1792]{2,1,3,0} %broadcast.3752), metadata={op_name="parallelize(train_step_func_pipeshard_parallel_mesh_1)/jit(main)/jit(2)/jit(27)/transpose(jvp(remat))/WideResNet/BottleneckResNetBlock_8/BatchNorm_1/add" source_file="/home/cyxue/miniconda3/envs/alpa/lib/python3.8/site-packages/flax/linen/normalization.py" source_line=150}
  %broadcast.3751 = f32[16,14,14,1792]{2,1,3,0} broadcast(f32[] %constant_169), dimensions={}, metadata={op_name="parallelize(train_step_func_pipeshard_parallel_mesh_1)/jit(main)/jit(2)/jit(22)/transpose(jvp(remat))/WideResNet/BottleneckResNetBlock_13/max" source_file="/home/cyxue/Projects/crius/Crius/runtime/crius_worker/jax/model/wide_resnet.py" source_line=85}
  %compare.301 = pred[16,14,14,1792]{2,1,3,0} compare(f32[16,14,14,1792]{2,1,3,0} %add.1203, f32[16,14,14,1792]{2,1,3,0} %broadcast.3751), direction=GT, metadata={op_name="parallelize(train_step_func_pipeshard_parallel_mesh_1)/jit(main)/jit(2)/jit(27)/transpose(jvp(remat))/WideResNet/BottleneckResNetBlock_8/gt" source_file="/home/cyxue/Projects/crius/Crius/runtime/crius_worker/jax/model/wide_resnet.py" source_line=88}
  %param_0.1604 = f32[16,14,14,1792]{2,1,3,0} parameter(0)
  %select.301 = f32[16,14,14,1792]{2,1,3,0} select(pred[16,14,14,1792]{2,1,3,0} %compare.301, f32[16,14,14,1792]{2,1,3,0} %param_0.1604, f32[16,14,14,1792]{2,1,3,0} %broadcast.3751), metadata={op_name="parallelize(train_step_func_pipeshard_parallel_mesh_1)/jit(main)/jit(2)/jit(27)/transpose(jvp(remat))/WideResNet/BottleneckResNetBlock_8/select_n" source_file="/home/cyxue/Projects/crius/Crius/runtime/crius_worker/jax/model/wide_resnet.py" source_line=88}
  %transpose = f32[16,1792,14,14]{3,2,1,0} transpose(f32[16,14,14,1792]{2,1,3,0} %select.301), dimensions={0,3,1,2}
  %bitcast.543 = f32[16,1792,196]{2,1,0} bitcast(f32[16,1792,14,14]{3,2,1,0} %transpose), metadata={op_name="parallelize(train_step_func_pipeshard_parallel_mesh_1)/jit(main)/jit(2)/jit(27)/transpose(jvp(remat))/WideResNet/BottleneckResNetBlock_8/select_n" source_file="/home/cyxue/Projects/crius/Crius/runtime/crius_worker/jax/model/wide_resnet.py" source_line=88}
  %reduce.632 = f32[16,1792]{1,0} reduce(f32[16,1792,196]{2,1,0} %bitcast.543, f32[] %constant_169), dimensions={2}, to_apply=%region_57.4114.2
  %multiply.2203.clone.1 = f32[16,14,14,1792]{2,1,3,0} multiply(f32[16,14,14,1792]{2,1,3,0} %select.301, f32[16,14,14,1792]{2,1,3,0} %broadcast.3753), metadata={op_name="parallelize(train_step_func_pipeshard_parallel_mesh_1)/jit(main)/jit(2)/jit(27)/transpose(jvp(remat))/WideResNet/BottleneckResNetBlock_8/BatchNorm_1/mul" source_file="/home/cyxue/miniconda3/envs/alpa/lib/python3.8/site-packages/flax/linen/normalization.py" source_line=146}
  %negate.4.clone.1 = f32[16,14,14,1792]{2,1,3,0} negate(f32[16,14,14,1792]{2,1,3,0} %multiply.2203.clone.1), metadata={op_name="parallelize(train_step_func_pipeshard_parallel_mesh_1)/jit(main)/jit(2)/jit(27)/transpose(jvp(remat))/WideResNet/BottleneckResNetBlock_8/BatchNorm_1/neg" source_file="/home/cyxue/miniconda3/envs/alpa/lib/python3.8/site-packages/flax/linen/normalization.py" source_line=138}
  %transpose.2 = f32[16,1792,14,14]{3,2,1,0} transpose(f32[16,14,14,1792]{2,1,3,0} %negate.4.clone.1), dimensions={0,3,1,2}
  %bitcast.552.clone.1 = f32[16,1792,196]{2,1,0} bitcast(f32[16,1792,14,14]{3,2,1,0} %transpose.2), metadata={op_name="parallelize(train_step_func_pipeshard_parallel_mesh_1)/jit(main)/jit(2)/jit(27)/transpose(jvp(remat))/WideResNet/BottleneckResNetBlock_8/BatchNorm_1/neg" source_file="/home/cyxue/miniconda3/envs/alpa/lib/python3.8/site-packages/flax/linen/normalization.py" source_line=138}
  %reduce.638.clone.1 = f32[16,1792]{1,0} reduce(f32[16,1792,196]{2,1,0} %bitcast.552.clone.1, f32[] %constant_169), dimensions={2}, to_apply=%region_57.4114.2
  %multiply.276.clone.1 = f32[16,14,14,1792]{2,1,3,0} multiply(f32[16,14,14,1792]{2,1,3,0} %subtract.407, f32[16,14,14,1792]{2,1,3,0} %select.301), metadata={op_name="parallelize(train_step_func_pipeshard_parallel_mesh_1)/jit(main)/jit(2)/jit(27)/transpose(jvp(remat))/WideResNet/BottleneckResNetBlock_8/BatchNorm_1/mul" source_file="/home/cyxue/miniconda3/envs/alpa/lib/python3.8/site-packages/flax/linen/normalization.py" source_line=146}
  %transpose.3 = f32[16,1792,14,14]{3,2,1,0} transpose(f32[16,14,14,1792]{2,1,3,0} %multiply.276.clone.1), dimensions={0,3,1,2}
  %bitcast.554.clone.1 = f32[16,1792,196]{2,1,0} bitcast(f32[16,1792,14,14]{3,2,1,0} %transpose.3), metadata={op_name="parallelize(train_step_func_pipeshard_parallel_mesh_1)/jit(main)/jit(2)/jit(27)/transpose(jvp(remat))/WideResNet/BottleneckResNetBlock_8/BatchNorm_1/mul" source_file="/home/cyxue/miniconda3/envs/alpa/lib/python3.8/site-packages/flax/linen/normalization.py" source_line=146}
  %reduce.640.clone.1 = f32[16,1792]{1,0} reduce(f32[16,1792,196]{2,1,0} %bitcast.554.clone.1, f32[] %constant_169), dimensions={2}, to_apply=%region_57.4114.2
  ROOT %tuple.5 = (f32[16,1792]{1,0}, f32[16,1792]{1,0}, f32[16,1792]{1,0}) tuple(f32[16,1792]{1,0} %reduce.632, f32[16,1792]{1,0} %reduce.638.clone.1, f32[16,1792]{1,0} %reduce.640.clone.1)
}

%fused_computation.8 (param_0.17: f32[3,3,896,1792], param_1.21: f32[3,3,896,1792]) -> f32[3,3,896,1792] {
  %param_1.21 = f32[3,3,896,1792]{3,2,1,0} parameter(1)
  %copy.127 = f32[3,3,896,1792]{1,0,2,3} copy(f32[3,3,896,1792]{3,2,1,0} %param_1.21), metadata={op_name="2$start"}
  %param_0.17 = f32[3,3,896,1792]{1,0,2,3} parameter(0)
  %add.30 = f32[3,3,896,1792]{1,0,2,3} add(f32[3,3,896,1792]{1,0,2,3} %copy.127, f32[3,3,896,1792]{1,0,2,3} %param_0.17), metadata={op_name="parallelize(train_step_func_pipeshard_parallel_mesh_1)/jit(main)/jit(2)/jit(27)/add"}
  ROOT %copy.126 = f32[3,3,896,1792]{3,2,1,0} copy(f32[3,3,896,1792]{1,0,2,3} %add.30), metadata={op_name="tuple.79"}
}

%fused_computation.10 (param_0.1615: f32[16,14,14,896], param_1.2221: f32[896], param_2.1601: f32[896], param_3.1387: f32[896], param_4.1225: f32[16,14,14,896], param_5.1241: f32[896]) -> (f32[16,896], f32[16,896], f32[16,896]) {
  %param_4.1225 = f32[16,14,14,896]{2,1,3,0} parameter(4)
  %param_5.1241 = f32[896]{0} parameter(5)
  %constant_3058 = f32[] constant(0.000318877544)
  %broadcast.3839 = f32[896]{0} broadcast(f32[] %constant_3058), dimensions={}, metadata={op_name="parallelize(train_step_func_pipeshard_parallel_mesh_1)/jit(main)/jit(2)/jit(23)/transpose(jvp(remat))/WideResNet/BottleneckResNetBlock_12/BatchNorm_0/div" source_file="/home/cyxue/miniconda3/envs/alpa/lib/python3.8/site-packages/flax/linen/normalization.py" source_line=82}
  %multiply.2225 = f32[896]{0} multiply(f32[896]{0} %param_5.1241, f32[896]{0} %broadcast.3839), metadata={op_name="parallelize(train_step_func_pipeshard_parallel_mesh_1)/jit(main)/jit(2)/jit(27)/transpose(jvp(remat))/WideResNet/BottleneckResNetBlock_8/BatchNorm_0/div" source_file="/home/cyxue/miniconda3/envs/alpa/lib/python3.8/site-packages/flax/linen/normalization.py" source_line=82}
  %broadcast.3838 = f32[16,14,14,896]{2,1,3,0} broadcast(f32[896]{0} %multiply.2225), dimensions={3}, metadata={op_name="parallelize(train_step_func_pipeshard_parallel_mesh_1)/jit(main)/jit(2)/jit(27)/transpose(jvp(remat))/WideResNet/BottleneckResNetBlock_8/BatchNorm_0/sub" source_file="/home/cyxue/miniconda3/envs/alpa/lib/python3.8/site-packages/flax/linen/normalization.py" source_line=138}
  %subtract.417 = f32[16,14,14,896]{2,1,3,0} subtract(f32[16,14,14,896]{2,1,3,0} %param_4.1225, f32[16,14,14,896]{2,1,3,0} %broadcast.3838), metadata={op_name="parallelize(train_step_func_pipeshard_parallel_mesh_1)/jit(main)/jit(2)/jit(27)/transpose(jvp(remat))/WideResNet/BottleneckResNetBlock_8/BatchNorm_0/sub" source_file="/home/cyxue/miniconda3/envs/alpa/lib/python3.8/site-packages/flax/linen/normalization.py" source_line=138}
  %param_3.1387 = f32[896]{0} parameter(3)
  %constant_171 = f32[] constant(0)
  %broadcast.3837 = f32[896]{0} broadcast(f32[] %constant_171), dimensions={}, metadata={op_name="parallelize(train_step_func_pipeshard_parallel_mesh_1)/jit(main)/jit(2)/jit(23)/transpose(jvp(remat))/WideResNet/BottleneckResNetBlock_12/BatchNorm_0/max" source_file="/home/cyxue/miniconda3/envs/alpa/lib/python3.8/site-packages/flax/linen/normalization.py" source_line=93}
  %maximum.747 = f32[896]{0} maximum(f32[896]{0} %param_3.1387, f32[896]{0} %broadcast.3837), metadata={op_name="parallelize(train_step_func_pipeshard_parallel_mesh_1)/jit(main)/jit(2)/jit(27)/transpose(jvp(remat))/WideResNet/BottleneckResNetBlock_8/BatchNorm_0/max" source_file="/home/cyxue/miniconda3/envs/alpa/lib/python3.8/site-packages/flax/linen/normalization.py" source_line=93}
  %constant_3056 = f32[] constant(1e-05)
  %broadcast.3836 = f32[896]{0} broadcast(f32[] %constant_3056), dimensions={}, metadata={op_name="parallelize(train_step_func_pipeshard_parallel_mesh_1)/jit(main)/jit(2)/jit(23)/transpose(jvp(remat))/WideResNet/BottleneckResNetBlock_12/BatchNorm_0/add" source_file="/home/cyxue/miniconda3/envs/alpa/lib/python3.8/site-packages/flax/linen/normalization.py" source_line=139}
  %add.1228 = f32[896]{0} add(f32[896]{0} %maximum.747, f32[896]{0} %broadcast.3836), metadata={op_name="parallelize(train_step_func_pipeshard_parallel_mesh_1)/jit(main)/jit(2)/jit(27)/transpose(jvp(remat))/WideResNet/BottleneckResNetBlock_8/BatchNorm_0/add" source_file="/home/cyxue/miniconda3/envs/alpa/lib/python3.8/site-packages/flax/linen/normalization.py" source_line=139}
  %bitcast.2214 = f32[1,1,1,896]{3,2,1,0} bitcast(f32[896]{0} %add.1228), metadata={op_name="parallelize(train_step_func_pipeshard_parallel_mesh_1)/jit(main)/jit(2)/jit(27)/transpose(jvp(remat))/WideResNet/BottleneckResNetBlock_8/BatchNorm_0/add" source_file="/home/cyxue/miniconda3/envs/alpa/lib/python3.8/site-packages/flax/linen/normalization.py" source_line=139}
  %rsqrt.507 = f32[1,1,1,896]{3,2,1,0} rsqrt(f32[1,1,1,896]{3,2,1,0} %bitcast.2214), metadata={op_name="parallelize(train_step_func_pipeshard_parallel_mesh_1)/jit(main)/jit(2)/jit(27)/transpose(jvp(remat))/WideResNet/BottleneckResNetBlock_8/BatchNorm_0/rsqrt" source_file="/home/cyxue/miniconda3/envs/alpa/lib/python3.8/site-packages/flax/linen/normalization.py" source_line=139}
  %param_2.1601 = f32[896]{0} parameter(2)
  %bitcast.2213 = f32[1,1,1,896]{3,2,1,0} bitcast(f32[896]{0} %param_2.1601), metadata={op_name="parallelize(train_step_func_pipeshard_parallel_mesh_1)/jit(main)/jit(2)/jit(27)/transpose(jvp(remat))/WideResNet/BottleneckResNetBlock_8/BatchNorm_0/reshape[new_sizes=(1, 1, 1, 896) dimensions=None]" source_file="/home/cyxue/miniconda3/envs/alpa/lib/python3.8/site-packages/flax/linen/normalization.py" source_line=142}
  %multiply.2224 = f32[1,1,1,896]{3,2,1,0} multiply(f32[1,1,1,896]{3,2,1,0} %rsqrt.507, f32[1,1,1,896]{3,2,1,0} %bitcast.2213), metadata={op_name="parallelize(train_step_func_pipeshard_parallel_mesh_1)/jit(main)/jit(2)/jit(27)/transpose(jvp(remat))/WideResNet/BottleneckResNetBlock_8/BatchNorm_0/mul" source_file="/home/cyxue/miniconda3/envs/alpa/lib/python3.8/site-packages/flax/linen/normalization.py" source_line=144}
  %bitcast.2212 = f32[896]{0} bitcast(f32[1,1,1,896]{3,2,1,0} %multiply.2224), metadata={op_name="parallelize(train_step_func_pipeshard_parallel_mesh_1)/jit(main)/jit(2)/jit(27)/transpose(jvp(remat))/WideResNet/BottleneckResNetBlock_8/BatchNorm_0/mul" source_file="/home/cyxue/miniconda3/envs/alpa/lib/python3.8/site-packages/flax/linen/normalization.py" source_line=146}
  %broadcast.3835 = f32[16,14,14,896]{2,1,3,0} broadcast(f32[896]{0} %bitcast.2212), dimensions={3}, metadata={op_name="parallelize(train_step_func_pipeshard_parallel_mesh_1)/jit(main)/jit(2)/jit(27)/transpose(jvp(remat))/WideResNet/BottleneckResNetBlock_8/BatchNorm_0/mul" source_file="/home/cyxue/miniconda3/envs/alpa/lib/python3.8/site-packages/flax/linen/normalization.py" source_line=146}
  %multiply.2223 = f32[16,14,14,896]{2,1,3,0} multiply(f32[16,14,14,896]{2,1,3,0} %subtract.417, f32[16,14,14,896]{2,1,3,0} %broadcast.3835), metadata={op_name="parallelize(train_step_func_pipeshard_parallel_mesh_1)/jit(main)/jit(2)/jit(27)/transpose(jvp(remat))/WideResNet/BottleneckResNetBlock_8/BatchNorm_0/mul" source_file="/home/cyxue/miniconda3/envs/alpa/lib/python3.8/site-packages/flax/linen/normalization.py" source_line=146}
  %param_1.2221 = f32[896]{0} parameter(1)
  %broadcast.3834 = f32[16,14,14,896]{2,1,3,0} broadcast(f32[896]{0} %param_1.2221), dimensions={3}, metadata={op_name="parallelize(train_step_func_pipeshard_parallel_mesh_1)/jit(main)/jit(2)/jit(27)/transpose(jvp(remat))/WideResNet/BottleneckResNetBlock_8/BatchNorm_0/add" source_file="/home/cyxue/miniconda3/envs/alpa/lib/python3.8/site-packages/flax/linen/normalization.py" source_line=150}
  %add.1227 = f32[16,14,14,896]{2,1,3,0} add(f32[16,14,14,896]{2,1,3,0} %multiply.2223, f32[16,14,14,896]{2,1,3,0} %broadcast.3834), metadata={op_name="parallelize(train_step_func_pipeshard_parallel_mesh_1)/jit(main)/jit(2)/jit(27)/transpose(jvp(remat))/WideResNet/BottleneckResNetBlock_8/BatchNorm_0/add" source_file="/home/cyxue/miniconda3/envs/alpa/lib/python3.8/site-packages/flax/linen/normalization.py" source_line=150}
  %broadcast.3833 = f32[16,14,14,896]{2,1,3,0} broadcast(f32[] %constant_171), dimensions={}, metadata={op_name="parallelize(train_step_func_pipeshard_parallel_mesh_1)/jit(main)/jit(2)/jit(23)/transpose(jvp(remat))/WideResNet/BottleneckResNetBlock_12/max" source_file="/home/cyxue/Projects/crius/Crius/runtime/crius_worker/jax/model/wide_resnet.py" source_line=85}
  %compare.311 = pred[16,14,14,896]{2,1,3,0} compare(f32[16,14,14,896]{2,1,3,0} %add.1227, f32[16,14,14,896]{2,1,3,0} %broadcast.3833), direction=GT, metadata={op_name="parallelize(train_step_func_pipeshard_parallel_mesh_1)/jit(main)/jit(2)/jit(27)/transpose(jvp(remat))/WideResNet/BottleneckResNetBlock_8/gt" source_file="/home/cyxue/Projects/crius/Crius/runtime/crius_worker/jax/model/wide_resnet.py" source_line=85}
  %param_0.1615 = f32[16,14,14,896]{2,1,3,0} parameter(0)
  %select.311 = f32[16,14,14,896]{2,1,3,0} select(pred[16,14,14,896]{2,1,3,0} %compare.311, f32[16,14,14,896]{2,1,3,0} %param_0.1615, f32[16,14,14,896]{2,1,3,0} %broadcast.3833), metadata={op_name="parallelize(train_step_func_pipeshard_parallel_mesh_1)/jit(main)/jit(2)/jit(27)/transpose(jvp(remat))/WideResNet/BottleneckResNetBlock_8/select_n" source_file="/home/cyxue/Projects/crius/Crius/runtime/crius_worker/jax/model/wide_resnet.py" source_line=85}
  %transpose.4 = f32[16,896,14,14]{3,2,1,0} transpose(f32[16,14,14,896]{2,1,3,0} %select.311), dimensions={0,3,1,2}
  %bitcast.545 = f32[16,896,196]{2,1,0} bitcast(f32[16,896,14,14]{3,2,1,0} %transpose.4), metadata={op_name="parallelize(train_step_func_pipeshard_parallel_mesh_1)/jit(main)/jit(2)/jit(27)/transpose(jvp(remat))/WideResNet/BottleneckResNetBlock_8/select_n" source_file="/home/cyxue/Projects/crius/Crius/runtime/crius_worker/jax/model/wide_resnet.py" source_line=85}
  %reduce.634 = f32[16,896]{1,0} reduce(f32[16,896,196]{2,1,0} %bitcast.545, f32[] %constant_171), dimensions={2}, to_apply=%region_57.4114.2
  %multiply.2241.clone.1 = f32[16,14,14,896]{2,1,3,0} multiply(f32[16,14,14,896]{2,1,3,0} %select.311, f32[16,14,14,896]{2,1,3,0} %broadcast.3835), metadata={op_name="parallelize(train_step_func_pipeshard_parallel_mesh_1)/jit(main)/jit(2)/jit(27)/transpose(jvp(remat))/WideResNet/BottleneckResNetBlock_8/BatchNorm_0/mul" source_file="/home/cyxue/miniconda3/envs/alpa/lib/python3.8/site-packages/flax/linen/normalization.py" source_line=146}
  %negate.2.clone.1 = f32[16,14,14,896]{2,1,3,0} negate(f32[16,14,14,896]{2,1,3,0} %multiply.2241.clone.1), metadata={op_name="parallelize(train_step_func_pipeshard_parallel_mesh_1)/jit(main)/jit(2)/jit(27)/transpose(jvp(remat))/WideResNet/BottleneckResNetBlock_8/BatchNorm_0/neg" source_file="/home/cyxue/miniconda3/envs/alpa/lib/python3.8/site-packages/flax/linen/normalization.py" source_line=138}
  %transpose.5 = f32[16,896,14,14]{3,2,1,0} transpose(f32[16,14,14,896]{2,1,3,0} %negate.2.clone.1), dimensions={0,3,1,2}
  %bitcast.548.clone.1 = f32[16,896,196]{2,1,0} bitcast(f32[16,896,14,14]{3,2,1,0} %transpose.5), metadata={op_name="parallelize(train_step_func_pipeshard_parallel_mesh_1)/jit(main)/jit(2)/jit(27)/transpose(jvp(remat))/WideResNet/BottleneckResNetBlock_8/BatchNorm_0/neg" source_file="/home/cyxue/miniconda3/envs/alpa/lib/python3.8/site-packages/flax/linen/normalization.py" source_line=138}
  %reduce.635.clone.1 = f32[16,896]{1,0} reduce(f32[16,896,196]{2,1,0} %bitcast.548.clone.1, f32[] %constant_171), dimensions={2}, to_apply=%region_57.4114.2
  %multiply.265.clone.1 = f32[16,14,14,896]{2,1,3,0} multiply(f32[16,14,14,896]{2,1,3,0} %subtract.417, f32[16,14,14,896]{2,1,3,0} %select.311), metadata={op_name="parallelize(train_step_func_pipeshard_parallel_mesh_1)/jit(main)/jit(2)/jit(27)/transpose(jvp(remat))/WideResNet/BottleneckResNetBlock_8/BatchNorm_0/mul" source_file="/home/cyxue/miniconda3/envs/alpa/lib/python3.8/site-packages/flax/linen/normalization.py" source_line=146}
  %transpose.6 = f32[16,896,14,14]{3,2,1,0} transpose(f32[16,14,14,896]{2,1,3,0} %multiply.265.clone.1), dimensions={0,3,1,2}
  %bitcast.550.clone.1 = f32[16,896,196]{2,1,0} bitcast(f32[16,896,14,14]{3,2,1,0} %transpose.6), metadata={op_name="parallelize(train_step_func_pipeshard_parallel_mesh_1)/jit(main)/jit(2)/jit(27)/transpose(jvp(remat))/WideResNet/BottleneckResNetBlock_8/BatchNorm_0/mul" source_file="/home/cyxue/miniconda3/envs/alpa/lib/python3.8/site-packages/flax/linen/normalization.py" source_line=146}
  %reduce.637.clone.1 = f32[16,896]{1,0} reduce(f32[16,896,196]{2,1,0} %bitcast.550.clone.1, f32[] %constant_171), dimensions={2}, to_apply=%region_57.4114.2
  ROOT %tuple.3 = (f32[16,896]{1,0}, f32[16,896]{1,0}, f32[16,896]{1,0}) tuple(f32[16,896]{1,0} %reduce.634, f32[16,896]{1,0} %reduce.635.clone.1, f32[16,896]{1,0} %reduce.637.clone.1)
}

%fused_computation.12 (param_0.24: f32[1,1,3584,896], param_1.30: f32[1,1,3584,896]) -> f32[1,1,3584,896] {
  %param_1.30 = f32[1,1,3584,896]{3,2,1,0} parameter(1)
  %copy.129 = f32[1,1,3584,896]{1,0,2,3} copy(f32[1,1,3584,896]{3,2,1,0} %param_1.30), metadata={op_name="2$start"}
  %param_0.24 = f32[1,1,3584,896]{1,0,2,3} parameter(0)
  %add.33 = f32[1,1,3584,896]{1,0,2,3} add(f32[1,1,3584,896]{1,0,2,3} %copy.129, f32[1,1,3584,896]{1,0,2,3} %param_0.24), metadata={op_name="parallelize(train_step_func_pipeshard_parallel_mesh_1)/jit(main)/jit(2)/jit(27)/add"}
  ROOT %copy.128 = f32[1,1,3584,896]{3,2,1,0} copy(f32[1,1,3584,896]{1,0,2,3} %add.33), metadata={op_name="tuple.79"}
}

%fused_computation.13 (param_0.27: f32[896], param_1.36: f32[896], param_2.1603: f32[16,14,14,896], param_3.1389: f32[896], param_4.1227: f32[1,1,1,896], param_5.1243: f32[896], param_6.789: f32[16,14,14,896], param_7.829: f32[896]) -> f32[16,14,14,896] {
  %param_2.1603 = f32[16,14,14,896]{2,1,3,0} parameter(2)
  %param_1.36 = f32[896]{0} parameter(1)
  %constant_173 = f32[] constant(0.000318877544)
  %broadcast.3859 = f32[896]{0} broadcast(f32[] %constant_173), dimensions={}, metadata={op_name="parallelize(train_step_func_pipeshard_parallel_mesh_1)/jit(main)/jit(2)/jit(23)/transpose(jvp(remat))/WideResNet/BottleneckResNetBlock_12/BatchNorm_0/div" source_file="/home/cyxue/miniconda3/envs/alpa/lib/python3.8/site-packages/flax/linen/normalization.py" source_line=82}
  %multiply.2235 = f32[896]{0} multiply(f32[896]{0} %param_1.36, f32[896]{0} %broadcast.3859), metadata={op_name="parallelize(train_step_func_pipeshard_parallel_mesh_1)/jit(main)/jit(2)/jit(27)/transpose(jvp(remat))/WideResNet/BottleneckResNetBlock_8/BatchNorm_0/div" source_file="/home/cyxue/miniconda3/envs/alpa/lib/python3.8/site-packages/flax/linen/normalization.py" source_line=82}
  %broadcast.3858 = f32[16,14,14,896]{2,1,3,0} broadcast(f32[896]{0} %multiply.2235), dimensions={3}, metadata={op_name="parallelize(train_step_func_pipeshard_parallel_mesh_1)/jit(main)/jit(2)/jit(27)/transpose(jvp(remat))/WideResNet/BottleneckResNetBlock_8/BatchNorm_0/sub" source_file="/home/cyxue/miniconda3/envs/alpa/lib/python3.8/site-packages/flax/linen/normalization.py" source_line=138}
  %subtract.419 = f32[16,14,14,896]{2,1,3,0} subtract(f32[16,14,14,896]{2,1,3,0} %param_2.1603, f32[16,14,14,896]{2,1,3,0} %broadcast.3858), metadata={op_name="parallelize(train_step_func_pipeshard_parallel_mesh_1)/jit(main)/jit(2)/jit(27)/transpose(jvp(remat))/WideResNet/BottleneckResNetBlock_8/BatchNorm_0/sub" source_file="/home/cyxue/miniconda3/envs/alpa/lib/python3.8/site-packages/flax/linen/normalization.py" source_line=138}
  %param_3.1389 = f32[896]{0} parameter(3)
  %constant_176 = f32[] constant(0)
  %broadcast.3857 = f32[896]{0} broadcast(f32[] %constant_176), dimensions={}, metadata={op_name="parallelize(train_step_func_pipeshard_parallel_mesh_1)/jit(main)/jit(2)/jit(23)/transpose(jvp(remat))/WideResNet/BottleneckResNetBlock_12/BatchNorm_0/max" source_file="/home/cyxue/miniconda3/envs/alpa/lib/python3.8/site-packages/flax/linen/normalization.py" source_line=93}
  %maximum.751 = f32[896]{0} maximum(f32[896]{0} %param_3.1389, f32[896]{0} %broadcast.3857), metadata={op_name="parallelize(train_step_func_pipeshard_parallel_mesh_1)/jit(main)/jit(2)/jit(27)/transpose(jvp(remat))/WideResNet/BottleneckResNetBlock_8/BatchNorm_0/max" source_file="/home/cyxue/miniconda3/envs/alpa/lib/python3.8/site-packages/flax/linen/normalization.py" source_line=93}
  %constant_2854 = f32[] constant(1e-05)
  %broadcast.3856 = f32[896]{0} broadcast(f32[] %constant_2854), dimensions={}, metadata={op_name="parallelize(train_step_func_pipeshard_parallel_mesh_1)/jit(main)/jit(2)/jit(23)/transpose(jvp(remat))/WideResNet/BottleneckResNetBlock_12/BatchNorm_0/add" source_file="/home/cyxue/miniconda3/envs/alpa/lib/python3.8/site-packages/flax/linen/normalization.py" source_line=139}
  %add.1234 = f32[896]{0} add(f32[896]{0} %maximum.751, f32[896]{0} %broadcast.3856), metadata={op_name="parallelize(train_step_func_pipeshard_parallel_mesh_1)/jit(main)/jit(2)/jit(27)/transpose(jvp(remat))/WideResNet/BottleneckResNetBlock_8/BatchNorm_0/add" source_file="/home/cyxue/miniconda3/envs/alpa/lib/python3.8/site-packages/flax/linen/normalization.py" source_line=139}
  %bitcast.2226 = f32[1,1,1,896]{3,2,1,0} bitcast(f32[896]{0} %add.1234), metadata={op_name="parallelize(train_step_func_pipeshard_parallel_mesh_1)/jit(main)/jit(2)/jit(27)/transpose(jvp(remat))/WideResNet/BottleneckResNetBlock_8/BatchNorm_0/add" source_file="/home/cyxue/miniconda3/envs/alpa/lib/python3.8/site-packages/flax/linen/normalization.py" source_line=139}
  %rsqrt.511 = f32[1,1,1,896]{3,2,1,0} rsqrt(f32[1,1,1,896]{3,2,1,0} %bitcast.2226), metadata={op_name="parallelize(train_step_func_pipeshard_parallel_mesh_1)/jit(main)/jit(2)/jit(27)/transpose(jvp(remat))/WideResNet/BottleneckResNetBlock_8/BatchNorm_0/rsqrt" source_file="/home/cyxue/miniconda3/envs/alpa/lib/python3.8/site-packages/flax/linen/normalization.py" source_line=139}
  %param_5.1243 = f32[896]{0} parameter(5)
  %bitcast.2225 = f32[1,1,1,896]{3,2,1,0} bitcast(f32[896]{0} %param_5.1243), metadata={op_name="parallelize(train_step_func_pipeshard_parallel_mesh_1)/jit(main)/jit(2)/jit(27)/transpose(jvp(remat))/WideResNet/BottleneckResNetBlock_8/BatchNorm_0/reshape[new_sizes=(1, 1, 1, 896) dimensions=None]" source_file="/home/cyxue/miniconda3/envs/alpa/lib/python3.8/site-packages/flax/linen/normalization.py" source_line=142}
  %multiply.2234 = f32[1,1,1,896]{3,2,1,0} multiply(f32[1,1,1,896]{3,2,1,0} %rsqrt.511, f32[1,1,1,896]{3,2,1,0} %bitcast.2225), metadata={op_name="parallelize(train_step_func_pipeshard_parallel_mesh_1)/jit(main)/jit(2)/jit(27)/transpose(jvp(remat))/WideResNet/BottleneckResNetBlock_8/BatchNorm_0/mul" source_file="/home/cyxue/miniconda3/envs/alpa/lib/python3.8/site-packages/flax/linen/normalization.py" source_line=144}
  %bitcast.2224 = f32[896]{0} bitcast(f32[1,1,1,896]{3,2,1,0} %multiply.2234), metadata={op_name="parallelize(train_step_func_pipeshard_parallel_mesh_1)/jit(main)/jit(2)/jit(27)/transpose(jvp(remat))/WideResNet/BottleneckResNetBlock_8/BatchNorm_0/mul" source_file="/home/cyxue/miniconda3/envs/alpa/lib/python3.8/site-packages/flax/linen/normalization.py" source_line=146}
  %broadcast.3855 = f32[16,14,14,896]{2,1,3,0} broadcast(f32[896]{0} %bitcast.2224), dimensions={3}, metadata={op_name="parallelize(train_step_func_pipeshard_parallel_mesh_1)/jit(main)/jit(2)/jit(27)/transpose(jvp(remat))/WideResNet/BottleneckResNetBlock_8/BatchNorm_0/mul" source_file="/home/cyxue/miniconda3/envs/alpa/lib/python3.8/site-packages/flax/linen/normalization.py" source_line=146}
  %multiply.2233 = f32[16,14,14,896]{2,1,3,0} multiply(f32[16,14,14,896]{2,1,3,0} %subtract.419, f32[16,14,14,896]{2,1,3,0} %broadcast.3855), metadata={op_name="parallelize(train_step_func_pipeshard_parallel_mesh_1)/jit(main)/jit(2)/jit(27)/transpose(jvp(remat))/WideResNet/BottleneckResNetBlock_8/BatchNorm_0/mul" source_file="/home/cyxue/miniconda3/envs/alpa/lib/python3.8/site-packages/flax/linen/normalization.py" source_line=146}
  %param_7.829 = f32[896]{0} parameter(7)
  %broadcast.3854 = f32[16,14,14,896]{2,1,3,0} broadcast(f32[896]{0} %param_7.829), dimensions={3}, metadata={op_name="parallelize(train_step_func_pipeshard_parallel_mesh_1)/jit(main)/jit(2)/jit(27)/transpose(jvp(remat))/WideResNet/BottleneckResNetBlock_8/BatchNorm_0/add" source_file="/home/cyxue/miniconda3/envs/alpa/lib/python3.8/site-packages/flax/linen/normalization.py" source_line=150}
  %add.1233 = f32[16,14,14,896]{2,1,3,0} add(f32[16,14,14,896]{2,1,3,0} %multiply.2233, f32[16,14,14,896]{2,1,3,0} %broadcast.3854), metadata={op_name="parallelize(train_step_func_pipeshard_parallel_mesh_1)/jit(main)/jit(2)/jit(27)/transpose(jvp(remat))/WideResNet/BottleneckResNetBlock_8/BatchNorm_0/add" source_file="/home/cyxue/miniconda3/envs/alpa/lib/python3.8/site-packages/flax/linen/normalization.py" source_line=150}
  %broadcast.3853 = f32[16,14,14,896]{2,1,3,0} broadcast(f32[] %constant_176), dimensions={}, metadata={op_name="parallelize(train_step_func_pipeshard_parallel_mesh_1)/jit(main)/jit(2)/jit(23)/transpose(jvp(remat))/WideResNet/BottleneckResNetBlock_12/max" source_file="/home/cyxue/Projects/crius/Crius/runtime/crius_worker/jax/model/wide_resnet.py" source_line=85}
  %compare.313 = pred[16,14,14,896]{2,1,3,0} compare(f32[16,14,14,896]{2,1,3,0} %add.1233, f32[16,14,14,896]{2,1,3,0} %broadcast.3853), direction=GT, metadata={op_name="parallelize(train_step_func_pipeshard_parallel_mesh_1)/jit(main)/jit(2)/jit(27)/transpose(jvp(remat))/WideResNet/BottleneckResNetBlock_8/gt" source_file="/home/cyxue/Projects/crius/Crius/runtime/crius_worker/jax/model/wide_resnet.py" source_line=85}
  %param_6.789 = f32[16,14,14,896]{2,1,3,0} parameter(6)
  %select.313 = f32[16,14,14,896]{2,1,3,0} select(pred[16,14,14,896]{2,1,3,0} %compare.313, f32[16,14,14,896]{2,1,3,0} %param_6.789, f32[16,14,14,896]{2,1,3,0} %broadcast.3853), metadata={op_name="parallelize(train_step_func_pipeshard_parallel_mesh_1)/jit(main)/jit(2)/jit(27)/transpose(jvp(remat))/WideResNet/BottleneckResNetBlock_8/select_n" source_file="/home/cyxue/Projects/crius/Crius/runtime/crius_worker/jax/model/wide_resnet.py" source_line=85}
  %multiply.2231 = f32[16,14,14,896]{2,1,3,0} multiply(f32[16,14,14,896]{2,1,3,0} %select.313, f32[16,14,14,896]{2,1,3,0} %broadcast.3855), metadata={op_name="parallelize(train_step_func_pipeshard_parallel_mesh_1)/jit(main)/jit(2)/jit(27)/transpose(jvp(remat))/WideResNet/BottleneckResNetBlock_8/BatchNorm_0/mul" source_file="/home/cyxue/miniconda3/envs/alpa/lib/python3.8/site-packages/flax/linen/normalization.py" source_line=146}
  %param_4.1227 = f32[1,1,1,896]{3,2,1,0} parameter(4)
  %multiply.264 = f32[1,1,1,896]{3,2,1,0} multiply(f32[1,1,1,896]{3,2,1,0} %param_4.1227, f32[1,1,1,896]{3,2,1,0} %bitcast.2225), metadata={op_name="parallelize(train_step_func_pipeshard_parallel_mesh_1)/jit(main)/jit(2)/jit(27)/transpose(jvp(remat))/WideResNet/BottleneckResNetBlock_8/BatchNorm_0/mul" source_file="/home/cyxue/miniconda3/envs/alpa/lib/python3.8/site-packages/flax/linen/normalization.py" source_line=144}
  %divide.2 = f32[1,1,1,896]{3,2,1,0} divide(f32[1,1,1,896]{3,2,1,0} %rsqrt.511, f32[1,1,1,896]{3,2,1,0} %bitcast.2226), metadata={op_name="parallelize(train_step_func_pipeshard_parallel_mesh_1)/jit(main)/jit(2)/jit(27)/transpose(jvp(remat))/WideResNet/BottleneckResNetBlock_8/BatchNorm_0/div" source_file="/home/cyxue/miniconda3/envs/alpa/lib/python3.8/site-packages/flax/linen/normalization.py" source_line=139}
  %constant_174 = f32[] constant(-0.5)
  %broadcast.295 = f32[1,1,1,896]{3,2,1,0} broadcast(f32[] %constant_174), dimensions={}, metadata={op_name="parallelize(train_step_func_pipeshard_parallel_mesh_1)/jit(main)/jit(2)/jit(23)/transpose(jvp(remat))/WideResNet/BottleneckResNetBlock_12/BatchNorm_0/mul" source_file="/home/cyxue/miniconda3/envs/alpa/lib/python3.8/site-packages/flax/linen/normalization.py" source_line=139}
  %multiply.263 = f32[1,1,1,896]{3,2,1,0} multiply(f32[1,1,1,896]{3,2,1,0} %divide.2, f32[1,1,1,896]{3,2,1,0} %broadcast.295), metadata={op_name="parallelize(train_step_func_pipeshard_parallel_mesh_1)/jit(main)/jit(2)/jit(27)/transpose(jvp(remat))/WideResNet/BottleneckResNetBlock_8/BatchNorm_0/mul" source_file="/home/cyxue/miniconda3/envs/alpa/lib/python3.8/site-packages/flax/linen/normalization.py" source_line=139}
  %multiply.262 = f32[1,1,1,896]{3,2,1,0} multiply(f32[1,1,1,896]{3,2,1,0} %multiply.264, f32[1,1,1,896]{3,2,1,0} %multiply.263), metadata={op_name="parallelize(train_step_func_pipeshard_parallel_mesh_1)/jit(main)/jit(2)/jit(27)/transpose(jvp(remat))/WideResNet/BottleneckResNetBlock_8/BatchNorm_0/mul" source_file="/home/cyxue/miniconda3/envs/alpa/lib/python3.8/site-packages/flax/linen/normalization.py" source_line=139}
  %bitcast.547 = f32[896]{0} bitcast(f32[1,1,1,896]{3,2,1,0} %multiply.262), metadata={op_name="parallelize(train_step_func_pipeshard_parallel_mesh_1)/jit(main)/jit(2)/jit(27)/transpose(jvp(remat))/WideResNet/BottleneckResNetBlock_8/BatchNorm_0/reshape[new_sizes=(896,) dimensions=None]" source_file="/home/cyxue/miniconda3/envs/alpa/lib/python3.8/site-packages/flax/linen/normalization.py" source_line=132}
  %compare.2 = pred[896]{0} compare(f32[896]{0} %param_3.1389, f32[896]{0} %maximum.751), direction=EQ, metadata={op_name="parallelize(train_step_func_pipeshard_parallel_mesh_1)/jit(main)/jit(2)/jit(27)/transpose(jvp(remat))/WideResNet/BottleneckResNetBlock_8/BatchNorm_0/eq" source_file="/home/cyxue/miniconda3/envs/alpa/lib/python3.8/site-packages/flax/linen/normalization.py" source_line=93}
  %constant_177 = f32[] constant(1)
  %broadcast.294 = f32[896]{0} broadcast(f32[] %constant_177), dimensions={}, metadata={op_name="parallelize(train_step_func_pipeshard_parallel_mesh_1)/jit(main)/jit(2)/jit(23)/transpose(jvp(remat))/WideResNet/BottleneckResNetBlock_12/BatchNorm_0/broadcast_in_dim[shape=(896,) broadcast_dimensions=()]" source_file="/home/cyxue/miniconda3/envs/alpa/lib/python3.8/site-packages/flax/linen/normalization.py" source_line=93}
  %select.2 = f32[896]{0} select(pred[896]{0} %compare.2, f32[896]{0} %broadcast.294, f32[896]{0} %broadcast.3857), metadata={op_name="parallelize(train_step_func_pipeshard_parallel_mesh_1)/jit(main)/jit(2)/jit(27)/transpose(jvp(remat))/WideResNet/BottleneckResNetBlock_8/BatchNorm_0/select_n" source_file="/home/cyxue/miniconda3/envs/alpa/lib/python3.8/site-packages/flax/linen/normalization.py" source_line=93}
  %compare.1 = pred[896]{0} compare(f32[896]{0} %broadcast.3857, f32[896]{0} %maximum.751), direction=EQ, metadata={op_name="parallelize(train_step_func_pipeshard_parallel_mesh_1)/jit(main)/jit(2)/jit(27)/transpose(jvp(remat))/WideResNet/BottleneckResNetBlock_8/BatchNorm_0/eq" source_file="/home/cyxue/miniconda3/envs/alpa/lib/python3.8/site-packages/flax/linen/normalization.py" source_line=93}
  %constant_175 = f32[] constant(2)
  %broadcast.293 = f32[896]{0} broadcast(f32[] %constant_175), dimensions={}, metadata={op_name="parallelize(train_step_func_pipeshard_parallel_mesh_1)/jit(main)/jit(2)/jit(23)/transpose(jvp(remat))/WideResNet/BottleneckResNetBlock_12/BatchNorm_0/mul" source_file="/home/cyxue/miniconda3/envs/alpa/lib/python3.8/site-packages/flax/linen/normalization.py" source_line=46}
  %select.1 = f32[896]{0} select(pred[896]{0} %compare.1, f32[896]{0} %broadcast.293, f32[896]{0} %broadcast.294), metadata={op_name="parallelize(train_step_func_pipeshard_parallel_mesh_1)/jit(main)/jit(2)/jit(27)/transpose(jvp(remat))/WideResNet/BottleneckResNetBlock_8/BatchNorm_0/select_n" source_file="/home/cyxue/miniconda3/envs/alpa/lib/python3.8/site-packages/flax/linen/normalization.py" source_line=93}
  %divide.1 = f32[896]{0} divide(f32[896]{0} %select.2, f32[896]{0} %select.1), metadata={op_name="parallelize(train_step_func_pipeshard_parallel_mesh_1)/jit(main)/jit(2)/jit(27)/transpose(jvp(remat))/WideResNet/BottleneckResNetBlock_8/BatchNorm_0/div" source_file="/home/cyxue/miniconda3/envs/alpa/lib/python3.8/site-packages/flax/linen/normalization.py" source_line=93}
  %multiply.261 = f32[896]{0} multiply(f32[896]{0} %bitcast.547, f32[896]{0} %divide.1), metadata={op_name="parallelize(train_step_func_pipeshard_parallel_mesh_1)/jit(main)/jit(2)/jit(27)/transpose(jvp(remat))/WideResNet/BottleneckResNetBlock_8/BatchNorm_0/mul" source_file="/home/cyxue/miniconda3/envs/alpa/lib/python3.8/site-packages/flax/linen/normalization.py" source_line=93}
  %constant_172 = f32[] constant(0.000637755089)
  %broadcast.292 = f32[896]{0} broadcast(f32[] %constant_172), dimensions={}, metadata={op_name="parallelize(train_step_func_pipeshard_parallel_mesh_1)/jit(main)/jit(2)/jit(23)/transpose(jvp(remat))/WideResNet/BottleneckResNetBlock_12/BatchNorm_0/mul" source_file="/home/cyxue/miniconda3/envs/alpa/lib/python3.8/site-packages/flax/linen/normalization.py" source_line=46}
  %multiply.260 = f32[896]{0} multiply(f32[896]{0} %multiply.261, f32[896]{0} %broadcast.292), metadata={op_name="parallelize(train_step_func_pipeshard_parallel_mesh_1)/jit(main)/jit(2)/jit(27)/transpose(jvp(remat))/WideResNet/BottleneckResNetBlock_8/BatchNorm_0/mul" source_file="/home/cyxue/miniconda3/envs/alpa/lib/python3.8/site-packages/flax/linen/normalization.py" source_line=46}
  %broadcast.291 = f32[16,14,14,896]{2,1,3,0} broadcast(f32[896]{0} %multiply.260), dimensions={3}, metadata={op_name="parallelize(train_step_func_pipeshard_parallel_mesh_1)/jit(main)/jit(2)/jit(27)/transpose(jvp(remat))/WideResNet/BottleneckResNetBlock_8/BatchNorm_0/mul" source_file="/home/cyxue/miniconda3/envs/alpa/lib/python3.8/site-packages/flax/linen/normalization.py" source_line=46}
  %multiply.259 = f32[16,14,14,896]{2,1,3,0} multiply(f32[16,14,14,896]{2,1,3,0} %param_2.1603, f32[16,14,14,896]{2,1,3,0} %broadcast.291), metadata={op_name="parallelize(train_step_func_pipeshard_parallel_mesh_1)/jit(main)/jit(2)/jit(27)/transpose(jvp(remat))/WideResNet/BottleneckResNetBlock_8/BatchNorm_0/mul" source_file="/home/cyxue/miniconda3/envs/alpa/lib/python3.8/site-packages/flax/linen/normalization.py" source_line=46}
  %add.36 = f32[16,14,14,896]{2,1,3,0} add(f32[16,14,14,896]{2,1,3,0} %multiply.2231, f32[16,14,14,896]{2,1,3,0} %multiply.259), metadata={op_name="parallelize(train_step_func_pipeshard_parallel_mesh_1)/jit(main)/jit(2)/jit(27)/transpose(jvp(remat))/WideResNet/BottleneckResNetBlock_8/BatchNorm_0/add_any" source_file="/home/cyxue/miniconda3/envs/alpa/lib/python3.8/site-packages/flax/linen/normalization.py" source_line=46}
  %param_0.27 = f32[896]{0} parameter(0)
  %negate.1 = f32[896]{0} negate(f32[896]{0} %multiply.261), metadata={op_name="parallelize(train_step_func_pipeshard_parallel_mesh_1)/jit(main)/jit(2)/jit(27)/transpose(jvp(remat))/WideResNet/BottleneckResNetBlock_8/BatchNorm_0/neg" source_file="/home/cyxue/miniconda3/envs/alpa/lib/python3.8/site-packages/flax/linen/normalization.py" source_line=93}
  %multiply.258 = f32[896]{0} multiply(f32[896]{0} %param_1.36, f32[896]{0} %broadcast.292), metadata={op_name="parallelize(train_step_func_pipeshard_parallel_mesh_1)/jit(main)/jit(2)/jit(27)/transpose(jvp(remat))/WideResNet/BottleneckResNetBlock_8/BatchNorm_0/mul" source_file="/home/cyxue/miniconda3/envs/alpa/lib/python3.8/site-packages/flax/linen/normalization.py" source_line=46}
  %multiply.257 = f32[896]{0} multiply(f32[896]{0} %negate.1, f32[896]{0} %multiply.258), metadata={op_name="parallelize(train_step_func_pipeshard_parallel_mesh_1)/jit(main)/jit(2)/jit(27)/transpose(jvp(remat))/WideResNet/BottleneckResNetBlock_8/BatchNorm_0/mul" source_file="/home/cyxue/miniconda3/envs/alpa/lib/python3.8/site-packages/flax/linen/normalization.py" source_line=46}
  %add.35 = f32[896]{0} add(f32[896]{0} %param_0.27, f32[896]{0} %multiply.257), metadata={op_name="parallelize(train_step_func_pipeshard_parallel_mesh_1)/jit(main)/jit(2)/jit(27)/transpose(jvp(remat))/WideResNet/BottleneckResNetBlock_8/BatchNorm_0/add_any" source_file="/home/cyxue/miniconda3/envs/alpa/lib/python3.8/site-packages/flax/linen/normalization.py" source_line=46}
  %multiply.256 = f32[896]{0} multiply(f32[896]{0} %add.35, f32[896]{0} %broadcast.3859), metadata={op_name="parallelize(train_step_func_pipeshard_parallel_mesh_1)/jit(main)/jit(2)/jit(27)/transpose(jvp(remat))/WideResNet/BottleneckResNetBlock_8/BatchNorm_0/div" source_file="/home/cyxue/miniconda3/envs/alpa/lib/python3.8/site-packages/flax/linen/normalization.py" source_line=82}
  %broadcast.290 = f32[16,14,14,896]{2,1,3,0} broadcast(f32[896]{0} %multiply.256), dimensions={3}, metadata={op_name="parallelize(train_step_func_pipeshard_parallel_mesh_1)/jit(main)/jit(2)/jit(27)/transpose(jvp(remat))/WideResNet/BottleneckResNetBlock_8/BatchNorm_0/broadcast_in_dim[shape=(16, 14, 14, 896) broadcast_dimensions=(3,)]" source_file="/home/cyxue/miniconda3/envs/alpa/lib/python3.8/site-packages/flax/linen/normalization.py" source_line=82}
  ROOT %add.34 = f32[16,14,14,896]{2,1,3,0} add(f32[16,14,14,896]{2,1,3,0} %add.36, f32[16,14,14,896]{2,1,3,0} %broadcast.290), metadata={op_name="parallelize(train_step_func_pipeshard_parallel_mesh_1)/jit(main)/jit(2)/jit(27)/transpose(jvp(remat))/WideResNet/BottleneckResNetBlock_8/BatchNorm_0/add_any" source_file="/home/cyxue/miniconda3/envs/alpa/lib/python3.8/site-packages/flax/linen/normalization.py" source_line=82}
}

%fused_computation.15 (param_0.31: f32[16,896]) -> f32[1,1,1,896] {
  %param_0.31 = f32[16,896]{1,0} parameter(0)
  %constant_178 = f32[] constant(0)
  %reduce.636 = f32[896]{0} reduce(f32[16,896]{1,0} %param_0.31, f32[] %constant_178), dimensions={0}, to_apply=%region_57.4114.2, metadata={op_name="parallelize(train_step_func_pipeshard_parallel_mesh_1)/jit(main)/jit(2)/jit(27)/transpose(jvp(remat))/WideResNet/BottleneckResNetBlock_8/BatchNorm_0/reduce_sum[axes=(0, 1, 2)]" source_file="/home/cyxue/miniconda3/envs/alpa/lib/python3.8/site-packages/flax/linen/normalization.py" source_line=146}
  ROOT %bitcast.549 = f32[1,1,1,896]{3,2,1,0} bitcast(f32[896]{0} %reduce.636), metadata={op_name="parallelize(train_step_func_pipeshard_parallel_mesh_1)/jit(main)/jit(2)/jit(27)/transpose(jvp(remat))/WideResNet/BottleneckResNetBlock_8/BatchNorm_0/reshape[new_sizes=(1, 1, 1, 896) dimensions=None]" source_file="/home/cyxue/miniconda3/envs/alpa/lib/python3.8/site-packages/flax/linen/normalization.py" source_line=146}
}

%fused_computation.19 (param_0.39: f32[1792], param_1.54: f32[1792], param_2.1578: f32[16,14,14,1792], param_3.1358: f32[1792], param_4.1193: f32[1,1,1,1792], param_5.1200: f32[1792], param_6.764: f32[16,14,14,1792], param_7.811: f32[1792]) -> f32[16,14,14,1792] {
  %param_2.1578 = f32[16,14,14,1792]{2,1,3,0} parameter(2)
  %param_1.54 = f32[1792]{0} parameter(1)
  %constant_183 = f32[] constant(0.000318877544)
  %broadcast.3777 = f32[1792]{0} broadcast(f32[] %constant_183), dimensions={}, metadata={op_name="parallelize(train_step_func_pipeshard_parallel_mesh_1)/jit(main)/jit(2)/jit(22)/transpose(jvp(remat))/WideResNet/BottleneckResNetBlock_13/BatchNorm_0/div" source_file="/home/cyxue/miniconda3/envs/alpa/lib/python3.8/site-packages/flax/linen/normalization.py" source_line=82}
  %multiply.2197 = f32[1792]{0} multiply(f32[1792]{0} %param_1.54, f32[1792]{0} %broadcast.3777), metadata={op_name="parallelize(train_step_func_pipeshard_parallel_mesh_1)/jit(main)/jit(2)/jit(27)/transpose(jvp(remat))/WideResNet/BottleneckResNetBlock_8/BatchNorm_1/div" source_file="/home/cyxue/miniconda3/envs/alpa/lib/python3.8/site-packages/flax/linen/normalization.py" source_line=82}
  %broadcast.3776 = f32[16,14,14,1792]{2,1,3,0} broadcast(f32[1792]{0} %multiply.2197), dimensions={3}, metadata={op_name="parallelize(train_step_func_pipeshard_parallel_mesh_1)/jit(main)/jit(2)/jit(27)/transpose(jvp(remat))/WideResNet/BottleneckResNetBlock_8/BatchNorm_1/sub" source_file="/home/cyxue/miniconda3/envs/alpa/lib/python3.8/site-packages/flax/linen/normalization.py" source_line=138}
  %subtract.409 = f32[16,14,14,1792]{2,1,3,0} subtract(f32[16,14,14,1792]{2,1,3,0} %param_2.1578, f32[16,14,14,1792]{2,1,3,0} %broadcast.3776), metadata={op_name="parallelize(train_step_func_pipeshard_parallel_mesh_1)/jit(main)/jit(2)/jit(27)/transpose(jvp(remat))/WideResNet/BottleneckResNetBlock_8/BatchNorm_1/sub" source_file="/home/cyxue/miniconda3/envs/alpa/lib/python3.8/site-packages/flax/linen/normalization.py" source_line=138}
  %param_3.1358 = f32[1792]{0} parameter(3)
  %constant_186 = f32[] constant(0)
  %broadcast.3775 = f32[1792]{0} broadcast(f32[] %constant_186), dimensions={}, metadata={op_name="parallelize(train_step_func_pipeshard_parallel_mesh_1)/jit(main)/jit(2)/jit(20)/transpose(jvp(remat))/WideResNet/BottleneckResNetBlock_15/BatchNorm_0/max" source_file="/home/cyxue/miniconda3/envs/alpa/lib/python3.8/site-packages/flax/linen/normalization.py" source_line=93}
  %maximum.737 = f32[1792]{0} maximum(f32[1792]{0} %param_3.1358, f32[1792]{0} %broadcast.3775), metadata={op_name="parallelize(train_step_func_pipeshard_parallel_mesh_1)/jit(main)/jit(2)/jit(27)/transpose(jvp(remat))/WideResNet/BottleneckResNetBlock_8/BatchNorm_1/max" source_file="/home/cyxue/miniconda3/envs/alpa/lib/python3.8/site-packages/flax/linen/normalization.py" source_line=93}
  %constant_2911 = f32[] constant(1e-05)
  %broadcast.3774 = f32[1792]{0} broadcast(f32[] %constant_2911), dimensions={}, metadata={op_name="parallelize(train_step_func_pipeshard_parallel_mesh_1)/jit(main)/jit(2)/jit(20)/transpose(jvp(remat))/WideResNet/BottleneckResNetBlock_15/BatchNorm_0/add" source_file="/home/cyxue/miniconda3/envs/alpa/lib/python3.8/site-packages/flax/linen/normalization.py" source_line=139}
  %add.1210 = f32[1792]{0} add(f32[1792]{0} %maximum.737, f32[1792]{0} %broadcast.3774), metadata={op_name="parallelize(train_step_func_pipeshard_parallel_mesh_1)/jit(main)/jit(2)/jit(27)/transpose(jvp(remat))/WideResNet/BottleneckResNetBlock_8/BatchNorm_1/add" source_file="/home/cyxue/miniconda3/envs/alpa/lib/python3.8/site-packages/flax/linen/normalization.py" source_line=139}
  %bitcast.2184 = f32[1,1,1,1792]{3,2,1,0} bitcast(f32[1792]{0} %add.1210), metadata={op_name="parallelize(train_step_func_pipeshard_parallel_mesh_1)/jit(main)/jit(2)/jit(27)/transpose(jvp(remat))/WideResNet/BottleneckResNetBlock_8/BatchNorm_1/add" source_file="/home/cyxue/miniconda3/envs/alpa/lib/python3.8/site-packages/flax/linen/normalization.py" source_line=139}
  %rsqrt.497 = f32[1,1,1,1792]{3,2,1,0} rsqrt(f32[1,1,1,1792]{3,2,1,0} %bitcast.2184), metadata={op_name="parallelize(train_step_func_pipeshard_parallel_mesh_1)/jit(main)/jit(2)/jit(27)/transpose(jvp(remat))/WideResNet/BottleneckResNetBlock_8/BatchNorm_1/rsqrt" source_file="/home/cyxue/miniconda3/envs/alpa/lib/python3.8/site-packages/flax/linen/normalization.py" source_line=139}
  %param_5.1200 = f32[1792]{0} parameter(5)
  %bitcast.2183 = f32[1,1,1,1792]{3,2,1,0} bitcast(f32[1792]{0} %param_5.1200), metadata={op_name="parallelize(train_step_func_pipeshard_parallel_mesh_1)/jit(main)/jit(2)/jit(27)/transpose(jvp(remat))/WideResNet/BottleneckResNetBlock_8/BatchNorm_1/reshape[new_sizes=(1, 1, 1, 1792) dimensions=None]" source_file="/home/cyxue/miniconda3/envs/alpa/lib/python3.8/site-packages/flax/linen/normalization.py" source_line=142}
  %multiply.2196 = f32[1,1,1,1792]{3,2,1,0} multiply(f32[1,1,1,1792]{3,2,1,0} %rsqrt.497, f32[1,1,1,1792]{3,2,1,0} %bitcast.2183), metadata={op_name="parallelize(train_step_func_pipeshard_parallel_mesh_1)/jit(main)/jit(2)/jit(27)/transpose(jvp(remat))/WideResNet/BottleneckResNetBlock_8/BatchNorm_1/mul" source_file="/home/cyxue/miniconda3/envs/alpa/lib/python3.8/site-packages/flax/linen/normalization.py" source_line=144}
  %bitcast.2182 = f32[1792]{0} bitcast(f32[1,1,1,1792]{3,2,1,0} %multiply.2196), metadata={op_name="parallelize(train_step_func_pipeshard_parallel_mesh_1)/jit(main)/jit(2)/jit(27)/transpose(jvp(remat))/WideResNet/BottleneckResNetBlock_8/BatchNorm_1/mul" source_file="/home/cyxue/miniconda3/envs/alpa/lib/python3.8/site-packages/flax/linen/normalization.py" source_line=146}
  %broadcast.3773 = f32[16,14,14,1792]{2,1,3,0} broadcast(f32[1792]{0} %bitcast.2182), dimensions={3}, metadata={op_name="parallelize(train_step_func_pipeshard_parallel_mesh_1)/jit(main)/jit(2)/jit(27)/transpose(jvp(remat))/WideResNet/BottleneckResNetBlock_8/BatchNorm_1/mul" source_file="/home/cyxue/miniconda3/envs/alpa/lib/python3.8/site-packages/flax/linen/normalization.py" source_line=146}
  %multiply.2195 = f32[16,14,14,1792]{2,1,3,0} multiply(f32[16,14,14,1792]{2,1,3,0} %subtract.409, f32[16,14,14,1792]{2,1,3,0} %broadcast.3773), metadata={op_name="parallelize(train_step_func_pipeshard_parallel_mesh_1)/jit(main)/jit(2)/jit(27)/transpose(jvp(remat))/WideResNet/BottleneckResNetBlock_8/BatchNorm_1/mul" source_file="/home/cyxue/miniconda3/envs/alpa/lib/python3.8/site-packages/flax/linen/normalization.py" source_line=146}
  %param_7.811 = f32[1792]{0} parameter(7)
  %broadcast.3772 = f32[16,14,14,1792]{2,1,3,0} broadcast(f32[1792]{0} %param_7.811), dimensions={3}, metadata={op_name="parallelize(train_step_func_pipeshard_parallel_mesh_1)/jit(main)/jit(2)/jit(27)/transpose(jvp(remat))/WideResNet/BottleneckResNetBlock_8/BatchNorm_1/add" source_file="/home/cyxue/miniconda3/envs/alpa/lib/python3.8/site-packages/flax/linen/normalization.py" source_line=150}
  %add.1209 = f32[16,14,14,1792]{2,1,3,0} add(f32[16,14,14,1792]{2,1,3,0} %multiply.2195, f32[16,14,14,1792]{2,1,3,0} %broadcast.3772), metadata={op_name="parallelize(train_step_func_pipeshard_parallel_mesh_1)/jit(main)/jit(2)/jit(27)/transpose(jvp(remat))/WideResNet/BottleneckResNetBlock_8/BatchNorm_1/add" source_file="/home/cyxue/miniconda3/envs/alpa/lib/python3.8/site-packages/flax/linen/normalization.py" source_line=150}
  %broadcast.3771 = f32[16,14,14,1792]{2,1,3,0} broadcast(f32[] %constant_186), dimensions={}, metadata={op_name="parallelize(train_step_func_pipeshard_parallel_mesh_1)/jit(main)/jit(2)/jit(22)/transpose(jvp(remat))/WideResNet/BottleneckResNetBlock_13/max" source_file="/home/cyxue/Projects/crius/Crius/runtime/crius_worker/jax/model/wide_resnet.py" source_line=85}
  %compare.303 = pred[16,14,14,1792]{2,1,3,0} compare(f32[16,14,14,1792]{2,1,3,0} %add.1209, f32[16,14,14,1792]{2,1,3,0} %broadcast.3771), direction=GT, metadata={op_name="parallelize(train_step_func_pipeshard_parallel_mesh_1)/jit(main)/jit(2)/jit(27)/transpose(jvp(remat))/WideResNet/BottleneckResNetBlock_8/gt" source_file="/home/cyxue/Projects/crius/Crius/runtime/crius_worker/jax/model/wide_resnet.py" source_line=88}
  %param_6.764 = f32[16,14,14,1792]{2,1,3,0} parameter(6)
  %select.303 = f32[16,14,14,1792]{2,1,3,0} select(pred[16,14,14,1792]{2,1,3,0} %compare.303, f32[16,14,14,1792]{2,1,3,0} %param_6.764, f32[16,14,14,1792]{2,1,3,0} %broadcast.3771), metadata={op_name="parallelize(train_step_func_pipeshard_parallel_mesh_1)/jit(main)/jit(2)/jit(27)/transpose(jvp(remat))/WideResNet/BottleneckResNetBlock_8/select_n" source_file="/home/cyxue/Projects/crius/Crius/runtime/crius_worker/jax/model/wide_resnet.py" source_line=88}
  %multiply.2193 = f32[16,14,14,1792]{2,1,3,0} multiply(f32[16,14,14,1792]{2,1,3,0} %select.303, f32[16,14,14,1792]{2,1,3,0} %broadcast.3773), metadata={op_name="parallelize(train_step_func_pipeshard_parallel_mesh_1)/jit(main)/jit(2)/jit(27)/transpose(jvp(remat))/WideResNet/BottleneckResNetBlock_8/BatchNorm_1/mul" source_file="/home/cyxue/miniconda3/envs/alpa/lib/python3.8/site-packages/flax/linen/normalization.py" source_line=146}
  %param_4.1193 = f32[1,1,1,1792]{3,2,1,0} parameter(4)
  %multiply.275 = f32[1,1,1,1792]{3,2,1,0} multiply(f32[1,1,1,1792]{3,2,1,0} %param_4.1193, f32[1,1,1,1792]{3,2,1,0} %bitcast.2183), metadata={op_name="parallelize(train_step_func_pipeshard_parallel_mesh_1)/jit(main)/jit(2)/jit(27)/transpose(jvp(remat))/WideResNet/BottleneckResNetBlock_8/BatchNorm_1/mul" source_file="/home/cyxue/miniconda3/envs/alpa/lib/python3.8/site-packages/flax/linen/normalization.py" source_line=144}
  %divide.4 = f32[1,1,1,1792]{3,2,1,0} divide(f32[1,1,1,1792]{3,2,1,0} %rsqrt.497, f32[1,1,1,1792]{3,2,1,0} %bitcast.2184), metadata={op_name="parallelize(train_step_func_pipeshard_parallel_mesh_1)/jit(main)/jit(2)/jit(27)/transpose(jvp(remat))/WideResNet/BottleneckResNetBlock_8/BatchNorm_1/div" source_file="/home/cyxue/miniconda3/envs/alpa/lib/python3.8/site-packages/flax/linen/normalization.py" source_line=139}
  %constant_184 = f32[] constant(-0.5)
  %broadcast.306 = f32[1,1,1,1792]{3,2,1,0} broadcast(f32[] %constant_184), dimensions={}, metadata={op_name="parallelize(train_step_func_pipeshard_parallel_mesh_1)/jit(main)/jit(2)/jit(20)/transpose(jvp(remat))/WideResNet/BottleneckResNetBlock_15/BatchNorm_0/mul" source_file="/home/cyxue/miniconda3/envs/alpa/lib/python3.8/site-packages/flax/linen/normalization.py" source_line=139}
  %multiply.274 = f32[1,1,1,1792]{3,2,1,0} multiply(f32[1,1,1,1792]{3,2,1,0} %divide.4, f32[1,1,1,1792]{3,2,1,0} %broadcast.306), metadata={op_name="parallelize(train_step_func_pipeshard_parallel_mesh_1)/jit(main)/jit(2)/jit(27)/transpose(jvp(remat))/WideResNet/BottleneckResNetBlock_8/BatchNorm_1/mul" source_file="/home/cyxue/miniconda3/envs/alpa/lib/python3.8/site-packages/flax/linen/normalization.py" source_line=139}
  %multiply.273 = f32[1,1,1,1792]{3,2,1,0} multiply(f32[1,1,1,1792]{3,2,1,0} %multiply.275, f32[1,1,1,1792]{3,2,1,0} %multiply.274), metadata={op_name="parallelize(train_step_func_pipeshard_parallel_mesh_1)/jit(main)/jit(2)/jit(27)/transpose(jvp(remat))/WideResNet/BottleneckResNetBlock_8/BatchNorm_1/mul" source_file="/home/cyxue/miniconda3/envs/alpa/lib/python3.8/site-packages/flax/linen/normalization.py" source_line=139}
  %bitcast.551 = f32[1792]{0} bitcast(f32[1,1,1,1792]{3,2,1,0} %multiply.273), metadata={op_name="parallelize(train_step_func_pipeshard_parallel_mesh_1)/jit(main)/jit(2)/jit(27)/transpose(jvp(remat))/WideResNet/BottleneckResNetBlock_8/BatchNorm_1/reshape[new_sizes=(1792,) dimensions=None]" source_file="/home/cyxue/miniconda3/envs/alpa/lib/python3.8/site-packages/flax/linen/normalization.py" source_line=132}
  %compare.5 = pred[1792]{0} compare(f32[1792]{0} %param_3.1358, f32[1792]{0} %maximum.737), direction=EQ, metadata={op_name="parallelize(train_step_func_pipeshard_parallel_mesh_1)/jit(main)/jit(2)/jit(27)/transpose(jvp(remat))/WideResNet/BottleneckResNetBlock_8/BatchNorm_1/eq" source_file="/home/cyxue/miniconda3/envs/alpa/lib/python3.8/site-packages/flax/linen/normalization.py" source_line=93}
  %constant_187 = f32[] constant(1)
  %broadcast.305 = f32[1792]{0} broadcast(f32[] %constant_187), dimensions={}, metadata={op_name="parallelize(train_step_func_pipeshard_parallel_mesh_1)/jit(main)/jit(2)/jit(20)/transpose(jvp(remat))/WideResNet/BottleneckResNetBlock_15/BatchNorm_0/broadcast_in_dim[shape=(1792,) broadcast_dimensions=()]" source_file="/home/cyxue/miniconda3/envs/alpa/lib/python3.8/site-packages/flax/linen/normalization.py" source_line=93}
  %select.5 = f32[1792]{0} select(pred[1792]{0} %compare.5, f32[1792]{0} %broadcast.305, f32[1792]{0} %broadcast.3775), metadata={op_name="parallelize(train_step_func_pipeshard_parallel_mesh_1)/jit(main)/jit(2)/jit(27)/transpose(jvp(remat))/WideResNet/BottleneckResNetBlock_8/BatchNorm_1/select_n" source_file="/home/cyxue/miniconda3/envs/alpa/lib/python3.8/site-packages/flax/linen/normalization.py" source_line=93}
  %compare.4 = pred[1792]{0} compare(f32[1792]{0} %broadcast.3775, f32[1792]{0} %maximum.737), direction=EQ, metadata={op_name="parallelize(train_step_func_pipeshard_parallel_mesh_1)/jit(main)/jit(2)/jit(27)/transpose(jvp(remat))/WideResNet/BottleneckResNetBlock_8/BatchNorm_1/eq" source_file="/home/cyxue/miniconda3/envs/alpa/lib/python3.8/site-packages/flax/linen/normalization.py" source_line=93}
  %constant_185 = f32[] constant(2)
  %broadcast.304 = f32[1792]{0} broadcast(f32[] %constant_185), dimensions={}, metadata={op_name="parallelize(train_step_func_pipeshard_parallel_mesh_1)/jit(main)/jit(2)/jit(20)/transpose(jvp(remat))/WideResNet/BottleneckResNetBlock_15/BatchNorm_0/mul" source_file="/home/cyxue/miniconda3/envs/alpa/lib/python3.8/site-packages/flax/linen/normalization.py" source_line=46}
  %select.4 = f32[1792]{0} select(pred[1792]{0} %compare.4, f32[1792]{0} %broadcast.304, f32[1792]{0} %broadcast.305), metadata={op_name="parallelize(train_step_func_pipeshard_parallel_mesh_1)/jit(main)/jit(2)/jit(27)/transpose(jvp(remat))/WideResNet/BottleneckResNetBlock_8/BatchNorm_1/select_n" source_file="/home/cyxue/miniconda3/envs/alpa/lib/python3.8/site-packages/flax/linen/normalization.py" source_line=93}
  %divide.3 = f32[1792]{0} divide(f32[1792]{0} %select.5, f32[1792]{0} %select.4), metadata={op_name="parallelize(train_step_func_pipeshard_parallel_mesh_1)/jit(main)/jit(2)/jit(27)/transpose(jvp(remat))/WideResNet/BottleneckResNetBlock_8/BatchNorm_1/div" source_file="/home/cyxue/miniconda3/envs/alpa/lib/python3.8/site-packages/flax/linen/normalization.py" source_line=93}
  %multiply.272 = f32[1792]{0} multiply(f32[1792]{0} %bitcast.551, f32[1792]{0} %divide.3), metadata={op_name="parallelize(train_step_func_pipeshard_parallel_mesh_1)/jit(main)/jit(2)/jit(27)/transpose(jvp(remat))/WideResNet/BottleneckResNetBlock_8/BatchNorm_1/mul" source_file="/home/cyxue/miniconda3/envs/alpa/lib/python3.8/site-packages/flax/linen/normalization.py" source_line=93}
  %constant_182 = f32[] constant(0.000637755089)
  %broadcast.302 = f32[1792]{0} broadcast(f32[] %constant_182), dimensions={}, metadata={op_name="parallelize(train_step_func_pipeshard_parallel_mesh_1)/jit(main)/jit(2)/jit(22)/transpose(jvp(remat))/WideResNet/BottleneckResNetBlock_13/BatchNorm_0/mul" source_file="/home/cyxue/miniconda3/envs/alpa/lib/python3.8/site-packages/flax/linen/normalization.py" source_line=46}
  %multiply.271 = f32[1792]{0} multiply(f32[1792]{0} %multiply.272, f32[1792]{0} %broadcast.302), metadata={op_name="parallelize(train_step_func_pipeshard_parallel_mesh_1)/jit(main)/jit(2)/jit(27)/transpose(jvp(remat))/WideResNet/BottleneckResNetBlock_8/BatchNorm_1/mul" source_file="/home/cyxue/miniconda3/envs/alpa/lib/python3.8/site-packages/flax/linen/normalization.py" source_line=46}
  %broadcast.301 = f32[16,14,14,1792]{2,1,3,0} broadcast(f32[1792]{0} %multiply.271), dimensions={3}, metadata={op_name="parallelize(train_step_func_pipeshard_parallel_mesh_1)/jit(main)/jit(2)/jit(27)/transpose(jvp(remat))/WideResNet/BottleneckResNetBlock_8/BatchNorm_1/mul" source_file="/home/cyxue/miniconda3/envs/alpa/lib/python3.8/site-packages/flax/linen/normalization.py" source_line=46}
  %multiply.270 = f32[16,14,14,1792]{2,1,3,0} multiply(f32[16,14,14,1792]{2,1,3,0} %param_2.1578, f32[16,14,14,1792]{2,1,3,0} %broadcast.301), metadata={op_name="parallelize(train_step_func_pipeshard_parallel_mesh_1)/jit(main)/jit(2)/jit(27)/transpose(jvp(remat))/WideResNet/BottleneckResNetBlock_8/BatchNorm_1/mul" source_file="/home/cyxue/miniconda3/envs/alpa/lib/python3.8/site-packages/flax/linen/normalization.py" source_line=46}
  %add.39 = f32[16,14,14,1792]{2,1,3,0} add(f32[16,14,14,1792]{2,1,3,0} %multiply.2193, f32[16,14,14,1792]{2,1,3,0} %multiply.270), metadata={op_name="parallelize(train_step_func_pipeshard_parallel_mesh_1)/jit(main)/jit(2)/jit(27)/transpose(jvp(remat))/WideResNet/BottleneckResNetBlock_8/BatchNorm_1/add_any" source_file="/home/cyxue/miniconda3/envs/alpa/lib/python3.8/site-packages/flax/linen/normalization.py" source_line=46}
  %param_0.39 = f32[1792]{0} parameter(0)
  %negate.3 = f32[1792]{0} negate(f32[1792]{0} %multiply.272), metadata={op_name="parallelize(train_step_func_pipeshard_parallel_mesh_1)/jit(main)/jit(2)/jit(27)/transpose(jvp(remat))/WideResNet/BottleneckResNetBlock_8/BatchNorm_1/neg" source_file="/home/cyxue/miniconda3/envs/alpa/lib/python3.8/site-packages/flax/linen/normalization.py" source_line=93}
  %multiply.269 = f32[1792]{0} multiply(f32[1792]{0} %param_1.54, f32[1792]{0} %broadcast.302), metadata={op_name="parallelize(train_step_func_pipeshard_parallel_mesh_1)/jit(main)/jit(2)/jit(27)/transpose(jvp(remat))/WideResNet/BottleneckResNetBlock_8/BatchNorm_1/mul" source_file="/home/cyxue/miniconda3/envs/alpa/lib/python3.8/site-packages/flax/linen/normalization.py" source_line=46}
  %multiply.268 = f32[1792]{0} multiply(f32[1792]{0} %negate.3, f32[1792]{0} %multiply.269), metadata={op_name="parallelize(train_step_func_pipeshard_parallel_mesh_1)/jit(main)/jit(2)/jit(27)/transpose(jvp(remat))/WideResNet/BottleneckResNetBlock_8/BatchNorm_1/mul" source_file="/home/cyxue/miniconda3/envs/alpa/lib/python3.8/site-packages/flax/linen/normalization.py" source_line=46}
  %add.38 = f32[1792]{0} add(f32[1792]{0} %param_0.39, f32[1792]{0} %multiply.268), metadata={op_name="parallelize(train_step_func_pipeshard_parallel_mesh_1)/jit(main)/jit(2)/jit(27)/transpose(jvp(remat))/WideResNet/BottleneckResNetBlock_8/BatchNorm_1/add_any" source_file="/home/cyxue/miniconda3/envs/alpa/lib/python3.8/site-packages/flax/linen/normalization.py" source_line=46}
  %multiply.267 = f32[1792]{0} multiply(f32[1792]{0} %add.38, f32[1792]{0} %broadcast.3777), metadata={op_name="parallelize(train_step_func_pipeshard_parallel_mesh_1)/jit(main)/jit(2)/jit(27)/transpose(jvp(remat))/WideResNet/BottleneckResNetBlock_8/BatchNorm_1/div" source_file="/home/cyxue/miniconda3/envs/alpa/lib/python3.8/site-packages/flax/linen/normalization.py" source_line=82}
  %broadcast.300 = f32[16,14,14,1792]{2,1,3,0} broadcast(f32[1792]{0} %multiply.267), dimensions={3}, metadata={op_name="parallelize(train_step_func_pipeshard_parallel_mesh_1)/jit(main)/jit(2)/jit(27)/transpose(jvp(remat))/WideResNet/BottleneckResNetBlock_8/BatchNorm_1/broadcast_in_dim[shape=(16, 14, 14, 1792) broadcast_dimensions=(3,)]" source_file="/home/cyxue/miniconda3/envs/alpa/lib/python3.8/site-packages/flax/linen/normalization.py" source_line=82}
  ROOT %add.37 = f32[16,14,14,1792]{2,1,3,0} add(f32[16,14,14,1792]{2,1,3,0} %add.39, f32[16,14,14,1792]{2,1,3,0} %broadcast.300), metadata={op_name="parallelize(train_step_func_pipeshard_parallel_mesh_1)/jit(main)/jit(2)/jit(27)/transpose(jvp(remat))/WideResNet/BottleneckResNetBlock_8/BatchNorm_1/add_any" source_file="/home/cyxue/miniconda3/envs/alpa/lib/python3.8/site-packages/flax/linen/normalization.py" source_line=82}
}

%fused_computation.21 (param_0.43: f32[16,1792]) -> f32[1,1,1,1792] {
  %param_0.43 = f32[16,1792]{1,0} parameter(0)
  %constant_188 = f32[] constant(0)
  %reduce.639 = f32[1792]{0} reduce(f32[16,1792]{1,0} %param_0.43, f32[] %constant_188), dimensions={0}, to_apply=%region_57.4114.2, metadata={op_name="parallelize(train_step_func_pipeshard_parallel_mesh_1)/jit(main)/jit(2)/jit(27)/transpose(jvp(remat))/WideResNet/BottleneckResNetBlock_8/BatchNorm_1/reduce_sum[axes=(0, 1, 2)]" source_file="/home/cyxue/miniconda3/envs/alpa/lib/python3.8/site-packages/flax/linen/normalization.py" source_line=146}
  ROOT %bitcast.553 = f32[1,1,1,1792]{3,2,1,0} bitcast(f32[1792]{0} %reduce.639), metadata={op_name="parallelize(train_step_func_pipeshard_parallel_mesh_1)/jit(main)/jit(2)/jit(27)/transpose(jvp(remat))/WideResNet/BottleneckResNetBlock_8/BatchNorm_1/reshape[new_sizes=(1, 1, 1, 1792) dimensions=None]" source_file="/home/cyxue/miniconda3/envs/alpa/lib/python3.8/site-packages/flax/linen/normalization.py" source_line=146}
}

%fused_computation.25 (param_0.51: f32[3584], param_1.72: f32[3584], param_2.1555: f32[16,14,14,3584], param_3.1333: f32[3584], param_4.1167: f32[1,1,1,3584], param_5.1170: f32[3584], param_6.744: f32[16,14,14,3584]) -> f32[16,14,14,3584] {
  %param_6.744 = f32[16,14,14,3584]{2,1,3,0} parameter(6)
  %param_3.1333 = f32[3584]{0} parameter(3)
  %constant_196 = f32[] constant(0)
  %broadcast.3709 = f32[3584]{0} broadcast(f32[] %constant_196), dimensions={}, metadata={op_name="parallelize(train_step_func_pipeshard_parallel_mesh_1)/jit(main)/jit(2)/jit(20)/transpose(jvp(remat))/WideResNet/BottleneckResNetBlock_15/BatchNorm_1/max" source_file="/home/cyxue/miniconda3/envs/alpa/lib/python3.8/site-packages/flax/linen/normalization.py" source_line=93}
  %maximum.725 = f32[3584]{0} maximum(f32[3584]{0} %param_3.1333, f32[3584]{0} %broadcast.3709), metadata={op_name="parallelize(train_step_func_pipeshard_parallel_mesh_1)/jit(main)/jit(2)/jit(27)/transpose(jvp(remat))/WideResNet/BottleneckResNetBlock_8/BatchNorm_2/max" source_file="/home/cyxue/miniconda3/envs/alpa/lib/python3.8/site-packages/flax/linen/normalization.py" source_line=93}
  %constant_2962 = f32[] constant(1e-05)
  %broadcast.3708 = f32[3584]{0} broadcast(f32[] %constant_2962), dimensions={}, metadata={op_name="parallelize(train_step_func_pipeshard_parallel_mesh_1)/jit(main)/jit(2)/jit(20)/transpose(jvp(remat))/WideResNet/BottleneckResNetBlock_15/BatchNorm_1/add" source_file="/home/cyxue/miniconda3/envs/alpa/lib/python3.8/site-packages/flax/linen/normalization.py" source_line=139}
  %add.1190 = f32[3584]{0} add(f32[3584]{0} %maximum.725, f32[3584]{0} %broadcast.3708), metadata={op_name="parallelize(train_step_func_pipeshard_parallel_mesh_1)/jit(main)/jit(2)/jit(27)/transpose(jvp(remat))/WideResNet/BottleneckResNetBlock_8/BatchNorm_2/add" source_file="/home/cyxue/miniconda3/envs/alpa/lib/python3.8/site-packages/flax/linen/normalization.py" source_line=139}
  %bitcast.2148 = f32[1,1,1,3584]{3,2,1,0} bitcast(f32[3584]{0} %add.1190), metadata={op_name="parallelize(train_step_func_pipeshard_parallel_mesh_1)/jit(main)/jit(2)/jit(27)/transpose(jvp(remat))/WideResNet/BottleneckResNetBlock_8/BatchNorm_2/add" source_file="/home/cyxue/miniconda3/envs/alpa/lib/python3.8/site-packages/flax/linen/normalization.py" source_line=139}
  %rsqrt.485 = f32[1,1,1,3584]{3,2,1,0} rsqrt(f32[1,1,1,3584]{3,2,1,0} %bitcast.2148), metadata={op_name="parallelize(train_step_func_pipeshard_parallel_mesh_1)/jit(main)/jit(2)/jit(27)/transpose(jvp(remat))/WideResNet/BottleneckResNetBlock_8/BatchNorm_2/rsqrt" source_file="/home/cyxue/miniconda3/envs/alpa/lib/python3.8/site-packages/flax/linen/normalization.py" source_line=139}
  %param_5.1170 = f32[3584]{0} parameter(5)
  %bitcast.2147 = f32[1,1,1,3584]{3,2,1,0} bitcast(f32[3584]{0} %param_5.1170), metadata={op_name="parallelize(train_step_func_pipeshard_parallel_mesh_1)/jit(main)/jit(2)/jit(27)/transpose(jvp(remat))/WideResNet/BottleneckResNetBlock_8/BatchNorm_2/reshape[new_sizes=(1, 1, 1, 3584) dimensions=None]" source_file="/home/cyxue/miniconda3/envs/alpa/lib/python3.8/site-packages/flax/linen/normalization.py" source_line=142}
  %multiply.2165 = f32[1,1,1,3584]{3,2,1,0} multiply(f32[1,1,1,3584]{3,2,1,0} %rsqrt.485, f32[1,1,1,3584]{3,2,1,0} %bitcast.2147), metadata={op_name="parallelize(train_step_func_pipeshard_parallel_mesh_1)/jit(main)/jit(2)/jit(27)/transpose(jvp(remat))/WideResNet/BottleneckResNetBlock_8/BatchNorm_2/mul" source_file="/home/cyxue/miniconda3/envs/alpa/lib/python3.8/site-packages/flax/linen/normalization.py" source_line=144}
  %bitcast.2146 = f32[3584]{0} bitcast(f32[1,1,1,3584]{3,2,1,0} %multiply.2165), metadata={op_name="parallelize(train_step_func_pipeshard_parallel_mesh_1)/jit(main)/jit(2)/jit(27)/transpose(jvp(remat))/WideResNet/BottleneckResNetBlock_8/BatchNorm_2/mul" source_file="/home/cyxue/miniconda3/envs/alpa/lib/python3.8/site-packages/flax/linen/normalization.py" source_line=146}
  %broadcast.3707 = f32[16,14,14,3584]{2,1,3,0} broadcast(f32[3584]{0} %bitcast.2146), dimensions={3}, metadata={op_name="parallelize(train_step_func_pipeshard_parallel_mesh_1)/jit(main)/jit(2)/jit(27)/transpose(jvp(remat))/WideResNet/BottleneckResNetBlock_8/BatchNorm_2/mul" source_file="/home/cyxue/miniconda3/envs/alpa/lib/python3.8/site-packages/flax/linen/normalization.py" source_line=146}
  %multiply.2164 = f32[16,14,14,3584]{2,1,3,0} multiply(f32[16,14,14,3584]{2,1,3,0} %param_6.744, f32[16,14,14,3584]{2,1,3,0} %broadcast.3707), metadata={op_name="parallelize(train_step_func_pipeshard_parallel_mesh_1)/jit(main)/jit(2)/jit(27)/transpose(jvp(remat))/WideResNet/BottleneckResNetBlock_8/BatchNorm_2/mul" source_file="/home/cyxue/miniconda3/envs/alpa/lib/python3.8/site-packages/flax/linen/normalization.py" source_line=146}
  %param_2.1555 = f32[16,14,14,3584]{2,1,3,0} parameter(2)
  %param_4.1167 = f32[1,1,1,3584]{3,2,1,0} parameter(4)
  %multiply.286 = f32[1,1,1,3584]{3,2,1,0} multiply(f32[1,1,1,3584]{3,2,1,0} %param_4.1167, f32[1,1,1,3584]{3,2,1,0} %bitcast.2147), metadata={op_name="parallelize(train_step_func_pipeshard_parallel_mesh_1)/jit(main)/jit(2)/jit(27)/transpose(jvp(remat))/WideResNet/BottleneckResNetBlock_8/BatchNorm_2/mul" source_file="/home/cyxue/miniconda3/envs/alpa/lib/python3.8/site-packages/flax/linen/normalization.py" source_line=144}
  %divide.6 = f32[1,1,1,3584]{3,2,1,0} divide(f32[1,1,1,3584]{3,2,1,0} %rsqrt.485, f32[1,1,1,3584]{3,2,1,0} %bitcast.2148), metadata={op_name="parallelize(train_step_func_pipeshard_parallel_mesh_1)/jit(main)/jit(2)/jit(27)/transpose(jvp(remat))/WideResNet/BottleneckResNetBlock_8/BatchNorm_2/div" source_file="/home/cyxue/miniconda3/envs/alpa/lib/python3.8/site-packages/flax/linen/normalization.py" source_line=139}
  %constant_194 = f32[] constant(-0.5)
  %broadcast.316 = f32[1,1,1,3584]{3,2,1,0} broadcast(f32[] %constant_194), dimensions={}, metadata={op_name="parallelize(train_step_func_pipeshard_parallel_mesh_1)/jit(main)/jit(2)/jit(20)/transpose(jvp(remat))/WideResNet/BottleneckResNetBlock_15/BatchNorm_1/mul" source_file="/home/cyxue/miniconda3/envs/alpa/lib/python3.8/site-packages/flax/linen/normalization.py" source_line=139}
  %multiply.285 = f32[1,1,1,3584]{3,2,1,0} multiply(f32[1,1,1,3584]{3,2,1,0} %divide.6, f32[1,1,1,3584]{3,2,1,0} %broadcast.316), metadata={op_name="parallelize(train_step_func_pipeshard_parallel_mesh_1)/jit(main)/jit(2)/jit(27)/transpose(jvp(remat))/WideResNet/BottleneckResNetBlock_8/BatchNorm_2/mul" source_file="/home/cyxue/miniconda3/envs/alpa/lib/python3.8/site-packages/flax/linen/normalization.py" source_line=139}
  %multiply.284 = f32[1,1,1,3584]{3,2,1,0} multiply(f32[1,1,1,3584]{3,2,1,0} %multiply.286, f32[1,1,1,3584]{3,2,1,0} %multiply.285), metadata={op_name="parallelize(train_step_func_pipeshard_parallel_mesh_1)/jit(main)/jit(2)/jit(27)/transpose(jvp(remat))/WideResNet/BottleneckResNetBlock_8/BatchNorm_2/mul" source_file="/home/cyxue/miniconda3/envs/alpa/lib/python3.8/site-packages/flax/linen/normalization.py" source_line=139}
  %bitcast.555 = f32[3584]{0} bitcast(f32[1,1,1,3584]{3,2,1,0} %multiply.284), metadata={op_name="parallelize(train_step_func_pipeshard_parallel_mesh_1)/jit(main)/jit(2)/jit(27)/transpose(jvp(remat))/WideResNet/BottleneckResNetBlock_8/BatchNorm_2/reshape[new_sizes=(3584,) dimensions=None]" source_file="/home/cyxue/miniconda3/envs/alpa/lib/python3.8/site-packages/flax/linen/normalization.py" source_line=132}
  %compare.8 = pred[3584]{0} compare(f32[3584]{0} %param_3.1333, f32[3584]{0} %maximum.725), direction=EQ, metadata={op_name="parallelize(train_step_func_pipeshard_parallel_mesh_1)/jit(main)/jit(2)/jit(27)/transpose(jvp(remat))/WideResNet/BottleneckResNetBlock_8/BatchNorm_2/eq" source_file="/home/cyxue/miniconda3/envs/alpa/lib/python3.8/site-packages/flax/linen/normalization.py" source_line=93}
  %constant_197 = f32[] constant(1)
  %broadcast.315 = f32[3584]{0} broadcast(f32[] %constant_197), dimensions={}, metadata={op_name="parallelize(train_step_func_pipeshard_parallel_mesh_1)/jit(main)/jit(2)/jit(20)/transpose(jvp(remat))/WideResNet/BottleneckResNetBlock_15/BatchNorm_1/broadcast_in_dim[shape=(3584,) broadcast_dimensions=()]" source_file="/home/cyxue/miniconda3/envs/alpa/lib/python3.8/site-packages/flax/linen/normalization.py" source_line=93}
  %select.8 = f32[3584]{0} select(pred[3584]{0} %compare.8, f32[3584]{0} %broadcast.315, f32[3584]{0} %broadcast.3709), metadata={op_name="parallelize(train_step_func_pipeshard_parallel_mesh_1)/jit(main)/jit(2)/jit(27)/transpose(jvp(remat))/WideResNet/BottleneckResNetBlock_8/BatchNorm_2/select_n" source_file="/home/cyxue/miniconda3/envs/alpa/lib/python3.8/site-packages/flax/linen/normalization.py" source_line=93}
  %compare.7 = pred[3584]{0} compare(f32[3584]{0} %broadcast.3709, f32[3584]{0} %maximum.725), direction=EQ, metadata={op_name="parallelize(train_step_func_pipeshard_parallel_mesh_1)/jit(main)/jit(2)/jit(27)/transpose(jvp(remat))/WideResNet/BottleneckResNetBlock_8/BatchNorm_2/eq" source_file="/home/cyxue/miniconda3/envs/alpa/lib/python3.8/site-packages/flax/linen/normalization.py" source_line=93}
  %constant_195 = f32[] constant(2)
  %broadcast.314 = f32[3584]{0} broadcast(f32[] %constant_195), dimensions={}, metadata={op_name="parallelize(train_step_func_pipeshard_parallel_mesh_1)/jit(main)/jit(2)/jit(20)/transpose(jvp(remat))/WideResNet/BottleneckResNetBlock_15/BatchNorm_1/mul" source_file="/home/cyxue/miniconda3/envs/alpa/lib/python3.8/site-packages/flax/linen/normalization.py" source_line=46}
  %select.7 = f32[3584]{0} select(pred[3584]{0} %compare.7, f32[3584]{0} %broadcast.314, f32[3584]{0} %broadcast.315), metadata={op_name="parallelize(train_step_func_pipeshard_parallel_mesh_1)/jit(main)/jit(2)/jit(27)/transpose(jvp(remat))/WideResNet/BottleneckResNetBlock_8/BatchNorm_2/select_n" source_file="/home/cyxue/miniconda3/envs/alpa/lib/python3.8/site-packages/flax/linen/normalization.py" source_line=93}
  %divide.5 = f32[3584]{0} divide(f32[3584]{0} %select.8, f32[3584]{0} %select.7), metadata={op_name="parallelize(train_step_func_pipeshard_parallel_mesh_1)/jit(main)/jit(2)/jit(27)/transpose(jvp(remat))/WideResNet/BottleneckResNetBlock_8/BatchNorm_2/div" source_file="/home/cyxue/miniconda3/envs/alpa/lib/python3.8/site-packages/flax/linen/normalization.py" source_line=93}
  %multiply.283 = f32[3584]{0} multiply(f32[3584]{0} %bitcast.555, f32[3584]{0} %divide.5), metadata={op_name="parallelize(train_step_func_pipeshard_parallel_mesh_1)/jit(main)/jit(2)/jit(27)/transpose(jvp(remat))/WideResNet/BottleneckResNetBlock_8/BatchNorm_2/mul" source_file="/home/cyxue/miniconda3/envs/alpa/lib/python3.8/site-packages/flax/linen/normalization.py" source_line=93}
  %constant_192 = f32[] constant(0.000637755089)
  %broadcast.312 = f32[3584]{0} broadcast(f32[] %constant_192), dimensions={}, metadata={op_name="parallelize(train_step_func_pipeshard_parallel_mesh_1)/jit(main)/jit(2)/jit(23)/transpose(jvp(remat))/WideResNet/BottleneckResNetBlock_12/BatchNorm_2/mul" source_file="/home/cyxue/miniconda3/envs/alpa/lib/python3.8/site-packages/flax/linen/normalization.py" source_line=46}
  %multiply.282 = f32[3584]{0} multiply(f32[3584]{0} %multiply.283, f32[3584]{0} %broadcast.312), metadata={op_name="parallelize(train_step_func_pipeshard_parallel_mesh_1)/jit(main)/jit(2)/jit(27)/transpose(jvp(remat))/WideResNet/BottleneckResNetBlock_8/BatchNorm_2/mul" source_file="/home/cyxue/miniconda3/envs/alpa/lib/python3.8/site-packages/flax/linen/normalization.py" source_line=46}
  %broadcast.311 = f32[16,14,14,3584]{2,1,3,0} broadcast(f32[3584]{0} %multiply.282), dimensions={3}, metadata={op_name="parallelize(train_step_func_pipeshard_parallel_mesh_1)/jit(main)/jit(2)/jit(27)/transpose(jvp(remat))/WideResNet/BottleneckResNetBlock_8/BatchNorm_2/mul" source_file="/home/cyxue/miniconda3/envs/alpa/lib/python3.8/site-packages/flax/linen/normalization.py" source_line=46}
  %multiply.281 = f32[16,14,14,3584]{2,1,3,0} multiply(f32[16,14,14,3584]{2,1,3,0} %param_2.1555, f32[16,14,14,3584]{2,1,3,0} %broadcast.311), metadata={op_name="parallelize(train_step_func_pipeshard_parallel_mesh_1)/jit(main)/jit(2)/jit(27)/transpose(jvp(remat))/WideResNet/BottleneckResNetBlock_8/BatchNorm_2/mul" source_file="/home/cyxue/miniconda3/envs/alpa/lib/python3.8/site-packages/flax/linen/normalization.py" source_line=46}
  %add.42 = f32[16,14,14,3584]{2,1,3,0} add(f32[16,14,14,3584]{2,1,3,0} %multiply.2164, f32[16,14,14,3584]{2,1,3,0} %multiply.281), metadata={op_name="parallelize(train_step_func_pipeshard_parallel_mesh_1)/jit(main)/jit(2)/jit(27)/transpose(jvp(remat))/WideResNet/BottleneckResNetBlock_8/BatchNorm_2/add_any" source_file="/home/cyxue/miniconda3/envs/alpa/lib/python3.8/site-packages/flax/linen/normalization.py" source_line=46}
  %param_0.51 = f32[3584]{0} parameter(0)
  %negate.5 = f32[3584]{0} negate(f32[3584]{0} %multiply.283), metadata={op_name="parallelize(train_step_func_pipeshard_parallel_mesh_1)/jit(main)/jit(2)/jit(27)/transpose(jvp(remat))/WideResNet/BottleneckResNetBlock_8/BatchNorm_2/neg" source_file="/home/cyxue/miniconda3/envs/alpa/lib/python3.8/site-packages/flax/linen/normalization.py" source_line=93}
  %param_1.72 = f32[3584]{0} parameter(1)
  %multiply.280 = f32[3584]{0} multiply(f32[3584]{0} %param_1.72, f32[3584]{0} %broadcast.312), metadata={op_name="parallelize(train_step_func_pipeshard_parallel_mesh_1)/jit(main)/jit(2)/jit(27)/transpose(jvp(remat))/WideResNet/BottleneckResNetBlock_8/BatchNorm_2/mul" source_file="/home/cyxue/miniconda3/envs/alpa/lib/python3.8/site-packages/flax/linen/normalization.py" source_line=46}
  %multiply.279 = f32[3584]{0} multiply(f32[3584]{0} %negate.5, f32[3584]{0} %multiply.280), metadata={op_name="parallelize(train_step_func_pipeshard_parallel_mesh_1)/jit(main)/jit(2)/jit(27)/transpose(jvp(remat))/WideResNet/BottleneckResNetBlock_8/BatchNorm_2/mul" source_file="/home/cyxue/miniconda3/envs/alpa/lib/python3.8/site-packages/flax/linen/normalization.py" source_line=46}
  %add.41 = f32[3584]{0} add(f32[3584]{0} %param_0.51, f32[3584]{0} %multiply.279), metadata={op_name="parallelize(train_step_func_pipeshard_parallel_mesh_1)/jit(main)/jit(2)/jit(27)/transpose(jvp(remat))/WideResNet/BottleneckResNetBlock_8/BatchNorm_2/add_any" source_file="/home/cyxue/miniconda3/envs/alpa/lib/python3.8/site-packages/flax/linen/normalization.py" source_line=46}
  %constant_193 = f32[] constant(0.000318877544)
  %broadcast.313 = f32[3584]{0} broadcast(f32[] %constant_193), dimensions={}, metadata={op_name="parallelize(train_step_func_pipeshard_parallel_mesh_1)/jit(main)/jit(2)/jit(23)/transpose(jvp(remat))/WideResNet/BottleneckResNetBlock_12/BatchNorm_2/div" source_file="/home/cyxue/miniconda3/envs/alpa/lib/python3.8/site-packages/flax/linen/normalization.py" source_line=82}
  %multiply.278 = f32[3584]{0} multiply(f32[3584]{0} %add.41, f32[3584]{0} %broadcast.313), metadata={op_name="parallelize(train_step_func_pipeshard_parallel_mesh_1)/jit(main)/jit(2)/jit(27)/transpose(jvp(remat))/WideResNet/BottleneckResNetBlock_8/BatchNorm_2/div" source_file="/home/cyxue/miniconda3/envs/alpa/lib/python3.8/site-packages/flax/linen/normalization.py" source_line=82}
  %broadcast.310 = f32[16,14,14,3584]{2,1,3,0} broadcast(f32[3584]{0} %multiply.278), dimensions={3}, metadata={op_name="parallelize(train_step_func_pipeshard_parallel_mesh_1)/jit(main)/jit(2)/jit(27)/transpose(jvp(remat))/WideResNet/BottleneckResNetBlock_8/BatchNorm_2/broadcast_in_dim[shape=(16, 14, 14, 3584) broadcast_dimensions=(3,)]" source_file="/home/cyxue/miniconda3/envs/alpa/lib/python3.8/site-packages/flax/linen/normalization.py" source_line=82}
  ROOT %add.40 = f32[16,14,14,3584]{2,1,3,0} add(f32[16,14,14,3584]{2,1,3,0} %add.42, f32[16,14,14,3584]{2,1,3,0} %broadcast.310), metadata={op_name="parallelize(train_step_func_pipeshard_parallel_mesh_1)/jit(main)/jit(2)/jit(27)/transpose(jvp(remat))/WideResNet/BottleneckResNetBlock_8/BatchNorm_2/add_any" source_file="/home/cyxue/miniconda3/envs/alpa/lib/python3.8/site-packages/flax/linen/normalization.py" source_line=82}
}

%fused_computation.26 (param_0.1597: f32[16,14,14,3584], param_1.2193: f32[3584], param_2.1562: f32[3584]) -> (f32[16,3584], f32[16,3584]) {
  %param_0.1597 = f32[16,14,14,3584]{2,1,3,0} parameter(0)
  %param_2.1562 = f32[3584]{0} parameter(2)
  %constant_200 = f32[] constant(0)
  %broadcast.3715 = f32[3584]{0} broadcast(f32[] %constant_200), dimensions={}, metadata={op_name="parallelize(train_step_func_pipeshard_parallel_mesh_1)/jit(main)/jit(2)/jit(20)/transpose(jvp(remat))/WideResNet/BottleneckResNetBlock_15/BatchNorm_1/max" source_file="/home/cyxue/miniconda3/envs/alpa/lib/python3.8/site-packages/flax/linen/normalization.py" source_line=93}
  %maximum.727 = f32[3584]{0} maximum(f32[3584]{0} %param_2.1562, f32[3584]{0} %broadcast.3715), metadata={op_name="parallelize(train_step_func_pipeshard_parallel_mesh_1)/jit(main)/jit(2)/jit(27)/transpose(jvp(remat))/WideResNet/BottleneckResNetBlock_8/BatchNorm_2/max" source_file="/home/cyxue/miniconda3/envs/alpa/lib/python3.8/site-packages/flax/linen/normalization.py" source_line=93}
  %constant_2977 = f32[] constant(1e-05)
  %broadcast.3714 = f32[3584]{0} broadcast(f32[] %constant_2977), dimensions={}, metadata={op_name="parallelize(train_step_func_pipeshard_parallel_mesh_1)/jit(main)/jit(2)/jit(20)/transpose(jvp(remat))/WideResNet/BottleneckResNetBlock_15/BatchNorm_1/add" source_file="/home/cyxue/miniconda3/envs/alpa/lib/python3.8/site-packages/flax/linen/normalization.py" source_line=139}
  %add.1192 = f32[3584]{0} add(f32[3584]{0} %maximum.727, f32[3584]{0} %broadcast.3714), metadata={op_name="parallelize(train_step_func_pipeshard_parallel_mesh_1)/jit(main)/jit(2)/jit(27)/transpose(jvp(remat))/WideResNet/BottleneckResNetBlock_8/BatchNorm_2/add" source_file="/home/cyxue/miniconda3/envs/alpa/lib/python3.8/site-packages/flax/linen/normalization.py" source_line=139}
  %bitcast.2154 = f32[1,1,1,3584]{3,2,1,0} bitcast(f32[3584]{0} %add.1192), metadata={op_name="parallelize(train_step_func_pipeshard_parallel_mesh_1)/jit(main)/jit(2)/jit(27)/transpose(jvp(remat))/WideResNet/BottleneckResNetBlock_8/BatchNorm_2/add" source_file="/home/cyxue/miniconda3/envs/alpa/lib/python3.8/site-packages/flax/linen/normalization.py" source_line=139}
  %rsqrt.487 = f32[1,1,1,3584]{3,2,1,0} rsqrt(f32[1,1,1,3584]{3,2,1,0} %bitcast.2154), metadata={op_name="parallelize(train_step_func_pipeshard_parallel_mesh_1)/jit(main)/jit(2)/jit(27)/transpose(jvp(remat))/WideResNet/BottleneckResNetBlock_8/BatchNorm_2/rsqrt" source_file="/home/cyxue/miniconda3/envs/alpa/lib/python3.8/site-packages/flax/linen/normalization.py" source_line=139}
  %param_1.2193 = f32[3584]{0} parameter(1)
  %bitcast.2153 = f32[1,1,1,3584]{3,2,1,0} bitcast(f32[3584]{0} %param_1.2193), metadata={op_name="parallelize(train_step_func_pipeshard_parallel_mesh_1)/jit(main)/jit(2)/jit(27)/transpose(jvp(remat))/WideResNet/BottleneckResNetBlock_8/BatchNorm_2/reshape[new_sizes=(1, 1, 1, 3584) dimensions=None]" source_file="/home/cyxue/miniconda3/envs/alpa/lib/python3.8/site-packages/flax/linen/normalization.py" source_line=142}
  %multiply.2169 = f32[1,1,1,3584]{3,2,1,0} multiply(f32[1,1,1,3584]{3,2,1,0} %rsqrt.487, f32[1,1,1,3584]{3,2,1,0} %bitcast.2153), metadata={op_name="parallelize(train_step_func_pipeshard_parallel_mesh_1)/jit(main)/jit(2)/jit(27)/transpose(jvp(remat))/WideResNet/BottleneckResNetBlock_8/BatchNorm_2/mul" source_file="/home/cyxue/miniconda3/envs/alpa/lib/python3.8/site-packages/flax/linen/normalization.py" source_line=144}
  %bitcast.2152 = f32[3584]{0} bitcast(f32[1,1,1,3584]{3,2,1,0} %multiply.2169), metadata={op_name="parallelize(train_step_func_pipeshard_parallel_mesh_1)/jit(main)/jit(2)/jit(27)/transpose(jvp(remat))/WideResNet/BottleneckResNetBlock_8/BatchNorm_2/mul" source_file="/home/cyxue/miniconda3/envs/alpa/lib/python3.8/site-packages/flax/linen/normalization.py" source_line=146}
  %broadcast.3713 = f32[16,14,14,3584]{2,1,3,0} broadcast(f32[3584]{0} %bitcast.2152), dimensions={3}, metadata={op_name="parallelize(train_step_func_pipeshard_parallel_mesh_1)/jit(main)/jit(2)/jit(27)/transpose(jvp(remat))/WideResNet/BottleneckResNetBlock_8/BatchNorm_2/mul" source_file="/home/cyxue/miniconda3/envs/alpa/lib/python3.8/site-packages/flax/linen/normalization.py" source_line=146}
  %multiply.2168 = f32[16,14,14,3584]{2,1,3,0} multiply(f32[16,14,14,3584]{2,1,3,0} %param_0.1597, f32[16,14,14,3584]{2,1,3,0} %broadcast.3713), metadata={op_name="parallelize(train_step_func_pipeshard_parallel_mesh_1)/jit(main)/jit(2)/jit(27)/transpose(jvp(remat))/WideResNet/BottleneckResNetBlock_8/BatchNorm_2/mul" source_file="/home/cyxue/miniconda3/envs/alpa/lib/python3.8/site-packages/flax/linen/normalization.py" source_line=146}
  %negate.6 = f32[16,14,14,3584]{2,1,3,0} negate(f32[16,14,14,3584]{2,1,3,0} %multiply.2168), metadata={op_name="parallelize(train_step_func_pipeshard_parallel_mesh_1)/jit(main)/jit(2)/jit(27)/transpose(jvp(remat))/WideResNet/BottleneckResNetBlock_8/BatchNorm_2/neg" source_file="/home/cyxue/miniconda3/envs/alpa/lib/python3.8/site-packages/flax/linen/normalization.py" source_line=138}
  %transpose.7 = f32[16,3584,14,14]{3,2,1,0} transpose(f32[16,14,14,3584]{2,1,3,0} %negate.6), dimensions={0,3,1,2}
  %bitcast.556 = f32[16,3584,196]{2,1,0} bitcast(f32[16,3584,14,14]{3,2,1,0} %transpose.7), metadata={op_name="parallelize(train_step_func_pipeshard_parallel_mesh_1)/jit(main)/jit(2)/jit(27)/transpose(jvp(remat))/WideResNet/BottleneckResNetBlock_8/BatchNorm_2/neg" source_file="/home/cyxue/miniconda3/envs/alpa/lib/python3.8/site-packages/flax/linen/normalization.py" source_line=138}
  %reduce.641 = f32[16,3584]{1,0} reduce(f32[16,3584,196]{2,1,0} %bitcast.556, f32[] %constant_200), dimensions={2}, to_apply=%region_57.4114.2
  %transpose.8 = f32[16,3584,14,14]{3,2,1,0} transpose(f32[16,14,14,3584]{2,1,3,0} %param_0.1597), dimensions={0,3,1,2}
  %bitcast.541.clone.1 = f32[16,3584,196]{2,1,0} bitcast(f32[16,3584,14,14]{3,2,1,0} %transpose.8), metadata={op_name="parallelize(train_step_func_pipeshard_parallel_mesh_1)/jit(main)/jit(2)/jit(27)/transpose(jvp(remat))/optimization_barrier" source_file="/home/cyxue/Projects/playground/alpa/custom_alpa/alpa/pipeline_parallel/layer_construction.py" source_line=535}
  %reduce.630.clone.1 = f32[16,3584]{1,0} reduce(f32[16,3584,196]{2,1,0} %bitcast.541.clone.1, f32[] %constant_200), dimensions={2}, to_apply=%region_57.4114.2
  ROOT %tuple.8 = (f32[16,3584]{1,0}, f32[16,3584]{1,0}) tuple(f32[16,3584]{1,0} %reduce.641, f32[16,3584]{1,0} %reduce.630.clone.1)
}

%fused_computation.27 (param_0.55: f32[16,3584]) -> f32[1,1,1,3584] {
  %param_0.55 = f32[16,3584]{1,0} parameter(0)
  %constant_198 = f32[] constant(0)
  %reduce.642 = f32[3584]{0} reduce(f32[16,3584]{1,0} %param_0.55, f32[] %constant_198), dimensions={0}, to_apply=%region_57.4114.2, metadata={op_name="parallelize(train_step_func_pipeshard_parallel_mesh_1)/jit(main)/jit(2)/jit(27)/transpose(jvp(remat))/WideResNet/BottleneckResNetBlock_8/BatchNorm_2/reduce_sum[axes=(0, 1, 2)]" source_file="/home/cyxue/miniconda3/envs/alpa/lib/python3.8/site-packages/flax/linen/normalization.py" source_line=146}
  ROOT %bitcast.557 = f32[1,1,1,3584]{3,2,1,0} bitcast(f32[3584]{0} %reduce.642), metadata={op_name="parallelize(train_step_func_pipeshard_parallel_mesh_1)/jit(main)/jit(2)/jit(27)/transpose(jvp(remat))/WideResNet/BottleneckResNetBlock_8/BatchNorm_2/reshape[new_sizes=(1, 1, 1, 3584) dimensions=None]" source_file="/home/cyxue/miniconda3/envs/alpa/lib/python3.8/site-packages/flax/linen/normalization.py" source_line=146}
}

%fused_computation.36 (param_0.1585: f32[1792], param_1.2183: f32[1792], param_2.1544: f32[1792], param_3.1322: f32[16,14,14,1792], param_4.1165: f32[1792]) -> f32[16,14,14,1792] {
  %param_3.1322 = f32[16,14,14,1792]{2,1,3,0} parameter(3)
  %param_4.1165 = f32[1792]{0} parameter(4)
  %constant_2941 = f32[] constant(0.000318877544)
  %broadcast.3683 = f32[1792]{0} broadcast(f32[] %constant_2941), dimensions={}, metadata={op_name="parallelize(train_step_func_pipeshard_parallel_mesh_1)/jit(main)/jit(2)/jit(22)/transpose(jvp(remat))/WideResNet/BottleneckResNetBlock_13/BatchNorm_0/div" source_file="/home/cyxue/miniconda3/envs/alpa/lib/python3.8/site-packages/flax/linen/normalization.py" source_line=82}
  %multiply.2157 = f32[1792]{0} multiply(f32[1792]{0} %param_4.1165, f32[1792]{0} %broadcast.3683), metadata={op_name="parallelize(train_step_func_pipeshard_parallel_mesh_1)/jit(main)/jit(2)/jit(27)/transpose(jvp(remat))/WideResNet/BottleneckResNetBlock_8/BatchNorm_1/div" source_file="/home/cyxue/miniconda3/envs/alpa/lib/python3.8/site-packages/flax/linen/normalization.py" source_line=82}
  %broadcast.3682 = f32[16,14,14,1792]{2,1,3,0} broadcast(f32[1792]{0} %multiply.2157), dimensions={3}, metadata={op_name="parallelize(train_step_func_pipeshard_parallel_mesh_1)/jit(main)/jit(2)/jit(27)/transpose(jvp(remat))/WideResNet/BottleneckResNetBlock_8/BatchNorm_1/sub" source_file="/home/cyxue/miniconda3/envs/alpa/lib/python3.8/site-packages/flax/linen/normalization.py" source_line=138}
  %subtract.401 = f32[16,14,14,1792]{2,1,3,0} subtract(f32[16,14,14,1792]{2,1,3,0} %param_3.1322, f32[16,14,14,1792]{2,1,3,0} %broadcast.3682), metadata={op_name="parallelize(train_step_func_pipeshard_parallel_mesh_1)/jit(main)/jit(2)/jit(27)/transpose(jvp(remat))/WideResNet/BottleneckResNetBlock_8/BatchNorm_1/sub" source_file="/home/cyxue/miniconda3/envs/alpa/lib/python3.8/site-packages/flax/linen/normalization.py" source_line=138}
  %param_2.1544 = f32[1792]{0} parameter(2)
  %constant_208 = f32[] constant(0)
  %broadcast.3681 = f32[1792]{0} broadcast(f32[] %constant_208), dimensions={}, metadata={op_name="parallelize(train_step_func_pipeshard_parallel_mesh_1)/jit(main)/jit(2)/jit(20)/transpose(jvp(remat))/WideResNet/BottleneckResNetBlock_15/BatchNorm_0/max" source_file="/home/cyxue/miniconda3/envs/alpa/lib/python3.8/site-packages/flax/linen/normalization.py" source_line=93}
  %maximum.713 = f32[1792]{0} maximum(f32[1792]{0} %param_2.1544, f32[1792]{0} %broadcast.3681), metadata={op_name="parallelize(train_step_func_pipeshard_parallel_mesh_1)/jit(main)/jit(2)/jit(27)/transpose(jvp(remat))/WideResNet/BottleneckResNetBlock_8/BatchNorm_1/max" source_file="/home/cyxue/miniconda3/envs/alpa/lib/python3.8/site-packages/flax/linen/normalization.py" source_line=93}
  %constant_2939 = f32[] constant(1e-05)
  %broadcast.3680 = f32[1792]{0} broadcast(f32[] %constant_2939), dimensions={}, metadata={op_name="parallelize(train_step_func_pipeshard_parallel_mesh_1)/jit(main)/jit(2)/jit(20)/transpose(jvp(remat))/WideResNet/BottleneckResNetBlock_15/BatchNorm_0/add" source_file="/home/cyxue/miniconda3/envs/alpa/lib/python3.8/site-packages/flax/linen/normalization.py" source_line=139}
  %add.1182 = f32[1792]{0} add(f32[1792]{0} %maximum.713, f32[1792]{0} %broadcast.3680), metadata={op_name="parallelize(train_step_func_pipeshard_parallel_mesh_1)/jit(main)/jit(2)/jit(27)/transpose(jvp(remat))/WideResNet/BottleneckResNetBlock_8/BatchNorm_1/add" source_file="/home/cyxue/miniconda3/envs/alpa/lib/python3.8/site-packages/flax/linen/normalization.py" source_line=139}
  %bitcast.2136 = f32[1,1,1,1792]{3,2,1,0} bitcast(f32[1792]{0} %add.1182), metadata={op_name="parallelize(train_step_func_pipeshard_parallel_mesh_1)/jit(main)/jit(2)/jit(27)/transpose(jvp(remat))/WideResNet/BottleneckResNetBlock_8/BatchNorm_1/add" source_file="/home/cyxue/miniconda3/envs/alpa/lib/python3.8/site-packages/flax/linen/normalization.py" source_line=139}
  %rsqrt.483 = f32[1,1,1,1792]{3,2,1,0} rsqrt(f32[1,1,1,1792]{3,2,1,0} %bitcast.2136), metadata={op_name="parallelize(train_step_func_pipeshard_parallel_mesh_1)/jit(main)/jit(2)/jit(27)/transpose(jvp(remat))/WideResNet/BottleneckResNetBlock_8/BatchNorm_1/rsqrt" source_file="/home/cyxue/miniconda3/envs/alpa/lib/python3.8/site-packages/flax/linen/normalization.py" source_line=139}
  %param_1.2183 = f32[1792]{0} parameter(1)
  %bitcast.2135 = f32[1,1,1,1792]{3,2,1,0} bitcast(f32[1792]{0} %param_1.2183), metadata={op_name="parallelize(train_step_func_pipeshard_parallel_mesh_1)/jit(main)/jit(2)/jit(27)/transpose(jvp(remat))/WideResNet/BottleneckResNetBlock_8/BatchNorm_1/reshape[new_sizes=(1, 1, 1, 1792) dimensions=None]" source_file="/home/cyxue/miniconda3/envs/alpa/lib/python3.8/site-packages/flax/linen/normalization.py" source_line=142}
  %multiply.2156 = f32[1,1,1,1792]{3,2,1,0} multiply(f32[1,1,1,1792]{3,2,1,0} %rsqrt.483, f32[1,1,1,1792]{3,2,1,0} %bitcast.2135), metadata={op_name="parallelize(train_step_func_pipeshard_parallel_mesh_1)/jit(main)/jit(2)/jit(27)/transpose(jvp(remat))/WideResNet/BottleneckResNetBlock_8/BatchNorm_1/mul" source_file="/home/cyxue/miniconda3/envs/alpa/lib/python3.8/site-packages/flax/linen/normalization.py" source_line=144}
  %bitcast.2134 = f32[1792]{0} bitcast(f32[1,1,1,1792]{3,2,1,0} %multiply.2156), metadata={op_name="parallelize(train_step_func_pipeshard_parallel_mesh_1)/jit(main)/jit(2)/jit(27)/transpose(jvp(remat))/WideResNet/BottleneckResNetBlock_8/BatchNorm_1/mul" source_file="/home/cyxue/miniconda3/envs/alpa/lib/python3.8/site-packages/flax/linen/normalization.py" source_line=146}
  %broadcast.3679 = f32[16,14,14,1792]{2,1,3,0} broadcast(f32[1792]{0} %bitcast.2134), dimensions={3}, metadata={op_name="parallelize(train_step_func_pipeshard_parallel_mesh_1)/jit(main)/jit(2)/jit(27)/transpose(jvp(remat))/WideResNet/BottleneckResNetBlock_8/BatchNorm_1/mul" source_file="/home/cyxue/miniconda3/envs/alpa/lib/python3.8/site-packages/flax/linen/normalization.py" source_line=146}
  %multiply.2155 = f32[16,14,14,1792]{2,1,3,0} multiply(f32[16,14,14,1792]{2,1,3,0} %subtract.401, f32[16,14,14,1792]{2,1,3,0} %broadcast.3679), metadata={op_name="parallelize(train_step_func_pipeshard_parallel_mesh_1)/jit(main)/jit(2)/jit(27)/transpose(jvp(remat))/WideResNet/BottleneckResNetBlock_8/BatchNorm_1/mul" source_file="/home/cyxue/miniconda3/envs/alpa/lib/python3.8/site-packages/flax/linen/normalization.py" source_line=146}
  %param_0.1585 = f32[1792]{0} parameter(0)
  %broadcast.3678 = f32[16,14,14,1792]{2,1,3,0} broadcast(f32[1792]{0} %param_0.1585), dimensions={3}, metadata={op_name="parallelize(train_step_func_pipeshard_parallel_mesh_1)/jit(main)/jit(2)/jit(27)/transpose(jvp(remat))/WideResNet/BottleneckResNetBlock_8/BatchNorm_1/add" source_file="/home/cyxue/miniconda3/envs/alpa/lib/python3.8/site-packages/flax/linen/normalization.py" source_line=150}
  %add.1181 = f32[16,14,14,1792]{2,1,3,0} add(f32[16,14,14,1792]{2,1,3,0} %multiply.2155, f32[16,14,14,1792]{2,1,3,0} %broadcast.3678), metadata={op_name="parallelize(train_step_func_pipeshard_parallel_mesh_1)/jit(main)/jit(2)/jit(27)/transpose(jvp(remat))/WideResNet/BottleneckResNetBlock_8/BatchNorm_1/add" source_file="/home/cyxue/miniconda3/envs/alpa/lib/python3.8/site-packages/flax/linen/normalization.py" source_line=150}
  %broadcast.324 = f32[16,14,14,1792]{2,1,3,0} broadcast(f32[] %constant_208), dimensions={}, metadata={op_name="parallelize(train_step_func_pipeshard_parallel_mesh_1)/jit(main)/jit(2)/jit(22)/transpose(jvp(remat))/WideResNet/BottleneckResNetBlock_13/max" source_file="/home/cyxue/Projects/crius/Crius/runtime/crius_worker/jax/model/wide_resnet.py" source_line=85}
  ROOT %maximum.1 = f32[16,14,14,1792]{2,1,3,0} maximum(f32[16,14,14,1792]{2,1,3,0} %add.1181, f32[16,14,14,1792]{2,1,3,0} %broadcast.324), metadata={op_name="parallelize(train_step_func_pipeshard_parallel_mesh_1)/jit(main)/jit(2)/jit(27)/transpose(jvp(remat))/WideResNet/BottleneckResNetBlock_8/max" source_file="/home/cyxue/Projects/crius/Crius/runtime/crius_worker/jax/model/wide_resnet.py" source_line=88}
}

%fused_computation.41 (param_0.1570: f32[16,1792], param_1.2160: f32[1792]) -> f32[1792] {
  %param_0.1570 = f32[16,1792]{1,0} parameter(0)
  %constant_212 = f32[] constant(0)
  %reduce.647 = f32[1792]{0} reduce(f32[16,1792]{1,0} %param_0.1570, f32[] %constant_212), dimensions={0}, to_apply=%region_57.4114.2, metadata={op_name="parallelize(train_step_func_pipeshard_parallel_mesh_1)/jit(main)/jit(2)/jit(27)/transpose(jvp(remat))/WideResNet/BottleneckResNetBlock_8/BatchNorm_1/reduce_sum[axes=(0, 1, 2)]" source_file="/home/cyxue/miniconda3/envs/alpa/lib/python3.8/site-packages/flax/linen/normalization.py" source_line=83}
  %constant_211 = f32[] constant(0.000318877544)
  %broadcast.329 = f32[1792]{0} broadcast(f32[] %constant_211), dimensions={}, metadata={op_name="parallelize(train_step_func_pipeshard_parallel_mesh_1)/jit(main)/jit(2)/jit(22)/transpose(jvp(remat))/WideResNet/BottleneckResNetBlock_13/BatchNorm_0/div" source_file="/home/cyxue/miniconda3/envs/alpa/lib/python3.8/site-packages/flax/linen/normalization.py" source_line=82}
  %multiply.297 = f32[1792]{0} multiply(f32[1792]{0} %reduce.647, f32[1792]{0} %broadcast.329), metadata={op_name="parallelize(train_step_func_pipeshard_parallel_mesh_1)/jit(main)/jit(2)/jit(27)/transpose(jvp(remat))/WideResNet/BottleneckResNetBlock_8/BatchNorm_1/div" source_file="/home/cyxue/miniconda3/envs/alpa/lib/python3.8/site-packages/flax/linen/normalization.py" source_line=83}
  %param_1.2160 = f32[1792]{0} parameter(1)
  %multiply.2137 = f32[1792]{0} multiply(f32[1792]{0} %param_1.2160, f32[1792]{0} %broadcast.329), metadata={op_name="parallelize(train_step_func_pipeshard_parallel_mesh_1)/jit(main)/jit(2)/jit(27)/transpose(jvp(remat))/WideResNet/BottleneckResNetBlock_8/BatchNorm_1/div" source_file="/home/cyxue/miniconda3/envs/alpa/lib/python3.8/site-packages/flax/linen/normalization.py" source_line=82}
  %multiply.296 = f32[1792]{0} multiply(f32[1792]{0} %multiply.2137, f32[1792]{0} %multiply.2137), metadata={op_name="parallelize(train_step_func_pipeshard_parallel_mesh_1)/jit(main)/jit(2)/jit(27)/transpose(jvp(remat))/WideResNet/BottleneckResNetBlock_8/BatchNorm_1/mul" source_file="/home/cyxue/miniconda3/envs/alpa/lib/python3.8/site-packages/flax/linen/normalization.py" source_line=46}
  ROOT %subtract.2 = f32[1792]{0} subtract(f32[1792]{0} %multiply.297, f32[1792]{0} %multiply.296), metadata={op_name="parallelize(train_step_func_pipeshard_parallel_mesh_1)/jit(main)/jit(2)/jit(27)/transpose(jvp(remat))/WideResNet/BottleneckResNetBlock_8/BatchNorm_1/sub" source_file="/home/cyxue/miniconda3/envs/alpa/lib/python3.8/site-packages/flax/linen/normalization.py" source_line=93}
}

%fused_computation.46 (param_0.1567: f32[896], param_1.2158: f32[896], param_2.1510: f32[896], param_3.1291: f32[16,14,14,896], param_4.1140: f32[896]) -> f32[16,14,14,896] {
  %param_3.1291 = f32[16,14,14,896]{2,1,3,0} parameter(3)
  %param_4.1140 = f32[896]{0} parameter(4)
  %constant_2884 = f32[] constant(0.000318877544)
  %broadcast.3623 = f32[896]{0} broadcast(f32[] %constant_2884), dimensions={}, metadata={op_name="parallelize(train_step_func_pipeshard_parallel_mesh_1)/jit(main)/jit(2)/jit(23)/transpose(jvp(remat))/WideResNet/BottleneckResNetBlock_12/BatchNorm_0/div" source_file="/home/cyxue/miniconda3/envs/alpa/lib/python3.8/site-packages/flax/linen/normalization.py" source_line=82}
  %multiply.2133 = f32[896]{0} multiply(f32[896]{0} %param_4.1140, f32[896]{0} %broadcast.3623), metadata={op_name="parallelize(train_step_func_pipeshard_parallel_mesh_1)/jit(main)/jit(2)/jit(27)/transpose(jvp(remat))/WideResNet/BottleneckResNetBlock_8/BatchNorm_0/div" source_file="/home/cyxue/miniconda3/envs/alpa/lib/python3.8/site-packages/flax/linen/normalization.py" source_line=82}
  %broadcast.3622 = f32[16,14,14,896]{2,1,3,0} broadcast(f32[896]{0} %multiply.2133), dimensions={3}, metadata={op_name="parallelize(train_step_func_pipeshard_parallel_mesh_1)/jit(main)/jit(2)/jit(27)/transpose(jvp(remat))/WideResNet/BottleneckResNetBlock_8/BatchNorm_0/sub" source_file="/home/cyxue/miniconda3/envs/alpa/lib/python3.8/site-packages/flax/linen/normalization.py" source_line=138}
  %subtract.393 = f32[16,14,14,896]{2,1,3,0} subtract(f32[16,14,14,896]{2,1,3,0} %param_3.1291, f32[16,14,14,896]{2,1,3,0} %broadcast.3622), metadata={op_name="parallelize(train_step_func_pipeshard_parallel_mesh_1)/jit(main)/jit(2)/jit(27)/transpose(jvp(remat))/WideResNet/BottleneckResNetBlock_8/BatchNorm_0/sub" source_file="/home/cyxue/miniconda3/envs/alpa/lib/python3.8/site-packages/flax/linen/normalization.py" source_line=138}
  %param_2.1510 = f32[896]{0} parameter(2)
  %constant_216 = f32[] constant(0)
  %broadcast.3621 = f32[896]{0} broadcast(f32[] %constant_216), dimensions={}, metadata={op_name="parallelize(train_step_func_pipeshard_parallel_mesh_1)/jit(main)/jit(2)/jit(23)/transpose(jvp(remat))/WideResNet/BottleneckResNetBlock_12/BatchNorm_0/max" source_file="/home/cyxue/miniconda3/envs/alpa/lib/python3.8/site-packages/flax/linen/normalization.py" source_line=93}
  %maximum.695 = f32[896]{0} maximum(f32[896]{0} %param_2.1510, f32[896]{0} %broadcast.3621), metadata={op_name="parallelize(train_step_func_pipeshard_parallel_mesh_1)/jit(main)/jit(2)/jit(27)/transpose(jvp(remat))/WideResNet/BottleneckResNetBlock_8/BatchNorm_0/max" source_file="/home/cyxue/miniconda3/envs/alpa/lib/python3.8/site-packages/flax/linen/normalization.py" source_line=93}
  %constant_2882 = f32[] constant(1e-05)
  %broadcast.3620 = f32[896]{0} broadcast(f32[] %constant_2882), dimensions={}, metadata={op_name="parallelize(train_step_func_pipeshard_parallel_mesh_1)/jit(main)/jit(2)/jit(23)/transpose(jvp(remat))/WideResNet/BottleneckResNetBlock_12/BatchNorm_0/add" source_file="/home/cyxue/miniconda3/envs/alpa/lib/python3.8/site-packages/flax/linen/normalization.py" source_line=139}
  %add.1164 = f32[896]{0} add(f32[896]{0} %maximum.695, f32[896]{0} %broadcast.3620), metadata={op_name="parallelize(train_step_func_pipeshard_parallel_mesh_1)/jit(main)/jit(2)/jit(27)/transpose(jvp(remat))/WideResNet/BottleneckResNetBlock_8/BatchNorm_0/add" source_file="/home/cyxue/miniconda3/envs/alpa/lib/python3.8/site-packages/flax/linen/normalization.py" source_line=139}
  %bitcast.2106 = f32[1,1,1,896]{3,2,1,0} bitcast(f32[896]{0} %add.1164), metadata={op_name="parallelize(train_step_func_pipeshard_parallel_mesh_1)/jit(main)/jit(2)/jit(27)/transpose(jvp(remat))/WideResNet/BottleneckResNetBlock_8/BatchNorm_0/add" source_file="/home/cyxue/miniconda3/envs/alpa/lib/python3.8/site-packages/flax/linen/normalization.py" source_line=139}
  %rsqrt.475 = f32[1,1,1,896]{3,2,1,0} rsqrt(f32[1,1,1,896]{3,2,1,0} %bitcast.2106), metadata={op_name="parallelize(train_step_func_pipeshard_parallel_mesh_1)/jit(main)/jit(2)/jit(27)/transpose(jvp(remat))/WideResNet/BottleneckResNetBlock_8/BatchNorm_0/rsqrt" source_file="/home/cyxue/miniconda3/envs/alpa/lib/python3.8/site-packages/flax/linen/normalization.py" source_line=139}
  %param_1.2158 = f32[896]{0} parameter(1)
  %bitcast.2105 = f32[1,1,1,896]{3,2,1,0} bitcast(f32[896]{0} %param_1.2158), metadata={op_name="parallelize(train_step_func_pipeshard_parallel_mesh_1)/jit(main)/jit(2)/jit(27)/transpose(jvp(remat))/WideResNet/BottleneckResNetBlock_8/BatchNorm_0/reshape[new_sizes=(1, 1, 1, 896) dimensions=None]" source_file="/home/cyxue/miniconda3/envs/alpa/lib/python3.8/site-packages/flax/linen/normalization.py" source_line=142}
  %multiply.2132 = f32[1,1,1,896]{3,2,1,0} multiply(f32[1,1,1,896]{3,2,1,0} %rsqrt.475, f32[1,1,1,896]{3,2,1,0} %bitcast.2105), metadata={op_name="parallelize(train_step_func_pipeshard_parallel_mesh_1)/jit(main)/jit(2)/jit(27)/transpose(jvp(remat))/WideResNet/BottleneckResNetBlock_8/BatchNorm_0/mul" source_file="/home/cyxue/miniconda3/envs/alpa/lib/python3.8/site-packages/flax/linen/normalization.py" source_line=144}
  %bitcast.2104 = f32[896]{0} bitcast(f32[1,1,1,896]{3,2,1,0} %multiply.2132), metadata={op_name="parallelize(train_step_func_pipeshard_parallel_mesh_1)/jit(main)/jit(2)/jit(27)/transpose(jvp(remat))/WideResNet/BottleneckResNetBlock_8/BatchNorm_0/mul" source_file="/home/cyxue/miniconda3/envs/alpa/lib/python3.8/site-packages/flax/linen/normalization.py" source_line=146}
  %broadcast.3619 = f32[16,14,14,896]{2,1,3,0} broadcast(f32[896]{0} %bitcast.2104), dimensions={3}, metadata={op_name="parallelize(train_step_func_pipeshard_parallel_mesh_1)/jit(main)/jit(2)/jit(27)/transpose(jvp(remat))/WideResNet/BottleneckResNetBlock_8/BatchNorm_0/mul" source_file="/home/cyxue/miniconda3/envs/alpa/lib/python3.8/site-packages/flax/linen/normalization.py" source_line=146}
  %multiply.2131 = f32[16,14,14,896]{2,1,3,0} multiply(f32[16,14,14,896]{2,1,3,0} %subtract.393, f32[16,14,14,896]{2,1,3,0} %broadcast.3619), metadata={op_name="parallelize(train_step_func_pipeshard_parallel_mesh_1)/jit(main)/jit(2)/jit(27)/transpose(jvp(remat))/WideResNet/BottleneckResNetBlock_8/BatchNorm_0/mul" source_file="/home/cyxue/miniconda3/envs/alpa/lib/python3.8/site-packages/flax/linen/normalization.py" source_line=146}
  %param_0.1567 = f32[896]{0} parameter(0)
  %broadcast.3618 = f32[16,14,14,896]{2,1,3,0} broadcast(f32[896]{0} %param_0.1567), dimensions={3}, metadata={op_name="parallelize(train_step_func_pipeshard_parallel_mesh_1)/jit(main)/jit(2)/jit(27)/transpose(jvp(remat))/WideResNet/BottleneckResNetBlock_8/BatchNorm_0/add" source_file="/home/cyxue/miniconda3/envs/alpa/lib/python3.8/site-packages/flax/linen/normalization.py" source_line=150}
  %add.1163 = f32[16,14,14,896]{2,1,3,0} add(f32[16,14,14,896]{2,1,3,0} %multiply.2131, f32[16,14,14,896]{2,1,3,0} %broadcast.3618), metadata={op_name="parallelize(train_step_func_pipeshard_parallel_mesh_1)/jit(main)/jit(2)/jit(27)/transpose(jvp(remat))/WideResNet/BottleneckResNetBlock_8/BatchNorm_0/add" source_file="/home/cyxue/miniconda3/envs/alpa/lib/python3.8/site-packages/flax/linen/normalization.py" source_line=150}
  %broadcast.332 = f32[16,14,14,896]{2,1,3,0} broadcast(f32[] %constant_216), dimensions={}, metadata={op_name="parallelize(train_step_func_pipeshard_parallel_mesh_1)/jit(main)/jit(2)/jit(23)/transpose(jvp(remat))/WideResNet/BottleneckResNetBlock_12/max" source_file="/home/cyxue/Projects/crius/Crius/runtime/crius_worker/jax/model/wide_resnet.py" source_line=85}
  ROOT %maximum.3 = f32[16,14,14,896]{2,1,3,0} maximum(f32[16,14,14,896]{2,1,3,0} %add.1163, f32[16,14,14,896]{2,1,3,0} %broadcast.332), metadata={op_name="parallelize(train_step_func_pipeshard_parallel_mesh_1)/jit(main)/jit(2)/jit(27)/transpose(jvp(remat))/WideResNet/BottleneckResNetBlock_8/max" source_file="/home/cyxue/Projects/crius/Crius/runtime/crius_worker/jax/model/wide_resnet.py" source_line=85}
}

%fused_computation.51 (param_0.1552: f32[16,896], param_1.2135: f32[896]) -> f32[896] {
  %param_0.1552 = f32[16,896]{1,0} parameter(0)
  %constant_220 = f32[] constant(0)
  %reduce.650 = f32[896]{0} reduce(f32[16,896]{1,0} %param_0.1552, f32[] %constant_220), dimensions={0}, to_apply=%region_57.4114.2, metadata={op_name="parallelize(train_step_func_pipeshard_parallel_mesh_1)/jit(main)/jit(2)/jit(27)/transpose(jvp(remat))/WideResNet/BottleneckResNetBlock_8/BatchNorm_0/reduce_sum[axes=(0, 1, 2)]" source_file="/home/cyxue/miniconda3/envs/alpa/lib/python3.8/site-packages/flax/linen/normalization.py" source_line=83}
  %constant_219 = f32[] constant(0.000318877544)
  %broadcast.337 = f32[896]{0} broadcast(f32[] %constant_219), dimensions={}, metadata={op_name="parallelize(train_step_func_pipeshard_parallel_mesh_1)/jit(main)/jit(2)/jit(23)/transpose(jvp(remat))/WideResNet/BottleneckResNetBlock_12/BatchNorm_0/div" source_file="/home/cyxue/miniconda3/envs/alpa/lib/python3.8/site-packages/flax/linen/normalization.py" source_line=82}
  %multiply.303 = f32[896]{0} multiply(f32[896]{0} %reduce.650, f32[896]{0} %broadcast.337), metadata={op_name="parallelize(train_step_func_pipeshard_parallel_mesh_1)/jit(main)/jit(2)/jit(27)/transpose(jvp(remat))/WideResNet/BottleneckResNetBlock_8/BatchNorm_0/div" source_file="/home/cyxue/miniconda3/envs/alpa/lib/python3.8/site-packages/flax/linen/normalization.py" source_line=83}
  %param_1.2135 = f32[896]{0} parameter(1)
  %multiply.2113 = f32[896]{0} multiply(f32[896]{0} %param_1.2135, f32[896]{0} %broadcast.337), metadata={op_name="parallelize(train_step_func_pipeshard_parallel_mesh_1)/jit(main)/jit(2)/jit(27)/transpose(jvp(remat))/WideResNet/BottleneckResNetBlock_8/BatchNorm_0/div" source_file="/home/cyxue/miniconda3/envs/alpa/lib/python3.8/site-packages/flax/linen/normalization.py" source_line=82}
  %multiply.302 = f32[896]{0} multiply(f32[896]{0} %multiply.2113, f32[896]{0} %multiply.2113), metadata={op_name="parallelize(train_step_func_pipeshard_parallel_mesh_1)/jit(main)/jit(2)/jit(27)/transpose(jvp(remat))/WideResNet/BottleneckResNetBlock_8/BatchNorm_0/mul" source_file="/home/cyxue/miniconda3/envs/alpa/lib/python3.8/site-packages/flax/linen/normalization.py" source_line=46}
  ROOT %subtract.4 = f32[896]{0} subtract(f32[896]{0} %multiply.303, f32[896]{0} %multiply.302), metadata={op_name="parallelize(train_step_func_pipeshard_parallel_mesh_1)/jit(main)/jit(2)/jit(27)/transpose(jvp(remat))/WideResNet/BottleneckResNetBlock_8/BatchNorm_0/sub" source_file="/home/cyxue/miniconda3/envs/alpa/lib/python3.8/site-packages/flax/linen/normalization.py" source_line=93}
}

%fused_computation.56 (param_0.101: f32[16,14,14,3584]) -> f32[16,14,14,3584] {
  %param_0.101 = f32[16,14,14,3584]{2,1,3,0} parameter(0)
  %constant_224 = f32[] constant(0)
  %broadcast.340 = f32[16,14,14,3584]{2,1,3,0} broadcast(f32[] %constant_224), dimensions={}, metadata={op_name="parallelize(train_step_func_pipeshard_parallel_mesh_1)/jit(main)/jit(2)/jit(23)/transpose(jvp(remat))/WideResNet/BottleneckResNetBlock_12/gt" source_file="/home/cyxue/Projects/crius/Crius/runtime/crius_worker/jax/model/wide_resnet.py" source_line=98}
  ROOT %maximum.5 = f32[16,14,14,3584]{2,1,3,0} maximum(f32[16,14,14,3584]{2,1,3,0} %param_0.101, f32[16,14,14,3584]{2,1,3,0} %broadcast.340), metadata={op_name="parallelize(train_step_func_pipeshard_parallel_mesh_1)/jit(main)/jit(2)/jit(27)/transpose(jvp(remat))/WideResNet/BottleneckResNetBlock_7/max" source_file="/home/cyxue/Projects/crius/Crius/runtime/crius_worker/jax/model/wide_resnet.py" source_line=98}
}

%fused_computation.57 (param_0.103: f32[16,14,14,3584], param_1.153: f32[16,14,14,3584]) -> f32[16,14,14,3584] {
  %param_1.153 = f32[16,14,14,3584]{2,1,3,0} parameter(1)
  %constant_225 = f32[] constant(0)
  %broadcast.341 = f32[16,14,14,3584]{2,1,3,0} broadcast(f32[] %constant_225), dimensions={}, metadata={op_name="parallelize(train_step_func_pipeshard_parallel_mesh_1)/jit(main)/jit(2)/jit(23)/transpose(jvp(remat))/WideResNet/BottleneckResNetBlock_12/gt" source_file="/home/cyxue/Projects/crius/Crius/runtime/crius_worker/jax/model/wide_resnet.py" source_line=98}
  %compare.9 = pred[16,14,14,3584]{2,1,3,0} compare(f32[16,14,14,3584]{2,1,3,0} %param_1.153, f32[16,14,14,3584]{2,1,3,0} %broadcast.341), direction=GT, metadata={op_name="parallelize(train_step_func_pipeshard_parallel_mesh_1)/jit(main)/jit(2)/jit(26)/transpose(jvp(remat))/WideResNet/BottleneckResNetBlock_8/gt" source_file="/home/cyxue/Projects/crius/Crius/runtime/crius_worker/jax/model/wide_resnet.py" source_line=98}
  %param_0.103 = f32[16,14,14,3584]{2,1,3,0} parameter(0)
  ROOT %select.9 = f32[16,14,14,3584]{2,1,3,0} select(pred[16,14,14,3584]{2,1,3,0} %compare.9, f32[16,14,14,3584]{2,1,3,0} %param_0.103, f32[16,14,14,3584]{2,1,3,0} %broadcast.341), metadata={op_name="parallelize(train_step_func_pipeshard_parallel_mesh_1)/jit(main)/jit(2)/jit(26)/transpose(jvp(remat))/WideResNet/BottleneckResNetBlock_8/select_n" source_file="/home/cyxue/Projects/crius/Crius/runtime/crius_worker/jax/model/wide_resnet.py" source_line=98}
}

%fused_computation.61 (param_0.110: f32[1,1,1792,3584], param_1.162: f32[1,1,1792,3584]) -> f32[1,1,1792,3584] {
  %param_1.162 = f32[1,1,1792,3584]{3,2,1,0} parameter(1)
  %copy.131 = f32[1,1,1792,3584]{1,0,2,3} copy(f32[1,1,1792,3584]{3,2,1,0} %param_1.162), metadata={op_name="2$start"}
  %param_0.110 = f32[1,1,1792,3584]{1,0,2,3} parameter(0)
  %add.50 = f32[1,1,1792,3584]{1,0,2,3} add(f32[1,1,1792,3584]{1,0,2,3} %copy.131, f32[1,1,1792,3584]{1,0,2,3} %param_0.110), metadata={op_name="parallelize(train_step_func_pipeshard_parallel_mesh_1)/jit(main)/jit(2)/jit(26)/add"}
  ROOT %copy.130 = f32[1,1,1792,3584]{3,2,1,0} copy(f32[1,1,1792,3584]{1,0,2,3} %add.50), metadata={op_name="tuple.79"}
}

%fused_computation.63 (param_0.1534: f32[16,14,14,1792], param_1.2107: f32[1792], param_2.1440: f32[1792], param_3.1217: f32[1792], param_4.1071: f32[16,14,14,1792], param_5.1079: f32[1792]) -> (f32[16,1792], f32[16,1792], f32[16,1792]) {
  %param_4.1071 = f32[16,14,14,1792]{2,1,3,0} parameter(4)
  %param_5.1079 = f32[1792]{0} parameter(5)
  %constant_2748 = f32[] constant(0.000318877544)
  %broadcast.3441 = f32[1792]{0} broadcast(f32[] %constant_2748), dimensions={}, metadata={op_name="parallelize(train_step_func_pipeshard_parallel_mesh_1)/jit(main)/jit(2)/jit(22)/transpose(jvp(remat))/WideResNet/BottleneckResNetBlock_13/BatchNorm_0/div" source_file="/home/cyxue/miniconda3/envs/alpa/lib/python3.8/site-packages/flax/linen/normalization.py" source_line=82}
  %multiply.2051 = f32[1792]{0} multiply(f32[1792]{0} %param_5.1079, f32[1792]{0} %broadcast.3441), metadata={op_name="parallelize(train_step_func_pipeshard_parallel_mesh_1)/jit(main)/jit(2)/jit(26)/transpose(jvp(remat))/WideResNet/BottleneckResNetBlock_9/BatchNorm_1/div" source_file="/home/cyxue/miniconda3/envs/alpa/lib/python3.8/site-packages/flax/linen/normalization.py" source_line=82}
  %broadcast.3440 = f32[16,14,14,1792]{2,1,3,0} broadcast(f32[1792]{0} %multiply.2051), dimensions={3}, metadata={op_name="parallelize(train_step_func_pipeshard_parallel_mesh_1)/jit(main)/jit(2)/jit(26)/transpose(jvp(remat))/WideResNet/BottleneckResNetBlock_9/BatchNorm_1/sub" source_file="/home/cyxue/miniconda3/envs/alpa/lib/python3.8/site-packages/flax/linen/normalization.py" source_line=138}
  %subtract.371 = f32[16,14,14,1792]{2,1,3,0} subtract(f32[16,14,14,1792]{2,1,3,0} %param_4.1071, f32[16,14,14,1792]{2,1,3,0} %broadcast.3440), metadata={op_name="parallelize(train_step_func_pipeshard_parallel_mesh_1)/jit(main)/jit(2)/jit(26)/transpose(jvp(remat))/WideResNet/BottleneckResNetBlock_9/BatchNorm_1/sub" source_file="/home/cyxue/miniconda3/envs/alpa/lib/python3.8/site-packages/flax/linen/normalization.py" source_line=138}
  %param_3.1217 = f32[1792]{0} parameter(3)
  %constant_229 = f32[] constant(0)
  %broadcast.3439 = f32[1792]{0} broadcast(f32[] %constant_229), dimensions={}, metadata={op_name="parallelize(train_step_func_pipeshard_parallel_mesh_1)/jit(main)/jit(2)/jit(20)/transpose(jvp(remat))/WideResNet/BottleneckResNetBlock_15/BatchNorm_0/max" source_file="/home/cyxue/miniconda3/envs/alpa/lib/python3.8/site-packages/flax/linen/normalization.py" source_line=93}
  %maximum.655 = f32[1792]{0} maximum(f32[1792]{0} %param_3.1217, f32[1792]{0} %broadcast.3439), metadata={op_name="parallelize(train_step_func_pipeshard_parallel_mesh_1)/jit(main)/jit(2)/jit(26)/transpose(jvp(remat))/WideResNet/BottleneckResNetBlock_9/BatchNorm_1/max" source_file="/home/cyxue/miniconda3/envs/alpa/lib/python3.8/site-packages/flax/linen/normalization.py" source_line=93}
  %constant_2746 = f32[] constant(1e-05)
  %broadcast.3438 = f32[1792]{0} broadcast(f32[] %constant_2746), dimensions={}, metadata={op_name="parallelize(train_step_func_pipeshard_parallel_mesh_1)/jit(main)/jit(2)/jit(20)/transpose(jvp(remat))/WideResNet/BottleneckResNetBlock_15/BatchNorm_0/add" source_file="/home/cyxue/miniconda3/envs/alpa/lib/python3.8/site-packages/flax/linen/normalization.py" source_line=139}
  %add.1110 = f32[1792]{0} add(f32[1792]{0} %maximum.655, f32[1792]{0} %broadcast.3438), metadata={op_name="parallelize(train_step_func_pipeshard_parallel_mesh_1)/jit(main)/jit(2)/jit(26)/transpose(jvp(remat))/WideResNet/BottleneckResNetBlock_9/BatchNorm_1/add" source_file="/home/cyxue/miniconda3/envs/alpa/lib/python3.8/site-packages/flax/linen/normalization.py" source_line=139}
  %bitcast.2010 = f32[1,1,1,1792]{3,2,1,0} bitcast(f32[1792]{0} %add.1110), metadata={op_name="parallelize(train_step_func_pipeshard_parallel_mesh_1)/jit(main)/jit(2)/jit(26)/transpose(jvp(remat))/WideResNet/BottleneckResNetBlock_9/BatchNorm_1/add" source_file="/home/cyxue/miniconda3/envs/alpa/lib/python3.8/site-packages/flax/linen/normalization.py" source_line=139}
  %rsqrt.445 = f32[1,1,1,1792]{3,2,1,0} rsqrt(f32[1,1,1,1792]{3,2,1,0} %bitcast.2010), metadata={op_name="parallelize(train_step_func_pipeshard_parallel_mesh_1)/jit(main)/jit(2)/jit(26)/transpose(jvp(remat))/WideResNet/BottleneckResNetBlock_9/BatchNorm_1/rsqrt" source_file="/home/cyxue/miniconda3/envs/alpa/lib/python3.8/site-packages/flax/linen/normalization.py" source_line=139}
  %param_2.1440 = f32[1792]{0} parameter(2)
  %bitcast.2009 = f32[1,1,1,1792]{3,2,1,0} bitcast(f32[1792]{0} %param_2.1440), metadata={op_name="parallelize(train_step_func_pipeshard_parallel_mesh_1)/jit(main)/jit(2)/jit(26)/transpose(jvp(remat))/WideResNet/BottleneckResNetBlock_9/BatchNorm_1/reshape[new_sizes=(1, 1, 1, 1792) dimensions=None]" source_file="/home/cyxue/miniconda3/envs/alpa/lib/python3.8/site-packages/flax/linen/normalization.py" source_line=142}
  %multiply.2050 = f32[1,1,1,1792]{3,2,1,0} multiply(f32[1,1,1,1792]{3,2,1,0} %rsqrt.445, f32[1,1,1,1792]{3,2,1,0} %bitcast.2009), metadata={op_name="parallelize(train_step_func_pipeshard_parallel_mesh_1)/jit(main)/jit(2)/jit(26)/transpose(jvp(remat))/WideResNet/BottleneckResNetBlock_9/BatchNorm_1/mul" source_file="/home/cyxue/miniconda3/envs/alpa/lib/python3.8/site-packages/flax/linen/normalization.py" source_line=144}
  %bitcast.2008 = f32[1792]{0} bitcast(f32[1,1,1,1792]{3,2,1,0} %multiply.2050), metadata={op_name="parallelize(train_step_func_pipeshard_parallel_mesh_1)/jit(main)/jit(2)/jit(26)/transpose(jvp(remat))/WideResNet/BottleneckResNetBlock_9/BatchNorm_1/mul" source_file="/home/cyxue/miniconda3/envs/alpa/lib/python3.8/site-packages/flax/linen/normalization.py" source_line=146}
  %broadcast.3437 = f32[16,14,14,1792]{2,1,3,0} broadcast(f32[1792]{0} %bitcast.2008), dimensions={3}, metadata={op_name="parallelize(train_step_func_pipeshard_parallel_mesh_1)/jit(main)/jit(2)/jit(26)/transpose(jvp(remat))/WideResNet/BottleneckResNetBlock_9/BatchNorm_1/mul" source_file="/home/cyxue/miniconda3/envs/alpa/lib/python3.8/site-packages/flax/linen/normalization.py" source_line=146}
  %multiply.2049 = f32[16,14,14,1792]{2,1,3,0} multiply(f32[16,14,14,1792]{2,1,3,0} %subtract.371, f32[16,14,14,1792]{2,1,3,0} %broadcast.3437), metadata={op_name="parallelize(train_step_func_pipeshard_parallel_mesh_1)/jit(main)/jit(2)/jit(26)/transpose(jvp(remat))/WideResNet/BottleneckResNetBlock_9/BatchNorm_1/mul" source_file="/home/cyxue/miniconda3/envs/alpa/lib/python3.8/site-packages/flax/linen/normalization.py" source_line=146}
  %param_1.2107 = f32[1792]{0} parameter(1)
  %broadcast.3436 = f32[16,14,14,1792]{2,1,3,0} broadcast(f32[1792]{0} %param_1.2107), dimensions={3}, metadata={op_name="parallelize(train_step_func_pipeshard_parallel_mesh_1)/jit(main)/jit(2)/jit(26)/transpose(jvp(remat))/WideResNet/BottleneckResNetBlock_9/BatchNorm_1/add" source_file="/home/cyxue/miniconda3/envs/alpa/lib/python3.8/site-packages/flax/linen/normalization.py" source_line=150}
  %add.1109 = f32[16,14,14,1792]{2,1,3,0} add(f32[16,14,14,1792]{2,1,3,0} %multiply.2049, f32[16,14,14,1792]{2,1,3,0} %broadcast.3436), metadata={op_name="parallelize(train_step_func_pipeshard_parallel_mesh_1)/jit(main)/jit(2)/jit(26)/transpose(jvp(remat))/WideResNet/BottleneckResNetBlock_9/BatchNorm_1/add" source_file="/home/cyxue/miniconda3/envs/alpa/lib/python3.8/site-packages/flax/linen/normalization.py" source_line=150}
  %broadcast.3435 = f32[16,14,14,1792]{2,1,3,0} broadcast(f32[] %constant_229), dimensions={}, metadata={op_name="parallelize(train_step_func_pipeshard_parallel_mesh_1)/jit(main)/jit(2)/jit(22)/transpose(jvp(remat))/WideResNet/BottleneckResNetBlock_13/max" source_file="/home/cyxue/Projects/crius/Crius/runtime/crius_worker/jax/model/wide_resnet.py" source_line=85}
  %compare.281 = pred[16,14,14,1792]{2,1,3,0} compare(f32[16,14,14,1792]{2,1,3,0} %add.1109, f32[16,14,14,1792]{2,1,3,0} %broadcast.3435), direction=GT, metadata={op_name="parallelize(train_step_func_pipeshard_parallel_mesh_1)/jit(main)/jit(2)/jit(26)/transpose(jvp(remat))/WideResNet/BottleneckResNetBlock_9/gt" source_file="/home/cyxue/Projects/crius/Crius/runtime/crius_worker/jax/model/wide_resnet.py" source_line=88}
  %param_0.1534 = f32[16,14,14,1792]{2,1,3,0} parameter(0)
  %select.281 = f32[16,14,14,1792]{2,1,3,0} select(pred[16,14,14,1792]{2,1,3,0} %compare.281, f32[16,14,14,1792]{2,1,3,0} %param_0.1534, f32[16,14,14,1792]{2,1,3,0} %broadcast.3435), metadata={op_name="parallelize(train_step_func_pipeshard_parallel_mesh_1)/jit(main)/jit(2)/jit(26)/transpose(jvp(remat))/WideResNet/BottleneckResNetBlock_9/select_n" source_file="/home/cyxue/Projects/crius/Crius/runtime/crius_worker/jax/model/wide_resnet.py" source_line=88}
  %transpose.9 = f32[16,1792,14,14]{3,2,1,0} transpose(f32[16,14,14,1792]{2,1,3,0} %select.281), dimensions={0,3,1,2}
  %bitcast.573 = f32[16,1792,196]{2,1,0} bitcast(f32[16,1792,14,14]{3,2,1,0} %transpose.9), metadata={op_name="parallelize(train_step_func_pipeshard_parallel_mesh_1)/jit(main)/jit(2)/jit(26)/transpose(jvp(remat))/WideResNet/BottleneckResNetBlock_9/select_n" source_file="/home/cyxue/Projects/crius/Crius/runtime/crius_worker/jax/model/wide_resnet.py" source_line=88}
  %reduce.656 = f32[16,1792]{1,0} reduce(f32[16,1792,196]{2,1,0} %bitcast.573, f32[] %constant_229), dimensions={2}, to_apply=%region_57.4114.2
  %multiply.2067.clone.1 = f32[16,14,14,1792]{2,1,3,0} multiply(f32[16,14,14,1792]{2,1,3,0} %select.281, f32[16,14,14,1792]{2,1,3,0} %broadcast.3437), metadata={op_name="parallelize(train_step_func_pipeshard_parallel_mesh_1)/jit(main)/jit(2)/jit(26)/transpose(jvp(remat))/WideResNet/BottleneckResNetBlock_9/BatchNorm_1/mul" source_file="/home/cyxue/miniconda3/envs/alpa/lib/python3.8/site-packages/flax/linen/normalization.py" source_line=146}
  %negate.10.clone.1 = f32[16,14,14,1792]{2,1,3,0} negate(f32[16,14,14,1792]{2,1,3,0} %multiply.2067.clone.1), metadata={op_name="parallelize(train_step_func_pipeshard_parallel_mesh_1)/jit(main)/jit(2)/jit(26)/transpose(jvp(remat))/WideResNet/BottleneckResNetBlock_9/BatchNorm_1/neg" source_file="/home/cyxue/miniconda3/envs/alpa/lib/python3.8/site-packages/flax/linen/normalization.py" source_line=138}
  %transpose.10 = f32[16,1792,14,14]{3,2,1,0} transpose(f32[16,14,14,1792]{2,1,3,0} %negate.10.clone.1), dimensions={0,3,1,2}
  %bitcast.582.clone.1 = f32[16,1792,196]{2,1,0} bitcast(f32[16,1792,14,14]{3,2,1,0} %transpose.10), metadata={op_name="parallelize(train_step_func_pipeshard_parallel_mesh_1)/jit(main)/jit(2)/jit(26)/transpose(jvp(remat))/WideResNet/BottleneckResNetBlock_9/BatchNorm_1/neg" source_file="/home/cyxue/miniconda3/envs/alpa/lib/python3.8/site-packages/flax/linen/normalization.py" source_line=138}
  %reduce.662.clone.1 = f32[16,1792]{1,0} reduce(f32[16,1792,196]{2,1,0} %bitcast.582.clone.1, f32[] %constant_229), dimensions={2}, to_apply=%region_57.4114.2
  %multiply.329.clone.1 = f32[16,14,14,1792]{2,1,3,0} multiply(f32[16,14,14,1792]{2,1,3,0} %subtract.371, f32[16,14,14,1792]{2,1,3,0} %select.281), metadata={op_name="parallelize(train_step_func_pipeshard_parallel_mesh_1)/jit(main)/jit(2)/jit(26)/transpose(jvp(remat))/WideResNet/BottleneckResNetBlock_9/BatchNorm_1/mul" source_file="/home/cyxue/miniconda3/envs/alpa/lib/python3.8/site-packages/flax/linen/normalization.py" source_line=146}
  %transpose.11 = f32[16,1792,14,14]{3,2,1,0} transpose(f32[16,14,14,1792]{2,1,3,0} %multiply.329.clone.1), dimensions={0,3,1,2}
  %bitcast.584.clone.1 = f32[16,1792,196]{2,1,0} bitcast(f32[16,1792,14,14]{3,2,1,0} %transpose.11), metadata={op_name="parallelize(train_step_func_pipeshard_parallel_mesh_1)/jit(main)/jit(2)/jit(26)/transpose(jvp(remat))/WideResNet/BottleneckResNetBlock_9/BatchNorm_1/mul" source_file="/home/cyxue/miniconda3/envs/alpa/lib/python3.8/site-packages/flax/linen/normalization.py" source_line=146}
  %reduce.664.clone.1 = f32[16,1792]{1,0} reduce(f32[16,1792,196]{2,1,0} %bitcast.584.clone.1, f32[] %constant_229), dimensions={2}, to_apply=%region_57.4114.2
  ROOT %tuple.14 = (f32[16,1792]{1,0}, f32[16,1792]{1,0}, f32[16,1792]{1,0}) tuple(f32[16,1792]{1,0} %reduce.656, f32[16,1792]{1,0} %reduce.662.clone.1, f32[16,1792]{1,0} %reduce.664.clone.1)
}

%fused_computation.65 (param_0.117: f32[3,3,896,1792], param_1.171: f32[3,3,896,1792]) -> f32[3,3,896,1792] {
  %param_1.171 = f32[3,3,896,1792]{3,2,1,0} parameter(1)
  %copy.133 = f32[3,3,896,1792]{1,0,2,3} copy(f32[3,3,896,1792]{3,2,1,0} %param_1.171), metadata={op_name="2$start"}
  %param_0.117 = f32[3,3,896,1792]{1,0,2,3} parameter(0)
  %add.53 = f32[3,3,896,1792]{1,0,2,3} add(f32[3,3,896,1792]{1,0,2,3} %copy.133, f32[3,3,896,1792]{1,0,2,3} %param_0.117), metadata={op_name="parallelize(train_step_func_pipeshard_parallel_mesh_1)/jit(main)/jit(2)/jit(26)/add"}
  ROOT %copy.132 = f32[3,3,896,1792]{3,2,1,0} copy(f32[3,3,896,1792]{1,0,2,3} %add.53), metadata={op_name="tuple.79"}
}

%fused_computation.67 (param_0.1545: f32[16,14,14,896], param_1.2125: f32[896], param_2.1465: f32[896], param_3.1248: f32[896], param_4.1105: f32[16,14,14,896], param_5.1122: f32[896]) -> (f32[16,896], f32[16,896], f32[16,896]) {
  %param_4.1105 = f32[16,14,14,896]{2,1,3,0} parameter(4)
  %param_5.1122 = f32[896]{0} parameter(5)
  %constant_2801 = f32[] constant(0.000318877544)
  %broadcast.3523 = f32[896]{0} broadcast(f32[] %constant_2801), dimensions={}, metadata={op_name="parallelize(train_step_func_pipeshard_parallel_mesh_1)/jit(main)/jit(2)/jit(23)/transpose(jvp(remat))/WideResNet/BottleneckResNetBlock_12/BatchNorm_0/div" source_file="/home/cyxue/miniconda3/envs/alpa/lib/python3.8/site-packages/flax/linen/normalization.py" source_line=82}
  %multiply.2089 = f32[896]{0} multiply(f32[896]{0} %param_5.1122, f32[896]{0} %broadcast.3523), metadata={op_name="parallelize(train_step_func_pipeshard_parallel_mesh_1)/jit(main)/jit(2)/jit(26)/transpose(jvp(remat))/WideResNet/BottleneckResNetBlock_9/BatchNorm_0/div" source_file="/home/cyxue/miniconda3/envs/alpa/lib/python3.8/site-packages/flax/linen/normalization.py" source_line=82}
  %broadcast.3522 = f32[16,14,14,896]{2,1,3,0} broadcast(f32[896]{0} %multiply.2089), dimensions={3}, metadata={op_name="parallelize(train_step_func_pipeshard_parallel_mesh_1)/jit(main)/jit(2)/jit(26)/transpose(jvp(remat))/WideResNet/BottleneckResNetBlock_9/BatchNorm_0/sub" source_file="/home/cyxue/miniconda3/envs/alpa/lib/python3.8/site-packages/flax/linen/normalization.py" source_line=138}
  %subtract.381 = f32[16,14,14,896]{2,1,3,0} subtract(f32[16,14,14,896]{2,1,3,0} %param_4.1105, f32[16,14,14,896]{2,1,3,0} %broadcast.3522), metadata={op_name="parallelize(train_step_func_pipeshard_parallel_mesh_1)/jit(main)/jit(2)/jit(26)/transpose(jvp(remat))/WideResNet/BottleneckResNetBlock_9/BatchNorm_0/sub" source_file="/home/cyxue/miniconda3/envs/alpa/lib/python3.8/site-packages/flax/linen/normalization.py" source_line=138}
  %param_3.1248 = f32[896]{0} parameter(3)
  %constant_231 = f32[] constant(0)
  %broadcast.3521 = f32[896]{0} broadcast(f32[] %constant_231), dimensions={}, metadata={op_name="parallelize(train_step_func_pipeshard_parallel_mesh_1)/jit(main)/jit(2)/jit(23)/transpose(jvp(remat))/WideResNet/BottleneckResNetBlock_12/BatchNorm_0/max" source_file="/home/cyxue/miniconda3/envs/alpa/lib/python3.8/site-packages/flax/linen/normalization.py" source_line=93}
  %maximum.669 = f32[896]{0} maximum(f32[896]{0} %param_3.1248, f32[896]{0} %broadcast.3521), metadata={op_name="parallelize(train_step_func_pipeshard_parallel_mesh_1)/jit(main)/jit(2)/jit(26)/transpose(jvp(remat))/WideResNet/BottleneckResNetBlock_9/BatchNorm_0/max" source_file="/home/cyxue/miniconda3/envs/alpa/lib/python3.8/site-packages/flax/linen/normalization.py" source_line=93}
  %constant_2799 = f32[] constant(1e-05)
  %broadcast.3520 = f32[896]{0} broadcast(f32[] %constant_2799), dimensions={}, metadata={op_name="parallelize(train_step_func_pipeshard_parallel_mesh_1)/jit(main)/jit(2)/jit(23)/transpose(jvp(remat))/WideResNet/BottleneckResNetBlock_12/BatchNorm_0/add" source_file="/home/cyxue/miniconda3/envs/alpa/lib/python3.8/site-packages/flax/linen/normalization.py" source_line=139}
  %add.1134 = f32[896]{0} add(f32[896]{0} %maximum.669, f32[896]{0} %broadcast.3520), metadata={op_name="parallelize(train_step_func_pipeshard_parallel_mesh_1)/jit(main)/jit(2)/jit(26)/transpose(jvp(remat))/WideResNet/BottleneckResNetBlock_9/BatchNorm_0/add" source_file="/home/cyxue/miniconda3/envs/alpa/lib/python3.8/site-packages/flax/linen/normalization.py" source_line=139}
  %bitcast.2052 = f32[1,1,1,896]{3,2,1,0} bitcast(f32[896]{0} %add.1134), metadata={op_name="parallelize(train_step_func_pipeshard_parallel_mesh_1)/jit(main)/jit(2)/jit(26)/transpose(jvp(remat))/WideResNet/BottleneckResNetBlock_9/BatchNorm_0/add" source_file="/home/cyxue/miniconda3/envs/alpa/lib/python3.8/site-packages/flax/linen/normalization.py" source_line=139}
  %rsqrt.459 = f32[1,1,1,896]{3,2,1,0} rsqrt(f32[1,1,1,896]{3,2,1,0} %bitcast.2052), metadata={op_name="parallelize(train_step_func_pipeshard_parallel_mesh_1)/jit(main)/jit(2)/jit(26)/transpose(jvp(remat))/WideResNet/BottleneckResNetBlock_9/BatchNorm_0/rsqrt" source_file="/home/cyxue/miniconda3/envs/alpa/lib/python3.8/site-packages/flax/linen/normalization.py" source_line=139}
  %param_2.1465 = f32[896]{0} parameter(2)
  %bitcast.2051 = f32[1,1,1,896]{3,2,1,0} bitcast(f32[896]{0} %param_2.1465), metadata={op_name="parallelize(train_step_func_pipeshard_parallel_mesh_1)/jit(main)/jit(2)/jit(26)/transpose(jvp(remat))/WideResNet/BottleneckResNetBlock_9/BatchNorm_0/reshape[new_sizes=(1, 1, 1, 896) dimensions=None]" source_file="/home/cyxue/miniconda3/envs/alpa/lib/python3.8/site-packages/flax/linen/normalization.py" source_line=142}
  %multiply.2088 = f32[1,1,1,896]{3,2,1,0} multiply(f32[1,1,1,896]{3,2,1,0} %rsqrt.459, f32[1,1,1,896]{3,2,1,0} %bitcast.2051), metadata={op_name="parallelize(train_step_func_pipeshard_parallel_mesh_1)/jit(main)/jit(2)/jit(26)/transpose(jvp(remat))/WideResNet/BottleneckResNetBlock_9/BatchNorm_0/mul" source_file="/home/cyxue/miniconda3/envs/alpa/lib/python3.8/site-packages/flax/linen/normalization.py" source_line=144}
  %bitcast.2050 = f32[896]{0} bitcast(f32[1,1,1,896]{3,2,1,0} %multiply.2088), metadata={op_name="parallelize(train_step_func_pipeshard_parallel_mesh_1)/jit(main)/jit(2)/jit(26)/transpose(jvp(remat))/WideResNet/BottleneckResNetBlock_9/BatchNorm_0/mul" source_file="/home/cyxue/miniconda3/envs/alpa/lib/python3.8/site-packag…
  %get-tuple-element.380 = f32[1792]{0} get-tuple-element((f32[896]{0}, f32[7168]{0}, f32[3584]{0}, f32[3584]{0}, f32[1792]{0}, /*index=5*/f32[1792]{0}, f32[896]{0}, f32[3584]{0}, f32[1792]{0}, f32[3584]{0}, /*index=10*/f32[1792]{0}, f32[896]{0}, f32[3584]{0}, f32[7168]{0}, f32[1792]{0}, /*index=15*/f32[896]{0}, f32[1792]{0}, f32[3584]{0}, f32[1792]{0}, f32[1792]{0}, /*index=20*/f32[896]{0}, f32[3584]{0}) %fusion.487), index=19, metadata={op_name="parallelize(train_step_func_pipeshard_parallel_mesh_1)/jit(main)/jit(2)/jit(23)/add"}
  %get-tuple-element.381 = f32[1792]{0} get-tuple-element((f32[3584]{0}, f32[3584]{0}, f32[1792]{0}, f32[896]{0}, f32[3584]{0}, /*index=5*/f32[1792]{0}, f32[896]{0}, f32[3584]{0}, f32[1792]{0}, f32[896]{0}, /*index=10*/f32[3584]{0}, f32[1792]{0}, f32[896]{0}, f32[1792]{0}, f32[896]{0}, /*index=15*/f32[7168]{0}, f32[1792]{0}, f32[3584]{0}, f32[3584]{0}, f32[1024]{0}, /*index=20*/f32[7168]{0}, f32[3584]{0}, f32[1792]{0}, f32[1792]{0}) %fusion.486), index=13, metadata={op_name="parallelize(train_step_func_pipeshard_parallel_mesh_1)/jit(main)/jit(2)/jit(23)/add"}
  %cudnn-conv-bw-filter.10 = (f32[1,1,1792,3584]{1,0,2,3}, u8[0]{0}) custom-call(f32[16,14,14,1792]{2,1,3,0} %fusion.271, f32[16,14,14,3584]{2,1,3,0} %fusion.257), window={size=1x1}, dim_labels=b01f_01io->b01f, custom_call_target="__cudnn$convBackwardFilter", metadata={op_name="parallelize(train_step_func_pipeshard_parallel_mesh_1)/jit(main)/jit(2)/jit(23)/transpose(jvp(remat))/WideResNet/BottleneckResNetBlock_12/Conv_2/conv_general_dilated[window_strides=(1, 1) padding=((0, 0), (0, 0)) lhs_dilation=(1, 1) rhs_dilation=(1, 1) dimension_numbers=ConvDimensionNumbers(lhs_spec=(3, 0, 1, 2), rhs_spec=(3, 0, 1, 2), out_spec=(2, 3, 0, 1)) feature_group_count=1 batch_group_count=1 lhs_shape=(16, 14, 14, 1792) rhs_shape=(16, 14, 14, 3584) precision=None preferred_element_type=None]" source_file="/home/cyxue/miniconda3/envs/alpa/lib/python3.8/site-packages/flax/linen/linear.py" source_line=435}, backend_config="{\"conv_result_scale\":1,\"activation_mode\":\"0\",\"side_input_scale\":0}"
  %get-tuple-element.33 = f32[1,1,1792,3584]{1,0,2,3} get-tuple-element((f32[1,1,1792,3584]{1,0,2,3}, u8[0]{0}) %cudnn-conv-bw-filter.10), index=0, metadata={op_name="parallelize(train_step_func_pipeshard_parallel_mesh_1)/jit(main)/jit(2)/jit(23)/transpose(jvp(remat))/WideResNet/BottleneckResNetBlock_12/Conv_2/conv_general_dilated[window_strides=(1, 1) padding=((0, 0), (0, 0)) lhs_dilation=(1, 1) rhs_dilation=(1, 1) dimension_numbers=ConvDimensionNumbers(lhs_spec=(3, 0, 1, 2), rhs_spec=(3, 0, 1, 2), out_spec=(2, 3, 0, 1)) feature_group_count=1 batch_group_count=1 lhs_shape=(16, 14, 14, 1792) rhs_shape=(16, 14, 14, 3584) precision=None preferred_element_type=None]" source_file="/home/cyxue/miniconda3/envs/alpa/lib/python3.8/site-packages/flax/linen/linear.py" source_line=435}
  %param_38 = f32[1,1,1792,3584]{3,2,1,0} parameter(38), metadata={op_name="2$start"}
  %fusion.236 = f32[1,1,1792,3584]{3,2,1,0} fusion(f32[1,1,1792,3584]{1,0,2,3} %get-tuple-element.33, f32[1,1,1792,3584]{3,2,1,0} %param_38), kind=kLoop, calls=%fused_computation.236, metadata={op_name="tuple.79"}
  %get-tuple-element.383 = f32[3584]{0} get-tuple-element((f32[896]{0}, f32[7168]{0}, f32[3584]{0}, f32[3584]{0}, f32[1792]{0}, /*index=5*/f32[1792]{0}, f32[896]{0}, f32[3584]{0}, f32[1792]{0}, f32[3584]{0}, /*index=10*/f32[1792]{0}, f32[896]{0}, f32[3584]{0}, f32[7168]{0}, f32[1792]{0}, /*index=15*/f32[896]{0}, f32[1792]{0}, f32[3584]{0}, f32[1792]{0}, f32[1792]{0}, /*index=20*/f32[896]{0}, f32[3584]{0}) %fusion.487), index=17, metadata={op_name="parallelize(train_step_func_pipeshard_parallel_mesh_1)/jit(main)/jit(2)/jit(23)/add"}
  %get-tuple-element.384 = f32[3584]{0} get-tuple-element((f32[3584]{0}, f32[3584]{0}, f32[1792]{0}, f32[896]{0}, f32[3584]{0}, /*index=5*/f32[1792]{0}, f32[896]{0}, f32[3584]{0}, f32[1792]{0}, f32[896]{0}, /*index=10*/f32[3584]{0}, f32[1792]{0}, f32[896]{0}, f32[1792]{0}, f32[896]{0}, /*index=15*/f32[7168]{0}, f32[1792]{0}, f32[3584]{0}, f32[3584]{0}, f32[1024]{0}, /*index=20*/f32[7168]{0}, f32[3584]{0}, f32[1792]{0}, f32[1792]{0}) %fusion.486), index=0, metadata={op_name="parallelize(train_step_func_pipeshard_parallel_mesh_1)/jit(main)/jit(2)/jit(23)/add"}
  %cudnn-conv-bw-filter.15 = (f32[1,1,3584,896]{1,0,2,3}, u8[0]{0}) custom-call(f32[16,14,14,3584]{2,1,3,0} %copy.58, f32[16,14,14,896]{2,1,3,0} %fusion.187), window={size=1x1}, dim_labels=b01f_01io->b01f, custom_call_target="__cudnn$convBackwardFilter", metadata={op_name="parallelize(train_step_func_pipeshard_parallel_mesh_1)/jit(main)/jit(2)/jit(24)/transpose(jvp(remat))/WideResNet/BottleneckResNetBlock_11/Conv_0/conv_general_dilated[window_strides=(1, 1) padding=((0, 0), (0, 0)) lhs_dilation=(1, 1) rhs_dilation=(1, 1) dimension_numbers=ConvDimensionNumbers(lhs_spec=(3, 0, 1, 2), rhs_spec=(3, 0, 1, 2), out_spec=(2, 3, 0, 1)) feature_group_count=1 batch_group_count=1 lhs_shape=(16, 14, 14, 3584) rhs_shape=(16, 14, 14, 896) precision=None preferred_element_type=None]" source_file="/home/cyxue/miniconda3/envs/alpa/lib/python3.8/site-packages/flax/linen/linear.py" source_line=435}, backend_config="{\"conv_result_scale\":1,\"activation_mode\":\"0\",\"side_input_scale\":0}"
  %get-tuple-element.46 = f32[1,1,3584,896]{1,0,2,3} get-tuple-element((f32[1,1,3584,896]{1,0,2,3}, u8[0]{0}) %cudnn-conv-bw-filter.15), index=0, metadata={op_name="parallelize(train_step_func_pipeshard_parallel_mesh_1)/jit(main)/jit(2)/jit(24)/transpose(jvp(remat))/WideResNet/BottleneckResNetBlock_11/Conv_0/conv_general_dilated[window_strides=(1, 1) padding=((0, 0), (0, 0)) lhs_dilation=(1, 1) rhs_dilation=(1, 1) dimension_numbers=ConvDimensionNumbers(lhs_spec=(3, 0, 1, 2), rhs_spec=(3, 0, 1, 2), out_spec=(2, 3, 0, 1)) feature_group_count=1 batch_group_count=1 lhs_shape=(16, 14, 14, 3584) rhs_shape=(16, 14, 14, 896) precision=None preferred_element_type=None]" source_file="/home/cyxue/miniconda3/envs/alpa/lib/python3.8/site-packages/flax/linen/linear.py" source_line=435}
  %param_41 = f32[1,1,3584,896]{3,2,1,0} parameter(41), metadata={op_name="2$start"}
  %fusion.186 = f32[1,1,3584,896]{3,2,1,0} fusion(f32[1,1,3584,896]{1,0,2,3} %get-tuple-element.46, f32[1,1,3584,896]{3,2,1,0} %param_41), kind=kLoop, calls=%fused_computation.186, metadata={op_name="tuple.79"}
  %get-tuple-element.386 = f32[896]{0} get-tuple-element((f32[896]{0}, f32[7168]{0}, f32[3584]{0}, f32[3584]{0}, f32[1792]{0}, /*index=5*/f32[1792]{0}, f32[896]{0}, f32[3584]{0}, f32[1792]{0}, f32[3584]{0}, /*index=10*/f32[1792]{0}, f32[896]{0}, f32[3584]{0}, f32[7168]{0}, f32[1792]{0}, /*index=15*/f32[896]{0}, f32[1792]{0}, f32[3584]{0}, f32[1792]{0}, f32[1792]{0}, /*index=20*/f32[896]{0}, f32[3584]{0}) %fusion.487), index=15, metadata={op_name="parallelize(train_step_func_pipeshard_parallel_mesh_1)/jit(main)/jit(2)/jit(24)/add"}
  %get-tuple-element.387 = f32[896]{0} get-tuple-element((f32[3584]{0}, f32[3584]{0}, f32[1792]{0}, f32[896]{0}, f32[3584]{0}, /*index=5*/f32[1792]{0}, f32[896]{0}, f32[3584]{0}, f32[1792]{0}, f32[896]{0}, /*index=10*/f32[3584]{0}, f32[1792]{0}, f32[896]{0}, f32[1792]{0}, f32[896]{0}, /*index=15*/f32[7168]{0}, f32[1792]{0}, f32[3584]{0}, f32[3584]{0}, f32[1024]{0}, /*index=20*/f32[7168]{0}, f32[3584]{0}, f32[1792]{0}, f32[1792]{0}) %fusion.486), index=12, metadata={op_name="parallelize(train_step_func_pipeshard_parallel_mesh_1)/jit(main)/jit(2)/jit(24)/add"}
  %cudnn-conv-bw-filter.14 = (f32[3,3,896,1792]{1,0,2,3}, u8[0]{0}) custom-call(f32[16,14,14,896]{2,1,3,0} %fusion.223, f32[16,14,14,1792]{2,1,3,0} %fusion.193), window={size=3x3 pad=1_1x1_1}, dim_labels=b01f_01io->b01f, custom_call_target="__cudnn$convBackwardFilter", metadata={op_name="parallelize(train_step_func_pipeshard_parallel_mesh_1)/jit(main)/jit(2)/jit(24)/transpose(jvp(remat))/WideResNet/BottleneckResNetBlock_11/Conv_1/conv_general_dilated[window_strides=(1, 1) padding=((1, 1), (1, 1)) lhs_dilation=(1, 1) rhs_dilation=(1, 1) dimension_numbers=ConvDimensionNumbers(lhs_spec=(3, 0, 1, 2), rhs_spec=(3, 0, 1, 2), out_spec=(2, 3, 0, 1)) feature_group_count=1 batch_group_count=1 lhs_shape=(16, 14, 14, 896) rhs_shape=(16, 14, 14, 1792) precision=None preferred_element_type=None]" source_file="/home/cyxue/miniconda3/envs/alpa/lib/python3.8/site-packages/flax/linen/linear.py" source_line=435}, backend_config="{\"conv_result_scale\":1,\"activation_mode\":\"0\",\"side_input_scale\":0}"
  %get-tuple-element.44 = f32[3,3,896,1792]{1,0,2,3} get-tuple-element((f32[3,3,896,1792]{1,0,2,3}, u8[0]{0}) %cudnn-conv-bw-filter.14), index=0, metadata={op_name="parallelize(train_step_func_pipeshard_parallel_mesh_1)/jit(main)/jit(2)/jit(24)/transpose(jvp(remat))/WideResNet/BottleneckResNetBlock_11/Conv_1/conv_general_dilated[window_strides=(1, 1) padding=((1, 1), (1, 1)) lhs_dilation=(1, 1) rhs_dilation=(1, 1) dimension_numbers=ConvDimensionNumbers(lhs_spec=(3, 0, 1, 2), rhs_spec=(3, 0, 1, 2), out_spec=(2, 3, 0, 1)) feature_group_count=1 batch_group_count=1 lhs_shape=(16, 14, 14, 896) rhs_shape=(16, 14, 14, 1792) precision=None preferred_element_type=None]" source_file="/home/cyxue/miniconda3/envs/alpa/lib/python3.8/site-packages/flax/linen/linear.py" source_line=435}
  %param_44 = f32[3,3,896,1792]{3,2,1,0} parameter(44), metadata={op_name="2$start"}
  %fusion.182 = f32[3,3,896,1792]{3,2,1,0} fusion(f32[3,3,896,1792]{1,0,2,3} %get-tuple-element.44, f32[3,3,896,1792]{3,2,1,0} %param_44), kind=kLoop, calls=%fused_computation.182, metadata={op_name="tuple.79"}
  %get-tuple-element.389 = f32[1792]{0} get-tuple-element((f32[896]{0}, f32[7168]{0}, f32[3584]{0}, f32[3584]{0}, f32[1792]{0}, /*index=5*/f32[1792]{0}, f32[896]{0}, f32[3584]{0}, f32[1792]{0}, f32[3584]{0}, /*index=10*/f32[1792]{0}, f32[896]{0}, f32[3584]{0}, f32[7168]{0}, f32[1792]{0}, /*index=15*/f32[896]{0}, f32[1792]{0}, f32[3584]{0}, f32[1792]{0}, f32[1792]{0}, /*index=20*/f32[896]{0}, f32[3584]{0}) %fusion.487), index=14, metadata={op_name="parallelize(train_step_func_pipeshard_parallel_mesh_1)/jit(main)/jit(2)/jit(24)/add"}
  %get-tuple-element.390 = f32[1792]{0} get-tuple-element((f32[3584]{0}, f32[3584]{0}, f32[1792]{0}, f32[896]{0}, f32[3584]{0}, /*index=5*/f32[1792]{0}, f32[896]{0}, f32[3584]{0}, f32[1792]{0}, f32[896]{0}, /*index=10*/f32[3584]{0}, f32[1792]{0}, f32[896]{0}, f32[1792]{0}, f32[896]{0}, /*index=15*/f32[7168]{0}, f32[1792]{0}, f32[3584]{0}, f32[3584]{0}, f32[1024]{0}, /*index=20*/f32[7168]{0}, f32[3584]{0}, f32[1792]{0}, f32[1792]{0}) %fusion.486), index=11, metadata={op_name="parallelize(train_step_func_pipeshard_parallel_mesh_1)/jit(main)/jit(2)/jit(24)/add"}
  %cudnn-conv-bw-filter.13 = (f32[1,1,1792,3584]{1,0,2,3}, u8[0]{0}) custom-call(f32[16,14,14,1792]{2,1,3,0} %fusion.213, f32[16,14,14,3584]{2,1,3,0} %fusion.199), window={size=1x1}, dim_labels=b01f_01io->b01f, custom_call_target="__cudnn$convBackwardFilter", metadata={op_name="parallelize(train_step_func_pipeshard_parallel_mesh_1)/jit(main)/jit(2)/jit(24)/transpose(jvp(remat))/WideResNet/BottleneckResNetBlock_11/Conv_2/conv_general_dilated[window_strides=(1, 1) padding=((0, 0), (0, 0)) lhs_dilation=(1, 1) rhs_dilation=(1, 1) dimension_numbers=ConvDimensionNumbers(lhs_spec=(3, 0, 1, 2), rhs_spec=(3, 0, 1, 2), out_spec=(2, 3, 0, 1)) feature_group_count=1 batch_group_count=1 lhs_shape=(16, 14, 14, 1792) rhs_shape=(16, 14, 14, 3584) precision=None preferred_element_type=None]" source_file="/home/cyxue/miniconda3/envs/alpa/lib/python3.8/site-packages/flax/linen/linear.py" source_line=435}, backend_config="{\"conv_result_scale\":1,\"activation_mode\":\"0\",\"side_input_scale\":0}"
  %get-tuple-element.42 = f32[1,1,1792,3584]{1,0,2,3} get-tuple-element((f32[1,1,1792,3584]{1,0,2,3}, u8[0]{0}) %cudnn-conv-bw-filter.13), index=0, metadata={op_name="parallelize(train_step_func_pipeshard_parallel_mesh_1)/jit(main)/jit(2)/jit(24)/transpose(jvp(remat))/WideResNet/BottleneckResNetBlock_11/Conv_2/conv_general_dilated[window_strides=(1, 1) padding=((0, 0), (0, 0)) lhs_dilation=(1, 1) rhs_dilation=(1, 1) dimension_numbers=ConvDimensionNumbers(lhs_spec=(3, 0, 1, 2), rhs_spec=(3, 0, 1, 2), out_spec=(2, 3, 0, 1)) feature_group_count=1 batch_group_count=1 lhs_shape=(16, 14, 14, 1792) rhs_shape=(16, 14, 14, 3584) precision=None preferred_element_type=None]" source_file="/home/cyxue/miniconda3/envs/alpa/lib/python3.8/site-packages/flax/linen/linear.py" source_line=435}
  %param_47 = f32[1,1,1792,3584]{3,2,1,0} parameter(47), metadata={op_name="2$start"}
  %fusion.178 = f32[1,1,1792,3584]{3,2,1,0} fusion(f32[1,1,1792,3584]{1,0,2,3} %get-tuple-element.42, f32[1,1,1792,3584]{3,2,1,0} %param_47), kind=kLoop, calls=%fused_computation.178, metadata={op_name="tuple.79"}
  %get-tuple-element.392 = f32[3584]{0} get-tuple-element((f32[896]{0}, f32[7168]{0}, f32[3584]{0}, f32[3584]{0}, f32[1792]{0}, /*index=5*/f32[1792]{0}, f32[896]{0}, f32[3584]{0}, f32[1792]{0}, f32[3584]{0}, /*index=10*/f32[1792]{0}, f32[896]{0}, f32[3584]{0}, f32[7168]{0}, f32[1792]{0}, /*index=15*/f32[896]{0}, f32[1792]{0}, f32[3584]{0}, f32[1792]{0}, f32[1792]{0}, /*index=20*/f32[896]{0}, f32[3584]{0}) %fusion.487), index=12, metadata={op_name="parallelize(train_step_func_pipeshard_parallel_mesh_1)/jit(main)/jit(2)/jit(24)/add"}
  %get-tuple-element.393 = f32[3584]{0} get-tuple-element((f32[3584]{0}, f32[3584]{0}, f32[1792]{0}, f32[896]{0}, f32[3584]{0}, /*index=5*/f32[1792]{0}, f32[896]{0}, f32[3584]{0}, f32[1792]{0}, f32[896]{0}, /*index=10*/f32[3584]{0}, f32[1792]{0}, f32[896]{0}, f32[1792]{0}, f32[896]{0}, /*index=15*/f32[7168]{0}, f32[1792]{0}, f32[3584]{0}, f32[3584]{0}, f32[1024]{0}, /*index=20*/f32[7168]{0}, f32[3584]{0}, f32[1792]{0}, f32[1792]{0}) %fusion.486), index=10, metadata={op_name="parallelize(train_step_func_pipeshard_parallel_mesh_1)/jit(main)/jit(2)/jit(24)/add"}
  %cudnn-conv-bw-filter.18 = (f32[1,1,3584,896]{1,0,2,3}, u8[0]{0}) custom-call(f32[16,14,14,3584]{2,1,3,0} %copy.70, f32[16,14,14,896]{2,1,3,0} %fusion.129), window={size=1x1}, dim_labels=b01f_01io->b01f, custom_call_target="__cudnn$convBackwardFilter", metadata={op_name="parallelize(train_step_func_pipeshard_parallel_mesh_1)/jit(main)/jit(2)/jit(25)/transpose(jvp(remat))/WideResNet/BottleneckResNetBlock_10/Conv_0/conv_general_dilated[window_strides=(1, 1) padding=((0, 0), (0, 0)) lhs_dilation=(1, 1) rhs_dilation=(1, 1) dimension_numbers=ConvDimensionNumbers(lhs_spec=(3, 0, 1, 2), rhs_spec=(3, 0, 1, 2), out_spec=(2, 3, 0, 1)) feature_group_count=1 batch_group_count=1 lhs_shape=(16, 14, 14, 3584) rhs_shape=(16, 14, 14, 896) precision=None preferred_element_type=None]" source_file="/home/cyxue/miniconda3/envs/alpa/lib/python3.8/site-packages/flax/linen/linear.py" source_line=435}, backend_config="{\"conv_result_scale\":1,\"activation_mode\":\"0\",\"side_input_scale\":0}"
  %get-tuple-element.55 = f32[1,1,3584,896]{1,0,2,3} get-tuple-element((f32[1,1,3584,896]{1,0,2,3}, u8[0]{0}) %cudnn-conv-bw-filter.18), index=0, metadata={op_name="parallelize(train_step_func_pipeshard_parallel_mesh_1)/jit(main)/jit(2)/jit(25)/transpose(jvp(remat))/WideResNet/BottleneckResNetBlock_10/Conv_0/conv_general_dilated[window_strides=(1, 1) padding=((0, 0), (0, 0)) lhs_dilation=(1, 1) rhs_dilation=(1, 1) dimension_numbers=ConvDimensionNumbers(lhs_spec=(3, 0, 1, 2), rhs_spec=(3, 0, 1, 2), out_spec=(2, 3, 0, 1)) feature_group_count=1 batch_group_count=1 lhs_shape=(16, 14, 14, 3584) rhs_shape=(16, 14, 14, 896) precision=None preferred_element_type=None]" source_file="/home/cyxue/miniconda3/envs/alpa/lib/python3.8/site-packages/flax/linen/linear.py" source_line=435}
  %param_50 = f32[1,1,3584,896]{3,2,1,0} parameter(50), metadata={op_name="2$start"}
  %fusion.128 = f32[1,1,3584,896]{3,2,1,0} fusion(f32[1,1,3584,896]{1,0,2,3} %get-tuple-element.55, f32[1,1,3584,896]{3,2,1,0} %param_50), kind=kLoop, calls=%fused_computation.128, metadata={op_name="tuple.79"}
  %get-tuple-element.395 = f32[896]{0} get-tuple-element((f32[896]{0}, f32[7168]{0}, f32[3584]{0}, f32[3584]{0}, f32[1792]{0}, /*index=5*/f32[1792]{0}, f32[896]{0}, f32[3584]{0}, f32[1792]{0}, f32[3584]{0}, /*index=10*/f32[1792]{0}, f32[896]{0}, f32[3584]{0}, f32[7168]{0}, f32[1792]{0}, /*index=15*/f32[896]{0}, f32[1792]{0}, f32[3584]{0}, f32[1792]{0}, f32[1792]{0}, /*index=20*/f32[896]{0}, f32[3584]{0}) %fusion.487), index=11, metadata={op_name="parallelize(train_step_func_pipeshard_parallel_mesh_1)/jit(main)/jit(2)/jit(25)/add"}
  %get-tuple-element.396 = f32[896]{0} get-tuple-element((f32[3584]{0}, f32[3584]{0}, f32[1792]{0}, f32[896]{0}, f32[3584]{0}, /*index=5*/f32[1792]{0}, f32[896]{0}, f32[3584]{0}, f32[1792]{0}, f32[896]{0}, /*index=10*/f32[3584]{0}, f32[1792]{0}, f32[896]{0}, f32[1792]{0}, f32[896]{0}, /*index=15*/f32[7168]{0}, f32[1792]{0}, f32[3584]{0}, f32[3584]{0}, f32[1024]{0}, /*index=20*/f32[7168]{0}, f32[3584]{0}, f32[1792]{0}, f32[1792]{0}) %fusion.486), index=9, metadata={op_name="parallelize(train_step_func_pipeshard_parallel_mesh_1)/jit(main)/jit(2)/jit(25)/add"}
  %cudnn-conv-bw-filter.17 = (f32[3,3,896,1792]{1,0,2,3}, u8[0]{0}) custom-call(f32[16,14,14,896]{2,1,3,0} %fusion.165, f32[16,14,14,1792]{2,1,3,0} %fusion.135), window={size=3x3 pad=1_1x1_1}, dim_labels=b01f_01io->b01f, custom_call_target="__cudnn$convBackwardFilter", metadata={op_name="parallelize(train_step_func_pipeshard_parallel_mesh_1)/jit(main)/jit(2)/jit(25)/transpose(jvp(remat))/WideResNet/BottleneckResNetBlock_10/Conv_1/conv_general_dilated[window_strides=(1, 1) padding=((1, 1), (1, 1)) lhs_dilation=(1, 1) rhs_dilation=(1, 1) dimension_numbers=ConvDimensionNumbers(lhs_spec=(3, 0, 1, 2), rhs_spec=(3, 0, 1, 2), out_spec=(2, 3, 0, 1)) feature_group_count=1 batch_group_count=1 lhs_shape=(16, 14, 14, 896) rhs_shape=(16, 14, 14, 1792) precision=None preferred_element_type=None]" source_file="/home/cyxue/miniconda3/envs/alpa/lib/python3.8/site-packages/flax/linen/linear.py" source_line=435}, backend_config="{\"conv_result_scale\":1,\"activation_mode\":\"0\",\"side_input_scale\":0}"
  %get-tuple-element.53 = f32[3,3,896,1792]{1,0,2,3} get-tuple-element((f32[3,3,896,1792]{1,0,2,3}, u8[0]{0}) %cudnn-conv-bw-filter.17), index=0, metadata={op_name="parallelize(train_step_func_pipeshard_parallel_mesh_1)/jit(main)/jit(2)/jit(25)/transpose(jvp(remat))/WideResNet/BottleneckResNetBlock_10/Conv_1/conv_general_dilated[window_strides=(1, 1) padding=((1, 1), (1, 1)) lhs_dilation=(1, 1) rhs_dilation=(1, 1) dimension_numbers=ConvDimensionNumbers(lhs_spec=(3, 0, 1, 2), rhs_spec=(3, 0, 1, 2), out_spec=(2, 3, 0, 1)) feature_group_count=1 batch_group_count=1 lhs_shape=(16, 14, 14, 896) rhs_shape=(16, 14, 14, 1792) precision=None preferred_element_type=None]" source_file="/home/cyxue/miniconda3/envs/alpa/lib/python3.8/site-packages/flax/linen/linear.py" source_line=435}
  %param_53 = f32[3,3,896,1792]{3,2,1,0} parameter(53), metadata={op_name="2$start"}
  %fusion.124 = f32[3,3,896,1792]{3,2,1,0} fusion(f32[3,3,896,1792]{1,0,2,3} %get-tuple-element.53, f32[3,3,896,1792]{3,2,1,0} %param_53), kind=kLoop, calls=%fused_computation.124, metadata={op_name="tuple.79"}
  %get-tuple-element.398 = f32[1792]{0} get-tuple-element((f32[896]{0}, f32[7168]{0}, f32[3584]{0}, f32[3584]{0}, f32[1792]{0}, /*index=5*/f32[1792]{0}, f32[896]{0}, f32[3584]{0}, f32[1792]{0}, f32[3584]{0}, /*index=10*/f32[1792]{0}, f32[896]{0}, f32[3584]{0}, f32[7168]{0}, f32[1792]{0}, /*index=15*/f32[896]{0}, f32[1792]{0}, f32[3584]{0}, f32[1792]{0}, f32[1792]{0}, /*index=20*/f32[896]{0}, f32[3584]{0}) %fusion.487), index=10, metadata={op_name="parallelize(train_step_func_pipeshard_parallel_mesh_1)/jit(main)/jit(2)/jit(25)/add"}
  %get-tuple-element.399 = f32[1792]{0} get-tuple-element((f32[3584]{0}, f32[3584]{0}, f32[1792]{0}, f32[896]{0}, f32[3584]{0}, /*index=5*/f32[1792]{0}, f32[896]{0}, f32[3584]{0}, f32[1792]{0}, f32[896]{0}, /*index=10*/f32[3584]{0}, f32[1792]{0}, f32[896]{0}, f32[1792]{0}, f32[896]{0}, /*index=15*/f32[7168]{0}, f32[1792]{0}, f32[3584]{0}, f32[3584]{0}, f32[1024]{0}, /*index=20*/f32[7168]{0}, f32[3584]{0}, f32[1792]{0}, f32[1792]{0}) %fusion.486), index=8, metadata={op_name="parallelize(train_step_func_pipeshard_parallel_mesh_1)/jit(main)/jit(2)/jit(25)/add"}
  %cudnn-conv-bw-filter.16 = (f32[1,1,1792,3584]{1,0,2,3}, u8[0]{0}) custom-call(f32[16,14,14,1792]{2,1,3,0} %fusion.155, f32[16,14,14,3584]{2,1,3,0} %fusion.141), window={size=1x1}, dim_labels=b01f_01io->b01f, custom_call_target="__cudnn$convBackwardFilter", metadata={op_name="parallelize(train_step_func_pipeshard_parallel_mesh_1)/jit(main)/jit(2)/jit(25)/transpose(jvp(remat))/WideResNet/BottleneckResNetBlock_10/Conv_2/conv_general_dilated[window_strides=(1, 1) padding=((0, 0), (0, 0)) lhs_dilation=(1, 1) rhs_dilation=(1, 1) dimension_numbers=ConvDimensionNumbers(lhs_spec=(3, 0, 1, 2), rhs_spec=(3, 0, 1, 2), out_spec=(2, 3, 0, 1)) feature_group_count=1 batch_group_count=1 lhs_shape=(16, 14, 14, 1792) rhs_shape=(16, 14, 14, 3584) precision=None preferred_element_type=None]" source_file="/home/cyxue/miniconda3/envs/alpa/lib/python3.8/site-packages/flax/linen/linear.py" source_line=435}, backend_config="{\"conv_result_scale\":1,\"activation_mode\":\"0\",\"side_input_scale\":0}"
  %get-tuple-element.51 = f32[1,1,1792,3584]{1,0,2,3} get-tuple-element((f32[1,1,1792,3584]{1,0,2,3}, u8[0]{0}) %cudnn-conv-bw-filter.16), index=0, metadata={op_name="parallelize(train_step_func_pipeshard_parallel_mesh_1)/jit(main)/jit(2)/jit(25)/transpose(jvp(remat))/WideResNet/BottleneckResNetBlock_10/Conv_2/conv_general_dilated[window_strides=(1, 1) padding=((0, 0), (0, 0)) lhs_dilation=(1, 1) rhs_dilation=(1, 1) dimension_numbers=ConvDimensionNumbers(lhs_spec=(3, 0, 1, 2), rhs_spec=(3, 0, 1, 2), out_spec=(2, 3, 0, 1)) feature_group_count=1 batch_group_count=1 lhs_shape=(16, 14, 14, 1792) rhs_shape=(16, 14, 14, 3584) precision=None preferred_element_type=None]" source_file="/home/cyxue/miniconda3/envs/alpa/lib/python3.8/site-packages/flax/linen/linear.py" source_line=435}
  %param_56 = f32[1,1,1792,3584]{3,2,1,0} parameter(56), metadata={op_name="2$start"}
  %fusion.120 = f32[1,1,1792,3584]{3,2,1,0} fusion(f32[1,1,1792,3584]{1,0,2,3} %get-tuple-element.51, f32[1,1,1792,3584]{3,2,1,0} %param_56), kind=kLoop, calls=%fused_computation.120, metadata={op_name="tuple.79"}
  %get-tuple-element.401 = f32[3584]{0} get-tuple-element((f32[896]{0}, f32[7168]{0}, f32[3584]{0}, f32[3584]{0}, f32[1792]{0}, /*index=5*/f32[1792]{0}, f32[896]{0}, f32[3584]{0}, f32[1792]{0}, f32[3584]{0}, /*index=10*/f32[1792]{0}, f32[896]{0}, f32[3584]{0}, f32[7168]{0}, f32[1792]{0}, /*index=15*/f32[896]{0}, f32[1792]{0}, f32[3584]{0}, f32[1792]{0}, f32[1792]{0}, /*index=20*/f32[896]{0}, f32[3584]{0}) %fusion.487), index=9, metadata={op_name="parallelize(train_step_func_pipeshard_parallel_mesh_1)/jit(main)/jit(2)/jit(25)/add"}
  %get-tuple-element.402 = f32[3584]{0} get-tuple-element((f32[3584]{0}, f32[3584]{0}, f32[1792]{0}, f32[896]{0}, f32[3584]{0}, /*index=5*/f32[1792]{0}, f32[896]{0}, f32[3584]{0}, f32[1792]{0}, f32[896]{0}, /*index=10*/f32[3584]{0}, f32[1792]{0}, f32[896]{0}, f32[1792]{0}, f32[896]{0}, /*index=15*/f32[7168]{0}, f32[1792]{0}, f32[3584]{0}, f32[3584]{0}, f32[1024]{0}, /*index=20*/f32[7168]{0}, f32[3584]{0}, f32[1792]{0}, f32[1792]{0}) %fusion.486), index=7, metadata={op_name="parallelize(train_step_func_pipeshard_parallel_mesh_1)/jit(main)/jit(2)/jit(25)/add"}
  %cudnn-conv-bw-filter.21 = (f32[1,1,3584,896]{1,0,2,3}, u8[0]{0}) custom-call(f32[16,14,14,3584]{2,1,3,0} %fusion.116, f32[16,14,14,896]{2,1,3,0} %fusion.70), window={size=1x1}, dim_labels=b01f_01io->b01f, custom_call_target="__cudnn$convBackwardFilter", metadata={op_name="parallelize(train_step_func_pipeshard_parallel_mesh_1)/jit(main)/jit(2)/jit(26)/transpose(jvp(remat))/WideResNet/BottleneckResNetBlock_9/Conv_0/conv_general_dilated[window_strides=(1, 1) padding=((0, 0), (0, 0)) lhs_dilation=(1, 1) rhs_dilation=(1, 1) dimension_numbers=ConvDimensionNumbers(lhs_spec=(3, 0, 1, 2), rhs_spec=(3, 0, 1, 2), out_spec=(2, 3, 0, 1)) feature_group_count=1 batch_group_count=1 lhs_shape=(16, 14, 14, 3584) rhs_shape=(16, 14, 14, 896) precision=None preferred_element_type=None]" source_file="/home/cyxue/miniconda3/envs/alpa/lib/python3.8/site-packages/flax/linen/linear.py" source_line=435}, backend_config="{\"conv_result_scale\":1,\"activation_mode\":\"0\",\"side_input_scale\":0}"
  %get-tuple-element.64 = f32[1,1,3584,896]{1,0,2,3} get-tuple-element((f32[1,1,3584,896]{1,0,2,3}, u8[0]{0}) %cudnn-conv-bw-filter.21), index=0, metadata={op_name="parallelize(train_step_func_pipeshard_parallel_mesh_1)/jit(main)/jit(2)/jit(26)/transpose(jvp(remat))/WideResNet/BottleneckResNetBlock_9/Conv_0/conv_general_dilated[window_strides=(1, 1) padding=((0, 0), (0, 0)) lhs_dilation=(1, 1) rhs_dilation=(1, 1) dimension_numbers=ConvDimensionNumbers(lhs_spec=(3, 0, 1, 2), rhs_spec=(3, 0, 1, 2), out_spec=(2, 3, 0, 1)) feature_group_count=1 batch_group_count=1 lhs_shape=(16, 14, 14, 3584) rhs_shape=(16, 14, 14, 896) precision=None preferred_element_type=None]" source_file="/home/cyxue/miniconda3/envs/alpa/lib/python3.8/site-packages/flax/linen/linear.py" source_line=435}
  %param_59 = f32[1,1,3584,896]{3,2,1,0} parameter(59), metadata={op_name="2$start"}
  %fusion.69 = f32[1,1,3584,896]{3,2,1,0} fusion(f32[1,1,3584,896]{1,0,2,3} %get-tuple-element.64, f32[1,1,3584,896]{3,2,1,0} %param_59), kind=kLoop, calls=%fused_computation.69, metadata={op_name="tuple.79"}
  %get-tuple-element.404 = f32[896]{0} get-tuple-element((f32[896]{0}, f32[7168]{0}, f32[3584]{0}, f32[3584]{0}, f32[1792]{0}, /*index=5*/f32[1792]{0}, f32[896]{0}, f32[3584]{0}, f32[1792]{0}, f32[3584]{0}, /*index=10*/f32[1792]{0}, f32[896]{0}, f32[3584]{0}, f32[7168]{0}, f32[1792]{0}, /*index=15*/f32[896]{0}, f32[1792]{0}, f32[3584]{0}, f32[1792]{0}, f32[1792]{0}, /*index=20*/f32[896]{0}, f32[3584]{0}) %fusion.487), index=6, metadata={op_name="parallelize(train_step_func_pipeshard_parallel_mesh_1)/jit(main)/jit(2)/jit(26)/add"}
  %get-tuple-element.405 = f32[896]{0} get-tuple-element((f32[3584]{0}, f32[3584]{0}, f32[1792]{0}, f32[896]{0}, f32[3584]{0}, /*index=5*/f32[1792]{0}, f32[896]{0}, f32[3584]{0}, f32[1792]{0}, f32[896]{0}, /*index=10*/f32[3584]{0}, f32[1792]{0}, f32[896]{0}, f32[1792]{0}, f32[896]{0}, /*index=15*/f32[7168]{0}, f32[1792]{0}, f32[3584]{0}, f32[3584]{0}, f32[1024]{0}, /*index=20*/f32[7168]{0}, f32[3584]{0}, f32[1792]{0}, f32[1792]{0}) %fusion.486), index=6, metadata={op_name="parallelize(train_step_func_pipeshard_parallel_mesh_1)/jit(main)/jit(2)/jit(26)/add"}
  %cudnn-conv-bw-filter.20 = (f32[3,3,896,1792]{1,0,2,3}, u8[0]{0}) custom-call(f32[16,14,14,896]{2,1,3,0} %fusion.106, f32[16,14,14,1792]{2,1,3,0} %fusion.76), window={size=3x3 pad=1_1x1_1}, dim_labels=b01f_01io->b01f, custom_call_target="__cudnn$convBackwardFilter", metadata={op_name="parallelize(train_step_func_pipeshard_parallel_mesh_1)/jit(main)/jit(2)/jit(26)/transpose(jvp(remat))/WideResNet/BottleneckResNetBlock_9/Conv_1/conv_general_dilated[window_strides=(1, 1) padding=((1, 1), (1, 1)) lhs_dilation=(1, 1) rhs_dilation=(1, 1) dimension_numbers=ConvDimensionNumbers(lhs_spec=(3, 0, 1, 2), rhs_spec=(3, 0, 1, 2), out_spec=(2, 3, 0, 1)) feature_group_count=1 batch_group_count=1 lhs_shape=(16, 14, 14, 896) rhs_shape=(16, 14, 14, 1792) precision=None preferred_element_type=None]" source_file="/home/cyxue/miniconda3/envs/alpa/lib/python3.8/site-packages/flax/linen/linear.py" source_line=435}, backend_config="{\"conv_result_scale\":1,\"activation_mode\":\"0\",\"side_input_scale\":0}"
  %get-tuple-element.62 = f32[3,3,896,1792]{1,0,2,3} get-tuple-element((f32[3,3,896,1792]{1,0,2,3}, u8[0]{0}) %cudnn-conv-bw-filter.20), index=0, metadata={op_name="parallelize(train_step_func_pipeshard_parallel_mesh_1)/jit(main)/jit(2)/jit(26)/transpose(jvp(remat))/WideResNet/BottleneckResNetBlock_9/Conv_1/conv_general_dilated[window_strides=(1, 1) padding=((1, 1), (1, 1)) lhs_dilation=(1, 1) rhs_dilation=(1, 1) dimension_numbers=ConvDimensionNumbers(lhs_spec=(3, 0, 1, 2), rhs_spec=(3, 0, 1, 2), out_spec=(2, 3, 0, 1)) feature_group_count=1 batch_group_count=1 lhs_shape=(16, 14, 14, 896) rhs_shape=(16, 14, 14, 1792) precision=None preferred_element_type=None]" source_file="/home/cyxue/miniconda3/envs/alpa/lib/python3.8/site-packages/flax/linen/linear.py" source_line=435}
  %param_62 = f32[3,3,896,1792]{3,2,1,0} parameter(62), metadata={op_name="2$start"}
  %fusion.65 = f32[3,3,896,1792]{3,2,1,0} fusion(f32[3,3,896,1792]{1,0,2,3} %get-tuple-element.62, f32[3,3,896,1792]{3,2,1,0} %param_62), kind=kLoop, calls=%fused_computation.65, metadata={op_name="tuple.79"}
  %get-tuple-element.407 = f32[1792]{0} get-tuple-element((f32[896]{0}, f32[7168]{0}, f32[3584]{0}, f32[3584]{0}, f32[1792]{0}, /*index=5*/f32[1792]{0}, f32[896]{0}, f32[3584]{0}, f32[1792]{0}, f32[3584]{0}, /*index=10*/f32[1792]{0}, f32[896]{0}, f32[3584]{0}, f32[7168]{0}, f32[1792]{0}, /*index=15*/f32[896]{0}, f32[1792]{0}, f32[3584]{0}, f32[1792]{0}, f32[1792]{0}, /*index=20*/f32[896]{0}, f32[3584]{0}) %fusion.487), index=4, metadata={op_name="parallelize(train_step_func_pipeshard_parallel_mesh_1)/jit(main)/jit(2)/jit(26)/add"}
  %get-tuple-element.408 = f32[1792]{0} get-tuple-element((f32[3584]{0}, f32[3584]{0}, f32[1792]{0}, f32[896]{0}, f32[3584]{0}, /*index=5*/f32[1792]{0}, f32[896]{0}, f32[3584]{0}, f32[1792]{0}, f32[896]{0}, /*index=10*/f32[3584]{0}, f32[1792]{0}, f32[896]{0}, f32[1792]{0}, f32[896]{0}, /*index=15*/f32[7168]{0}, f32[1792]{0}, f32[3584]{0}, f32[3584]{0}, f32[1024]{0}, /*index=20*/f32[7168]{0}, f32[3584]{0}, f32[1792]{0}, f32[1792]{0}) %fusion.486), index=5, metadata={op_name="parallelize(train_step_func_pipeshard_parallel_mesh_1)/jit(main)/jit(2)/jit(26)/add"}
  %cudnn-conv-bw-filter.19 = (f32[1,1,1792,3584]{1,0,2,3}, u8[0]{0}) custom-call(f32[16,14,14,1792]{2,1,3,0} %fusion.96, f32[16,14,14,3584]{2,1,3,0} %fusion.82), window={size=1x1}, dim_labels=b01f_01io->b01f, custom_call_target="__cudnn$convBackwardFilter", metadata={op_name="parallelize(train_step_func_pipeshard_parallel_mesh_1)/jit(main)/jit(2)/jit(26)/transpose(jvp(remat))/WideResNet/BottleneckResNetBlock_9/Conv_2/conv_general_dilated[window_strides=(1, 1) padding=((0, 0), (0, 0)) lhs_dilation=(1, 1) rhs_dilation=(1, 1) dimension_numbers=ConvDimensionNumbers(lhs_spec=(3, 0, 1, 2), rhs_spec=(3, 0, 1, 2), out_spec=(2, 3, 0, 1)) feature_group_count=1 batch_group_count=1 lhs_shape=(16, 14, 14, 1792) rhs_shape=(16, 14, 14, 3584) precision=None preferred_element_type=None]" source_file="/home/cyxue/miniconda3/envs/alpa/lib/python3.8/site-packages/flax/linen/linear.py" source_line=435}, backend_config="{\"conv_result_scale\":1,\"activation_mode\":\"0\",\"side_input_scale\":0}"
  %get-tuple-element.60 = f32[1,1,1792,3584]{1,0,2,3} get-tuple-element((f32[1,1,1792,3584]{1,0,2,3}, u8[0]{0}) %cudnn-conv-bw-filter.19), index=0, metadata={op_name="parallelize(train_step_func_pipeshard_parallel_mesh_1)/jit(main)/jit(2)/jit(26)/transpose(jvp(remat))/WideResNet/BottleneckResNetBlock_9/Conv_2/conv_general_dilated[window_strides=(1, 1) padding=((0, 0), (0, 0)) lhs_dilation=(1, 1) rhs_dilation=(1, 1) dimension_numbers=ConvDimensionNumbers(lhs_spec=(3, 0, 1, 2), rhs_spec=(3, 0, 1, 2), out_spec=(2, 3, 0, 1)) feature_group_count=1 batch_group_count=1 lhs_shape=(16, 14, 14, 1792) rhs_shape=(16, 14, 14, 3584) precision=None preferred_element_type=None]" source_file="/home/cyxue/miniconda3/envs/alpa/lib/python3.8/site-packages/flax/linen/linear.py" source_line=435}
  %param_65 = f32[1,1,1792,3584]{3,2,1,0} parameter(65), metadata={op_name="2$start"}
  %fusion.61 = f32[1,1,1792,3584]{3,2,1,0} fusion(f32[1,1,1792,3584]{1,0,2,3} %get-tuple-element.60, f32[1,1,1792,3584]{3,2,1,0} %param_65), kind=kLoop, calls=%fused_computation.61, metadata={op_name="tuple.79"}
  %get-tuple-element.410 = f32[3584]{0} get-tuple-element((f32[896]{0}, f32[7168]{0}, f32[3584]{0}, f32[3584]{0}, f32[1792]{0}, /*index=5*/f32[1792]{0}, f32[896]{0}, f32[3584]{0}, f32[1792]{0}, f32[3584]{0}, /*index=10*/f32[1792]{0}, f32[896]{0}, f32[3584]{0}, f32[7168]{0}, f32[1792]{0}, /*index=15*/f32[896]{0}, f32[1792]{0}, f32[3584]{0}, f32[1792]{0}, f32[1792]{0}, /*index=20*/f32[896]{0}, f32[3584]{0}) %fusion.487), index=2, metadata={op_name="parallelize(train_step_func_pipeshard_parallel_mesh_1)/jit(main)/jit(2)/jit(26)/add"}
  %get-tuple-element.411 = f32[3584]{0} get-tuple-element((f32[3584]{0}, f32[3584]{0}, f32[1792]{0}, f32[896]{0}, f32[3584]{0}, /*index=5*/f32[1792]{0}, f32[896]{0}, f32[3584]{0}, f32[1792]{0}, f32[896]{0}, /*index=10*/f32[3584]{0}, f32[1792]{0}, f32[896]{0}, f32[1792]{0}, f32[896]{0}, /*index=15*/f32[7168]{0}, f32[1792]{0}, f32[3584]{0}, f32[3584]{0}, f32[1024]{0}, /*index=20*/f32[7168]{0}, f32[3584]{0}, f32[1792]{0}, f32[1792]{0}) %fusion.486), index=4, metadata={op_name="parallelize(train_step_func_pipeshard_parallel_mesh_1)/jit(main)/jit(2)/jit(26)/add"}
  %get-tuple-element.164 = f32[16,896]{1,0} get-tuple-element((f32[16,896]{1,0}, f32[16,896]{1,0}, f32[16,896]{1,0}) %fusion.10), index=1
  %reduce.373 = f32[896]{0} reduce(f32[16,896]{1,0} %get-tuple-element.164, f32[] %constant_758), dimensions={0}, to_apply=%region_57.4114.2, metadata={op_name="parallelize(train_step_func_pipeshard_parallel_mesh_1)/jit(main)/jit(2)/jit(27)/transpose(jvp(remat))/WideResNet/BottleneckResNetBlock_8/BatchNorm_0/reduce_sum[axes=(0, 1, 2)]" source_file="/home/cyxue/miniconda3/envs/alpa/lib/python3.8/site-packages/flax/linen/normalization.py" source_line=138}
  %fusion.13 = f32[16,14,14,896]{2,1,3,0} fusion(f32[896]{0} %reduce.373, f32[896]{0} %reduce.362, f32[16,14,14,896]{2,1,3,0} %get-tuple-element.66, f32[896]{0} %fusion.51, f32[1,1,1,896]{3,2,1,0} %fusion.15, /*index=5*/f32[896]{0} %get-tuple-element.719, f32[16,14,14,896]{2,1,3,0} %get-tuple-element.72, f32[896]{0} %get-tuple-element.720), kind=kLoop, calls=%fused_computation.13, metadata={op_name="parallelize(train_step_func_pipeshard_parallel_mesh_1)/jit(main)/jit(2)/jit(27)/transpose(jvp(remat))/WideResNet/BottleneckResNetBlock_8/BatchNorm_0/add_any" source_file="/home/cyxue/miniconda3/envs/alpa/lib/python3.8/site-packages/flax/linen/normalization.py" source_line=82}
  %cudnn-conv-bw-filter.24 = (f32[1,1,3584,896]{1,0,2,3}, u8[0]{0}) custom-call(f32[16,14,14,3584]{2,1,3,0} %fusion.56, f32[16,14,14,896]{2,1,3,0} %fusion.13), window={size=1x1}, dim_labels=b01f_01io->b01f, custom_call_target="__cudnn$convBackwardFilter", metadata={op_name="parallelize(train_step_func_pipeshard_parallel_mesh_1)/jit(main)/jit(2)/jit(27)/transpose(jvp(remat))/WideResNet/BottleneckResNetBlock_8/Conv_0/conv_general_dilated[window_strides=(1, 1) padding=((0, 0), (0, 0)) lhs_dilation=(1, 1) rhs_dilation=(1, 1) dimension_numbers=ConvDimensionNumbers(lhs_spec=(3, 0, 1, 2), rhs_spec=(3, 0, 1, 2), out_spec=(2, 3, 0, 1)) feature_group_count=1 batch_group_count=1 lhs_shape=(16, 14, 14, 3584) rhs_shape=(16, 14, 14, 896) precision=None preferred_element_type=None]" source_file="/home/cyxue/miniconda3/envs/alpa/lib/python3.8/site-packages/flax/linen/linear.py" source_line=435}, backend_config="{\"conv_result_scale\":1,\"activation_mode\":\"0\",\"side_input_scale\":0}"
  %get-tuple-element.73 = f32[1,1,3584,896]{1,0,2,3} get-tuple-element((f32[1,1,3584,896]{1,0,2,3}, u8[0]{0}) %cudnn-conv-bw-filter.24), index=0, metadata={op_name="parallelize(train_step_func_pipeshard_parallel_mesh_1)/jit(main)/jit(2)/jit(27)/transpose(jvp(remat))/WideResNet/BottleneckResNetBlock_8/Conv_0/conv_general_dilated[window_strides=(1, 1) padding=((0, 0), (0, 0)) lhs_dilation=(1, 1) rhs_dilation=(1, 1) dimension_numbers=ConvDimensionNumbers(lhs_spec=(3, 0, 1, 2), rhs_spec=(3, 0, 1, 2), out_spec=(2, 3, 0, 1)) feature_group_count=1 batch_group_count=1 lhs_shape=(16, 14, 14, 3584) rhs_shape=(16, 14, 14, 896) precision=None preferred_element_type=None]" source_file="/home/cyxue/miniconda3/envs/alpa/lib/python3.8/site-packages/flax/linen/linear.py" source_line=435}
  %param_68 = f32[1,1,3584,896]{3,2,1,0} parameter(68), metadata={op_name="2$start"}
  %fusion.12 = f32[1,1,3584,896]{3,2,1,0} fusion(f32[1,1,3584,896]{1,0,2,3} %get-tuple-element.73, f32[1,1,3584,896]{3,2,1,0} %param_68), kind=kLoop, calls=%fused_computation.12, metadata={op_name="tuple.79"}
  %get-tuple-element.413 = f32[896]{0} get-tuple-element((f32[896]{0}, f32[7168]{0}, f32[3584]{0}, f32[3584]{0}, f32[1792]{0}, /*index=5*/f32[1792]{0}, f32[896]{0}, f32[3584]{0}, f32[1792]{0}, f32[3584]{0}, /*index=10*/f32[1792]{0}, f32[896]{0}, f32[3584]{0}, f32[7168]{0}, f32[1792]{0}, /*index=15*/f32[896]{0}, f32[1792]{0}, f32[3584]{0}, f32[1792]{0}, f32[1792]{0}, /*index=20*/f32[896]{0}, f32[3584]{0}) %fusion.487), index=0, metadata={op_name="parallelize(train_step_func_pipeshard_parallel_mesh_1)/jit(main)/jit(2)/jit(27)/add"}
  %get-tuple-element.414 = f32[896]{0} get-tuple-element((f32[3584]{0}, f32[3584]{0}, f32[1792]{0}, f32[896]{0}, f32[3584]{0}, /*index=5*/f32[1792]{0}, f32[896]{0}, f32[3584]{0}, f32[1792]{0}, f32[896]{0}, /*index=10*/f32[3584]{0}, f32[1792]{0}, f32[896]{0}, f32[1792]{0}, f32[896]{0}, /*index=15*/f32[7168]{0}, f32[1792]{0}, f32[3584]{0}, f32[3584]{0}, f32[1024]{0}, /*index=20*/f32[7168]{0}, f32[3584]{0}, f32[1792]{0}, f32[1792]{0}) %fusion.486), index=3, metadata={op_name="parallelize(train_step_func_pipeshard_parallel_mesh_1)/jit(main)/jit(2)/jit(27)/add"}
  %cudnn-conv-bw-filter.23 = (f32[3,3,896,1792]{1,0,2,3}, u8[0]{0}) custom-call(f32[16,14,14,896]{2,1,3,0} %fusion.46, f32[16,14,14,1792]{2,1,3,0} %fusion.19), window={size=3x3 pad=1_1x1_1}, dim_labels=b01f_01io->b01f, custom_call_target="__cudnn$convBackwardFilter", metadata={op_name="parallelize(train_step_func_pipeshard_parallel_mesh_1)/jit(main)/jit(2)/jit(27)/transpose(jvp(remat))/WideResNet/BottleneckResNetBlock_8/Conv_1/conv_general_dilated[window_strides=(1, 1) padding=((1, 1), (1, 1)) lhs_dilation=(1, 1) rhs_dilation=(1, 1) dimension_numbers=ConvDimensionNumbers(lhs_spec=(3, 0, 1, 2), rhs_spec=(3, 0, 1, 2), out_spec=(2, 3, 0, 1)) feature_group_count=1 batch_group_count=1 lhs_shape=(16, 14, 14, 896) rhs_shape=(16, 14, 14, 1792) precision=None preferred_element_type=None]" source_file="/home/cyxue/miniconda3/envs/alpa/lib/python3.8/site-packages/flax/linen/linear.py" source_line=435}, backend_config="{\"conv_result_scale\":1,\"activation_mode\":\"0\",\"side_input_scale\":0}"
  %get-tuple-element.71 = f32[3,3,896,1792]{1,0,2,3} get-tuple-element((f32[3,3,896,1792]{1,0,2,3}, u8[0]{0}) %cudnn-conv-bw-filter.23), index=0, metadata={op_name="parallelize(train_step_func_pipeshard_parallel_mesh_1)/jit(main)/jit(2)/jit(27)/transpose(jvp(remat))/WideResNet/BottleneckResNetBlock_8/Conv_1/conv_general_dilated[window_strides=(1, 1) padding=((1, 1), (1, 1)) lhs_dilation=(1, 1) rhs_dilation=(1, 1) dimension_numbers=ConvDimensionNumbers(lhs_spec=(3, 0, 1, 2), rhs_spec=(3, 0, 1, 2), out_spec=(2, 3, 0, 1)) feature_group_count=1 batch_group_count=1 lhs_shape=(16, 14, 14, 896) rhs_shape=(16, 14, 14, 1792) precision=None preferred_element_type=None]" source_file="/home/cyxue/miniconda3/envs/alpa/lib/python3.8/site-packages/flax/linen/linear.py" source_line=435}
  %param_71 = f32[3,3,896,1792]{3,2,1,0} parameter(71), metadata={op_name="2$start"}
  %fusion.8 = f32[3,3,896,1792]{3,2,1,0} fusion(f32[3,3,896,1792]{1,0,2,3} %get-tuple-element.71, f32[3,3,896,1792]{3,2,1,0} %param_71), kind=kLoop, calls=%fused_computation.8, metadata={op_name="tuple.79"}
  %get-tuple-element.416 = f32[1792]{0} get-tuple-element((f32[896]{0}, f32[7168]{0}, f32[3584]{0}, f32[3584]{0}, f32[1792]{0}, /*index=5*/f32[1792]{0}, f32[896]{0}, f32[3584]{0}, f32[1792]{0}, f32[3584]{0}, /*index=10*/f32[1792]{0}, f32[896]{0}, f32[3584]{0}, f32[7168]{0}, f32[1792]{0}, /*index=15*/f32[896]{0}, f32[1792]{0}, f32[3584]{0}, f32[1792]{0}, f32[1792]{0}, /*index=20*/f32[896]{0}, f32[3584]{0}) %fusion.487), index=5, metadata={op_name="parallelize(train_step_func_pipeshard_parallel_mesh_1)/jit(main)/jit(2)/jit(27)/add"}
  %get-tuple-element.417 = f32[1792]{0} get-tuple-element((f32[3584]{0}, f32[3584]{0}, f32[1792]{0}, f32[896]{0}, f32[3584]{0}, /*index=5*/f32[1792]{0}, f32[896]{0}, f32[3584]{0}, f32[1792]{0}, f32[896]{0}, /*index=10*/f32[3584]{0}, f32[1792]{0}, f32[896]{0}, f32[1792]{0}, f32[896]{0}, /*index=15*/f32[7168]{0}, f32[1792]{0}, f32[3584]{0}, f32[3584]{0}, f32[1024]{0}, /*index=20*/f32[7168]{0}, f32[3584]{0}, f32[1792]{0}, f32[1792]{0}) %fusion.486), index=2, metadata={op_name="parallelize(train_step_func_pipeshard_parallel_mesh_1)/jit(main)/jit(2)/jit(27)/add"}
  %cudnn-conv-bw-filter.22 = (f32[1,1,1792,3584]{1,0,2,3}, u8[0]{0}) custom-call(f32[16,14,14,1792]{2,1,3,0} %fusion.36, f32[16,14,14,3584]{2,1,3,0} %fusion.25), window={size=1x1}, dim_labels=b01f_01io->b01f, custom_call_target="__cudnn$convBackwardFilter", metadata={op_name="parallelize(train_step_func_pipeshard_parallel_mesh_1)/jit(main)/jit(2)/jit(27)/transpose(jvp(remat))/WideResNet/BottleneckResNetBlock_8/Conv_2/conv_general_dilated[window_strides=(1, 1) padding=((0, 0), (0, 0)) lhs_dilation=(1, 1) rhs_dilation=(1, 1) dimension_numbers=ConvDimensionNumbers(lhs_spec=(3, 0, 1, 2), rhs_spec=(3, 0, 1, 2), out_spec=(2, 3, 0, 1)) feature_group_count=1 batch_group_count=1 lhs_shape=(16, 14, 14, 1792) rhs_shape=(16, 14, 14, 3584) precision=None preferred_element_type=None]" source_file="/home/cyxue/miniconda3/envs/alpa/lib/python3.8/site-packages/flax/linen/linear.py" source_line=435}, backend_config="{\"conv_result_scale\":1,\"activation_mode\":\"0\",\"side_input_scale\":0}"
  %get-tuple-element.69 = f32[1,1,1792,3584]{1,0,2,3} get-tuple-element((f32[1,1,1792,3584]{1,0,2,3}, u8[0]{0}) %cudnn-conv-bw-filter.22), index=0, metadata={op_name="parallelize(train_step_func_pipeshard_parallel_mesh_1)/jit(main)/jit(2)/jit(27)/transpose(jvp(remat))/WideResNet/BottleneckResNetBlock_8/Conv_2/conv_general_dilated[window_strides=(1, 1) padding=((0, 0), (0, 0)) lhs_dilation=(1, 1) rhs_dilation=(1, 1) dimension_numbers=ConvDimensionNumbers(lhs_spec=(3, 0, 1, 2), rhs_spec=(3, 0, 1, 2), out_spec=(2, 3, 0, 1)) feature_group_count=1 batch_group_count=1 lhs_shape=(16, 14, 14, 1792) rhs_shape=(16, 14, 14, 3584) precision=None preferred_element_type=None]" source_file="/home/cyxue/miniconda3/envs/alpa/lib/python3.8/site-packages/flax/linen/linear.py" source_line=435}
  %param_74 = f32[1,1,1792,3584]{3,2,1,0} parameter(74), metadata={op_name="2$start"}
  %fusion.4 = f32[1,1,1792,3584]{3,2,1,0} fusion(f32[1,1,1792,3584]{1,0,2,3} %get-tuple-element.69, f32[1,1,1792,3584]{3,2,1,0} %param_74), kind=kLoop, calls=%fused_computation.4, metadata={op_name="tuple.79"}
  %get-tuple-element.419 = f32[3584]{0} get-tuple-element((f32[3584]{0}, f32[3584]{0}) %fusion.3), index=0
  %get-tuple-element.420 = f32[3584]{0} get-tuple-element((f32[3584]{0}, f32[3584]{0}, f32[1792]{0}, f32[896]{0}, f32[3584]{0}, /*index=5*/f32[1792]{0}, f32[896]{0}, f32[3584]{0}, f32[1792]{0}, f32[896]{0}, /*index=10*/f32[3584]{0}, f32[1792]{0}, f32[896]{0}, f32[1792]{0}, f32[896]{0}, /*index=15*/f32[7168]{0}, f32[1792]{0}, f32[3584]{0}, f32[3584]{0}, f32[1024]{0}, /*index=20*/f32[7168]{0}, f32[3584]{0}, f32[1792]{0}, f32[1792]{0}) %fusion.486), index=1, metadata={op_name="parallelize(train_step_func_pipeshard_parallel_mesh_1)/jit(main)/jit(2)/jit(27)/add"}
  %bitcast.540 = f32[1,1,3584,896]{1,0,3,2} bitcast(f32[1,1,3584,896]{3,2,1,0} %get-tuple-element.718), metadata={op_name="parallelize(train_step_func_pipeshard_parallel_mesh_1)/jit(main)/jit(2)/jit(27)/transpose(jvp(remat))/optimization_barrier" source_file="/home/cyxue/Projects/playground/alpa/custom_alpa/alpa/pipeline_parallel/layer_construction.py" source_line=535}
  %cudnn-conv-bias-activation.23 = (f32[16,14,14,3584]{2,1,3,0}, u8[0]{0}) custom-call(f32[16,14,14,896]{2,1,3,0} %fusion.13, f32[1,1,3584,896]{1,0,3,2} %bitcast.540, f32[3584]{0} %broadcast.1098, f32[16,14,14,3584]{2,1,3,0} %get-tuple-element.717), window={size=1x1}, dim_labels=b01f_01oi->b01f, custom_call_target="__cudnn$convBiasActivationForward", metadata={op_name="parallelize(train_step_func_pipeshard_parallel_mesh_1)/jit(main)/jit(2)/jit(27)/transpose(jvp(remat))/WideResNet/BottleneckResNetBlock_8/Conv_0/conv_general_dilated[window_strides=(1, 1) padding=((0, 0), (0, 0)) lhs_dilation=(1, 1) rhs_dilation=(1, 1) dimension_numbers=ConvDimensionNumbers(lhs_spec=(0, 3, 1, 2), rhs_spec=(2, 3, 0, 1), out_spec=(0, 3, 1, 2)) feature_group_count=1 batch_group_count=1 lhs_shape=(16, 14, 14, 896) rhs_shape=(1, 1, 3584, 896) precision=None preferred_element_type=None]" source_file="/home/cyxue/miniconda3/envs/alpa/lib/python3.8/site-packages/flax/linen/linear.py" source_line=435}, backend_config="{\"conv_result_scale\":1,\"activation_mode\":\"0\",\"side_input_scale\":1}"
  %get-tuple-element.82 = f32[16,14,14,3584]{2,1,3,0} get-tuple-element((f32[16,14,14,3584]{2,1,3,0}, u8[0]{0}) %cudnn-conv-bias-activation.23), index=0, metadata={op_name="parallelize(train_step_func_pipeshard_parallel_mesh_1)/jit(main)/jit(2)/jit(27)/transpose(jvp(remat))/WideResNet/BottleneckResNetBlock_8/Conv_0/add_any" source_file="/home/cyxue/miniconda3/envs/alpa/lib/python3.8/site-packages/flax/linen/linear.py" source_line=435}
  %fusion = f32[16,14,14,3584]{3,2,1,0} fusion(f32[16,14,14,3584]{2,1,3,0} %get-tuple-element.82, f32[16,14,14,3584]{2,1,3,0} %copy.86), kind=kInput, calls=%fused_computation, metadata={op_name="tuple.79"}
  ROOT %tuple.128 = (f32[1,1,7168,1792]{3,2,1,0}, f32[1792]{0}, f32[1792]{0}, f32[3,3,1792,3584]{3,2,1,0}, f32[3584]{0}, /*index=5*/f32[3584]{0}, f32[1,1,3584,7168]{3,2,1,0}, f32[7168]{0}, f32[7168]{0}, f32[7168,1024]{1,0}, /*index=10*/f32[1024]{0}, f32[1,1,7168,1792]{3,2,1,0}, f32[1792]{0}, f32[1792]{0}, f32[3,3,1792,3584]{3,2,1,0}, /*index=15*/f32[3584]{0}, f32[3584]{0}, f32[1,1,3584,7168]{3,2,1,0}, f32[7168]{0}, f32[7168]{0}, /*index=20*/f32[1,1,3584,1792]{3,2,1,0}, f32[1792]{0}, f32[1792]{0}, f32[3,3,1792,3584]{3,2,1,0}, f32[3584]{0}, /*index=25*/f32[3584]{0}, f32[1,1,3584,7168]{3,2,1,0}, f32[7168]{0}, f32[7168]{0}, f32[1,1,3584,7168]{3,2,1,0}, /*index=30*/f32[7168]{0}, f32[7168]{0}, f32[1,1,3584,896]{3,2,1,0}, f32[896]{0}, f32[896]{0}, /*index=35*/f32[3,3,896,1792]{3,2,1,0}, f32[1792]{0}, f32[1792]{0}, f32[1,1,1792,3584]{3,2,1,0}, f32[3584]{0}, /*index=40*/f32[3584]{0}, f32[1,1,3584,896]{3,2,1,0}, f32[896]{0}, f32[896]{0}, f32[3,3,896,1792]{3,2,1,0}, /*index=45*/f32[1792]{0}, f32[1792]{0}, f32[1,1,1792,3584]{3,2,1,0}, f32[3584]{0}, f32[3584]{0}, /*index=50*/f32[1,1,3584,896]{3,2,1,0}, f32[896]{0}, f32[896]{0}, f32[3,3,896,1792]{3,2,1,0}, f32[1792]{0}, /*index=55*/f32[1792]{0}, f32[1,1,1792,3584]{3,2,1,0}, f32[3584]{0}, f32[3584]{0}, f32[1,1,3584,896]{3,2,1,0}, /*index=60*/f32[896]{0}, f32[896]{0}, f32[3,3,896,1792]{3,2,1,0}, f32[1792]{0}, f32[1792]{0}, /*index=65*/f32[1,1,1792,3584]{3,2,1,0}, f32[3584]{0}, f32[3584]{0}, f32[1,1,3584,896]{3,2,1,0}, f32[896]{0}, /*index=70*/f32[896]{0}, f32[3,3,896,1792]{3,2,1,0}, f32[1792]{0}, f32[1792]{0}, f32[1,1,1792,3584]{3,2,1,0}, /*index=75*/f32[3584]{0}, f32[3584]{0}, f32[16,14,14,3584]{3,2,1,0}) tuple(f32[1,1,7168,1792]{3,2,1,0} %fusion.430, f32[1792]{0} %get-tuple-element.345, f32[1792]{0} %get-tuple-element.346, f32[3,3,1792,3584]{3,2,1,0} %fusion.426, f32[3584]{0} %get-tuple-element.348, /*index=5*/f32[3584]{0} %get-tuple-element.349, f32[1,1,3584,7168]{3,2,1,0} %fusion.422, f32[7168]{0} %get-tuple-element.351, f32[7168]{0} %get-tuple-element.352, f32[7168,1024]{1,0} %cublas-gemm.9, /*index=10*/f32[1024]{0} %get-tuple-element.354, f32[1,1,7168,1792]{3,2,1,0} %fusion.370, f32[1792]{0} %get-tuple-element.356, f32[1792]{0} %get-tuple-element.357, f32[3,3,1792,3584]{3,2,1,0} %fusion.366, /*index=15*/f32[3584]{0} %get-tuple-element.359, f32[3584]{0} %get-tuple-element.360, f32[1,1,3584,7168]{3,2,1,0} %fusion.362, f32[7168]{0} %get-tuple-element.362, f32[7168]{0} %get-tuple-element.363, /*index=20*/f32[1,1,3584,1792]{3,2,1,0} %fusion.314, f32[1792]{0} %get-tuple-element.365, f32[1792]{0} %get-tuple-element.366, f32[3,3,1792,3584]{3,2,1,0} %fusion.310, f32[3584]{0} %get-tuple-element.368, /*index=25*/f32[3584]{0} %get-tuple-element.369, f32[1,1,3584,7168]{3,2,1,0} %fusion.306, f32[7168]{0} %get-tuple-element.371, f32[7168]{0} %get-tuple-element.372, f32[1,1,3584,7168]{3,2,1,0} %fusion.292, /*index=30*/f32[7168]{0} %get-tuple-element.374, f32[7168]{0} %add.629, f32[1,1,3584,896]{3,2,1,0} %fusion.244, f32[896]{0} %get-tuple-element.377, f32[896]{0} %get-tuple-element.378, /*index=35*/f32[3,3,896,1792]{3,2,1,0} %fusion.240, f32[1792]{0} %get-tuple-element.380, f32[1792]{0} %get-tuple-element.381, f32[1,1,1792,3584]{3,2,1,0} %fusion.236, f32[3584]{0} %get-tuple-element.383, /*index=40*/f32[3584]{0} %get-tuple-element.384, f32[1,1,3584,896]{3,2,1,0} %fusion.186, f32[896]{0} %get-tuple-element.386, f32[896]{0} %get-tuple-element.387, f32[3,3,896,1792]{3,2,1,0} %fusion.182, /*index=45*/f32[1792]{0} %get-tuple-element.389, f32[1792]{0} %get-tuple-element.390, f32[1,1,1792,3584]{3,2,1,0} %fusion.178, f32[3584]{0} %get-tuple-element.392, f32[3584]{0} %get-tuple-element.393, /*index=50*/f32[1,1,3584,896]{3,2,1,0} %fusion.128, f32[896]{0} %get-tuple-element.395, f32[896]{0} %get-tuple-element.396, f32[3,3,896,1792]{3,2,1,0} %fusion.124, f32[1792]{0} %get-tuple-element.398, /*index=55*/f32[1792]{0} %get-tuple-element.399, f32[1,1,1792,3584]{3,2,1,0} %fusion.120, f32[3584]{0} %get-tuple-element.401, f32[3584]{0} %get-tuple-element.402, f32[1,1,3584,896]{3,2,1,0} %fusion.69, /*index=60*/f32[896]{0} %get-tuple-element.404, f32[896]{0} %get-tuple-element.405, f32[3,3,896,1792]{3,2,1,0} %fusion.65, f32[1792]{0} %get-tuple-element.407, f32[1792]{0} %get-tuple-element.408, /*index=65*/f32[1,1,1792,3584]{3,2,1,0} %fusion.61, f32[3584]{0} %get-tuple-element.410, f32[3584]{0} %get-tuple-element.411, f32[1,1,3584,896]{3,2,1,0} %fusion.12, f32[896]{0} %get-tuple-element.413, /*index=70*/f32[896]{0} %get-tuple-element.414, f32[3,3,896,1792]{3,2,1,0} %fusion.8, f32[1792]{0} %get-tuple-element.416, f32[1792]{0} %get-tuple-element.417, f32[1,1,1792,3584]{3,2,1,0} %fusion.4, /*index=75*/f32[3584]{0} %get-tuple-element.419, f32[3584]{0} %get-tuple-element.420, f32[16,14,14,3584]{3,2,1,0} %fusion)
}

