HloModule train_step_func_pipeshard_parallel_mesh_0-3, input_output_alias={ {0}: (0, {}, may-alias), {1}: (1, {}, may-alias), {2}: (2, {}, may-alias), {3}: (3, {}, may-alias), {4}: (4, {}, may-alias), {5}: (5, {}, may-alias), {6}: (6, {}, may-alias), {7}: (7, {}, may-alias), {8}: (8, {}, may-alias), {9}: (9, {}, may-alias), {10}: (10, {}, may-alias), {11}: (11, {}, may-alias), {12}: (12, {}, may-alias), {13}: (13, {}, may-alias), {14}: (14, {}, may-alias), {15}: (15, {}, may-alias), {16}: (16, {}, may-alias), {17}: (17, {}, may-alias), {18}: (18, {}, may-alias), {19}: (19, {}, may-alias), {20}: (20, {}, may-alias), {21}: (21, {}, may-alias), {22}: (22, {}, may-alias), {23}: (23, {}, may-alias), {24}: (24, {}, may-alias), {25}: (25, {}, may-alias), {26}: (26, {}, may-alias), {27}: (27, {}, may-alias), {28}: (28, {}, may-alias), {29}: (29, {}, may-alias), {30}: (30, {}, may-alias), {31}: (31, {}, may-alias), {32}: (32, {}, may-alias), {33}: (33, {}, may-alias), {34}: (34, {}, may-alias), {35}: (35, {}, may-alias), {36}: (36, {}, may-alias), {37}: (37, {}, may-alias), {38}: (38, {}, may-alias), {39}: (39, {}, may-alias), {40}: (40, {}, may-alias), {41}: (41, {}, may-alias), {42}: (42, {}, may-alias), {43}: (43, {}, may-alias), {44}: (44, {}, may-alias), {45}: (45, {}, may-alias), {46}: (46, {}, may-alias), {47}: (47, {}, may-alias), {48}: (48, {}, may-alias), {49}: (49, {}, may-alias), {50}: (50, {}, may-alias), {51}: (51, {}, may-alias), {52}: (52, {}, may-alias), {53}: (53, {}, may-alias), {54}: (54, {}, may-alias), {55}: (55, {}, may-alias), {56}: (56, {}, may-alias), {57}: (57, {}, may-alias), {58}: (58, {}, may-alias), {59}: (59, {}, may-alias), {60}: (60, {}, may-alias), {61}: (61, {}, may-alias), {62}: (62, {}, may-alias), {63}: (63, {}, may-alias), {64}: (64, {}, may-alias), {65}: (65, {}, may-alias), {66}: (66, {}, may-alias), {67}: (67, {}, may-alias), {68}: (68, {}, may-alias), {69}: (69, {}, may-alias), {70}: (70, {}, may-alias), {71}: (71, {}, may-alias), {72}: (72, {}, may-alias), {73}: (73, {}, may-alias), {74}: (74, {}, may-alias), {75}: (75, {}, may-alias), {76}: (76, {}, may-alias), {77}: (77, {}, may-alias), {78}: (78, {}, may-alias), {79}: (79, {}, may-alias), {80}: (80, {}, may-alias), {81}: (81, {}, may-alias), {82}: (82, {}, may-alias), {83}: (83, {}, may-alias) }, entry_computation_layout={(f32[1,1,1792,896]{3,2,1,0},f32[896]{0},f32[896]{0},f32[3,3,896,1792]{3,2,1,0},f32[1792]{0},f32[1792]{0},f32[1,1,1792,3584]{3,2,1,0},f32[3584]{0},f32[3584]{0},f32[1,1,1792,3584]{3,2,1,0},f32[3584]{0},f32[3584]{0},f32[1,1,1792,448]{3,2,1,0},f32[448]{0},f32[448]{0},f32[3,3,448,896]{3,2,1,0},f32[896]{0},f32[896]{0},f32[1,1,896,1792]{3,2,1,0},f32[1792]{0},f32[1792]{0},f32[1,1,1792,448]{3,2,1,0},f32[448]{0},f32[448]{0},f32[3,3,448,896]{3,2,1,0},f32[896]{0},f32[896]{0},f32[1,1,896,1792]{3,2,1,0},f32[1792]{0},f32[1792]{0},f32[1,1,1792,448]{3,2,1,0},f32[448]{0},f32[448]{0},f32[3,3,448,896]{3,2,1,0},f32[896]{0},f32[896]{0},f32[1,1,896,1792]{3,2,1,0},f32[1792]{0},f32[1792]{0},f32[1,1,896,448]{3,2,1,0},f32[448]{0},f32[448]{0},f32[3,3,448,896]{3,2,1,0},f32[896]{0},f32[896]{0},f32[1,1,896,1792]{3,2,1,0},f32[1792]{0},f32[1792]{0},f32[1,1,896,1792]{3,2,1,0},f32[1792]{0},f32[1792]{0},f32[1,1,896,224]{3,2,1,0},f32[224]{0},f32[224]{0},f32[3,3,224,448]{3,2,1,0},f32[448]{0},f32[448]{0},f32[1,1,448,896]{3,2,1,0},f32[896]{0},f32[896]{0},f32[1,1,448,896]{3,2,1,0},f32[896]{0},f32[896]{0},f32[1,1,224,896]{3,2,1,0},f32[896]{0},f32[896]{0},f32[1,1,896,224]{3,2,1,0},f32[224]{0},f32[224]{0},f32[3,3,224,448]{3,2,1,0},f32[448]{0},f32[448]{0},f32[1,1,448,896]{3,2,1,0},f32[896]{0},f32[896]{0},f32[7,7,3,224]{3,2,1,0},f32[224]{0},f32[224]{0},f32[1,1,224,224]{3,2,1,0},f32[224]{0},f32[224]{0},f32[3,3,224,448]{3,2,1,0},f32[448]{0},f32[448]{0},f32[16,14,14,3584]{3,2,1,0},f32[16,28,28,1792]{3,2,1,0},f32[1,1,1792,896]{3,2,1,0},f32[896]{0},f32[896]{0},f32[3,3,896,1792]{3,2,1,0},f32[1792]{0},f32[1792]{0},f32[1,1,1792,3584]{3,2,1,0},f32[3584]{0},f32[1,1,1792,3584]{3,2,1,0},f32[3584]{0},f32[16,28,28,1792]{3,2,1,0},f32[1,1,1792,448]{3,2,1,0},f32[448]{0},f32[448]{0},f32[3,3,448,896]{3,2,1,0},f32[896]{0},f32[896]{0},f32[1,1,896,1792]{3,2,1,0},f32[1792]{0},f32[1792]{0},f32[16,28,28,1792]{3,2,1,0},f32[1,1,1792,448]{3,2,1,0},f32[448]{0},f32[448]{0},f32[3,3,448,896]{3,2,1,0},f32[896]{0},f32[896]{0},f32[1,1,896,1792]{3,2,1,0},f32[1792]{0},f32[1792]{0},f32[16,28,28,1792]{3,2,1,0},f32[1,1,1792,448]{3,2,1,0},f32[448]{0},f32[448]{0},f32[3,3,448,896]{3,2,1,0},f32[896]{0},f32[896]{0},f32[1,1,896,1792]{3,2,1,0},f32[1792]{0},f32[16,56,56,896]{3,2,1,0},f32[1,1,896,448]{3,2,1,0},f32[448]{0},f32[448]{0},f32[3,3,448,896]{3,2,1,0},f32[896]{0},f32[896]{0},f32[1,1,896,1792]{3,2,1,0},f32[1792]{0},f32[1,1,896,1792]{3,2,1,0},f32[1792]{0},f32[16,56,56,896]{3,2,1,0},f32[1,1,896,224]{3,2,1,0},f32[224]{0},f32[224]{0},f32[3,3,224,448]{3,2,1,0},f32[448]{0},f32[448]{0},f32[1,1,448,896]{3,2,1,0},f32[896]{0},f32[896]{0},f32[16,56,56,448]{3,2,1,0},f32[1,1,448,896]{3,2,1,0},f32[896]{0},f32[896]{0},f32[16,56,56,224]{3,2,1,0},f32[1,1,224,896]{3,2,1,0},f32[896]{0},f32[896]{0},f32[1,1,896,224]{3,2,1,0},f32[224]{0},f32[224]{0},f32[3,3,224,448]{3,2,1,0},f32[448]{0},f32[448]{0},f32[1,1,448,896]{3,2,1,0},f32[896]{0},s32[16,224,224,3]{3,2,1,0},f32[7,7,3,224]{3,2,1,0},f32[224]{0},f32[224]{0},f32[1,1,224,224]{3,2,1,0},f32[224]{0},f32[224]{0},f32[3,3,224,448]{3,2,1,0},f32[448]{0},f32[448]{0})->(f32[1,1,1792,896]{3,2,1,0}, f32[896]{0}, f32[896]{0}, f32[3,3,896,1792]{3,2,1,0}, f32[1792]{0}, /*index=5*/f32[1792]{0}, f32[1,1,1792,3584]{3,2,1,0}, f32[3584]{0}, f32[3584]{0}, f32[1,1,1792,3584]{3,2,1,0}, /*index=10*/f32[3584]{0}, f32[3584]{0}, f32[1,1,1792,448]{3,2,1,0}, f32[448]{0}, f32[448]{0}, /*index=15*/f32[3,3,448,896]{3,2,1,0}, f32[896]{0}, f32[896]{0}, f32[1,1,896,1792]{3,2,1,0}, f32[1792]{0}, /*index=20*/f32[1792]{0}, f32[1,1,1792,448]{3,2,1,0}, f32[448]{0}, f32[448]{0}, f32[3,3,448,896]{3,2,1,0}, /*index=25*/f32[896]{0}, f32[896]{0}, f32[1,1,896,1792]{3,2,1,0}, f32[1792]{0}, f32[1792]{0}, /*index=30*/f32[1,1,1792,448]{3,2,1,0}, f32[448]{0}, f32[448]{0}, f32[3,3,448,896]{3,2,1,0}, f32[896]{0}, /*index=35*/f32[896]{0}, f32[1,1,896,1792]{3,2,1,0}, f32[1792]{0}, f32[1792]{0}, f32[1,1,896,448]{3,2,1,0}, /*index=40*/f32[448]{0}, f32[448]{0}, f32[3,3,448,896]{3,2,1,0}, f32[896]{0}, f32[896]{0}, /*index=45*/f32[1,1,896,1792]{3,2,1,0}, f32[1792]{0}, f32[1792]{0}, f32[1,1,896,1792]{3,2,1,0}, f32[1792]{0}, /*index=50*/f32[1792]{0}, f32[1,1,896,224]{3,2,1,0}, f32[224]{0}, f32[224]{0}, f32[3,3,224,448]{3,2,1,0}, /*index=55*/f32[448]{0}, f32[448]{0}, f32[1,1,448,896]{3,2,1,0}, f32[896]{0}, f32[896]{0}, /*index=60*/f32[1,1,448,896]{3,2,1,0}, f32[896]{0}, f32[896]{0}, f32[1,1,224,896]{3,2,1,0}, f32[896]{0}, /*index=65*/f32[896]{0}, f32[1,1,896,224]{3,2,1,0}, f32[224]{0}, f32[224]{0}, f32[3,3,224,448]{3,2,1,0}, /*index=70*/f32[448]{0}, f32[448]{0}, f32[1,1,448,896]{3,2,1,0}, f32[896]{0}, f32[896]{0}, /*index=75*/f32[7,7,3,224]{3,2,1,0}, f32[224]{0}, f32[224]{0}, f32[1,1,224,224]{3,2,1,0}, f32[224]{0}, /*index=80*/f32[224]{0}, f32[3,3,224,448]{3,2,1,0}, f32[448]{0}, f32[448]{0})}

%region_195.7208.3 (Arg_0.7209: f32[], Arg_1.7210: f32[]) -> pred[] {
  %Arg_0.7209 = f32[] parameter(0)
  %Arg_1.7210 = f32[] parameter(1)
  ROOT %compare.7211 = pred[] compare(f32[] %Arg_0.7209, f32[] %Arg_1.7210), direction=GE, metadata={op_name="parallelize(train_step_func_pipeshard_parallel_mesh_0)/jit(main)/jit(3)/jit(37)/transpose(jvp(remat))/WideResNet/ge" source_file="/home/cyxue/miniconda3/envs/alpa/lib/python3.8/site-packages/flax/linen/pooling.py" source_line=66}
}

%region_63.4346.3 (Arg_0.4347: f32[], Arg_1.4348: f32[]) -> f32[] {
  %Arg_0.4347 = f32[] parameter(0)
  %Arg_1.4348 = f32[] parameter(1)
  ROOT %add.4349 = f32[] add(f32[] %Arg_0.4347, f32[] %Arg_1.4348), metadata={op_name="parallelize(train_step_func_pipeshard_parallel_mesh_0)/jit(main)/jit(3)/jit(30)/transpose(jvp(remat))/WideResNet/BottleneckResNetBlock_7/norm_proj/reduce_sum[axes=(0, 1, 2)]" source_file="/home/cyxue/miniconda3/envs/alpa/lib/python3.8/site-packages/flax/linen/normalization.py" source_line=82}
}

%fused_computation.1 (param_0.1712: f32[16,56,56,448], param_1.2330: f32[448], param_2.1672: f32[448], param_3.1434: f32[448], param_4.1236: f32[16,56,56,448], param_5.1229: f32[448]) -> (f32[16,448], f32[16,448], f32[16,448]) {
  %param_4.1236 = f32[16,56,56,448]{2,1,3,0} parameter(4)
  %param_5.1229 = f32[448]{0} parameter(5)
  %constant_3167 = f32[] constant(1.99298465e-05)
  %broadcast.3924 = f32[448]{0} broadcast(f32[] %constant_3167), dimensions={}, metadata={op_name="parallelize(train_step_func_pipeshard_parallel_mesh_0)/jit(main)/jit(3)/jit(34)/transpose(jvp(remat))/WideResNet/BottleneckResNetBlock_3/BatchNorm_0/div" source_file="/home/cyxue/miniconda3/envs/alpa/lib/python3.8/site-packages/flax/linen/normalization.py" source_line=82}
  %multiply.2345 = f32[448]{0} multiply(f32[448]{0} %param_5.1229, f32[448]{0} %broadcast.3924), metadata={op_name="parallelize(train_step_func_pipeshard_parallel_mesh_0)/jit(main)/jit(3)/jit(37)/transpose(jvp(remat))/WideResNet/BottleneckResNetBlock_0/BatchNorm_1/div" source_file="/home/cyxue/miniconda3/envs/alpa/lib/python3.8/site-packages/flax/linen/normalization.py" source_line=82}
  %broadcast.3923 = f32[16,56,56,448]{2,1,3,0} broadcast(f32[448]{0} %multiply.2345), dimensions={3}, metadata={op_name="parallelize(train_step_func_pipeshard_parallel_mesh_0)/jit(main)/jit(3)/jit(37)/transpose(jvp(remat))/WideResNet/BottleneckResNetBlock_0/BatchNorm_1/sub" source_file="/home/cyxue/miniconda3/envs/alpa/lib/python3.8/site-packages/flax/linen/normalization.py" source_line=138}
  %subtract.421 = f32[16,56,56,448]{2,1,3,0} subtract(f32[16,56,56,448]{2,1,3,0} %param_4.1236, f32[16,56,56,448]{2,1,3,0} %broadcast.3923), metadata={op_name="parallelize(train_step_func_pipeshard_parallel_mesh_0)/jit(main)/jit(3)/jit(37)/transpose(jvp(remat))/WideResNet/BottleneckResNetBlock_0/BatchNorm_1/sub" source_file="/home/cyxue/miniconda3/envs/alpa/lib/python3.8/site-packages/flax/linen/normalization.py" source_line=138}
  %param_3.1434 = f32[448]{0} parameter(3)
  %constant_182 = f32[] constant(0)
  %broadcast.3922 = f32[448]{0} broadcast(f32[] %constant_182), dimensions={}, metadata={op_name="parallelize(train_step_func_pipeshard_parallel_mesh_0)/jit(main)/jit(3)/jit(31)/transpose(jvp(remat))/WideResNet/BottleneckResNetBlock_6/BatchNorm_0/max" source_file="/home/cyxue/miniconda3/envs/alpa/lib/python3.8/site-packages/flax/linen/normalization.py" source_line=93}
  %maximum.789 = f32[448]{0} maximum(f32[448]{0} %param_3.1434, f32[448]{0} %broadcast.3922), metadata={op_name="parallelize(train_step_func_pipeshard_parallel_mesh_0)/jit(main)/jit(3)/jit(37)/transpose(jvp(remat))/WideResNet/BottleneckResNetBlock_0/BatchNorm_1/max" source_file="/home/cyxue/miniconda3/envs/alpa/lib/python3.8/site-packages/flax/linen/normalization.py" source_line=93}
  %constant_3165 = f32[] constant(1e-05)
  %broadcast.3921 = f32[448]{0} broadcast(f32[] %constant_3165), dimensions={}, metadata={op_name="parallelize(train_step_func_pipeshard_parallel_mesh_0)/jit(main)/jit(3)/jit(31)/transpose(jvp(remat))/WideResNet/BottleneckResNetBlock_6/BatchNorm_0/add" source_file="/home/cyxue/miniconda3/envs/alpa/lib/python3.8/site-packages/flax/linen/normalization.py" source_line=139}
  %add.1277 = f32[448]{0} add(f32[448]{0} %maximum.789, f32[448]{0} %broadcast.3921), metadata={op_name="parallelize(train_step_func_pipeshard_parallel_mesh_0)/jit(main)/jit(3)/jit(37)/transpose(jvp(remat))/WideResNet/BottleneckResNetBlock_0/BatchNorm_1/add" source_file="/home/cyxue/miniconda3/envs/alpa/lib/python3.8/site-packages/flax/linen/normalization.py" source_line=139}
  %bitcast.2324 = f32[1,1,1,448]{3,2,1,0} bitcast(f32[448]{0} %add.1277), metadata={op_name="parallelize(train_step_func_pipeshard_parallel_mesh_0)/jit(main)/jit(3)/jit(37)/transpose(jvp(remat))/WideResNet/BottleneckResNetBlock_0/BatchNorm_1/add" source_file="/home/cyxue/miniconda3/envs/alpa/lib/python3.8/site-packages/flax/linen/normalization.py" source_line=139}
  %rsqrt.521 = f32[1,1,1,448]{3,2,1,0} rsqrt(f32[1,1,1,448]{3,2,1,0} %bitcast.2324), metadata={op_name="parallelize(train_step_func_pipeshard_parallel_mesh_0)/jit(main)/jit(3)/jit(37)/transpose(jvp(remat))/WideResNet/BottleneckResNetBlock_0/BatchNorm_1/rsqrt" source_file="/home/cyxue/miniconda3/envs/alpa/lib/python3.8/site-packages/flax/linen/normalization.py" source_line=139}
  %param_2.1672 = f32[448]{0} parameter(2)
  %bitcast.2323 = f32[1,1,1,448]{3,2,1,0} bitcast(f32[448]{0} %param_2.1672), metadata={op_name="parallelize(train_step_func_pipeshard_parallel_mesh_0)/jit(main)/jit(3)/jit(37)/transpose(jvp(remat))/WideResNet/BottleneckResNetBlock_0/BatchNorm_1/reshape[new_sizes=(1, 1, 1, 448) dimensions=None]" source_file="/home/cyxue/miniconda3/envs/alpa/lib/python3.8/site-packages/flax/linen/normalization.py" source_line=142}
  %multiply.2344 = f32[1,1,1,448]{3,2,1,0} multiply(f32[1,1,1,448]{3,2,1,0} %rsqrt.521, f32[1,1,1,448]{3,2,1,0} %bitcast.2323), metadata={op_name="parallelize(train_step_func_pipeshard_parallel_mesh_0)/jit(main)/jit(3)/jit(37)/transpose(jvp(remat))/WideResNet/BottleneckResNetBlock_0/BatchNorm_1/mul" source_file="/home/cyxue/miniconda3/envs/alpa/lib/python3.8/site-packages/flax/linen/normalization.py" source_line=144}
  %bitcast.2322 = f32[448]{0} bitcast(f32[1,1,1,448]{3,2,1,0} %multiply.2344), metadata={op_name="parallelize(train_step_func_pipeshard_parallel_mesh_0)/jit(main)/jit(3)/jit(37)/transpose(jvp(remat))/WideResNet/BottleneckResNetBlock_0/BatchNorm_1/mul" source_file="/home/cyxue/miniconda3/envs/alpa/lib/python3.8/site-packages/flax/linen/normalization.py" source_line=146}
  %broadcast.3920 = f32[16,56,56,448]{2,1,3,0} broadcast(f32[448]{0} %bitcast.2322), dimensions={3}, metadata={op_name="parallelize(train_step_func_pipeshard_parallel_mesh_0)/jit(main)/jit(3)/jit(37)/transpose(jvp(remat))/WideResNet/BottleneckResNetBlock_0/BatchNorm_1/mul" source_file="/home/cyxue/miniconda3/envs/alpa/lib/python3.8/site-packages/flax/linen/normalization.py" source_line=146}
  %multiply.2343 = f32[16,56,56,448]{2,1,3,0} multiply(f32[16,56,56,448]{2,1,3,0} %subtract.421, f32[16,56,56,448]{2,1,3,0} %broadcast.3920), metadata={op_name="parallelize(train_step_func_pipeshard_parallel_mesh_0)/jit(main)/jit(3)/jit(37)/transpose(jvp(remat))/WideResNet/BottleneckResNetBlock_0/BatchNorm_1/mul" source_file="/home/cyxue/miniconda3/envs/alpa/lib/python3.8/site-packages/flax/linen/normalization.py" source_line=146}
  %param_1.2330 = f32[448]{0} parameter(1)
  %broadcast.3919 = f32[16,56,56,448]{2,1,3,0} broadcast(f32[448]{0} %param_1.2330), dimensions={3}, metadata={op_name="parallelize(train_step_func_pipeshard_parallel_mesh_0)/jit(main)/jit(3)/jit(37)/transpose(jvp(remat))/WideResNet/BottleneckResNetBlock_0/BatchNorm_1/add" source_file="/home/cyxue/miniconda3/envs/alpa/lib/python3.8/site-packages/flax/linen/normalization.py" source_line=150}
  %add.1276 = f32[16,56,56,448]{2,1,3,0} add(f32[16,56,56,448]{2,1,3,0} %multiply.2343, f32[16,56,56,448]{2,1,3,0} %broadcast.3919), metadata={op_name="parallelize(train_step_func_pipeshard_parallel_mesh_0)/jit(main)/jit(3)/jit(37)/transpose(jvp(remat))/WideResNet/BottleneckResNetBlock_0/BatchNorm_1/add" source_file="/home/cyxue/miniconda3/envs/alpa/lib/python3.8/site-packages/flax/linen/normalization.py" source_line=150}
  %broadcast.3918 = f32[16,56,56,448]{2,1,3,0} broadcast(f32[] %constant_182), dimensions={}, metadata={op_name="parallelize(train_step_func_pipeshard_parallel_mesh_0)/jit(main)/jit(3)/jit(34)/transpose(jvp(remat))/WideResNet/BottleneckResNetBlock_3/max" source_file="/home/cyxue/Projects/crius/Crius/runtime/crius_worker/jax/model/wide_resnet.py" source_line=85}
  %compare.305 = pred[16,56,56,448]{2,1,3,0} compare(f32[16,56,56,448]{2,1,3,0} %add.1276, f32[16,56,56,448]{2,1,3,0} %broadcast.3918), direction=GT, metadata={op_name="parallelize(train_step_func_pipeshard_parallel_mesh_0)/jit(main)/jit(3)/jit(37)/transpose(jvp(remat))/WideResNet/BottleneckResNetBlock_0/gt" source_file="/home/cyxue/Projects/crius/Crius/runtime/crius_worker/jax/model/wide_resnet.py" source_line=88}
  %param_0.1712 = f32[16,56,56,448]{2,1,3,0} parameter(0)
  %select.305 = f32[16,56,56,448]{2,1,3,0} select(pred[16,56,56,448]{2,1,3,0} %compare.305, f32[16,56,56,448]{2,1,3,0} %param_0.1712, f32[16,56,56,448]{2,1,3,0} %broadcast.3918), metadata={op_name="parallelize(train_step_func_pipeshard_parallel_mesh_0)/jit(main)/jit(3)/jit(37)/transpose(jvp(remat))/WideResNet/BottleneckResNetBlock_0/select_n" source_file="/home/cyxue/Projects/crius/Crius/runtime/crius_worker/jax/model/wide_resnet.py" source_line=88}
  %transpose = f32[16,448,56,56]{3,2,1,0} transpose(f32[16,56,56,448]{2,1,3,0} %select.305), dimensions={0,3,1,2}
  %bitcast.594 = f32[16,448,3136]{2,1,0} bitcast(f32[16,448,56,56]{3,2,1,0} %transpose), metadata={op_name="parallelize(train_step_func_pipeshard_parallel_mesh_0)/jit(main)/jit(3)/jit(37)/transpose(jvp(remat))/WideResNet/BottleneckResNetBlock_0/select_n" source_file="/home/cyxue/Projects/crius/Crius/runtime/crius_worker/jax/model/wide_resnet.py" source_line=88}
  %reduce.686 = f32[16,448]{1,0} reduce(f32[16,448,3136]{2,1,0} %bitcast.594, f32[] %constant_182), dimensions={2}, to_apply=%region_63.4346.3
  %multiply.2361.clone.1 = f32[16,56,56,448]{2,1,3,0} multiply(f32[16,56,56,448]{2,1,3,0} %select.305, f32[16,56,56,448]{2,1,3,0} %broadcast.3920), metadata={op_name="parallelize(train_step_func_pipeshard_parallel_mesh_0)/jit(main)/jit(3)/jit(37)/transpose(jvp(remat))/WideResNet/BottleneckResNetBlock_0/BatchNorm_1/mul" source_file="/home/cyxue/miniconda3/envs/alpa/lib/python3.8/site-packages/flax/linen/normalization.py" source_line=146}
  %negate.5.clone.1 = f32[16,56,56,448]{2,1,3,0} negate(f32[16,56,56,448]{2,1,3,0} %multiply.2361.clone.1), metadata={op_name="parallelize(train_step_func_pipeshard_parallel_mesh_0)/jit(main)/jit(3)/jit(37)/transpose(jvp(remat))/WideResNet/BottleneckResNetBlock_0/BatchNorm_1/neg" source_file="/home/cyxue/miniconda3/envs/alpa/lib/python3.8/site-packages/flax/linen/normalization.py" source_line=138}
  %transpose.1 = f32[16,448,56,56]{3,2,1,0} transpose(f32[16,56,56,448]{2,1,3,0} %negate.5.clone.1), dimensions={0,3,1,2}
  %bitcast.609.clone.1 = f32[16,448,3136]{2,1,0} bitcast(f32[16,448,56,56]{3,2,1,0} %transpose.1), metadata={op_name="parallelize(train_step_func_pipeshard_parallel_mesh_0)/jit(main)/jit(3)/jit(37)/transpose(jvp(remat))/WideResNet/BottleneckResNetBlock_0/BatchNorm_1/neg" source_file="/home/cyxue/miniconda3/envs/alpa/lib/python3.8/site-packages/flax/linen/normalization.py" source_line=138}
  %reduce.697.clone.1 = f32[16,448]{1,0} reduce(f32[16,448,3136]{2,1,0} %bitcast.609.clone.1, f32[] %constant_182), dimensions={2}, to_apply=%region_63.4346.3
  %multiply.314.clone.1 = f32[16,56,56,448]{2,1,3,0} multiply(f32[16,56,56,448]{2,1,3,0} %subtract.421, f32[16,56,56,448]{2,1,3,0} %select.305), metadata={op_name="parallelize(train_step_func_pipeshard_parallel_mesh_0)/jit(main)/jit(3)/jit(37)/transpose(jvp(remat))/WideResNet/BottleneckResNetBlock_0/BatchNorm_1/mul" source_file="/home/cyxue/miniconda3/envs/alpa/lib/python3.8/site-packages/flax/linen/normalization.py" source_line=146}
  %transpose.2 = f32[16,448,56,56]{3,2,1,0} transpose(f32[16,56,56,448]{2,1,3,0} %multiply.314.clone.1), dimensions={0,3,1,2}
  %bitcast.611.clone.1 = f32[16,448,3136]{2,1,0} bitcast(f32[16,448,56,56]{3,2,1,0} %transpose.2), metadata={op_name="parallelize(train_step_func_pipeshard_parallel_mesh_0)/jit(main)/jit(3)/jit(37)/transpose(jvp(remat))/WideResNet/BottleneckResNetBlock_0/BatchNorm_1/mul" source_file="/home/cyxue/miniconda3/envs/alpa/lib/python3.8/site-packages/flax/linen/normalization.py" source_line=146}
  %reduce.699.clone.1 = f32[16,448]{1,0} reduce(f32[16,448,3136]{2,1,0} %bitcast.611.clone.1, f32[] %constant_182), dimensions={2}, to_apply=%region_63.4346.3
  ROOT %tuple.8 = (f32[16,448]{1,0}, f32[16,448]{1,0}, f32[16,448]{1,0}) tuple(f32[16,448]{1,0} %reduce.686, f32[16,448]{1,0} %reduce.697.clone.1, f32[16,448]{1,0} %reduce.699.clone.1)
}

%fused_computation.3 (param_0.7: f32[3,3,224,448], param_1.9: f32[3,3,224,448]) -> f32[3,3,224,448] {
  %param_1.9 = f32[3,3,224,448]{3,2,1,0} parameter(1)
  %copy.139 = f32[3,3,224,448]{1,0,2,3} copy(f32[3,3,224,448]{3,2,1,0} %param_1.9), metadata={op_name="3$start"}
  %param_0.7 = f32[3,3,224,448]{1,0,2,3} parameter(0)
  %add.30 = f32[3,3,224,448]{1,0,2,3} add(f32[3,3,224,448]{1,0,2,3} %copy.139, f32[3,3,224,448]{1,0,2,3} %param_0.7), metadata={op_name="parallelize(train_step_func_pipeshard_parallel_mesh_0)/jit(main)/jit(3)/jit(37)/add"}
  ROOT %copy.138 = f32[3,3,224,448]{3,2,1,0} copy(f32[3,3,224,448]{1,0,2,3} %add.30), metadata={op_name="tuple.85"}
}

%fused_computation.5 (param_0.1723: f32[16,56,56,224], param_1.2348: f32[224], param_2.1697: f32[224], param_3.1465: f32[224], param_4.1270: f32[16,56,56,224], param_5.1272: f32[224]) -> (f32[16,224], f32[16,224], f32[16,224]) {
  %param_4.1270 = f32[16,56,56,224]{2,1,3,0} parameter(4)
  %param_5.1272 = f32[224]{0} parameter(5)
  %constant_3220 = f32[] constant(1.99298465e-05)
  %broadcast.4006 = f32[224]{0} broadcast(f32[] %constant_3220), dimensions={}, metadata={op_name="parallelize(train_step_func_pipeshard_parallel_mesh_0)/jit(main)/jit(3)/jit(35)/transpose(jvp(remat))/WideResNet/BottleneckResNetBlock_2/BatchNorm_0/div" source_file="/home/cyxue/miniconda3/envs/alpa/lib/python3.8/site-packages/flax/linen/normalization.py" source_line=82}
  %multiply.2383 = f32[224]{0} multiply(f32[224]{0} %param_5.1272, f32[224]{0} %broadcast.4006), metadata={op_name="parallelize(train_step_func_pipeshard_parallel_mesh_0)/jit(main)/jit(3)/jit(37)/transpose(jvp(remat))/WideResNet/BottleneckResNetBlock_0/BatchNorm_0/div" source_file="/home/cyxue/miniconda3/envs/alpa/lib/python3.8/site-packages/flax/linen/normalization.py" source_line=82}
  %broadcast.4005 = f32[16,56,56,224]{2,1,3,0} broadcast(f32[224]{0} %multiply.2383), dimensions={3}, metadata={op_name="parallelize(train_step_func_pipeshard_parallel_mesh_0)/jit(main)/jit(3)/jit(37)/transpose(jvp(remat))/WideResNet/BottleneckResNetBlock_0/BatchNorm_0/sub" source_file="/home/cyxue/miniconda3/envs/alpa/lib/python3.8/site-packages/flax/linen/normalization.py" source_line=138}
  %subtract.431 = f32[16,56,56,224]{2,1,3,0} subtract(f32[16,56,56,224]{2,1,3,0} %param_4.1270, f32[16,56,56,224]{2,1,3,0} %broadcast.4005), metadata={op_name="parallelize(train_step_func_pipeshard_parallel_mesh_0)/jit(main)/jit(3)/jit(37)/transpose(jvp(remat))/WideResNet/BottleneckResNetBlock_0/BatchNorm_0/sub" source_file="/home/cyxue/miniconda3/envs/alpa/lib/python3.8/site-packages/flax/linen/normalization.py" source_line=138}
  %param_3.1465 = f32[224]{0} parameter(3)
  %constant_184 = f32[] constant(0)
  %broadcast.4004 = f32[224]{0} broadcast(f32[] %constant_184), dimensions={}, metadata={op_name="parallelize(train_step_func_pipeshard_parallel_mesh_0)/jit(main)/jit(3)/jit(35)/transpose(jvp(remat))/WideResNet/BottleneckResNetBlock_2/BatchNorm_0/max" source_file="/home/cyxue/miniconda3/envs/alpa/lib/python3.8/site-packages/flax/linen/normalization.py" source_line=93}
  %maximum.803 = f32[224]{0} maximum(f32[224]{0} %param_3.1465, f32[224]{0} %broadcast.4004), metadata={op_name="parallelize(train_step_func_pipeshard_parallel_mesh_0)/jit(main)/jit(3)/jit(37)/transpose(jvp(remat))/WideResNet/BottleneckResNetBlock_0/BatchNorm_0/max" source_file="/home/cyxue/miniconda3/envs/alpa/lib/python3.8/site-packages/flax/linen/normalization.py" source_line=93}
  %constant_3218 = f32[] constant(1e-05)
  %broadcast.4003 = f32[224]{0} broadcast(f32[] %constant_3218), dimensions={}, metadata={op_name="parallelize(train_step_func_pipeshard_parallel_mesh_0)/jit(main)/jit(3)/jit(35)/transpose(jvp(remat))/WideResNet/BottleneckResNetBlock_2/BatchNorm_0/add" source_file="/home/cyxue/miniconda3/envs/alpa/lib/python3.8/site-packages/flax/linen/normalization.py" source_line=139}
  %add.1301 = f32[224]{0} add(f32[224]{0} %maximum.803, f32[224]{0} %broadcast.4003), metadata={op_name="parallelize(train_step_func_pipeshard_parallel_mesh_0)/jit(main)/jit(3)/jit(37)/transpose(jvp(remat))/WideResNet/BottleneckResNetBlock_0/BatchNorm_0/add" source_file="/home/cyxue/miniconda3/envs/alpa/lib/python3.8/site-packages/flax/linen/normalization.py" source_line=139}
  %bitcast.2366 = f32[1,1,1,224]{3,2,1,0} bitcast(f32[224]{0} %add.1301), metadata={op_name="parallelize(train_step_func_pipeshard_parallel_mesh_0)/jit(main)/jit(3)/jit(37)/transpose(jvp(remat))/WideResNet/BottleneckResNetBlock_0/BatchNorm_0/add" source_file="/home/cyxue/miniconda3/envs/alpa/lib/python3.8/site-packages/flax/linen/normalization.py" source_line=139}
  %rsqrt.535 = f32[1,1,1,224]{3,2,1,0} rsqrt(f32[1,1,1,224]{3,2,1,0} %bitcast.2366), metadata={op_name="parallelize(train_step_func_pipeshard_parallel_mesh_0)/jit(main)/jit(3)/jit(37)/transpose(jvp(remat))/WideResNet/BottleneckResNetBlock_0/BatchNorm_0/rsqrt" source_file="/home/cyxue/miniconda3/envs/alpa/lib/python3.8/site-packages/flax/linen/normalization.py" source_line=139}
  %param_2.1697 = f32[224]{0} parameter(2)
  %bitcast.2365 = f32[1,1,1,224]{3,2,1,0} bitcast(f32[224]{0} %param_2.1697), metadata={op_name="parallelize(train_step_func_pipeshard_parallel_mesh_0)/jit(main)/jit(3)/jit(37)/transpose(jvp(remat))/WideResNet/BottleneckResNetBlock_0/BatchNorm_0/reshape[new_sizes=(1, 1, 1, 224) dimensions=None]" source_file="/home/cyxue/miniconda3/envs/alpa/lib/python3.8/site-packages/flax/linen/normalization.py" source_line=142}
  %multiply.2382 = f32[1,1,1,224]{3,2,1,0} multiply(f32[1,1,1,224]{3,2,1,0} %rsqrt.535, f32[1,1,1,224]{3,2,1,0} %bitcast.2365), metadata={op_name="parallelize(train_step_func_pipeshard_parallel_mesh_0)/jit(main)/jit(3)/jit(37)/transpose(jvp(remat))/WideResNet/BottleneckResNetBlock_0/BatchNorm_0/mul" source_file="/home/cyxue/miniconda3/envs/alpa/lib/python3.8/site-packages/flax/linen/normalization.py" source_line=144}
  %bitcast.2364 = f32[224]{0} bitcast(f32[1,1,1,224]{3,2,1,0} %multiply.2382), metadata={op_name="parallelize(train_step_func_pipeshard_parallel_mesh_0)/jit(main)/jit(3)/jit(37)/transpose(jvp(remat))/WideResNet/BottleneckResNetBlock_0/BatchNorm_0/mul" source_file="/home/cyxue/miniconda3/envs/alpa/lib/python3.8/site-packages/flax/linen/normalization.py" source_line=146}
  %broadcast.4002 = f32[16,56,56,224]{2,1,3,0} broadcast(f32[224]{0} %bitcast.2364), dimensions={3}, metadata={op_name="parallelize(train_step_func_pipeshard_parallel_mesh_0)/jit(main)/jit(3)/jit(37)/transpose(jvp(remat))/WideResNet/BottleneckResNetBlock_0/BatchNorm_0/mul" source_file="/home/cyxue/miniconda3/envs/alpa/lib/python3.8/site-packages/flax/linen/normalization.py" source_line=146}
  %multiply.2381 = f32[16,56,56,224]{2,1,3,0} multiply(f32[16,56,56,224]{2,1,3,0} %subtract.431, f32[16,56,56,224]{2,1,3,0} %broadcast.4002), metadata={op_name="parallelize(train_step_func_pipeshard_parallel_mesh_0)/jit(main)/jit(3)/jit(37)/transpose(jvp(remat))/WideResNet/BottleneckResNetBlock_0/BatchNorm_0/mul" source_file="/home/cyxue/miniconda3/envs/alpa/lib/python3.8/site-packages/flax/linen/normalization.py" source_line=146}
  %param_1.2348 = f32[224]{0} parameter(1)
  %broadcast.4001 = f32[16,56,56,224]{2,1,3,0} broadcast(f32[224]{0} %param_1.2348), dimensions={3}, metadata={op_name="parallelize(train_step_func_pipeshard_parallel_mesh_0)/jit(main)/jit(3)/jit(37)/transpose(jvp(remat))/WideResNet/BottleneckResNetBlock_0/BatchNorm_0/add" source_file="/home/cyxue/miniconda3/envs/alpa/lib/python3.8/site-packages/flax/linen/normalization.py" source_line=150}
  %add.1300 = f32[16,56,56,224]{2,1,3,0} add(f32[16,56,56,224]{2,1,3,0} %multiply.2381, f32[16,56,56,224]{2,1,3,0} %broadcast.4001), metadata={op_name="parallelize(train_step_func_pipeshard_parallel_mesh_0)/jit(main)/jit(3)/jit(37)/transpose(jvp(remat))/WideResNet/BottleneckResNetBlock_0/BatchNorm_0/add" source_file="/home/cyxue/miniconda3/envs/alpa/lib/python3.8/site-packages/flax/linen/normalization.py" source_line=150}
  %broadcast.4000 = f32[16,56,56,224]{2,1,3,0} broadcast(f32[] %constant_184), dimensions={}, metadata={op_name="parallelize(train_step_func_pipeshard_parallel_mesh_0)/jit(main)/jit(3)/jit(35)/transpose(jvp(remat))/WideResNet/BottleneckResNetBlock_2/max" source_file="/home/cyxue/Projects/crius/Crius/runtime/crius_worker/jax/model/wide_resnet.py" source_line=85}
  %compare.315 = pred[16,56,56,224]{2,1,3,0} compare(f32[16,56,56,224]{2,1,3,0} %add.1300, f32[16,56,56,224]{2,1,3,0} %broadcast.4000), direction=GT, metadata={op_name="parallelize(train_step_func_pipeshard_parallel_mesh_0)/jit(main)/jit(3)/jit(37)/transpose(jvp(remat))/WideResNet/BottleneckResNetBlock_0/gt" source_file="/home/cyxue/Projects/crius/Crius/runtime/crius_worker/jax/model/wide_resnet.py" source_line=85}
  %param_0.1723 = f32[16,56,56,224]{2,1,3,0} parameter(0)
  %select.315 = f32[16,56,56,224]{2,1,3,0} select(pred[16,56,56,224]{2,1,3,0} %compare.315, f32[16,56,56,224]{2,1,3,0} %param_0.1723, f32[16,56,56,224]{2,1,3,0} %broadcast.4000), metadata={op_name="parallelize(train_step_func_pipeshard_parallel_mesh_0)/jit(main)/jit(3)/jit(37)/transpose(jvp(remat))/WideResNet/BottleneckResNetBlock_0/select_n" source_file="/home/cyxue/Projects/crius/Crius/runtime/crius_worker/jax/model/wide_resnet.py" source_line=85}
  %transpose.3 = f32[16,224,56,56]{3,2,1,0} transpose(f32[16,56,56,224]{2,1,3,0} %select.315), dimensions={0,3,1,2}
  %bitcast.596 = f32[16,224,3136]{2,1,0} bitcast(f32[16,224,56,56]{3,2,1,0} %transpose.3), metadata={op_name="parallelize(train_step_func_pipeshard_parallel_mesh_0)/jit(main)/jit(3)/jit(37)/transpose(jvp(remat))/WideResNet/BottleneckResNetBlock_0/select_n" source_file="/home/cyxue/Projects/crius/Crius/runtime/crius_worker/jax/model/wide_resnet.py" source_line=85}
  %reduce.688 = f32[16,224]{1,0} reduce(f32[16,224,3136]{2,1,0} %bitcast.596, f32[] %constant_184), dimensions={2}, to_apply=%region_63.4346.3
  %multiply.2399.clone.1 = f32[16,56,56,224]{2,1,3,0} multiply(f32[16,56,56,224]{2,1,3,0} %select.315, f32[16,56,56,224]{2,1,3,0} %broadcast.4002), metadata={op_name="parallelize(train_step_func_pipeshard_parallel_mesh_0)/jit(main)/jit(3)/jit(37)/transpose(jvp(remat))/WideResNet/BottleneckResNetBlock_0/BatchNorm_0/mul" source_file="/home/cyxue/miniconda3/envs/alpa/lib/python3.8/site-packages/flax/linen/normalization.py" source_line=146}
  %negate.3.clone.1 = f32[16,56,56,224]{2,1,3,0} negate(f32[16,56,56,224]{2,1,3,0} %multiply.2399.clone.1), metadata={op_name="parallelize(train_step_func_pipeshard_parallel_mesh_0)/jit(main)/jit(3)/jit(37)/transpose(jvp(remat))/WideResNet/BottleneckResNetBlock_0/BatchNorm_0/neg" source_file="/home/cyxue/miniconda3/envs/alpa/lib/python3.8/site-packages/flax/linen/normalization.py" source_line=138}
  %transpose.4 = f32[16,224,56,56]{3,2,1,0} transpose(f32[16,56,56,224]{2,1,3,0} %negate.3.clone.1), dimensions={0,3,1,2}
  %bitcast.605.clone.1 = f32[16,224,3136]{2,1,0} bitcast(f32[16,224,56,56]{3,2,1,0} %transpose.4), metadata={op_name="parallelize(train_step_func_pipeshard_parallel_mesh_0)/jit(main)/jit(3)/jit(37)/transpose(jvp(remat))/WideResNet/BottleneckResNetBlock_0/BatchNorm_0/neg" source_file="/home/cyxue/miniconda3/envs/alpa/lib/python3.8/site-packages/flax/linen/normalization.py" source_line=138}
  %reduce.694.clone.1 = f32[16,224]{1,0} reduce(f32[16,224,3136]{2,1,0} %bitcast.605.clone.1, f32[] %constant_184), dimensions={2}, to_apply=%region_63.4346.3
  %multiply.303.clone.1 = f32[16,56,56,224]{2,1,3,0} multiply(f32[16,56,56,224]{2,1,3,0} %subtract.431, f32[16,56,56,224]{2,1,3,0} %select.315), metadata={op_name="parallelize(train_step_func_pipeshard_parallel_mesh_0)/jit(main)/jit(3)/jit(37)/transpose(jvp(remat))/WideResNet/BottleneckResNetBlock_0/BatchNorm_0/mul" source_file="/home/cyxue/miniconda3/envs/alpa/lib/python3.8/site-packages/flax/linen/normalization.py" source_line=146}
  %transpose.5 = f32[16,224,56,56]{3,2,1,0} transpose(f32[16,56,56,224]{2,1,3,0} %multiply.303.clone.1), dimensions={0,3,1,2}
  %bitcast.607.clone.1 = f32[16,224,3136]{2,1,0} bitcast(f32[16,224,56,56]{3,2,1,0} %transpose.5), metadata={op_name="parallelize(train_step_func_pipeshard_parallel_mesh_0)/jit(main)/jit(3)/jit(37)/transpose(jvp(remat))/WideResNet/BottleneckResNetBlock_0/BatchNorm_0/mul" source_file="/home/cyxue/miniconda3/envs/alpa/lib/python3.8/site-packages/flax/linen/normalization.py" source_line=146}
  %reduce.696.clone.1 = f32[16,224]{1,0} reduce(f32[16,224,3136]{2,1,0} %bitcast.607.clone.1, f32[] %constant_184), dimensions={2}, to_apply=%region_63.4346.3
  ROOT %tuple.6 = (f32[16,224]{1,0}, f32[16,224]{1,0}, f32[16,224]{1,0}) tuple(f32[16,224]{1,0} %reduce.688, f32[16,224]{1,0} %reduce.694.clone.1, f32[16,224]{1,0} %reduce.696.clone.1)
}

%fused_computation.7 (param_0.14: f32[1,1,224,224], param_1.18: f32[1,1,224,224]) -> f32[1,1,224,224] {
  %param_1.18 = f32[1,1,224,224]{3,2,1,0} parameter(1)
  %copy.141 = f32[1,1,224,224]{1,0,2,3} copy(f32[1,1,224,224]{3,2,1,0} %param_1.18), metadata={op_name="3$start"}
  %param_0.14 = f32[1,1,224,224]{1,0,2,3} parameter(0)
  %add.33 = f32[1,1,224,224]{1,0,2,3} add(f32[1,1,224,224]{1,0,2,3} %copy.141, f32[1,1,224,224]{1,0,2,3} %param_0.14), metadata={op_name="parallelize(train_step_func_pipeshard_parallel_mesh_0)/jit(main)/jit(3)/jit(37)/add"}
  ROOT %copy.140 = f32[1,1,224,224]{3,2,1,0} copy(f32[1,1,224,224]{1,0,2,3} %add.33), metadata={op_name="tuple.85"}
}

%fused_computation.9 (param_0.1735: f32[16,113,113,224], param_1.2367: f32[224], param_2.1725: f32[224], param_3.1498: f32[224], param_4.1306: f32[16,112,112,224], param_5.1315: f32[224]) -> (f32[16,224], f32[16,224], f32[16,224]) {
  %param_4.1306 = f32[16,112,112,224]{2,1,3,0} parameter(4)
  %param_5.1315 = f32[224]{0} parameter(5)
  %constant_3273 = f32[] constant(4.98246163e-06)
  %broadcast.4088 = f32[224]{0} broadcast(f32[] %constant_3273), dimensions={}, metadata={op_name="parallelize(train_step_func_pipeshard_parallel_mesh_0)/jit(main)/jit(3)/jit(37)/transpose(jvp(remat))/WideResNet/bn_init/div" source_file="/home/cyxue/miniconda3/envs/alpa/lib/python3.8/site-packages/flax/linen/normalization.py" source_line=82}
  %multiply.2421 = f32[224]{0} multiply(f32[224]{0} %param_5.1315, f32[224]{0} %broadcast.4088), metadata={op_name="parallelize(train_step_func_pipeshard_parallel_mesh_0)/jit(main)/jit(3)/jit(37)/transpose(jvp(remat))/WideResNet/bn_init/div" source_file="/home/cyxue/miniconda3/envs/alpa/lib/python3.8/site-packages/flax/linen/normalization.py" source_line=82}
  %broadcast.4087 = f32[16,112,112,224]{2,1,3,0} broadcast(f32[224]{0} %multiply.2421), dimensions={3}, metadata={op_name="parallelize(train_step_func_pipeshard_parallel_mesh_0)/jit(main)/jit(3)/jit(37)/transpose(jvp(remat))/WideResNet/bn_init/sub" source_file="/home/cyxue/miniconda3/envs/alpa/lib/python3.8/site-packages/flax/linen/normalization.py" source_line=138}
  %subtract.441 = f32[16,112,112,224]{2,1,3,0} subtract(f32[16,112,112,224]{2,1,3,0} %param_4.1306, f32[16,112,112,224]{2,1,3,0} %broadcast.4087), metadata={op_name="parallelize(train_step_func_pipeshard_parallel_mesh_0)/jit(main)/jit(3)/jit(37)/transpose(jvp(remat))/WideResNet/bn_init/sub" source_file="/home/cyxue/miniconda3/envs/alpa/lib/python3.8/site-packages/flax/linen/normalization.py" source_line=138}
  %param_3.1498 = f32[224]{0} parameter(3)
  %constant_186 = f32[] constant(0)
  %broadcast.4086 = f32[224]{0} broadcast(f32[] %constant_186), dimensions={}, metadata={op_name="parallelize(train_step_func_pipeshard_parallel_mesh_0)/jit(main)/jit(3)/jit(35)/transpose(jvp(remat))/WideResNet/BottleneckResNetBlock_2/BatchNorm_0/max" source_file="/home/cyxue/miniconda3/envs/alpa/lib/python3.8/site-packages/flax/linen/normalization.py" source_line=93}
  %maximum.817 = f32[224]{0} maximum(f32[224]{0} %param_3.1498, f32[224]{0} %broadcast.4086), metadata={op_name="parallelize(train_step_func_pipeshard_parallel_mesh_0)/jit(main)/jit(3)/jit(37)/transpose(jvp(remat))/WideResNet/bn_init/max" source_file="/home/cyxue/miniconda3/envs/alpa/lib/python3.8/site-packages/flax/linen/normalization.py" source_line=93}
  %constant_3271 = f32[] constant(1e-05)
  %broadcast.4085 = f32[224]{0} broadcast(f32[] %constant_3271), dimensions={}, metadata={op_name="parallelize(train_step_func_pipeshard_parallel_mesh_0)/jit(main)/jit(3)/jit(35)/transpose(jvp(remat))/WideResNet/BottleneckResNetBlock_2/BatchNorm_0/add" source_file="/home/cyxue/miniconda3/envs/alpa/lib/python3.8/site-packages/flax/linen/normalization.py" source_line=139}
  %add.1325 = f32[224]{0} add(f32[224]{0} %maximum.817, f32[224]{0} %broadcast.4085), metadata={op_name="parallelize(train_step_func_pipeshard_parallel_mesh_0)/jit(main)/jit(3)/jit(37)/transpose(jvp(remat))/WideResNet/bn_init/add" source_file="/home/cyxue/miniconda3/envs/alpa/lib/python3.8/site-packages/flax/linen/normalization.py" source_line=139}
  %bitcast.2408 = f32[1,1,1,224]{3,2,1,0} bitcast(f32[224]{0} %add.1325), metadata={op_name="parallelize(train_step_func_pipeshard_parallel_mesh_0)/jit(main)/jit(3)/jit(37)/transpose(jvp(remat))/WideResNet/bn_init/add" source_file="/home/cyxue/miniconda3/envs/alpa/lib/python3.8/site-packages/flax/linen/normalization.py" source_line=139}
  %rsqrt.549 = f32[1,1,1,224]{3,2,1,0} rsqrt(f32[1,1,1,224]{3,2,1,0} %bitcast.2408), metadata={op_name="parallelize(train_step_func_pipeshard_parallel_mesh_0)/jit(main)/jit(3)/jit(37)/transpose(jvp(remat))/WideResNet/bn_init/rsqrt" source_file="/home/cyxue/miniconda3/envs/alpa/lib/python3.8/site-packages/flax/linen/normalization.py" source_line=139}
  %param_2.1725 = f32[224]{0} parameter(2)
  %bitcast.2407 = f32[1,1,1,224]{3,2,1,0} bitcast(f32[224]{0} %param_2.1725), metadata={op_name="parallelize(train_step_func_pipeshard_parallel_mesh_0)/jit(main)/jit(3)/jit(37)/transpose(jvp(remat))/WideResNet/bn_init/reshape[new_sizes=(1, 1, 1, 224) dimensions=None]" source_file="/home/cyxue/miniconda3/envs/alpa/lib/python3.8/site-packages/flax/linen/normalization.py" source_line=142}
  %multiply.2420 = f32[1,1,1,224]{3,2,1,0} multiply(f32[1,1,1,224]{3,2,1,0} %rsqrt.549, f32[1,1,1,224]{3,2,1,0} %bitcast.2407), metadata={op_name="parallelize(train_step_func_pipeshard_parallel_mesh_0)/jit(main)/jit(3)/jit(37)/transpose(jvp(remat))/WideResNet/bn_init/mul" source_file="/home/cyxue/miniconda3/envs/alpa/lib/python3.8/site-packages/flax/linen/normalization.py" source_line=144}
  %bitcast.2406 = f32[224]{0} bitcast(f32[1,1,1,224]{3,2,1,0} %multiply.2420), metadata={op_name="parallelize(train_step_func_pipeshard_parallel_mesh_0)/jit(main)/jit(3)/jit(37)/transpose(jvp(remat))/WideResNet/bn_init/mul" source_file="/home/cyxue/miniconda3/envs/alpa/lib/python3.8/site-packages/flax/linen/normalization.py" source_line=146}
  %broadcast.4084 = f32[16,112,112,224]{2,1,3,0} broadcast(f32[224]{0} %bitcast.2406), dimensions={3}, metadata={op_name="parallelize(train_step_func_pipeshard_parallel_mesh_0)/jit(main)/jit(3)/jit(37)/transpose(jvp(remat))/WideResNet/bn_init/mul" source_file="/home/cyxue/miniconda3/envs/alpa/lib/python3.8/site-packages/flax/linen/normalization.py" source_line=146}
  %multiply.2419 = f32[16,112,112,224]{2,1,3,0} multiply(f32[16,112,112,224]{2,1,3,0} %subtract.441, f32[16,112,112,224]{2,1,3,0} %broadcast.4084), metadata={op_name="parallelize(train_step_func_pipeshard_parallel_mesh_0)/jit(main)/jit(3)/jit(37)/transpose(jvp(remat))/WideResNet/bn_init/mul" source_file="/home/cyxue/miniconda3/envs/alpa/lib/python3.8/site-packages/flax/linen/normalization.py" source_line=146}
  %param_1.2367 = f32[224]{0} parameter(1)
  %broadcast.4083 = f32[16,112,112,224]{2,1,3,0} broadcast(f32[224]{0} %param_1.2367), dimensions={3}, metadata={op_name="parallelize(train_step_func_pipeshard_parallel_mesh_0)/jit(main)/jit(3)/jit(37)/transpose(jvp(remat))/WideResNet/bn_init/add" source_file="/home/cyxue/miniconda3/envs/alpa/lib/python3.8/site-packages/flax/linen/normalization.py" source_line=150}
  %add.1324 = f32[16,112,112,224]{2,1,3,0} add(f32[16,112,112,224]{2,1,3,0} %multiply.2419, f32[16,112,112,224]{2,1,3,0} %broadcast.4083), metadata={op_name="parallelize(train_step_func_pipeshard_parallel_mesh_0)/jit(main)/jit(3)/jit(37)/transpose(jvp(remat))/WideResNet/bn_init/add" source_file="/home/cyxue/miniconda3/envs/alpa/lib/python3.8/site-packages/flax/linen/normalization.py" source_line=150}
  %broadcast.4082 = f32[16,112,112,224]{2,1,3,0} broadcast(f32[] %constant_186), dimensions={}, metadata={op_name="parallelize(train_step_func_pipeshard_parallel_mesh_0)/jit(main)/jit(3)/jit(37)/transpose(jvp(remat))/WideResNet/max" source_file="/home/cyxue/Projects/crius/Crius/runtime/crius_worker/jax/model/wide_resnet.py" source_line=124}
  %compare.325 = pred[16,112,112,224]{2,1,3,0} compare(f32[16,112,112,224]{2,1,3,0} %add.1324, f32[16,112,112,224]{2,1,3,0} %broadcast.4082), direction=GT, metadata={op_name="parallelize(train_step_func_pipeshard_parallel_mesh_0)/jit(main)/jit(3)/jit(37)/transpose(jvp(remat))/WideResNet/gt" source_file="/home/cyxue/Projects/crius/Crius/runtime/crius_worker/jax/model/wide_resnet.py" source_line=124}
  %param_0.1735 = f32[16,113,113,224]{2,1,3,0} parameter(0)
  %slice.31 = f32[16,112,112,224]{2,1,3,0} slice(f32[16,113,113,224]{2,1,3,0} %param_0.1735), slice={[0:16], [0:112], [0:112], [0:224]}, metadata={op_name="parallelize(train_step_func_pipeshard_parallel_mesh_0)/jit(main)/jit(3)/jit(37)/transpose(jvp(remat))/WideResNet/slice[start_indices=(0, 0, 0, 0) limit_indices=(16, 112, 112, 224) strides=None]" source_file="/home/cyxue/miniconda3/envs/alpa/lib/python3.8/site-packages/flax/linen/pooling.py" source_line=66}
  %select.325 = f32[16,112,112,224]{2,1,3,0} select(pred[16,112,112,224]{2,1,3,0} %compare.325, f32[16,112,112,224]{2,1,3,0} %slice.31, f32[16,112,112,224]{2,1,3,0} %broadcast.4082), metadata={op_name="parallelize(train_step_func_pipeshard_parallel_mesh_0)/jit(main)/jit(3)/jit(37)/transpose(jvp(remat))/WideResNet/select_n" source_file="/home/cyxue/Projects/crius/Crius/runtime/crius_worker/jax/model/wide_resnet.py" source_line=124}
  %transpose.6 = f32[16,224,112,112]{3,2,1,0} transpose(f32[16,112,112,224]{2,1,3,0} %select.325), dimensions={0,3,1,2}
  %bitcast.598 = f32[16,224,12544]{2,1,0} bitcast(f32[16,224,112,112]{3,2,1,0} %transpose.6), metadata={op_name="parallelize(train_step_func_pipeshard_parallel_mesh_0)/jit(main)/jit(3)/jit(37)/transpose(jvp(remat))/WideResNet/select_n" source_file="/home/cyxue/Projects/crius/Crius/runtime/crius_worker/jax/model/wide_resnet.py" source_line=124}
  %reduce.690 = f32[16,224]{1,0} reduce(f32[16,224,12544]{2,1,0} %bitcast.598, f32[] %constant_186), dimensions={2}, to_apply=%region_63.4346.3
  %multiply.2437.clone.1 = f32[16,112,112,224]{2,1,3,0} multiply(f32[16,112,112,224]{2,1,3,0} %select.325, f32[16,112,112,224]{2,1,3,0} %broadcast.4084), metadata={op_name="parallelize(train_step_func_pipeshard_parallel_mesh_0)/jit(main)/jit(3)/jit(37)/transpose(jvp(remat))/WideResNet/bn_init/mul" source_file="/home/cyxue/miniconda3/envs/alpa/lib/python3.8/site-packages/flax/linen/normalization.py" source_line=146}
  %negate.1.clone.1 = f32[16,112,112,224]{2,1,3,0} negate(f32[16,112,112,224]{2,1,3,0} %multiply.2437.clone.1), metadata={op_name="parallelize(train_step_func_pipeshard_parallel_mesh_0)/jit(main)/jit(3)/jit(37)/transpose(jvp(remat))/WideResNet/bn_init/neg" source_file="/home/cyxue/miniconda3/envs/alpa/lib/python3.8/site-packages/flax/linen/normalization.py" source_line=138}
  %transpose.7 = f32[16,224,112,112]{3,2,1,0} transpose(f32[16,112,112,224]{2,1,3,0} %negate.1.clone.1), dimensions={0,3,1,2}
  %bitcast.601.clone.1 = f32[16,224,12544]{2,1,0} bitcast(f32[16,224,112,112]{3,2,1,0} %transpose.7), metadata={op_name="parallelize(train_step_func_pipeshard_parallel_mesh_0)/jit(main)/jit(3)/jit(37)/transpose(jvp(remat))/WideResNet/bn_init/neg" source_file="/home/cyxue/miniconda3/envs/alpa/lib/python3.8/site-packages/flax/linen/normalization.py" source_line=138}
  %reduce.691.clone.1 = f32[16,224]{1,0} reduce(f32[16,224,12544]{2,1,0} %bitcast.601.clone.1, f32[] %constant_186), dimensions={2}, to_apply=%region_63.4346.3
  %multiply.292.clone.1 = f32[16,112,112,224]{2,1,3,0} multiply(f32[16,112,112,224]{2,1,3,0} %subtract.441, f32[16,112,112,224]{2,1,3,0} %select.325), metadata={op_name="parallelize(train_step_func_pipeshard_parallel_mesh_0)/jit(main)/jit(3)/jit(37)/transpose(jvp(remat))/WideResNet/bn_init/mul" source_file="/home/cyxue/miniconda3/envs/alpa/lib/python3.8/site-packages/flax/linen/normalization.py" source_line=146}
  %transpose.8 = f32[16,224,112,112]{3,2,1,0} transpose(f32[16,112,112,224]{2,1,3,0} %multiply.292.clone.1), dimensions={0,3,1,2}
  %bitcast.603.clone.1 = f32[16,224,12544]{2,1,0} bitcast(f32[16,224,112,112]{3,2,1,0} %transpose.8), metadata={op_name="parallelize(train_step_func_pipeshard_parallel_mesh_0)/jit(main)/jit(3)/jit(37)/transpose(jvp(remat))/WideResNet/bn_init/mul" source_file="/home/cyxue/miniconda3/envs/alpa/lib/python3.8/site-packages/flax/linen/normalization.py" source_line=146}
  %reduce.693.clone.1 = f32[16,224]{1,0} reduce(f32[16,224,12544]{2,1,0} %bitcast.603.clone.1, f32[] %constant_186), dimensions={2}, to_apply=%region_63.4346.3
  ROOT %tuple.4 = (f32[16,224]{1,0}, f32[16,224]{1,0}, f32[16,224]{1,0}) tuple(f32[16,224]{1,0} %reduce.690, f32[16,224]{1,0} %reduce.691.clone.1, f32[16,224]{1,0} %reduce.693.clone.1)
}

%fused_computation.11 (param_0.21: f32[7,7,3,224], param_1.27: f32[7,7,3,224]) -> f32[7,7,3,224] {
  %param_1.27 = f32[7,7,3,224]{3,2,1,0} parameter(1)
  %copy.143 = f32[7,7,3,224]{1,0,2,3} copy(f32[7,7,3,224]{3,2,1,0} %param_1.27), metadata={op_name="3$start"}
  %param_0.21 = f32[7,7,3,224]{1,0,2,3} parameter(0)
  %add.36 = f32[7,7,3,224]{1,0,2,3} add(f32[7,7,3,224]{1,0,2,3} %copy.143, f32[7,7,3,224]{1,0,2,3} %param_0.21), metadata={op_name="parallelize(train_step_func_pipeshard_parallel_mesh_0)/jit(main)/jit(3)/jit(37)/add"}
  ROOT %copy.142 = f32[7,7,3,224]{3,2,1,0} copy(f32[7,7,3,224]{1,0,2,3} %add.36), metadata={op_name="tuple.85"}
}

%fused_computation.12 (param_0.24: f32[224], param_1.33: f32[224], param_2.1727: f32[16,112,112,224], param_3.1500: f32[224], param_4.1308: f32[1,1,1,224], param_5.1317: f32[224], param_6.858: f32[16,113,113,224], param_7.934: f32[224]) -> f32[16,112,112,224] {
  %param_2.1727 = f32[16,112,112,224]{2,1,3,0} parameter(2)
  %param_1.33 = f32[224]{0} parameter(1)
  %constant_187 = f32[] constant(4.98246163e-06)
  %broadcast.4108 = f32[224]{0} broadcast(f32[] %constant_187), dimensions={}, metadata={op_name="parallelize(train_step_func_pipeshard_parallel_mesh_0)/jit(main)/jit(3)/jit(37)/transpose(jvp(remat))/WideResNet/bn_init/div" source_file="/home/cyxue/miniconda3/envs/alpa/lib/python3.8/site-packages/flax/linen/normalization.py" source_line=82}
  %multiply.2431 = f32[224]{0} multiply(f32[224]{0} %param_1.33, f32[224]{0} %broadcast.4108), metadata={op_name="parallelize(train_step_func_pipeshard_parallel_mesh_0)/jit(main)/jit(3)/jit(37)/transpose(jvp(remat))/WideResNet/bn_init/div" source_file="/home/cyxue/miniconda3/envs/alpa/lib/python3.8/site-packages/flax/linen/normalization.py" source_line=82}
  %broadcast.4107 = f32[16,112,112,224]{2,1,3,0} broadcast(f32[224]{0} %multiply.2431), dimensions={3}, metadata={op_name="parallelize(train_step_func_pipeshard_parallel_mesh_0)/jit(main)/jit(3)/jit(37)/transpose(jvp(remat))/WideResNet/bn_init/sub" source_file="/home/cyxue/miniconda3/envs/alpa/lib/python3.8/site-packages/flax/linen/normalization.py" source_line=138}
  %subtract.443 = f32[16,112,112,224]{2,1,3,0} subtract(f32[16,112,112,224]{2,1,3,0} %param_2.1727, f32[16,112,112,224]{2,1,3,0} %broadcast.4107), metadata={op_name="parallelize(train_step_func_pipeshard_parallel_mesh_0)/jit(main)/jit(3)/jit(37)/transpose(jvp(remat))/WideResNet/bn_init/sub" source_file="/home/cyxue/miniconda3/envs/alpa/lib/python3.8/site-packages/flax/linen/normalization.py" source_line=138}
  %param_3.1500 = f32[224]{0} parameter(3)
  %constant_191 = f32[] constant(0)
  %broadcast.4106 = f32[224]{0} broadcast(f32[] %constant_191), dimensions={}, metadata={op_name="parallelize(train_step_func_pipeshard_parallel_mesh_0)/jit(main)/jit(3)/jit(35)/transpose(jvp(remat))/WideResNet/BottleneckResNetBlock_2/BatchNorm_0/max" source_file="/home/cyxue/miniconda3/envs/alpa/lib/python3.8/site-packages/flax/linen/normalization.py" source_line=93}
  %maximum.821 = f32[224]{0} maximum(f32[224]{0} %param_3.1500, f32[224]{0} %broadcast.4106), metadata={op_name="parallelize(train_step_func_pipeshard_parallel_mesh_0)/jit(main)/jit(3)/jit(37)/transpose(jvp(remat))/WideResNet/bn_init/max" source_file="/home/cyxue/miniconda3/envs/alpa/lib/python3.8/site-packages/flax/linen/normalization.py" source_line=93}
  %constant_2992 = f32[] constant(1e-05)
  %broadcast.4105 = f32[224]{0} broadcast(f32[] %constant_2992), dimensions={}, metadata={op_name="parallelize(train_step_func_pipeshard_parallel_mesh_0)/jit(main)/jit(3)/jit(35)/transpose(jvp(remat))/WideResNet/BottleneckResNetBlock_2/BatchNorm_0/add" source_file="/home/cyxue/miniconda3/envs/alpa/lib/python3.8/site-packages/flax/linen/normalization.py" source_line=139}
  %add.1331 = f32[224]{0} add(f32[224]{0} %maximum.821, f32[224]{0} %broadcast.4105), metadata={op_name="parallelize(train_step_func_pipeshard_parallel_mesh_0)/jit(main)/jit(3)/jit(37)/transpose(jvp(remat))/WideResNet/bn_init/add" source_file="/home/cyxue/miniconda3/envs/alpa/lib/python3.8/site-packages/flax/linen/normalization.py" source_line=139}
  %bitcast.2420 = f32[1,1,1,224]{3,2,1,0} bitcast(f32[224]{0} %add.1331), metadata={op_name="parallelize(train_step_func_pipeshard_parallel_mesh_0)/jit(main)/jit(3)/jit(37)/transpose(jvp(remat))/WideResNet/bn_init/add" source_file="/home/cyxue/miniconda3/envs/alpa/lib/python3.8/site-packages/flax/linen/normalization.py" source_line=139}
  %rsqrt.553 = f32[1,1,1,224]{3,2,1,0} rsqrt(f32[1,1,1,224]{3,2,1,0} %bitcast.2420), metadata={op_name="parallelize(train_step_func_pipeshard_parallel_mesh_0)/jit(main)/jit(3)/jit(37)/transpose(jvp(remat))/WideResNet/bn_init/rsqrt" source_file="/home/cyxue/miniconda3/envs/alpa/lib/python3.8/site-packages/flax/linen/normalization.py" source_line=139}
  %param_5.1317 = f32[224]{0} parameter(5)
  %bitcast.2419 = f32[1,1,1,224]{3,2,1,0} bitcast(f32[224]{0} %param_5.1317), metadata={op_name="parallelize(train_step_func_pipeshard_parallel_mesh_0)/jit(main)/jit(3)/jit(37)/transpose(jvp(remat))/WideResNet/bn_init/reshape[new_sizes=(1, 1, 1, 224) dimensions=None]" source_file="/home/cyxue/miniconda3/envs/alpa/lib/python3.8/site-packages/flax/linen/normalization.py" source_line=142}
  %multiply.2430 = f32[1,1,1,224]{3,2,1,0} multiply(f32[1,1,1,224]{3,2,1,0} %rsqrt.553, f32[1,1,1,224]{3,2,1,0} %bitcast.2419), metadata={op_name="parallelize(train_step_func_pipeshard_parallel_mesh_0)/jit(main)/jit(3)/jit(37)/transpose(jvp(remat))/WideResNet/bn_init/mul" source_file="/home/cyxue/miniconda3/envs/alpa/lib/python3.8/site-packages/flax/linen/normalization.py" source_line=144}
  %bitcast.2418 = f32[224]{0} bitcast(f32[1,1,1,224]{3,2,1,0} %multiply.2430), metadata={op_name="parallelize(train_step_func_pipeshard_parallel_mesh_0)/jit(main)/jit(3)/jit(37)/transpose(jvp(remat))/WideResNet/bn_init/mul" source_file="/home/cyxue/miniconda3/envs/alpa/lib/python3.8/site-packages/flax/linen/normalization.py" source_line=146}
  %broadcast.4104 = f32[16,112,112,224]{2,1,3,0} broadcast(f32[224]{0} %bitcast.2418), dimensions={3}, metadata={op_name="parallelize(train_step_func_pipeshard_parallel_mesh_0)/jit(main)/jit(3)/jit(37)/transpose(jvp(remat))/WideResNet/bn_init/mul" source_file="/home/cyxue/miniconda3/envs/alpa/lib/python3.8/site-packages/flax/linen/normalization.py" source_line=146}
  %multiply.2429 = f32[16,112,112,224]{2,1,3,0} multiply(f32[16,112,112,224]{2,1,3,0} %subtract.443, f32[16,112,112,224]{2,1,3,0} %broadcast.4104), metadata={op_name="parallelize(train_step_func_pipeshard_parallel_mesh_0)/jit(main)/jit(3)/jit(37)/transpose(jvp(remat))/WideResNet/bn_init/mul" source_file="/home/cyxue/miniconda3/envs/alpa/lib/python3.8/site-packages/flax/linen/normalization.py" source_line=146}
  %param_7.934 = f32[224]{0} parameter(7)
  %broadcast.4103 = f32[16,112,112,224]{2,1,3,0} broadcast(f32[224]{0} %param_7.934), dimensions={3}, metadata={op_name="parallelize(train_step_func_pipeshard_parallel_mesh_0)/jit(main)/jit(3)/jit(37)/transpose(jvp(remat))/WideResNet/bn_init/add" source_file="/home/cyxue/miniconda3/envs/alpa/lib/python3.8/site-packages/flax/linen/normalization.py" source_line=150}
  %add.1330 = f32[16,112,112,224]{2,1,3,0} add(f32[16,112,112,224]{2,1,3,0} %multiply.2429, f32[16,112,112,224]{2,1,3,0} %broadcast.4103), metadata={op_name="parallelize(train_step_func_pipeshard_parallel_mesh_0)/jit(main)/jit(3)/jit(37)/transpose(jvp(remat))/WideResNet/bn_init/add" source_file="/home/cyxue/miniconda3/envs/alpa/lib/python3.8/site-packages/flax/linen/normalization.py" source_line=150}
  %broadcast.4102 = f32[16,112,112,224]{2,1,3,0} broadcast(f32[] %constant_191), dimensions={}, metadata={op_name="parallelize(train_step_func_pipeshard_parallel_mesh_0)/jit(main)/jit(3)/jit(37)/transpose(jvp(remat))/WideResNet/max" source_file="/home/cyxue/Projects/crius/Crius/runtime/crius_worker/jax/model/wide_resnet.py" source_line=124}
  %compare.327 = pred[16,112,112,224]{2,1,3,0} compare(f32[16,112,112,224]{2,1,3,0} %add.1330, f32[16,112,112,224]{2,1,3,0} %broadcast.4102), direction=GT, metadata={op_name="parallelize(train_step_func_pipeshard_parallel_mesh_0)/jit(main)/jit(3)/jit(37)/transpose(jvp(remat))/WideResNet/gt" source_file="/home/cyxue/Projects/crius/Crius/runtime/crius_worker/jax/model/wide_resnet.py" source_line=124}
  %param_6.858 = f32[16,113,113,224]{2,1,3,0} parameter(6)
  %slice.33 = f32[16,112,112,224]{2,1,3,0} slice(f32[16,113,113,224]{2,1,3,0} %param_6.858), slice={[0:16], [0:112], [0:112], [0:224]}, metadata={op_name="parallelize(train_step_func_pipeshard_parallel_mesh_0)/jit(main)/jit(3)/jit(37)/transpose(jvp(remat))/WideResNet/slice[start_indices=(0, 0, 0, 0) limit_indices=(16, 112, 112, 224) strides=None]" source_file="/home/cyxue/miniconda3/envs/alpa/lib/python3.8/site-packages/flax/linen/pooling.py" source_line=66}
  %select.327 = f32[16,112,112,224]{2,1,3,0} select(pred[16,112,112,224]{2,1,3,0} %compare.327, f32[16,112,112,224]{2,1,3,0} %slice.33, f32[16,112,112,224]{2,1,3,0} %broadcast.4102), metadata={op_name="parallelize(train_step_func_pipeshard_parallel_mesh_0)/jit(main)/jit(3)/jit(37)/transpose(jvp(remat))/WideResNet/select_n" source_file="/home/cyxue/Projects/crius/Crius/runtime/crius_worker/jax/model/wide_resnet.py" source_line=124}
  %multiply.2427 = f32[16,112,112,224]{2,1,3,0} multiply(f32[16,112,112,224]{2,1,3,0} %select.327, f32[16,112,112,224]{2,1,3,0} %broadcast.4104), metadata={op_name="parallelize(train_step_func_pipeshard_parallel_mesh_0)/jit(main)/jit(3)/jit(37)/transpose(jvp(remat))/WideResNet/bn_init/mul" source_file="/home/cyxue/miniconda3/envs/alpa/lib/python3.8/site-packages/flax/linen/normalization.py" source_line=146}
  %param_4.1308 = f32[1,1,1,224]{3,2,1,0} parameter(4)
  %multiply.291 = f32[1,1,1,224]{3,2,1,0} multiply(f32[1,1,1,224]{3,2,1,0} %param_4.1308, f32[1,1,1,224]{3,2,1,0} %bitcast.2419), metadata={op_name="parallelize(train_step_func_pipeshard_parallel_mesh_0)/jit(main)/jit(3)/jit(37)/transpose(jvp(remat))/WideResNet/bn_init/mul" source_file="/home/cyxue/miniconda3/envs/alpa/lib/python3.8/site-packages/flax/linen/normalization.py" source_line=144}
  %divide.1 = f32[1,1,1,224]{3,2,1,0} divide(f32[1,1,1,224]{3,2,1,0} %rsqrt.553, f32[1,1,1,224]{3,2,1,0} %bitcast.2420), metadata={op_name="parallelize(train_step_func_pipeshard_parallel_mesh_0)/jit(main)/jit(3)/jit(37)/transpose(jvp(remat))/WideResNet/bn_init/div" source_file="/home/cyxue/miniconda3/envs/alpa/lib/python3.8/site-packages/flax/linen/normalization.py" source_line=139}
  %constant_188 = f32[] constant(-0.5)
  %broadcast.316 = f32[1,1,1,224]{3,2,1,0} broadcast(f32[] %constant_188), dimensions={}, metadata={op_name="parallelize(train_step_func_pipeshard_parallel_mesh_0)/jit(main)/jit(3)/jit(35)/transpose(jvp(remat))/WideResNet/BottleneckResNetBlock_2/BatchNorm_0/mul" source_file="/home/cyxue/miniconda3/envs/alpa/lib/python3.8/site-packages/flax/linen/normalization.py" source_line=139}
  %multiply.290 = f32[1,1,1,224]{3,2,1,0} multiply(f32[1,1,1,224]{3,2,1,0} %divide.1, f32[1,1,1,224]{3,2,1,0} %broadcast.316), metadata={op_name="parallelize(train_step_func_pipeshard_parallel_mesh_0)/jit(main)/jit(3)/jit(37)/transpose(jvp(remat))/WideResNet/bn_init/mul" source_file="/home/cyxue/miniconda3/envs/alpa/lib/python3.8/site-packages/flax/linen/normalization.py" source_line=139}
  %multiply.289 = f32[1,1,1,224]{3,2,1,0} multiply(f32[1,1,1,224]{3,2,1,0} %multiply.291, f32[1,1,1,224]{3,2,1,0} %multiply.290), metadata={op_name="parallelize(train_step_func_pipeshard_parallel_mesh_0)/jit(main)/jit(3)/jit(37)/transpose(jvp(remat))/WideResNet/bn_init/mul" source_file="/home/cyxue/miniconda3/envs/alpa/lib/python3.8/site-packages/flax/linen/normalization.py" source_line=139}
  %bitcast.600 = f32[224]{0} bitcast(f32[1,1,1,224]{3,2,1,0} %multiply.289), metadata={op_name="parallelize(train_step_func_pipeshard_parallel_mesh_0)/jit(main)/jit(3)/jit(37)/transpose(jvp(remat))/WideResNet/bn_init/reshape[new_sizes=(224,) dimensions=None]" source_file="/home/cyxue/miniconda3/envs/alpa/lib/python3.8/site-packages/flax/linen/normalization.py" source_line=132}
  %compare.1 = pred[224]{0} compare(f32[224]{0} %param_3.1500, f32[224]{0} %maximum.821), direction=EQ, metadata={op_name="parallelize(train_step_func_pipeshard_parallel_mesh_0)/jit(main)/jit(3)/jit(37)/transpose(jvp(remat))/WideResNet/bn_init/eq" source_file="/home/cyxue/miniconda3/envs/alpa/lib/python3.8/site-packages/flax/linen/normalization.py" source_line=93}
  %constant_189 = f32[] constant(1)
  %broadcast.315 = f32[224]{0} broadcast(f32[] %constant_189), dimensions={}, metadata={op_name="parallelize(train_step_func_pipeshard_parallel_mesh_0)/jit(main)/jit(3)/jit(35)/transpose(jvp(remat))/WideResNet/BottleneckResNetBlock_2/BatchNorm_0/broadcast_in_dim[shape=(224,) broadcast_dimensions=()]" source_file="/home/cyxue/miniconda3/envs/alpa/lib/python3.8/site-packages/flax/linen/normalization.py" source_line=93}
  %select.1 = f32[224]{0} select(pred[224]{0} %compare.1, f32[224]{0} %broadcast.315, f32[224]{0} %broadcast.4106), metadata={op_name="parallelize(train_step_func_pipeshard_parallel_mesh_0)/jit(main)/jit(3)/jit(37)/transpose(jvp(remat))/WideResNet/bn_init/select_n" source_file="/home/cyxue/miniconda3/envs/alpa/lib/python3.8/site-packages/flax/linen/normalization.py" source_line=93}
  %compare.0 = pred[224]{0} compare(f32[224]{0} %broadcast.4106, f32[224]{0} %maximum.821), direction=EQ, metadata={op_name="parallelize(train_step_func_pipeshard_parallel_mesh_0)/jit(main)/jit(3)/jit(37)/transpose(jvp(remat))/WideResNet/bn_init/eq" source_file="/home/cyxue/miniconda3/envs/alpa/lib/python3.8/site-packages/flax/linen/normalization.py" source_line=93}
  %constant_190 = f32[] constant(2)
  %broadcast.314 = f32[224]{0} broadcast(f32[] %constant_190), dimensions={}, metadata={op_name="parallelize(train_step_func_pipeshard_parallel_mesh_0)/jit(main)/jit(3)/jit(35)/transpose(jvp(remat))/WideResNet/BottleneckResNetBlock_2/BatchNorm_0/mul" source_file="/home/cyxue/miniconda3/envs/alpa/lib/python3.8/site-packages/flax/linen/normalization.py" source_line=46}
  %select.0 = f32[224]{0} select(pred[224]{0} %compare.0, f32[224]{0} %broadcast.314, f32[224]{0} %broadcast.315), metadata={op_name="parallelize(train_step_func_pipeshard_parallel_mesh_0)/jit(main)/jit(3)/jit(37)/transpose(jvp(remat))/WideResNet/bn_init/select_n" source_file="/home/cyxue/miniconda3/envs/alpa/lib/python3.8/site-packages/flax/linen/normalization.py" source_line=93}
  %divide.0 = f32[224]{0} divide(f32[224]{0} %select.1, f32[224]{0} %select.0), metadata={op_name="parallelize(train_step_func_pipeshard_parallel_mesh_0)/jit(main)/jit(3)/jit(37)/transpose(jvp(remat))/WideResNet/bn_init/div" source_file="/home/cyxue/miniconda3/envs/alpa/lib/python3.8/site-packages/flax/linen/normalization.py" source_line=93}
  %multiply.288 = f32[224]{0} multiply(f32[224]{0} %bitcast.600, f32[224]{0} %divide.0), metadata={op_name="parallelize(train_step_func_pipeshard_parallel_mesh_0)/jit(main)/jit(3)/jit(37)/transpose(jvp(remat))/WideResNet/bn_init/mul" source_file="/home/cyxue/miniconda3/envs/alpa/lib/python3.8/site-packages/flax/linen/normalization.py" source_line=93}
  %constant_180 = f32[] constant(9.96492327e-06)
  %broadcast.312 = f32[224]{0} broadcast(f32[] %constant_180), dimensions={}, metadata={op_name="parallelize(train_step_func_pipeshard_parallel_mesh_0)/jit(main)/jit(3)/jit(37)/transpose(jvp(remat))/WideResNet/bn_init/mul" source_file="/home/cyxue/miniconda3/envs/alpa/lib/python3.8/site-packages/flax/linen/normalization.py" source_line=46}
  %multiply.287 = f32[224]{0} multiply(f32[224]{0} %multiply.288, f32[224]{0} %broadcast.312), metadata={op_name="parallelize(train_step_func_pipeshard_parallel_mesh_0)/jit(main)/jit(3)/jit(37)/transpose(jvp(remat))/WideResNet/bn_init/mul" source_file="/home/cyxue/miniconda3/envs/alpa/lib/python3.8/site-packages/flax/linen/normalization.py" source_line=46}
  %broadcast.311 = f32[16,112,112,224]{2,1,3,0} broadcast(f32[224]{0} %multiply.287), dimensions={3}, metadata={op_name="parallelize(train_step_func_pipeshard_parallel_mesh_0)/jit(main)/jit(3)/jit(37)/transpose(jvp(remat))/WideResNet/bn_init/mul" source_file="/home/cyxue/miniconda3/envs/alpa/lib/python3.8/site-packages/flax/linen/normalization.py" source_line=46}
  %multiply.286 = f32[16,112,112,224]{2,1,3,0} multiply(f32[16,112,112,224]{2,1,3,0} %param_2.1727, f32[16,112,112,224]{2,1,3,0} %broadcast.311), metadata={op_name="parallelize(train_step_func_pipeshard_parallel_mesh_0)/jit(main)/jit(3)/jit(37)/transpose(jvp(remat))/WideResNet/bn_init/mul" source_file="/home/cyxue/miniconda3/envs/alpa/lib/python3.8/site-packages/flax/linen/normalization.py" source_line=46}
  %add.39 = f32[16,112,112,224]{2,1,3,0} add(f32[16,112,112,224]{2,1,3,0} %multiply.2427, f32[16,112,112,224]{2,1,3,0} %multiply.286), metadata={op_name="parallelize(train_step_func_pipeshard_parallel_mesh_0)/jit(main)/jit(3)/jit(37)/transpose(jvp(remat))/WideResNet/bn_init/add_any" source_file="/home/cyxue/miniconda3/envs/alpa/lib/python3.8/site-packages/flax/linen/normalization.py" source_line=46}
  %param_0.24 = f32[224]{0} parameter(0)
  %negate.0 = f32[224]{0} negate(f32[224]{0} %multiply.288), metadata={op_name="parallelize(train_step_func_pipeshard_parallel_mesh_0)/jit(main)/jit(3)/jit(37)/transpose(jvp(remat))/WideResNet/bn_init/neg" source_file="/home/cyxue/miniconda3/envs/alpa/lib/python3.8/site-packages/flax/linen/normalization.py" source_line=93}
  %multiply.285 = f32[224]{0} multiply(f32[224]{0} %param_1.33, f32[224]{0} %broadcast.312), metadata={op_name="parallelize(train_step_func_pipeshard_parallel_mesh_0)/jit(main)/jit(3)/jit(37)/transpose(jvp(remat))/WideResNet/bn_init/mul" source_file="/home/cyxue/miniconda3/envs/alpa/lib/python3.8/site-packages/flax/linen/normalization.py" source_line=46}
  %multiply.284 = f32[224]{0} multiply(f32[224]{0} %negate.0, f32[224]{0} %multiply.285), metadata={op_name="parallelize(train_step_func_pipeshard_parallel_mesh_0)/jit(main)/jit(3)/jit(37)/transpose(jvp(remat))/WideResNet/bn_init/mul" source_file="/home/cyxue/miniconda3/envs/alpa/lib/python3.8/site-packages/flax/linen/normalization.py" source_line=46}
  %add.38 = f32[224]{0} add(f32[224]{0} %param_0.24, f32[224]{0} %multiply.284), metadata={op_name="parallelize(train_step_func_pipeshard_parallel_mesh_0)/jit(main)/jit(3)/jit(37)/transpose(jvp(remat))/WideResNet/bn_init/add_any" source_file="/home/cyxue/miniconda3/envs/alpa/lib/python3.8/site-packages/flax/linen/normalization.py" source_line=46}
  %multiply.283 = f32[224]{0} multiply(f32[224]{0} %add.38, f32[224]{0} %broadcast.4108), metadata={op_name="parallelize(train_step_func_pipeshard_parallel_mesh_0)/jit(main)/jit(3)/jit(37)/transpose(jvp(remat))/WideResNet/bn_init/div" source_file="/home/cyxue/miniconda3/envs/alpa/lib/python3.8/site-packages/flax/linen/normalization.py" source_line=82}
  %broadcast.310 = f32[16,112,112,224]{2,1,3,0} broadcast(f32[224]{0} %multiply.283), dimensions={3}, metadata={op_name="parallelize(train_step_func_pipeshard_parallel_mesh_0)/jit(main)/jit(3)/jit(37)/transpose(jvp(remat))/WideResNet/bn_init/broadcast_in_dim[shape=(16, 112, 112, 224) broadcast_dimensions=(3,)]" source_file="/home/cyxue/miniconda3/envs/alpa/lib/python3.8/site-packages/flax/linen/normalization.py" source_line=82}
  ROOT %add.37 = f32[16,112,112,224]{2,1,3,0} add(f32[16,112,112,224]{2,1,3,0} %add.39, f32[16,112,112,224]{2,1,3,0} %broadcast.310), metadata={op_name="parallelize(train_step_func_pipeshard_parallel_mesh_0)/jit(main)/jit(3)/jit(37)/transpose(jvp(remat))/WideResNet/bn_init/add_any" source_file="/home/cyxue/miniconda3/envs/alpa/lib/python3.8/site-packages/flax/linen/normalization.py" source_line=82}
}

%fused_computation.14 (param_0.28: f32[16,224]) -> f32[1,1,1,224] {
  %param_0.28 = f32[16,224]{1,0} parameter(0)
  %constant_192 = f32[] constant(0)
  %reduce.692 = f32[224]{0} reduce(f32[16,224]{1,0} %param_0.28, f32[] %constant_192), dimensions={0}, to_apply=%region_63.4346.3, metadata={op_name="parallelize(train_step_func_pipeshard_parallel_mesh_0)/jit(main)/jit(3)/jit(37)/transpose(jvp(remat))/WideResNet/bn_init/reduce_sum[axes=(0, 1, 2)]" source_file="/home/cyxue/miniconda3/envs/alpa/lib/python3.8/site-packages/flax/linen/normalization.py" source_line=146}
  ROOT %bitcast.602 = f32[1,1,1,224]{3,2,1,0} bitcast(f32[224]{0} %reduce.692), metadata={op_name="parallelize(train_step_func_pipeshard_parallel_mesh_0)/jit(main)/jit(3)/jit(37)/transpose(jvp(remat))/WideResNet/bn_init/reshape[new_sizes=(1, 1, 1, 224) dimensions=None]" source_file="/home/cyxue/miniconda3/envs/alpa/lib/python3.8/site-packages/flax/linen/normalization.py" source_line=146}
}

%fused_computation.18 (param_0.37: f32[224], param_1.52: f32[224], param_2.1699: f32[16,56,56,224], param_3.1467: f32[224], param_4.1272: f32[1,1,1,224], param_5.1274: f32[224], param_6.832: f32[16,56,56,224], param_7.915: f32[224]) -> f32[16,56,56,224] {
  %param_2.1699 = f32[16,56,56,224]{2,1,3,0} parameter(2)
  %param_1.52 = f32[224]{0} parameter(1)
  %constant_197 = f32[] constant(1.99298465e-05)
  %broadcast.4026 = f32[224]{0} broadcast(f32[] %constant_197), dimensions={}, metadata={op_name="parallelize(train_step_func_pipeshard_parallel_mesh_0)/jit(main)/jit(3)/jit(35)/transpose(jvp(remat))/WideResNet/BottleneckResNetBlock_2/BatchNorm_0/div" source_file="/home/cyxue/miniconda3/envs/alpa/lib/python3.8/site-packages/flax/linen/normalization.py" source_line=82}
  %multiply.2393 = f32[224]{0} multiply(f32[224]{0} %param_1.52, f32[224]{0} %broadcast.4026), metadata={op_name="parallelize(train_step_func_pipeshard_parallel_mesh_0)/jit(main)/jit(3)/jit(37)/transpose(jvp(remat))/WideResNet/BottleneckResNetBlock_0/BatchNorm_0/div" source_file="/home/cyxue/miniconda3/envs/alpa/lib/python3.8/site-packages/flax/linen/normalization.py" source_line=82}
  %broadcast.4025 = f32[16,56,56,224]{2,1,3,0} broadcast(f32[224]{0} %multiply.2393), dimensions={3}, metadata={op_name="parallelize(train_step_func_pipeshard_parallel_mesh_0)/jit(main)/jit(3)/jit(37)/transpose(jvp(remat))/WideResNet/BottleneckResNetBlock_0/BatchNorm_0/sub" source_file="/home/cyxue/miniconda3/envs/alpa/lib/python3.8/site-packages/flax/linen/normalization.py" source_line=138}
  %subtract.433 = f32[16,56,56,224]{2,1,3,0} subtract(f32[16,56,56,224]{2,1,3,0} %param_2.1699, f32[16,56,56,224]{2,1,3,0} %broadcast.4025), metadata={op_name="parallelize(train_step_func_pipeshard_parallel_mesh_0)/jit(main)/jit(3)/jit(37)/transpose(jvp(remat))/WideResNet/BottleneckResNetBlock_0/BatchNorm_0/sub" source_file="/home/cyxue/miniconda3/envs/alpa/lib/python3.8/site-packages/flax/linen/normalization.py" source_line=138}
  %param_3.1467 = f32[224]{0} parameter(3)
  %constant_201 = f32[] constant(0)
  %broadcast.4024 = f32[224]{0} broadcast(f32[] %constant_201), dimensions={}, metadata={op_name="parallelize(train_step_func_pipeshard_parallel_mesh_0)/jit(main)/jit(3)/jit(35)/transpose(jvp(remat))/WideResNet/BottleneckResNetBlock_2/BatchNorm_0/max" source_file="/home/cyxue/miniconda3/envs/alpa/lib/python3.8/site-packages/flax/linen/normalization.py" source_line=93}
  %maximum.807 = f32[224]{0} maximum(f32[224]{0} %param_3.1467, f32[224]{0} %broadcast.4024), metadata={op_name="parallelize(train_step_func_pipeshard_parallel_mesh_0)/jit(main)/jit(3)/jit(37)/transpose(jvp(remat))/WideResNet/BottleneckResNetBlock_0/BatchNorm_0/max" source_file="/home/cyxue/miniconda3/envs/alpa/lib/python3.8/site-packages/flax/linen/normalization.py" source_line=93}
  %constant_3067 = f32[] constant(1e-05)
  %broadcast.4023 = f32[224]{0} broadcast(f32[] %constant_3067), dimensions={}, metadata={op_name="parallelize(train_step_func_pipeshard_parallel_mesh_0)/jit(main)/jit(3)/jit(35)/transpose(jvp(remat))/WideResNet/BottleneckResNetBlock_2/BatchNorm_0/add" source_file="/home/cyxue/miniconda3/envs/alpa/lib/python3.8/site-packages/flax/linen/normalization.py" source_line=139}
  %add.1307 = f32[224]{0} add(f32[224]{0} %maximum.807, f32[224]{0} %broadcast.4023), metadata={op_name="parallelize(train_step_func_pipeshard_parallel_mesh_0)/jit(main)/jit(3)/jit(37)/transpose(jvp(remat))/WideResNet/BottleneckResNetBlock_0/BatchNorm_0/add" source_file="/home/cyxue/miniconda3/envs/alpa/lib/python3.8/site-packages/flax/linen/normalization.py" source_line=139}
  %bitcast.2378 = f32[1,1,1,224]{3,2,1,0} bitcast(f32[224]{0} %add.1307), metadata={op_name="parallelize(train_step_func_pipeshard_parallel_mesh_0)/jit(main)/jit(3)/jit(37)/transpose(jvp(remat))/WideResNet/BottleneckResNetBlock_0/BatchNorm_0/add" source_file="/home/cyxue/miniconda3/envs/alpa/lib/python3.8/site-packages/flax/linen/normalization.py" source_line=139}
  %rsqrt.539 = f32[1,1,1,224]{3,2,1,0} rsqrt(f32[1,1,1,224]{3,2,1,0} %bitcast.2378), metadata={op_name="parallelize(train_step_func_pipeshard_parallel_mesh_0)/jit(main)/jit(3)/jit(37)/transpose(jvp(remat))/WideResNet/BottleneckResNetBlock_0/BatchNorm_0/rsqrt" source_file="/home/cyxue/miniconda3/envs/alpa/lib/python3.8/site-packages/flax/linen/normalization.py" source_line=139}
  %param_5.1274 = f32[224]{0} parameter(5)
  %bitcast.2377 = f32[1,1,1,224]{3,2,1,0} bitcast(f32[224]{0} %param_5.1274), metadata={op_name="parallelize(train_step_func_pipeshard_parallel_mesh_0)/jit(main)/jit(3)/jit(37)/transpose(jvp(remat))/WideResNet/BottleneckResNetBlock_0/BatchNorm_0/reshape[new_sizes=(1, 1, 1, 224) dimensions=None]" source_file="/home/cyxue/miniconda3/envs/alpa/lib/python3.8/site-packages/flax/linen/normalization.py" source_line=142}
  %multiply.2392 = f32[1,1,1,224]{3,2,1,0} multiply(f32[1,1,1,224]{3,2,1,0} %rsqrt.539, f32[1,1,1,224]{3,2,1,0} %bitcast.2377), metadata={op_name="parallelize(train_step_func_pipeshard_parallel_mesh_0)/jit(main)/jit(3)/jit(37)/transpose(jvp(remat))/WideResNet/BottleneckResNetBlock_0/BatchNorm_0/mul" source_file="/home/cyxue/miniconda3/envs/alpa/lib/python3.8/site-packages/flax/linen/normalization.py" source_line=144}
  %bitcast.2376 = f32[224]{0} bitcast(f32[1,1,1,224]{3,2,1,0} %multiply.2392), metadata={op_name="parallelize(train_step_func_pipeshard_parallel_mesh_0)/jit(main)/jit(3)/jit(37)/transpose(jvp(remat))/WideResNet/BottleneckResNetBlock_0/BatchNorm_0/mul" source_file="/home/cyxue/miniconda3/envs/alpa/lib/python3.8/site-packages/flax/linen/normalization.py" source_line=146}
  %broadcast.4022 = f32[16,56,56,224]{2,1,3,0} broadcast(f32[224]{0} %bitcast.2376), dimensions={3}, metadata={op_name="parallelize(train_step_func_pipeshard_parallel_mesh_0)/jit(main)/jit(3)/jit(37)/transpose(jvp(remat))/WideResNet/BottleneckResNetBlock_0/BatchNorm_0/mul" source_file="/home/cyxue/miniconda3/envs/alpa/lib/python3.8/site-packages/flax/linen/normalization.py" source_line=146}
  %multiply.2391 = f32[16,56,56,224]{2,1,3,0} multiply(f32[16,56,56,224]{2,1,3,0} %subtract.433, f32[16,56,56,224]{2,1,3,0} %broadcast.4022), metadata={op_name="parallelize(train_step_func_pipeshard_parallel_mesh_0)/jit(main)/jit(3)/jit(37)/transpose(jvp(remat))/WideResNet/BottleneckResNetBlock_0/BatchNorm_0/mul" source_file="/home/cyxue/miniconda3/envs/alpa/lib/python3.8/site-packages/flax/linen/normalization.py" source_line=146}
  %param_7.915 = f32[224]{0} parameter(7)
  %broadcast.4021 = f32[16,56,56,224]{2,1,3,0} broadcast(f32[224]{0} %param_7.915), dimensions={3}, metadata={op_name="parallelize(train_step_func_pipeshard_parallel_mesh_0)/jit(main)/jit(3)/jit(37)/transpose(jvp(remat))/WideResNet/BottleneckResNetBlock_0/BatchNorm_0/add" source_file="/home/cyxue/miniconda3/envs/alpa/lib/python3.8/site-packages/flax/linen/normalization.py" source_line=150}
  %add.1306 = f32[16,56,56,224]{2,1,3,0} add(f32[16,56,56,224]{2,1,3,0} %multiply.2391, f32[16,56,56,224]{2,1,3,0} %broadcast.4021), metadata={op_name="parallelize(train_step_func_pipeshard_parallel_mesh_0)/jit(main)/jit(3)/jit(37)/transpose(jvp(remat))/WideResNet/BottleneckResNetBlock_0/BatchNorm_0/add" source_file="/home/cyxue/miniconda3/envs/alpa/lib/python3.8/site-packages/flax/linen/normalization.py" source_line=150}
  %broadcast.4020 = f32[16,56,56,224]{2,1,3,0} broadcast(f32[] %constant_201), dimensions={}, metadata={op_name="parallelize(train_step_func_pipeshard_parallel_mesh_0)/jit(main)/jit(3)/jit(35)/transpose(jvp(remat))/WideResNet/BottleneckResNetBlock_2/max" source_file="/home/cyxue/Projects/crius/Crius/runtime/crius_worker/jax/model/wide_resnet.py" source_line=85}
  %compare.317 = pred[16,56,56,224]{2,1,3,0} compare(f32[16,56,56,224]{2,1,3,0} %add.1306, f32[16,56,56,224]{2,1,3,0} %broadcast.4020), direction=GT, metadata={op_name="parallelize(train_step_func_pipeshard_parallel_mesh_0)/jit(main)/jit(3)/jit(37)/transpose(jvp(remat))/WideResNet/BottleneckResNetBlock_0/gt" source_file="/home/cyxue/Projects/crius/Crius/runtime/crius_worker/jax/model/wide_resnet.py" source_line=85}
  %param_6.832 = f32[16,56,56,224]{2,1,3,0} parameter(6)
  %select.317 = f32[16,56,56,224]{2,1,3,0} select(pred[16,56,56,224]{2,1,3,0} %compare.317, f32[16,56,56,224]{2,1,3,0} %param_6.832, f32[16,56,56,224]{2,1,3,0} %broadcast.4020), metadata={op_name="parallelize(train_step_func_pipeshard_parallel_mesh_0)/jit(main)/jit(3)/jit(37)/transpose(jvp(remat))/WideResNet/BottleneckResNetBlock_0/select_n" source_file="/home/cyxue/Projects/crius/Crius/runtime/crius_worker/jax/model/wide_resnet.py" source_line=85}
  %multiply.2389 = f32[16,56,56,224]{2,1,3,0} multiply(f32[16,56,56,224]{2,1,3,0} %select.317, f32[16,56,56,224]{2,1,3,0} %broadcast.4022), metadata={op_name="parallelize(train_step_func_pipeshard_parallel_mesh_0)/jit(main)/jit(3)/jit(37)/transpose(jvp(remat))/WideResNet/BottleneckResNetBlock_0/BatchNorm_0/mul" source_file="/home/cyxue/miniconda3/envs/alpa/lib/python3.8/site-packages/flax/linen/normalization.py" source_line=146}
  %param_4.1272 = f32[1,1,1,224]{3,2,1,0} parameter(4)
  %multiply.302 = f32[1,1,1,224]{3,2,1,0} multiply(f32[1,1,1,224]{3,2,1,0} %param_4.1272, f32[1,1,1,224]{3,2,1,0} %bitcast.2377), metadata={op_name="parallelize(train_step_func_pipeshard_parallel_mesh_0)/jit(main)/jit(3)/jit(37)/transpose(jvp(remat))/WideResNet/BottleneckResNetBlock_0/BatchNorm_0/mul" source_file="/home/cyxue/miniconda3/envs/alpa/lib/python3.8/site-packages/flax/linen/normalization.py" source_line=144}
  %divide.3 = f32[1,1,1,224]{3,2,1,0} divide(f32[1,1,1,224]{3,2,1,0} %rsqrt.539, f32[1,1,1,224]{3,2,1,0} %bitcast.2378), metadata={op_name="parallelize(train_step_func_pipeshard_parallel_mesh_0)/jit(main)/jit(3)/jit(37)/transpose(jvp(remat))/WideResNet/BottleneckResNetBlock_0/BatchNorm_0/div" source_file="/home/cyxue/miniconda3/envs/alpa/lib/python3.8/site-packages/flax/linen/normalization.py" source_line=139}
  %constant_198 = f32[] constant(-0.5)
  %broadcast.325 = f32[1,1,1,224]{3,2,1,0} broadcast(f32[] %constant_198), dimensions={}, metadata={op_name="parallelize(train_step_func_pipeshard_parallel_mesh_0)/jit(main)/jit(3)/jit(35)/transpose(jvp(remat))/WideResNet/BottleneckResNetBlock_2/BatchNorm_0/mul" source_file="/home/cyxue/miniconda3/envs/alpa/lib/python3.8/site-packages/flax/linen/normalization.py" source_line=139}
  %multiply.301 = f32[1,1,1,224]{3,2,1,0} multiply(f32[1,1,1,224]{3,2,1,0} %divide.3, f32[1,1,1,224]{3,2,1,0} %broadcast.325), metadata={op_name="parallelize(train_step_func_pipeshard_parallel_mesh_0)/jit(main)/jit(3)/jit(37)/transpose(jvp(remat))/WideResNet/BottleneckResNetBlock_0/BatchNorm_0/mul" source_file="/home/cyxue/miniconda3/envs/alpa/lib/python3.8/site-packages/flax/linen/normalization.py" source_line=139}
  %multiply.300 = f32[1,1,1,224]{3,2,1,0} multiply(f32[1,1,1,224]{3,2,1,0} %multiply.302, f32[1,1,1,224]{3,2,1,0} %multiply.301), metadata={op_name="parallelize(train_step_func_pipeshard_parallel_mesh_0)/jit(main)/jit(3)/jit(37)/transpose(jvp(remat))/WideResNet/BottleneckResNetBlock_0/BatchNorm_0/mul" source_file="/home/cyxue/miniconda3/envs/alpa/lib/python3.8/site-packages/flax/linen/normalization.py" source_line=139}
  %bitcast.604 = f32[224]{0} bitcast(f32[1,1,1,224]{3,2,1,0} %multiply.300), metadata={op_name="parallelize(train_step_func_pipeshard_parallel_mesh_0)/jit(main)/jit(3)/jit(37)/transpose(jvp(remat))/WideResNet/BottleneckResNetBlock_0/BatchNorm_0/reshape[new_sizes=(224,) dimensions=None]" source_file="/home/cyxue/miniconda3/envs/alpa/lib/python3.8/site-packages/flax/linen/normalization.py" source_line=132}
  %compare.4 = pred[224]{0} compare(f32[224]{0} %param_3.1467, f32[224]{0} %maximum.807), direction=EQ, metadata={op_name="parallelize(train_step_func_pipeshard_parallel_mesh_0)/jit(main)/jit(3)/jit(37)/transpose(jvp(remat))/WideResNet/BottleneckResNetBlock_0/BatchNorm_0/eq" source_file="/home/cyxue/miniconda3/envs/alpa/lib/python3.8/site-packages/flax/linen/normalization.py" source_line=93}
  %constant_199 = f32[] constant(1)
  %broadcast.324 = f32[224]{0} broadcast(f32[] %constant_199), dimensions={}, metadata={op_name="parallelize(train_step_func_pipeshard_parallel_mesh_0)/jit(main)/jit(3)/jit(35)/transpose(jvp(remat))/WideResNet/BottleneckResNetBlock_2/BatchNorm_0/broadcast_in_dim[shape=(224,) broadcast_dimensions=()]" source_file="/home/cyxue/miniconda3/envs/alpa/lib/python3.8/site-packages/flax/linen/normalization.py" source_line=93}
  %select.4 = f32[224]{0} select(pred[224]{0} %compare.4, f32[224]{0} %broadcast.324, f32[224]{0} %broadcast.4024), metadata={op_name="parallelize(train_step_func_pipeshard_parallel_mesh_0)/jit(main)/jit(3)/jit(37)/transpose(jvp(remat))/WideResNet/BottleneckResNetBlock_0/BatchNorm_0/select_n" source_file="/home/cyxue/miniconda3/envs/alpa/lib/python3.8/site-packages/flax/linen/normalization.py" source_line=93}
  %compare.3 = pred[224]{0} compare(f32[224]{0} %broadcast.4024, f32[224]{0} %maximum.807), direction=EQ, metadata={op_name="parallelize(train_step_func_pipeshard_parallel_mesh_0)/jit(main)/jit(3)/jit(37)/transpose(jvp(remat))/WideResNet/BottleneckResNetBlock_0/BatchNorm_0/eq" source_file="/home/cyxue/miniconda3/envs/alpa/lib/python3.8/site-packages/flax/linen/normalization.py" source_line=93}
  %constant_200 = f32[] constant(2)
  %broadcast.323 = f32[224]{0} broadcast(f32[] %constant_200), dimensions={}, metadata={op_name="parallelize(train_step_func_pipeshard_parallel_mesh_0)/jit(main)/jit(3)/jit(35)/transpose(jvp(remat))/WideResNet/BottleneckResNetBlock_2/BatchNorm_0/mul" source_file="/home/cyxue/miniconda3/envs/alpa/lib/python3.8/site-packages/flax/linen/normalization.py" source_line=46}
  %select.3 = f32[224]{0} select(pred[224]{0} %compare.3, f32[224]{0} %broadcast.323, f32[224]{0} %broadcast.324), metadata={op_name="parallelize(train_step_func_pipeshard_parallel_mesh_0)/jit(main)/jit(3)/jit(37)/transpose(jvp(remat))/WideResNet/BottleneckResNetBlock_0/BatchNorm_0/select_n" source_file="/home/cyxue/miniconda3/envs/alpa/lib/python3.8/site-packages/flax/linen/normalization.py" source_line=93}
  %divide.2 = f32[224]{0} divide(f32[224]{0} %select.4, f32[224]{0} %select.3), metadata={op_name="parallelize(train_step_func_pipeshard_parallel_mesh_0)/jit(main)/jit(3)/jit(37)/transpose(jvp(remat))/WideResNet/BottleneckResNetBlock_0/BatchNorm_0/div" source_file="/home/cyxue/miniconda3/envs/alpa/lib/python3.8/site-packages/flax/linen/normalization.py" source_line=93}
  %multiply.299 = f32[224]{0} multiply(f32[224]{0} %bitcast.604, f32[224]{0} %divide.2), metadata={op_name="parallelize(train_step_func_pipeshard_parallel_mesh_0)/jit(main)/jit(3)/jit(37)/transpose(jvp(remat))/WideResNet/BottleneckResNetBlock_0/BatchNorm_0/mul" source_file="/home/cyxue/miniconda3/envs/alpa/lib/python3.8/site-packages/flax/linen/normalization.py" source_line=93}
  %constant_196 = f32[] constant(3.98596931e-05)
  %broadcast.322 = f32[224]{0} broadcast(f32[] %constant_196), dimensions={}, metadata={op_name="parallelize(train_step_func_pipeshard_parallel_mesh_0)/jit(main)/jit(3)/jit(35)/transpose(jvp(remat))/WideResNet/BottleneckResNetBlock_2/BatchNorm_0/mul" source_file="/home/cyxue/miniconda3/envs/alpa/lib/python3.8/site-packages/flax/linen/normalization.py" source_line=46}
  %multiply.298 = f32[224]{0} multiply(f32[224]{0} %multiply.299, f32[224]{0} %broadcast.322), metadata={op_name="parallelize(train_step_func_pipeshard_parallel_mesh_0)/jit(main)/jit(3)/jit(37)/transpose(jvp(remat))/WideResNet/BottleneckResNetBlock_0/BatchNorm_0/mul" source_file="/home/cyxue/miniconda3/envs/alpa/lib/python3.8/site-packages/flax/linen/normalization.py" source_line=46}
  %broadcast.321 = f32[16,56,56,224]{2,1,3,0} broadcast(f32[224]{0} %multiply.298), dimensions={3}, metadata={op_name="parallelize(train_step_func_pipeshard_parallel_mesh_0)/jit(main)/jit(3)/jit(37)/transpose(jvp(remat))/WideResNet/BottleneckResNetBlock_0/BatchNorm_0/mul" source_file="/home/cyxue/miniconda3/envs/alpa/lib/python3.8/site-packages/flax/linen/normalization.py" source_line=46}
  %multiply.297 = f32[16,56,56,224]{2,1,3,0} multiply(f32[16,56,56,224]{2,1,3,0} %param_2.1699, f32[16,56,56,224]{2,1,3,0} %broadcast.321), metadata={op_name="parallelize(train_step_func_pipeshard_parallel_mesh_0)/jit(main)/jit(3)/jit(37)/transpose(jvp(remat))/WideResNet/BottleneckResNetBlock_0/BatchNorm_0/mul" source_file="/home/cyxue/miniconda3/envs/alpa/lib/python3.8/site-packages/flax/linen/normalization.py" source_line=46}
  %add.42 = f32[16,56,56,224]{2,1,3,0} add(f32[16,56,56,224]{2,1,3,0} %multiply.2389, f32[16,56,56,224]{2,1,3,0} %multiply.297), metadata={op_name="parallelize(train_step_func_pipeshard_parallel_mesh_0)/jit(main)/jit(3)/jit(37)/transpose(jvp(remat))/WideResNet/BottleneckResNetBlock_0/BatchNorm_0/add_any" source_file="/home/cyxue/miniconda3/envs/alpa/lib/python3.8/site-packages/flax/linen/normalization.py" source_line=46}
  %param_0.37 = f32[224]{0} parameter(0)
  %negate.2 = f32[224]{0} negate(f32[224]{0} %multiply.299), metadata={op_name="parallelize(train_step_func_pipeshard_parallel_mesh_0)/jit(main)/jit(3)/jit(37)/transpose(jvp(remat))/WideResNet/BottleneckResNetBlock_0/BatchNorm_0/neg" source_file="/home/cyxue/miniconda3/envs/alpa/lib/python3.8/site-packages/flax/linen/normalization.py" source_line=93}
  %multiply.296 = f32[224]{0} multiply(f32[224]{0} %param_1.52, f32[224]{0} %broadcast.322), metadata={op_name="parallelize(train_step_func_pipeshard_parallel_mesh_0)/jit(main)/jit(3)/jit(37)/transpose(jvp(remat))/WideResNet/BottleneckResNetBlock_0/BatchNorm_0/mul" source_file="/home/cyxue/miniconda3/envs/alpa/lib/python3.8/site-packages/flax/linen/normalization.py" source_line=46}
  %multiply.295 = f32[224]{0} multiply(f32[224]{0} %negate.2, f32[224]{0} %multiply.296), metadata={op_name="parallelize(train_step_func_pipeshard_parallel_mesh_0)/jit(main)/jit(3)/jit(37)/transpose(jvp(remat))/WideResNet/BottleneckResNetBlock_0/BatchNorm_0/mul" source_file="/home/cyxue/miniconda3/envs/alpa/lib/python3.8/site-packages/flax/linen/normalization.py" source_line=46}
  %add.41 = f32[224]{0} add(f32[224]{0} %param_0.37, f32[224]{0} %multiply.295), metadata={op_name="parallelize(train_step_func_pipeshard_parallel_mesh_0)/jit(main)/jit(3)/jit(37)/transpose(jvp(remat))/WideResNet/BottleneckResNetBlock_0/BatchNorm_0/add_any" source_file="/home/cyxue/miniconda3/envs/alpa/lib/python3.8/site-packages/flax/linen/normalization.py" source_line=46}
  %multiply.294 = f32[224]{0} multiply(f32[224]{0} %add.41, f32[224]{0} %broadcast.4026), metadata={op_name="parallelize(train_step_func_pipeshard_parallel_mesh_0)/jit(main)/jit(3)/jit(37)/transpose(jvp(remat))/WideResNet/BottleneckResNetBlock_0/BatchNorm_0/div" source_file="/home/cyxue/miniconda3/envs/alpa/lib/python3.8/site-packages/flax/linen/normalization.py" source_line=82}
  %broadcast.320 = f32[16,56,56,224]{2,1,3,0} broadcast(f32[224]{0} %multiply.294), dimensions={3}, metadata={op_name="parallelize(train_step_func_pipeshard_parallel_mesh_0)/jit(main)/jit(3)/jit(37)/transpose(jvp(remat))/WideResNet/BottleneckResNetBlock_0/BatchNorm_0/broadcast_in_dim[shape=(16, 56, 56, 224) broadcast_dimensions=(3,)]" source_file="/home/cyxue/miniconda3/envs/alpa/lib/python3.8/site-packages/flax/linen/normalization.py" source_line=82}
  ROOT %add.40 = f32[16,56,56,224]{2,1,3,0} add(f32[16,56,56,224]{2,1,3,0} %add.42, f32[16,56,56,224]{2,1,3,0} %broadcast.320), metadata={op_name="parallelize(train_step_func_pipeshard_parallel_mesh_0)/jit(main)/jit(3)/jit(37)/transpose(jvp(remat))/WideResNet/BottleneckResNetBlock_0/BatchNorm_0/add_any" source_file="/home/cyxue/miniconda3/envs/alpa/lib/python3.8/site-packages/flax/linen/normalization.py" source_line=82}
}

%fused_computation.20 (param_0.41: f32[16,224]) -> f32[1,1,1,224] {
  %param_0.41 = f32[16,224]{1,0} parameter(0)
  %constant_202 = f32[] constant(0)
  %reduce.695 = f32[224]{0} reduce(f32[16,224]{1,0} %param_0.41, f32[] %constant_202), dimensions={0}, to_apply=%region_63.4346.3, metadata={op_name="parallelize(train_step_func_pipeshard_parallel_mesh_0)/jit(main)/jit(3)/jit(37)/transpose(jvp(remat))/WideResNet/BottleneckResNetBlock_0/BatchNorm_0/reduce_sum[axes=(0, 1, 2)]" source_file="/home/cyxue/miniconda3/envs/alpa/lib/python3.8/site-packages/flax/linen/normalization.py" source_line=146}
  ROOT %bitcast.606 = f32[1,1,1,224]{3,2,1,0} bitcast(f32[224]{0} %reduce.695), metadata={op_name="parallelize(train_step_func_pipeshard_parallel_mesh_0)/jit(main)/jit(3)/jit(37)/transpose(jvp(remat))/WideResNet/BottleneckResNetBlock_0/BatchNorm_0/reshape[new_sizes=(1, 1, 1, 224) dimensions=None]" source_file="/home/cyxue/miniconda3/envs/alpa/lib/python3.8/site-packages/flax/linen/normalization.py" source_line=146}
}

%fused_computation.24 (param_0.49: f32[448], param_1.70: f32[448], param_2.1674: f32[16,56,56,448], param_3.1436: f32[448], param_4.1238: f32[1,1,1,448], param_5.1231: f32[448], param_6.807: f32[16,56,56,448], param_7.897: f32[448]) -> f32[16,56,56,448] {
  %param_2.1674 = f32[16,56,56,448]{2,1,3,0} parameter(2)
  %param_1.70 = f32[448]{0} parameter(1)
  %constant_207 = f32[] constant(1.99298465e-05)
  %broadcast.3944 = f32[448]{0} broadcast(f32[] %constant_207), dimensions={}, metadata={op_name="parallelize(train_step_func_pipeshard_parallel_mesh_0)/jit(main)/jit(3)/jit(34)/transpose(jvp(remat))/WideResNet/BottleneckResNetBlock_3/BatchNorm_0/div" source_file="/home/cyxue/miniconda3/envs/alpa/lib/python3.8/site-packages/flax/linen/normalization.py" source_line=82}
  %multiply.2355 = f32[448]{0} multiply(f32[448]{0} %param_1.70, f32[448]{0} %broadcast.3944), metadata={op_name="parallelize(train_step_func_pipeshard_parallel_mesh_0)/jit(main)/jit(3)/jit(37)/transpose(jvp(remat))/WideResNet/BottleneckResNetBlock_0/BatchNorm_1/div" source_file="/home/cyxue/miniconda3/envs/alpa/lib/python3.8/site-packages/flax/linen/normalization.py" source_line=82}
  %broadcast.3943 = f32[16,56,56,448]{2,1,3,0} broadcast(f32[448]{0} %multiply.2355), dimensions={3}, metadata={op_name="parallelize(train_step_func_pipeshard_parallel_mesh_0)/jit(main)/jit(3)/jit(37)/transpose(jvp(remat))/WideResNet/BottleneckResNetBlock_0/BatchNorm_1/sub" source_file="/home/cyxue/miniconda3/envs/alpa/lib/python3.8/site-packages/flax/linen/normalization.py" source_line=138}
  %subtract.423 = f32[16,56,56,448]{2,1,3,0} subtract(f32[16,56,56,448]{2,1,3,0} %param_2.1674, f32[16,56,56,448]{2,1,3,0} %broadcast.3943), metadata={op_name="parallelize(train_step_func_pipeshard_parallel_mesh_0)/jit(main)/jit(3)/jit(37)/transpose(jvp(remat))/WideResNet/BottleneckResNetBlock_0/BatchNorm_1/sub" source_file="/home/cyxue/miniconda3/envs/alpa/lib/python3.8/site-packages/flax/linen/normalization.py" source_line=138}
  %param_3.1436 = f32[448]{0} parameter(3)
  %constant_211 = f32[] constant(0)
  %broadcast.3942 = f32[448]{0} broadcast(f32[] %constant_211), dimensions={}, metadata={op_name="parallelize(train_step_func_pipeshard_parallel_mesh_0)/jit(main)/jit(3)/jit(31)/transpose(jvp(remat))/WideResNet/BottleneckResNetBlock_6/BatchNorm_0/max" source_file="/home/cyxue/miniconda3/envs/alpa/lib/python3.8/site-packages/flax/linen/normalization.py" source_line=93}
  %maximum.793 = f32[448]{0} maximum(f32[448]{0} %param_3.1436, f32[448]{0} %broadcast.3942), metadata={op_name="parallelize(train_step_func_pipeshard_parallel_mesh_0)/jit(main)/jit(3)/jit(37)/transpose(jvp(remat))/WideResNet/BottleneckResNetBlock_0/BatchNorm_1/max" source_file="/home/cyxue/miniconda3/envs/alpa/lib/python3.8/site-packages/flax/linen/normalization.py" source_line=93}
  %constant_3124 = f32[] constant(1e-05)
  %broadcast.3941 = f32[448]{0} broadcast(f32[] %constant_3124), dimensions={}, metadata={op_name="parallelize(train_step_func_pipeshard_parallel_mesh_0)/jit(main)/jit(3)/jit(31)/transpose(jvp(remat))/WideResNet/BottleneckResNetBlock_6/BatchNorm_0/add" source_file="/home/cyxue/miniconda3/envs/alpa/lib/python3.8/site-packages/flax/linen/normalization.py" source_line=139}
  %add.1283 = f32[448]{0} add(f32[448]{0} %maximum.793, f32[448]{0} %broadcast.3941), metadata={op_name="parallelize(train_step_func_pipeshard_parallel_mesh_0)/jit(main)/jit(3)/jit(37)/transpose(jvp(remat))/WideResNet/BottleneckResNetBlock_0/BatchNorm_1/add" source_file="/home/cyxue/miniconda3/envs/alpa/lib/python3.8/site-packages/flax/linen/normalization.py" source_line=139}
  %bitcast.2336 = f32[1,1,1,448]{3,2,1,0} bitcast(f32[448]{0} %add.1283), metadata={op_name="parallelize(train_step_func_pipeshard_parallel_mesh_0)/jit(main)/jit(3)/jit(37)/transpose(jvp(remat))/WideResNet/BottleneckResNetBlock_0/BatchNorm_1/add" source_file="/home/cyxue/miniconda3/envs/alpa/lib/python3.8/site-packages/flax/linen/normalization.py" source_line=139}
  %rsqrt.525 = f32[1,1,1,448]{3,2,1,0} rsqrt(f32[1,1,1,448]{3,2,1,0} %bitcast.2336), metadata={op_name="parallelize(train_step_func_pipeshard_parallel_mesh_0)/jit(main)/jit(3)/jit(37)/transpose(jvp(remat))/WideResNet/BottleneckResNetBlock_0/BatchNorm_1/rsqrt" source_file="/home/cyxue/miniconda3/envs/alpa/lib/python3.8/site-packages/flax/linen/normalization.py" source_line=139}
  %param_5.1231 = f32[448]{0} parameter(5)
  %bitcast.2335 = f32[1,1,1,448]{3,2,1,0} bitcast(f32[448]{0} %param_5.1231), metadata={op_name="parallelize(train_step_func_pipeshard_parallel_mesh_0)/jit(main)/jit(3)/jit(37)/transpose(jvp(remat))/WideResNet/BottleneckResNetBlock_0/BatchNorm_1/reshape[new_sizes=(1, 1, 1, 448) dimensions=None]" source_file="/home/cyxue/miniconda3/envs/alpa/lib/python3.8/site-packages/flax/linen/normalization.py" source_line=142}
  %multiply.2354 = f32[1,1,1,448]{3,2,1,0} multiply(f32[1,1,1,448]{3,2,1,0} %rsqrt.525, f32[1,1,1,448]{3,2,1,0} %bitcast.2335), metadata={op_name="parallelize(train_step_func_pipeshard_parallel_mesh_0)/jit(main)/jit(3)/jit(37)/transpose(jvp(remat))/WideResNet/BottleneckResNetBlock_0/BatchNorm_1/mul" source_file="/home/cyxue/miniconda3/envs/alpa/lib/python3.8/site-packages/flax/linen/normalization.py" source_line=144}
  %bitcast.2334 = f32[448]{0} bitcast(f32[1,1,1,448]{3,2,1,0} %multiply.2354), metadata={op_name="parallelize(train_step_func_pipeshard_parallel_mesh_0)/jit(main)/jit(3)/jit(37)/transpose(jvp(remat))/WideResNet/BottleneckResNetBlock_0/BatchNorm_1/mul" source_file="/home/cyxue/miniconda3/envs/alpa/lib/python3.8/site-packages/flax/linen/normalization.py" source_line=146}
  %broadcast.3940 = f32[16,56,56,448]{2,1,3,0} broadcast(f32[448]{0} %bitcast.2334), dimensions={3}, metadata={op_name="parallelize(train_step_func_pipeshard_parallel_mesh_0)/jit(main)/jit(3)/jit(37)/transpose(jvp(remat))/WideResNet/BottleneckResNetBlock_0/BatchNorm_1/mul" source_file="/home/cyxue/miniconda3/envs/alpa/lib/python3.8/site-packages/flax/linen/normalization.py" source_line=146}
  %multiply.2353 = f32[16,56,56,448]{2,1,3,0} multiply(f32[16,56,56,448]{2,1,3,0} %subtract.423, f32[16,56,56,448]{2,1,3,0} %broadcast.3940), metadata={op_name="parallelize(train_step_func_pipeshard_parallel_mesh_0)/jit(main)/jit(3)/jit(37)/transpose(jvp(remat))/WideResNet/BottleneckResNetBlock_0/BatchNorm_1/mul" source_file="/home/cyxue/miniconda3/envs/alpa/lib/python3.8/site-packages/flax/linen/normalization.py" source_line=146}
  %param_7.897 = f32[448]{0} parameter(7)
  %broadcast.3939 = f32[16,56,56,448]{2,1,3,0} broadcast(f32[448]{0} %param_7.897), dimensions={3}, metadata={op_name="parallelize(train_step_func_pipeshard_parallel_mesh_0)/jit(main)/jit(3)/jit(37)/transpose(jvp(remat))/WideResNet/BottleneckResNetBlock_0/BatchNorm_1/add" source_file="/home/cyxue/miniconda3/envs/alpa/lib/python3.8/site-packages/flax/linen/normalization.py" source_line=150}
  %add.1282 = f32[16,56,56,448]{2,1,3,0} add(f32[16,56,56,448]{2,1,3,0} %multiply.2353, f32[16,56,56,448]{2,1,3,0} %broadcast.3939), metadata={op_name="parallelize(train_step_func_pipeshard_parallel_mesh_0)/jit(main)/jit(3)/jit(37)/transpose(jvp(remat))/WideResNet/BottleneckResNetBlock_0/BatchNorm_1/add" source_file="/home/cyxue/miniconda3/envs/alpa/lib/python3.8/site-packages/flax/linen/normalization.py" source_line=150}
  %broadcast.3938 = f32[16,56,56,448]{2,1,3,0} broadcast(f32[] %constant_211), dimensions={}, metadata={op_name="parallelize(train_step_func_pipeshard_parallel_mesh_0)/jit(main)/jit(3)/jit(34)/transpose(jvp(remat))/WideResNet/BottleneckResNetBlock_3/max" source_file="/home/cyxue/Projects/crius/Crius/runtime/crius_worker/jax/model/wide_resnet.py" source_line=85}
  %compare.307 = pred[16,56,56,448]{2,1,3,0} compare(f32[16,56,56,448]{2,1,3,0} %add.1282, f32[16,56,56,448]{2,1,3,0} %broadcast.3938), direction=GT, metadata={op_name="parallelize(train_step_func_pipeshard_parallel_mesh_0)/jit(main)/jit(3)/jit(37)/transpose(jvp(remat))/WideResNet/BottleneckResNetBlock_0/gt" source_file="/home/cyxue/Projects/crius/Crius/runtime/crius_worker/jax/model/wide_resnet.py" source_line=88}
  %param_6.807 = f32[16,56,56,448]{2,1,3,0} parameter(6)
  %select.307 = f32[16,56,56,448]{2,1,3,0} select(pred[16,56,56,448]{2,1,3,0} %compare.307, f32[16,56,56,448]{2,1,3,0} %param_6.807, f32[16,56,56,448]{2,1,3,0} %broadcast.3938), metadata={op_name="parallelize(train_step_func_pipeshard_parallel_mesh_0)/jit(main)/jit(3)/jit(37)/transpose(jvp(remat))/WideResNet/BottleneckResNetBlock_0/select_n" source_file="/home/cyxue/Projects/crius/Crius/runtime/crius_worker/jax/model/wide_resnet.py" source_line=88}
  %multiply.2351 = f32[16,56,56,448]{2,1,3,0} multiply(f32[16,56,56,448]{2,1,3,0} %select.307, f32[16,56,56,448]{2,1,3,0} %broadcast.3940), metadata={op_name="parallelize(train_step_func_pipeshard_parallel_mesh_0)/jit(main)/jit(3)/jit(37)/transpose(jvp(remat))/WideResNet/BottleneckResNetBlock_0/BatchNorm_1/mul" source_file="/home/cyxue/miniconda3/envs/alpa/lib/python3.8/site-packages/flax/linen/normalization.py" source_line=146}
  %param_4.1238 = f32[1,1,1,448]{3,2,1,0} parameter(4)
  %multiply.313 = f32[1,1,1,448]{3,2,1,0} multiply(f32[1,1,1,448]{3,2,1,0} %param_4.1238, f32[1,1,1,448]{3,2,1,0} %bitcast.2335), metadata={op_name="parallelize(train_step_func_pipeshard_parallel_mesh_0)/jit(main)/jit(3)/jit(37)/transpose(jvp(remat))/WideResNet/BottleneckResNetBlock_0/BatchNorm_1/mul" source_file="/home/cyxue/miniconda3/envs/alpa/lib/python3.8/site-packages/flax/linen/normalization.py" source_line=144}
  %divide.5 = f32[1,1,1,448]{3,2,1,0} divide(f32[1,1,1,448]{3,2,1,0} %rsqrt.525, f32[1,1,1,448]{3,2,1,0} %bitcast.2336), metadata={op_name="parallelize(train_step_func_pipeshard_parallel_mesh_0)/jit(main)/jit(3)/jit(37)/transpose(jvp(remat))/WideResNet/BottleneckResNetBlock_0/BatchNorm_1/div" source_file="/home/cyxue/miniconda3/envs/alpa/lib/python3.8/site-packages/flax/linen/normalization.py" source_line=139}
  %constant_208 = f32[] constant(-0.5)
  %broadcast.336 = f32[1,1,1,448]{3,2,1,0} broadcast(f32[] %constant_208), dimensions={}, metadata={op_name="parallelize(train_step_func_pipeshard_parallel_mesh_0)/jit(main)/jit(3)/jit(31)/transpose(jvp(remat))/WideResNet/BottleneckResNetBlock_6/BatchNorm_0/mul" source_file="/home/cyxue/miniconda3/envs/alpa/lib/python3.8/site-packages/flax/linen/normalization.py" source_line=139}
  %multiply.312 = f32[1,1,1,448]{3,2,1,0} multiply(f32[1,1,1,448]{3,2,1,0} %divide.5, f32[1,1,1,448]{3,2,1,0} %broadcast.336), metadata={op_name="parallelize(train_step_func_pipeshard_parallel_mesh_0)/jit(main)/jit(3)/jit(37)/transpose(jvp(remat))/WideResNet/BottleneckResNetBlock_0/BatchNorm_1/mul" source_file="/home/cyxue/miniconda3/envs/alpa/lib/python3.8/site-packages/flax/linen/normalization.py" source_line=139}
  %multiply.311 = f32[1,1,1,448]{3,2,1,0} multiply(f32[1,1,1,448]{3,2,1,0} %multiply.313, f32[1,1,1,448]{3,2,1,0} %multiply.312), metadata={op_name="parallelize(train_step_func_pipeshard_parallel_mesh_0)/jit(main)/jit(3)/jit(37)/transpose(jvp(remat))/WideResNet/BottleneckResNetBlock_0/BatchNorm_1/mul" source_file="/home/cyxue/miniconda3/envs/alpa/lib/python3.8/site-packages/flax/linen/normalization.py" source_line=139}
  %bitcast.608 = f32[448]{0} bitcast(f32[1,1,1,448]{3,2,1,0} %multiply.311), metadata={op_name="parallelize(train_step_func_pipeshard_parallel_mesh_0)/jit(main)/jit(3)/jit(37)/transpose(jvp(remat))/WideResNet/BottleneckResNetBlock_0/BatchNorm_1/reshape[new_sizes=(448,) dimensions=None]" source_file="/home/cyxue/miniconda3/envs/alpa/lib/python3.8/site-packages/flax/linen/normalization.py" source_line=132}
  %compare.7 = pred[448]{0} compare(f32[448]{0} %param_3.1436, f32[448]{0} %maximum.793), direction=EQ, metadata={op_name="parallelize(train_step_func_pipeshard_parallel_mesh_0)/jit(main)/jit(3)/jit(37)/transpose(jvp(remat))/WideResNet/BottleneckResNetBlock_0/BatchNorm_1/eq" source_file="/home/cyxue/miniconda3/envs/alpa/lib/python3.8/site-packages/flax/linen/normalization.py" source_line=93}
  %constant_209 = f32[] constant(1)
  %broadcast.335 = f32[448]{0} broadcast(f32[] %constant_209), dimensions={}, metadata={op_name="parallelize(train_step_func_pipeshard_parallel_mesh_0)/jit(main)/jit(3)/jit(31)/transpose(jvp(remat))/WideResNet/BottleneckResNetBlock_6/BatchNorm_0/broadcast_in_dim[shape=(448,) broadcast_dimensions=()]" source_file="/home/cyxue/miniconda3/envs/alpa/lib/python3.8/site-packages/flax/linen/normalization.py" source_line=93}
  %select.7 = f32[448]{0} select(pred[448]{0} %compare.7, f32[448]{0} %broadcast.335, f32[448]{0} %broadcast.3942), metadata={op_name="parallelize(train_step_func_pipeshard_parallel_mesh_0)/jit(main)/jit(3)/jit(37)/transpose(jvp(remat))/WideResNet/BottleneckResNetBlock_0/BatchNorm_1/select_n" source_file="/home/cyxue/miniconda3/envs/alpa/lib/python3.8/site-packages/flax/linen/normalization.py" source_line=93}
  %compare.6 = pred[448]{0} compare(f32[448]{0} %broadcast.3942, f32[448]{0} %maximum.793), direction=EQ, metadata={op_name="parallelize(train_step_func_pipeshard_parallel_mesh_0)/jit(main)/jit(3)/jit(37)/transpose(jvp(remat))/WideResNet/BottleneckResNetBlock_0/BatchNorm_1/eq" source_file="/home/cyxue/miniconda3/envs/alpa/lib/python3.8/site-packages/flax/linen/normalization.py" source_line=93}
  %constant_210 = f32[] constant(2)
  %broadcast.334 = f32[448]{0} broadcast(f32[] %constant_210), dimensions={}, metadata={op_name="parallelize(train_step_func_pipeshard_parallel_mesh_0)/jit(main)/jit(3)/jit(31)/transpose(jvp(remat))/WideResNet/BottleneckResNetBlock_6/BatchNorm_0/mul" source_file="/home/cyxue/miniconda3/envs/alpa/lib/python3.8/site-packages/flax/linen/normalization.py" source_line=46}
  %select.6 = f32[448]{0} select(pred[448]{0} %compare.6, f32[448]{0} %broadcast.334, f32[448]{0} %broadcast.335), metadata={op_name="parallelize(train_step_func_pipeshard_parallel_mesh_0)/jit(main)/jit(3)/jit(37)/transpose(jvp(remat))/WideResNet/BottleneckResNetBlock_0/BatchNorm_1/select_n" source_file="/home/cyxue/miniconda3/envs/alpa/lib/python3.8/site-packages/flax/linen/normalization.py" source_line=93}
  %divide.4 = f32[448]{0} divide(f32[448]{0} %select.7, f32[448]{0} %select.6), metadata={op_name="parallelize(train_step_func_pipeshard_parallel_mesh_0)/jit(main)/jit(3)/jit(37)/transpose(jvp(remat))/WideResNet/BottleneckResNetBlock_0/BatchNorm_1/div" source_file="/home/cyxue/miniconda3/envs/alpa/lib/python3.8/site-packages/flax/linen/normalization.py" source_line=93}
  %multiply.310 = f32[448]{0} multiply(f32[448]{0} %bitcast.608, f32[448]{0} %divide.4), metadata={op_name="parallelize(train_step_func_pipeshard_parallel_mesh_0)/jit(main)/jit(3)/jit(37)/transpose(jvp(remat))/WideResNet/BottleneckResNetBlock_0/BatchNorm_1/mul" source_file="/home/cyxue/miniconda3/envs/alpa/lib/python3.8/site-packages/flax/linen/normalization.py" source_line=93}
  %constant_206 = f32[] constant(3.98596931e-05)
  %broadcast.332 = f32[448]{0} broadcast(f32[] %constant_206), dimensions={}, metadata={op_name="parallelize(train_step_func_pipeshard_parallel_mesh_0)/jit(main)/jit(3)/jit(34)/transpose(jvp(remat))/WideResNet/BottleneckResNetBlock_3/BatchNorm_0/mul" source_file="/home/cyxue/miniconda3/envs/alpa/lib/python3.8/site-packages/flax/linen/normalization.py" source_line=46}
  %multiply.309 = f32[448]{0} multiply(f32[448]{0} %multiply.310, f32[448]{0} %broadcast.332), metadata={op_name="parallelize(train_step_func_pipeshard_parallel_mesh_0)/jit(main)/jit(3)/jit(37)/transpose(jvp(remat))/WideResNet/BottleneckResNetBlock_0/BatchNorm_1/mul" source_file="/home/cyxue/miniconda3/envs/alpa/lib/python3.8/site-packages/flax/linen/normalization.py" source_line=46}
  %broadcast.331 = f32[16,56,56,448]{2,1,3,0} broadcast(f32[448]{0} %multiply.309), dimensions={3}, metadata={op_name="parallelize(train_step_func_pipeshard_parallel_mesh_0)/jit(main)/jit(3)/jit(37)/transpose(jvp(remat))/WideResNet/BottleneckResNetBlock_0/BatchNorm_1/mul" source_file="/home/cyxue/miniconda3/envs/alpa/lib/python3.8/site-packages/flax/linen/normalization.py" source_line=46}
  %multiply.308 = f32[16,56,56,448]{2,1,3,0} multiply(f32[16,56,56,448]{2,1,3,0} %param_2.1674, f32[16,56,56,448]{2,1,3,0} %broadcast.331), metadata={op_name="parallelize(train_step_func_pipeshard_parallel_mesh_0)/jit(main)/jit(3)/jit(37)/transpose(jvp(remat))/WideResNet/BottleneckResNetBlock_0/BatchNorm_1/mul" source_file="/home/cyxue/miniconda3/envs/alpa/lib/python3.8/site-packages/flax/linen/normalization.py" source_line=46}
  %add.45 = f32[16,56,56,448]{2,1,3,0} add(f32[16,56,56,448]{2,1,3,0} %multiply.2351, f32[16,56,56,448]{2,1,3,0} %multiply.308), metadata={op_name="parallelize(train_step_func_pipeshard_parallel_mesh_0)/jit(main)/jit(3)/jit(37)/transpose(jvp(remat))/WideResNet/BottleneckResNetBlock_0/BatchNorm_1/add_any" source_file="/home/cyxue/miniconda3/envs/alpa/lib/python3.8/site-packages/flax/linen/normalization.py" source_line=46}
  %param_0.49 = f32[448]{0} parameter(0)
  %negate.4 = f32[448]{0} negate(f32[448]{0} %multiply.310), metadata={op_name="parallelize(train_step_func_pipeshard_parallel_mesh_0)/jit(main)/jit(3)/jit(37)/transpose(jvp(remat))/WideResNet/BottleneckResNetBlock_0/BatchNorm_1/neg" source_file="/home/cyxue/miniconda3/envs/alpa/lib/python3.8/site-packages/flax/linen/normalization.py" source_line=93}
  %multiply.307 = f32[448]{0} multiply(f32[448]{0} %param_1.70, f32[448]{0} %broadcast.332), metadata={op_name="parallelize(train_step_func_pipeshard_parallel_mesh_0)/jit(main)/jit(3)/jit(37)/transpose(jvp(remat))/WideResNet/BottleneckResNetBlock_0/BatchNorm_1/mul" source_file="/home/cyxue/miniconda3/envs/alpa/lib/python3.8/site-packages/flax/linen/normalization.py" source_line=46}
  %multiply.306 = f32[448]{0} multiply(f32[448]{0} %negate.4, f32[448]{0} %multiply.307), metadata={op_name="parallelize(train_step_func_pipeshard_parallel_mesh_0)/jit(main)/jit(3)/jit(37)/transpose(jvp(remat))/WideResNet/BottleneckResNetBlock_0/BatchNorm_1/mul" source_file="/home/cyxue/miniconda3/envs/alpa/lib/python3.8/site-packages/flax/linen/normalization.py" source_line=46}
  %add.44 = f32[448]{0} add(f32[448]{0} %param_0.49, f32[448]{0} %multiply.306), metadata={op_name="parallelize(train_step_func_pipeshard_parallel_mesh_0)/jit(main)/jit(3)/jit(37)/transpose(jvp(remat))/WideResNet/BottleneckResNetBlock_0/BatchNorm_1/add_any" source_file="/home/cyxue/miniconda3/envs/alpa/lib/python3.8/site-packages/flax/linen/normalization.py" source_line=46}
  %multiply.305 = f32[448]{0} multiply(f32[448]{0} %add.44, f32[448]{0} %broadcast.3944), metadata={op_name="parallelize(train_step_func_pipeshard_parallel_mesh_0)/jit(main)/jit(3)/jit(37)/transpose(jvp(remat))/WideResNet/BottleneckResNetBlock_0/BatchNorm_1/div" source_file="/home/cyxue/miniconda3/envs/alpa/lib/python3.8/site-packages/flax/linen/normalization.py" source_line=82}
  %broadcast.330 = f32[16,56,56,448]{2,1,3,0} broadcast(f32[448]{0} %multiply.305), dimensions={3}, metadata={op_name="parallelize(train_step_func_pipeshard_parallel_mesh_0)/jit(main)/jit(3)/jit(37)/transpose(jvp(remat))/WideResNet/BottleneckResNetBlock_0/BatchNorm_1/broadcast_in_dim[shape=(16, 56, 56, 448) broadcast_dimensions=(3,)]" source_file="/home/cyxue/miniconda3/envs/alpa/lib/python3.8/site-packages/flax/linen/normalization.py" source_line=82}
  ROOT %add.43 = f32[16,56,56,448]{2,1,3,0} add(f32[16,56,56,448]{2,1,3,0} %add.45, f32[16,56,56,448]{2,1,3,0} %broadcast.330), metadata={op_name="parallelize(train_step_func_pipeshard_parallel_mesh_0)/jit(main)/jit(3)/jit(37)/transpose(jvp(remat))/WideResNet/BottleneckResNetBlock_0/BatchNorm_1/add_any" source_file="/home/cyxue/miniconda3/envs/alpa/lib/python3.8/site-packages/flax/linen/normalization.py" source_line=82}
}

%fused_computation.26 (param_0.53: f32[16,448]) -> f32[1,1,1,448] {
  %param_0.53 = f32[16,448]{1,0} parameter(0)
  %constant_212 = f32[] constant(0)
  %reduce.698 = f32[448]{0} reduce(f32[16,448]{1,0} %param_0.53, f32[] %constant_212), dimensions={0}, to_apply=%region_63.4346.3, metadata={op_name="parallelize(train_step_func_pipeshard_parallel_mesh_0)/jit(main)/jit(3)/jit(37)/transpose(jvp(remat))/WideResNet/BottleneckResNetBlock_0/BatchNorm_1/reduce_sum[axes=(0, 1, 2)]" source_file="/home/cyxue/miniconda3/envs/alpa/lib/python3.8/site-packages/flax/linen/normalization.py" source_line=146}
  ROOT %bitcast.610 = f32[1,1,1,448]{3,2,1,0} bitcast(f32[448]{0} %reduce.698), metadata={op_name="parallelize(train_step_func_pipeshard_parallel_mesh_0)/jit(main)/jit(3)/jit(37)/transpose(jvp(remat))/WideResNet/BottleneckResNetBlock_0/BatchNorm_1/reshape[new_sizes=(1, 1, 1, 448) dimensions=None]" source_file="/home/cyxue/miniconda3/envs/alpa/lib/python3.8/site-packages/flax/linen/normalization.py" source_line=146}
}

%fused_computation.33 (param_0.1694: f32[16,448], param_1.2307: f32[448]) -> f32[448] {
  %param_0.1694 = f32[16,448]{1,0} parameter(0)
  %constant_219 = f32[] constant(0)
  %reduce.700 = f32[448]{0} reduce(f32[16,448]{1,0} %param_0.1694, f32[] %constant_219), dimensions={0}, to_apply=%region_63.4346.3, metadata={op_name="parallelize(train_step_func_pipeshard_parallel_mesh_0)/jit(main)/jit(3)/jit(37)/transpose(jvp(remat))/WideResNet/BottleneckResNetBlock_0/BatchNorm_1/reduce_sum[axes=(0, 1, 2)]" source_file="/home/cyxue/miniconda3/envs/alpa/lib/python3.8/site-packages/flax/linen/normalization.py" source_line=83}
  %constant_218 = f32[] constant(1.99298465e-05)
  %broadcast.344 = f32[448]{0} broadcast(f32[] %constant_218), dimensions={}, metadata={op_name="parallelize(train_step_func_pipeshard_parallel_mesh_0)/jit(main)/jit(3)/jit(34)/transpose(jvp(remat))/WideResNet/BottleneckResNetBlock_3/BatchNorm_0/div" source_file="/home/cyxue/miniconda3/envs/alpa/lib/python3.8/site-packages/flax/linen/normalization.py" source_line=82}
  %multiply.319 = f32[448]{0} multiply(f32[448]{0} %reduce.700, f32[448]{0} %broadcast.344), metadata={op_name="parallelize(train_step_func_pipeshard_parallel_mesh_0)/jit(main)/jit(3)/jit(37)/transpose(jvp(remat))/WideResNet/BottleneckResNetBlock_0/BatchNorm_1/div" source_file="/home/cyxue/miniconda3/envs/alpa/lib/python3.8/site-packages/flax/linen/normalization.py" source_line=83}
  %param_1.2307 = f32[448]{0} parameter(1)
  %multiply.2319 = f32[448]{0} multiply(f32[448]{0} %param_1.2307, f32[448]{0} %broadcast.344), metadata={op_name="parallelize(train_step_func_pipeshard_parallel_mesh_0)/jit(main)/jit(3)/jit(37)/transpose(jvp(remat))/WideResNet/BottleneckResNetBlock_0/BatchNorm_1/div" source_file="/home/cyxue/miniconda3/envs/alpa/lib/python3.8/site-packages/flax/linen/normalization.py" source_line=82}
  %multiply.318 = f32[448]{0} multiply(f32[448]{0} %multiply.2319, f32[448]{0} %multiply.2319), metadata={op_name="parallelize(train_step_func_pipeshard_parallel_mesh_0)/jit(main)/jit(3)/jit(37)/transpose(jvp(remat))/WideResNet/BottleneckResNetBlock_0/BatchNorm_1/mul" source_file="/home/cyxue/miniconda3/envs/alpa/lib/python3.8/site-packages/flax/linen/normalization.py" source_line=46}
  ROOT %subtract.0 = f32[448]{0} subtract(f32[448]{0} %multiply.319, f32[448]{0} %multiply.318), metadata={op_name="parallelize(train_step_func_pipeshard_parallel_mesh_0)/jit(main)/jit(3)/jit(37)/transpose(jvp(remat))/WideResNet/BottleneckResNetBlock_0/BatchNorm_1/sub" source_file="/home/cyxue/miniconda3/envs/alpa/lib/python3.8/site-packages/flax/linen/normalization.py" source_line=93}
}

%fused_computation.38 (param_0.1691: f32[224], param_1.2305: f32[224], param_2.1636: f32[224], param_3.1403: f32[16,56,56,224], param_4.1205: f32[224]) -> f32[16,56,56,224] {
  %param_3.1403 = f32[16,56,56,224]{2,1,3,0} parameter(3)
  %param_4.1205 = f32[224]{0} parameter(4)
  %constant_3097 = f32[] constant(1.99298465e-05)
  %broadcast.3846 = f32[224]{0} broadcast(f32[] %constant_3097), dimensions={}, metadata={op_name="parallelize(train_step_func_pipeshard_parallel_mesh_0)/jit(main)/jit(3)/jit(35)/transpose(jvp(remat))/WideResNet/BottleneckResNetBlock_2/BatchNorm_0/div" source_file="/home/cyxue/miniconda3/envs/alpa/lib/python3.8/site-packages/flax/linen/normalization.py" source_line=82}
  %multiply.2315 = f32[224]{0} multiply(f32[224]{0} %param_4.1205, f32[224]{0} %broadcast.3846), metadata={op_name="parallelize(train_step_func_pipeshard_parallel_mesh_0)/jit(main)/jit(3)/jit(37)/transpose(jvp(remat))/WideResNet/BottleneckResNetBlock_0/BatchNorm_0/div" source_file="/home/cyxue/miniconda3/envs/alpa/lib/python3.8/site-packages/flax/linen/normalization.py" source_line=82}
  %broadcast.3845 = f32[16,56,56,224]{2,1,3,0} broadcast(f32[224]{0} %multiply.2315), dimensions={3}, metadata={op_name="parallelize(train_step_func_pipeshard_parallel_mesh_0)/jit(main)/jit(3)/jit(37)/transpose(jvp(remat))/WideResNet/BottleneckResNetBlock_0/BatchNorm_0/sub" source_file="/home/cyxue/miniconda3/envs/alpa/lib/python3.8/site-packages/flax/linen/normalization.py" source_line=138}
  %subtract.411 = f32[16,56,56,224]{2,1,3,0} subtract(f32[16,56,56,224]{2,1,3,0} %param_3.1403, f32[16,56,56,224]{2,1,3,0} %broadcast.3845), metadata={op_name="parallelize(train_step_func_pipeshard_parallel_mesh_0)/jit(main)/jit(3)/jit(37)/transpose(jvp(remat))/WideResNet/BottleneckResNetBlock_0/BatchNorm_0/sub" source_file="/home/cyxue/miniconda3/envs/alpa/lib/python3.8/site-packages/flax/linen/normalization.py" source_line=138}
  %param_2.1636 = f32[224]{0} parameter(2)
  %constant_223 = f32[] constant(0)
  %broadcast.3844 = f32[224]{0} broadcast(f32[] %constant_223), dimensions={}, metadata={op_name="parallelize(train_step_func_pipeshard_parallel_mesh_0)/jit(main)/jit(3)/jit(35)/transpose(jvp(remat))/WideResNet/BottleneckResNetBlock_2/BatchNorm_0/max" source_file="/home/cyxue/miniconda3/envs/alpa/lib/python3.8/site-packages/flax/linen/normalization.py" source_line=93}
  %maximum.769 = f32[224]{0} maximum(f32[224]{0} %param_2.1636, f32[224]{0} %broadcast.3844), metadata={op_name="parallelize(train_step_func_pipeshard_parallel_mesh_0)/jit(main)/jit(3)/jit(37)/transpose(jvp(remat))/WideResNet/BottleneckResNetBlock_0/BatchNorm_0/max" source_file="/home/cyxue/miniconda3/envs/alpa/lib/python3.8/site-packages/flax/linen/normalization.py" source_line=93}
  %constant_3095 = f32[] constant(1e-05)
  %broadcast.3843 = f32[224]{0} broadcast(f32[] %constant_3095), dimensions={}, metadata={op_name="parallelize(train_step_func_pipeshard_parallel_mesh_0)/jit(main)/jit(3)/jit(35)/transpose(jvp(remat))/WideResNet/BottleneckResNetBlock_2/BatchNorm_0/add" source_file="/home/cyxue/miniconda3/envs/alpa/lib/python3.8/site-packages/flax/linen/normalization.py" source_line=139}
  %add.1255 = f32[224]{0} add(f32[224]{0} %maximum.769, f32[224]{0} %broadcast.3843), metadata={op_name="parallelize(train_step_func_pipeshard_parallel_mesh_0)/jit(main)/jit(3)/jit(37)/transpose(jvp(remat))/WideResNet/BottleneckResNetBlock_0/BatchNorm_0/add" source_file="/home/cyxue/miniconda3/envs/alpa/lib/python3.8/site-packages/flax/linen/normalization.py" source_line=139}
  %bitcast.2288 = f32[1,1,1,224]{3,2,1,0} bitcast(f32[224]{0} %add.1255), metadata={op_name="parallelize(train_step_func_pipeshard_parallel_mesh_0)/jit(main)/jit(3)/jit(37)/transpose(jvp(remat))/WideResNet/BottleneckResNetBlock_0/BatchNorm_0/add" source_file="/home/cyxue/miniconda3/envs/alpa/lib/python3.8/site-packages/flax/linen/normalization.py" source_line=139}
  %rsqrt.511 = f32[1,1,1,224]{3,2,1,0} rsqrt(f32[1,1,1,224]{3,2,1,0} %bitcast.2288), metadata={op_name="parallelize(train_step_func_pipeshard_parallel_mesh_0)/jit(main)/jit(3)/jit(37)/transpose(jvp(remat))/WideResNet/BottleneckResNetBlock_0/BatchNorm_0/rsqrt" source_file="/home/cyxue/miniconda3/envs/alpa/lib/python3.8/site-packages/flax/linen/normalization.py" source_line=139}
  %param_1.2305 = f32[224]{0} parameter(1)
  %bitcast.2287 = f32[1,1,1,224]{3,2,1,0} bitcast(f32[224]{0} %param_1.2305), metadata={op_name="parallelize(train_step_func_pipeshard_parallel_mesh_0)/jit(main)/jit(3)/jit(37)/transpose(jvp(remat))/WideResNet/BottleneckResNetBlock_0/BatchNorm_0/reshape[new_sizes=(1, 1, 1, 224) dimensions=None]" source_file="/home/cyxue/miniconda3/envs/alpa/lib/python3.8/site-packages/flax/linen/normalization.py" source_line=142}
  %multiply.2314 = f32[1,1,1,224]{3,2,1,0} multiply(f32[1,1,1,224]{3,2,1,0} %rsqrt.511, f32[1,1,1,224]{3,2,1,0} %bitcast.2287), metadata={op_name="parallelize(train_step_func_pipeshard_parallel_mesh_0)/jit(main)/jit(3)/jit(37)/transpose(jvp(remat))/WideResNet/BottleneckResNetBlock_0/BatchNorm_0/mul" source_file="/home/cyxue/miniconda3/envs/alpa/lib/python3.8/site-packages/flax/linen/normalization.py" source_line=144}
  %bitcast.2286 = f32[224]{0} bitcast(f32[1,1,1,224]{3,2,1,0} %multiply.2314), metadata={op_name="parallelize(train_step_func_pipeshard_parallel_mesh_0)/jit(main)/jit(3)/jit(37)/transpose(jvp(remat))/WideResNet/BottleneckResNetBlock_0/BatchNorm_0/mul" source_file="/home/cyxue/miniconda3/envs/alpa/lib/python3.8/site-packages/flax/linen/normalization.py" source_line=146}
  %broadcast.3842 = f32[16,56,56,224]{2,1,3,0} broadcast(f32[224]{0} %bitcast.2286), dimensions={3}, metadata={op_name="parallelize(train_step_func_pipeshard_parallel_mesh_0)/jit(main)/jit(3)/jit(37)/transpose(jvp(remat))/WideResNet/BottleneckResNetBlock_0/BatchNorm_0/mul" source_file="/home/cyxue/miniconda3/envs/alpa/lib/python3.8/site-packages/flax/linen/normalization.py" source_line=146}
  %multiply.2313 = f32[16,56,56,224]{2,1,3,0} multiply(f32[16,56,56,224]{2,1,3,0} %subtract.411, f32[16,56,56,224]{2,1,3,0} %broadcast.3842), metadata={op_name="parallelize(train_step_func_pipeshard_parallel_mesh_0)/jit(main)/jit(3)/jit(37)/transpose(jvp(remat))/WideResNet/BottleneckResNetBlock_0/BatchNorm_0/mul" source_file="/home/cyxue/miniconda3/envs/alpa/lib/python3.8/site-packages/flax/linen/normalization.py" source_line=146}
  %param_0.1691 = f32[224]{0} parameter(0)
  %broadcast.3841 = f32[16,56,56,224]{2,1,3,0} broadcast(f32[224]{0} %param_0.1691), dimensions={3}, metadata={op_name="parallelize(train_step_func_pipeshard_parallel_mesh_0)/jit(main)/jit(3)/jit(37)/transpose(jvp(remat))/WideResNet/BottleneckResNetBlock_0/BatchNorm_0/add" source_file="/home/cyxue/miniconda3/envs/alpa/lib/python3.8/site-packages/flax/linen/normalization.py" source_line=150}
  %add.1254 = f32[16,56,56,224]{2,1,3,0} add(f32[16,56,56,224]{2,1,3,0} %multiply.2313, f32[16,56,56,224]{2,1,3,0} %broadcast.3841), metadata={op_name="parallelize(train_step_func_pipeshard_parallel_mesh_0)/jit(main)/jit(3)/jit(37)/transpose(jvp(remat))/WideResNet/BottleneckResNetBlock_0/BatchNorm_0/add" source_file="/home/cyxue/miniconda3/envs/alpa/lib/python3.8/site-packages/flax/linen/normalization.py" source_line=150}
  %broadcast.347 = f32[16,56,56,224]{2,1,3,0} broadcast(f32[] %constant_223), dimensions={}, metadata={op_name="parallelize(train_step_func_pipeshard_parallel_mesh_0)/jit(main)/jit(3)/jit(35)/transpose(jvp(remat))/WideResNet/BottleneckResNetBlock_2/max" source_file="/home/cyxue/Projects/crius/Crius/runtime/crius_worker/jax/model/wide_resnet.py" source_line=85}
  ROOT %maximum.1 = f32[16,56,56,224]{2,1,3,0} maximum(f32[16,56,56,224]{2,1,3,0} %add.1254, f32[16,56,56,224]{2,1,3,0} %broadcast.347), metadata={op_name="parallelize(train_step_func_pipeshard_parallel_mesh_0)/jit(main)/jit(3)/jit(37)/transpose(jvp(remat))/WideResNet/BottleneckResNetBlock_0/max" source_file="/home/cyxue/Projects/crius/Crius/runtime/crius_worker/jax/model/wide_resnet.py" source_line=85}
}

%fused_computation.43 (param_0.1676: f32[16,224], param_1.2282: f32[224]) -> f32[224] {
  %param_0.1676 = f32[16,224]{1,0} parameter(0)
  %constant_227 = f32[] constant(0)
  %reduce.703 = f32[224]{0} reduce(f32[16,224]{1,0} %param_0.1676, f32[] %constant_227), dimensions={0}, to_apply=%region_63.4346.3, metadata={op_name="parallelize(train_step_func_pipeshard_parallel_mesh_0)/jit(main)/jit(3)/jit(37)/transpose(jvp(remat))/WideResNet/BottleneckResNetBlock_0/BatchNorm_0/reduce_sum[axes=(0, 1, 2)]" source_file="/home/cyxue/miniconda3/envs/alpa/lib/python3.8/site-packages/flax/linen/normalization.py" source_line=83}
  %constant_226 = f32[] constant(1.99298465e-05)
  %broadcast.352 = f32[224]{0} broadcast(f32[] %constant_226), dimensions={}, metadata={op_name="parallelize(train_step_func_pipeshard_parallel_mesh_0)/jit(main)/jit(3)/jit(35)/transpose(jvp(remat))/WideResNet/BottleneckResNetBlock_2/BatchNorm_0/div" source_file="/home/cyxue/miniconda3/envs/alpa/lib/python3.8/site-packages/flax/linen/normalization.py" source_line=82}
  %multiply.325 = f32[224]{0} multiply(f32[224]{0} %reduce.703, f32[224]{0} %broadcast.352), metadata={op_name="parallelize(train_step_func_pipeshard_parallel_mesh_0)/jit(main)/jit(3)/jit(37)/transpose(jvp(remat))/WideResNet/BottleneckResNetBlock_0/BatchNorm_0/div" source_file="/home/cyxue/miniconda3/envs/alpa/lib/python3.8/site-packages/flax/linen/normalization.py" source_line=83}
  %param_1.2282 = f32[224]{0} parameter(1)
  %multiply.2295 = f32[224]{0} multiply(f32[224]{0} %param_1.2282, f32[224]{0} %broadcast.352), metadata={op_name="parallelize(train_step_func_pipeshard_parallel_mesh_0)/jit(main)/jit(3)/jit(37)/transpose(jvp(remat))/WideResNet/BottleneckResNetBlock_0/BatchNorm_0/div" source_file="/home/cyxue/miniconda3/envs/alpa/lib/python3.8/site-packages/flax/linen/normalization.py" source_line=82}
  %multiply.324 = f32[224]{0} multiply(f32[224]{0} %multiply.2295, f32[224]{0} %multiply.2295), metadata={op_name="parallelize(train_step_func_pipeshard_parallel_mesh_0)/jit(main)/jit(3)/jit(37)/transpose(jvp(remat))/WideResNet/BottleneckResNetBlock_0/BatchNorm_0/mul" source_file="/home/cyxue/miniconda3/envs/alpa/lib/python3.8/site-packages/flax/linen/normalization.py" source_line=46}
  ROOT %subtract.2 = f32[224]{0} subtract(f32[224]{0} %multiply.325, f32[224]{0} %multiply.324), metadata={op_name="parallelize(train_step_func_pipeshard_parallel_mesh_0)/jit(main)/jit(3)/jit(37)/transpose(jvp(remat))/WideResNet/BottleneckResNetBlock_0/BatchNorm_0/sub" source_file="/home/cyxue/miniconda3/envs/alpa/lib/python3.8/site-packages/flax/linen/normalization.py" source_line=93}
}

%fused_computation.53 (param_0.1652: f32[16,224], param_1.2247: f32[224]) -> f32[224] {
  %param_0.1652 = f32[16,224]{1,0} parameter(0)
  %constant_235 = f32[] constant(0)
  %reduce.706 = f32[224]{0} reduce(f32[16,224]{1,0} %param_0.1652, f32[] %constant_235), dimensions={0}, to_apply=%region_63.4346.3, metadata={op_name="parallelize(train_step_func_pipeshard_parallel_mesh_0)/jit(main)/jit(3)/jit(37)/transpose(jvp(remat))/WideResNet/bn_init/reduce_sum[axes=(0, 1, 2)]" source_file="/home/cyxue/miniconda3/envs/alpa/lib/python3.8/site-packages/flax/linen/normalization.py" source_line=83}
  %constant_234 = f32[] constant(4.98246163e-06)
  %broadcast.360 = f32[224]{0} broadcast(f32[] %constant_234), dimensions={}, metadata={op_name="parallelize(train_step_func_pipeshard_parallel_mesh_0)/jit(main)/jit(3)/jit(37)/transpose(jvp(remat))/WideResNet/bn_init/div" source_file="/home/cyxue/miniconda3/envs/alpa/lib/python3.8/site-packages/flax/linen/normalization.py" source_line=82}
  %multiply.331 = f32[224]{0} multiply(f32[224]{0} %reduce.706, f32[224]{0} %broadcast.360), metadata={op_name="parallelize(train_step_func_pipeshard_parallel_mesh_0)/jit(main)/jit(3)/jit(37)/transpose(jvp(remat))/WideResNet/bn_init/div" source_file="/home/cyxue/miniconda3/envs/alpa/lib/python3.8/site-packages/flax/linen/normalization.py" source_line=83}
  %param_1.2247 = f32[224]{0} parameter(1)
  %multiply.2259 = f32[224]{0} multiply(f32[224]{0} %param_1.2247, f32[224]{0} %broadcast.360), metadata={op_name="parallelize(train_step_func_pipeshard_parallel_mesh_0)/jit(main)/jit(3)/jit(37)/transpose(jvp(remat))/WideResNet/bn_init/div" source_file="/home/cyxue/miniconda3/envs/alpa/lib/python3.8/site-packages/flax/linen/normalization.py" source_line=82}
  %multiply.330 = f32[224]{0} multiply(f32[224]{0} %multiply.2259, f32[224]{0} %multiply.2259), metadata={op_name="parallelize(train_step_func_pipeshard_parallel_mesh_0)/jit(main)/jit(3)/jit(37)/transpose(jvp(remat))/WideResNet/bn_init/mul" source_file="/home/cyxue/miniconda3/envs/alpa/lib/python3.8/site-packages/flax/linen/normalization.py" source_line=46}
  ROOT %subtract.4 = f32[224]{0} subtract(f32[224]{0} %multiply.331, f32[224]{0} %multiply.330), metadata={op_name="parallelize(train_step_func_pipeshard_parallel_mesh_0)/jit(main)/jit(3)/jit(37)/transpose(jvp(remat))/WideResNet/bn_init/sub" source_file="/home/cyxue/miniconda3/envs/alpa/lib/python3.8/site-packages/flax/linen/normalization.py" source_line=93}
}

%fused_computation.58 (param_0.105: s32[16,224,224,3]) -> f32[16,224,224,3] {
  %param_0.105 = s32[16,224,224,3]{3,2,1,0} parameter(0)
  %convert.1 = f32[16,224,224,3]{3,2,1,0} convert(s32[16,224,224,3]{3,2,1,0} %param_0.105), metadata={op_name="parallelize(train_step_func_pipeshard_parallel_mesh_0)/jit(main)/jit(3)/jit(37)/transpose(jvp(remat))/WideResNet/conv_init/convert_element_type[new_dtype=float32 weak_type=False]" source_file="/home/cyxue/miniconda3/envs/alpa/lib/python3.8/site-packages/flax/linen/dtypes.py" source_line=97}
  ROOT %copy.144 = f32[16,224,224,3]{2,1,3,0} copy(f32[16,224,224,3]{3,2,1,0} %convert.1), metadata={op_name="parallelize(train_step_func_pipeshard_parallel_mesh_0)/jit(main)/jit(3)/jit(37)/transpose(jvp(remat))/WideResNet/conv_init/convert_element_type[new_dtype=float32 weak_type=False]" source_file="/home/cyxue/miniconda3/envs/alpa/lib/python3.8/site-packages/flax/linen/dtypes.py" source_line=97}
}

%fused_computation.61 (param_0.109: f32[896], param_1.1366: f32[1,1,1,896], param_2.1743: f32[896], param_3.1520: f32[16,896]) -> (f32[896], f32[896]) {
  %param_0.109 = f32[896]{0} parameter(0)
  %param_3.1520 = f32[16,896]{1,0} parameter(3)
  %constant_2829 = f32[] constant(0)
  %reduce.731.clone.1 = f32[896]{0} reduce(f32[16,896]{1,0} %param_3.1520, f32[] %constant_2829), dimensions={0}, to_apply=%region_63.4346.3, metadata={op_name="parallelize(train_step_func_pipeshard_parallel_mesh_0)/jit(main)/jit(3)/jit(36)/transpose(jvp(remat))/WideResNet/BottleneckResNetBlock_1/BatchNorm_2/reduce_sum[axes=(0, 1, 2)]" source_file="/home/cyxue/miniconda3/envs/alpa/lib/python3.8/site-packages/flax/linen/normalization.py" source_line=83}
  %constant_2805_clone_1 = f32[] constant(1.99298465e-05)
  %broadcast.414.clone.1 = f32[896]{0} broadcast(f32[] %constant_2805_clone_1), dimensions={}, metadata={op_name="parallelize(train_step_func_pipeshard_parallel_mesh_0)/jit(main)/jit(3)/jit(35)/transpose(jvp(remat))/WideResNet/BottleneckResNetBlock_2/BatchNorm_2/div" source_file="/home/cyxue/miniconda3/envs/alpa/lib/python3.8/site-packages/flax/linen/normalization.py" source_line=82}
  %multiply.396.clone.1 = f32[896]{0} multiply(f32[896]{0} %reduce.731.clone.1, f32[896]{0} %broadcast.414.clone.1), metadata={op_name="parallelize(train_step_func_pipeshard_parallel_mesh_0)/jit(main)/jit(3)/jit(36)/transpose(jvp(remat))/WideResNet/BottleneckResNetBlock_1/BatchNorm_2/div" source_file="/home/cyxue/miniconda3/envs/alpa/lib/python3.8/site-packages/flax/linen/normalization.py" source_line=83}
  %param_2.1743 = f32[896]{0} parameter(2)
  %multiply.2153.clone.1 = f32[896]{0} multiply(f32[896]{0} %param_2.1743, f32[896]{0} %broadcast.414.clone.1), metadata={op_name="parallelize(train_step_func_pipeshard_parallel_mesh_0)/jit(main)/jit(3)/jit(36)/transpose(jvp(remat))/WideResNet/BottleneckResNetBlock_1/BatchNorm_2/div" source_file="/home/cyxue/miniconda3/envs/alpa/lib/python3.8/site-packages/flax/linen/normalization.py" source_line=82}
  %multiply.395.clone.1 = f32[896]{0} multiply(f32[896]{0} %multiply.2153.clone.1, f32[896]{0} %multiply.2153.clone.1), metadata={op_name="parallelize(train_step_func_pipeshard_parallel_mesh_0)/jit(main)/jit(3)/jit(36)/transpose(jvp(remat))/WideResNet/BottleneckResNetBlock_1/BatchNorm_2/mul" source_file="/home/cyxue/miniconda3/envs/alpa/lib/python3.8/site-packages/flax/linen/normalization.py" source_line=46}
  %subtract.7.clone.1 = f32[896]{0} subtract(f32[896]{0} %multiply.396.clone.1, f32[896]{0} %multiply.395.clone.1), metadata={op_name="parallelize(train_step_func_pipeshard_parallel_mesh_0)/jit(main)/jit(3)/jit(36)/transpose(jvp(remat))/WideResNet/BottleneckResNetBlock_1/BatchNorm_2/sub" source_file="/home/cyxue/miniconda3/envs/alpa/lib/python3.8/site-packages/flax/linen/normalization.py" source_line=93}
  %broadcast.3498 = f32[896]{0} broadcast(f32[] %constant_2829), dimensions={}, metadata={op_name="parallelize(train_step_func_pipeshard_parallel_mesh_0)/jit(main)/jit(3)/jit(30)/transpose(jvp(remat))/WideResNet/BottleneckResNetBlock_7/BatchNorm_0/max" source_file="/home/cyxue/miniconda3/envs/alpa/lib/python3.8/site-packages/flax/linen/normalization.py" source_line=93}
  %maximum.685 = f32[896]{0} maximum(f32[896]{0} %subtract.7.clone.1, f32[896]{0} %broadcast.3498), metadata={op_name="parallelize(train_step_func_pipeshard_parallel_mesh_0)/jit(main)/jit(3)/jit(36)/transpose(jvp(remat))/WideResNet/BottleneckResNetBlock_1/BatchNorm_2/max" source_file="/home/cyxue/miniconda3/envs/alpa/lib/python3.8/site-packages/flax/linen/normalization.py" source_line=93}
  %constant_2828 = f32[] constant(1e-05)
  %broadcast.3497 = f32[896]{0} broadcast(f32[] %constant_2828), dimensions={}, metadata={op_name="parallelize(train_step_func_pipeshard_parallel_mesh_0)/jit(main)/jit(3)/jit(30)/transpose(jvp(remat))/WideResNet/BottleneckResNetBlock_7/BatchNorm_0/add" source_file="/home/cyxue/miniconda3/envs/alpa/lib/python3.8/site-packages/flax/linen/normalization.py" source_line=139}
  %add.1151 = f32[896]{0} add(f32[896]{0} %maximum.685, f32[896]{0} %broadcast.3497), metadata={op_name="parallelize(train_step_func_pipeshard_parallel_mesh_0)/jit(main)/jit(3)/jit(36)/transpose(jvp(remat))/WideResNet/BottleneckResNetBlock_1/BatchNorm_2/add" source_file="/home/cyxue/miniconda3/envs/alpa/lib/python3.8/site-packages/flax/linen/normalization.py" source_line=139}
  %bitcast.2096 = f32[1,1,1,896]{3,2,1,0} bitcast(f32[896]{0} %add.1151), metadata={op_name="parallelize(train_step_func_pipeshard_parallel_mesh_0)/jit(main)/jit(3)/jit(36)/transpose(jvp(remat))/WideResNet/BottleneckResNetBlock_1/BatchNorm_2/add" source_file="/home/cyxue/miniconda3/envs/alpa/lib/python3.8/site-packages/flax/linen/normalization.py" source_line=139}
  %rsqrt.9 = f32[1,1,1,896]{3,2,1,0} rsqrt(f32[1,1,1,896]{3,2,1,0} %bitcast.2096), metadata={op_name="parallelize(train_step_func_pipeshard_parallel_mesh_0)/jit(main)/jit(3)/jit(36)/transpose(jvp(remat))/WideResNet/BottleneckResNetBlock_1/BatchNorm_2/rsqrt" source_file="/home/cyxue/miniconda3/envs/alpa/lib/python3.8/site-packages/flax/linen/normalization.py" source_line=139}
  %param_1.1366 = f32[1,1,1,896]{3,2,1,0} parameter(1)
  %multiply.334 = f32[1,1,1,896]{3,2,1,0} multiply(f32[1,1,1,896]{3,2,1,0} %rsqrt.9, f32[1,1,1,896]{3,2,1,0} %param_1.1366), metadata={op_name="parallelize(train_step_func_pipeshard_parallel_mesh_0)/jit(main)/jit(3)/jit(36)/transpose(jvp(remat))/WideResNet/BottleneckResNetBlock_1/BatchNorm_2/mul" source_file="/home/cyxue/miniconda3/envs/alpa/lib/python3.8/site-packages/flax/linen/normalization.py" source_line=144}
  %bitcast.625 = f32[896]{0} bitcast(f32[1,1,1,896]{3,2,1,0} %multiply.334), metadata={op_name="parallelize(train_step_func_pipeshard_parallel_mesh_0)/jit(main)/jit(3)/jit(36)/transpose(jvp(remat))/WideResNet/BottleneckResNetBlock_1/BatchNorm_2/reshape[new_sizes=(896,) dimensions=None]" source_file="/home/cyxue/miniconda3/envs/alpa/lib/python3.8/site-packages/flax/linen/normalization.py" source_line=142}
  %add.53 = f32[896]{0} add(f32[896]{0} %param_0.109, f32[896]{0} %bitcast.625), metadata={op_name="parallelize(train_step_func_pipeshard_parallel_mesh_0)/jit(main)/jit(3)/jit(36)/add"}
  ROOT %tuple.22 = (f32[896]{0}, f32[896]{0}) tuple(f32[896]{0} %add.53, f32[896]{0} %subtract.7.clone.1)
}

%fused_computation.62 (param_0.112: f32[1,1,448,896], param_1.158: f32[1,1,448,896]) -> f32[1,1,448,896] {
  %param_1.158 = f32[1,1,448,896]{3,2,1,0} parameter(1)
  %copy.146 = f32[1,1,448,896]{1,0,2,3} copy(f32[1,1,448,896]{3,2,1,0} %param_1.158), metadata={op_name="3$start"}
  %param_0.112 = f32[1,1,448,896]{1,0,2,3} parameter(0)
  %add.54 = f32[1,1,448,896]{1,0,2,3} add(f32[1,1,448,896]{1,0,2,3} %copy.146, f32[1,1,448,896]{1,0,2,3} %param_0.112), metadata={op_name="parallelize(train_step_func_pipeshard_parallel_mesh_0)/jit(main)/jit(3)/jit(36)/add"}
  ROOT %copy.145 = f32[1,1,448,896]{3,2,1,0} copy(f32[1,1,448,896]{1,0,2,3} %add.54), metadata={op_name="tuple.85"}
}

%fused_computation.64 (param_0.1628: f32[16,56,56,448], param_1.2205: f32[448], param_2.1500: f32[448], param_3.1274: f32[448], param_4.1093: f32[16,56,56,448], param_5.1087: f32[448]) -> (f32[16,448], f32[16,448], f32[16,448]) {
  %param_4.1093 = f32[16,56,56,448]{2,1,3,0} parameter(4)
  %param_5.1087 = f32[448]{0} parameter(5)
  %constant_2866 = f32[] constant(1.99298465e-05)
  %broadcast.3552 = f32[448]{0} broadcast(f32[] %constant_2866), dimensions={}, metadata={op_name="parallelize(train_step_func_pipeshard_parallel_mesh_0)/jit(main)/jit(3)/jit(34)/transpose(jvp(remat))/WideResNet/BottleneckResNetBlock_3/BatchNorm_0/div" source_file="/home/cyxue/miniconda3/envs/alpa/lib/python3.8/site-packages/flax/linen/normalization.py" source_line=82}
  %multiply.2181 = f32[448]{0} multiply(f32[448]{0} %param_5.1087, f32[448]{0} %broadcast.3552), metadata={op_name="parallelize(train_step_func_pipeshard_parallel_mesh_0)/jit(main)/jit(3)/jit(36)/transpose(jvp(remat))/WideResNet/BottleneckResNetBlock_1/BatchNorm_1/div" source_file="/home/cyxue/miniconda3/envs/alpa/lib/python3.8/site-packages/flax/linen/normalization.py" source_line=82}
  %broadcast.3551 = f32[16,56,56,448]{2,1,3,0} broadcast(f32[448]{0} %multiply.2181), dimensions={3}, metadata={op_name="parallelize(train_step_func_pipeshard_parallel_mesh_0)/jit(main)/jit(3)/jit(36)/transpose(jvp(remat))/WideResNet/BottleneckResNetBlock_1/BatchNorm_1/sub" source_file="/home/cyxue/miniconda3/envs/alpa/lib/python3.8/site-packages/flax/linen/normalization.py" source_line=138}
  %subtract.377 = f32[16,56,56,448]{2,1,3,0} subtract(f32[16,56,56,448]{2,1,3,0} %param_4.1093, f32[16,56,56,448]{2,1,3,0} %broadcast.3551), metadata={op_name="parallelize(train_step_func_pipeshard_parallel_mesh_0)/jit(main)/jit(3)/jit(36)/transpose(jvp(remat))/WideResNet/BottleneckResNetBlock_1/BatchNorm_1/sub" source_file="/home/cyxue/miniconda3/envs/alpa/lib/python3.8/site-packages/flax/linen/normalization.py" source_line=138}
  %param_3.1274 = f32[448]{0} parameter(3)
  %constant_242 = f32[] constant(0)
  %broadcast.3550 = f32[448]{0} broadcast(f32[] %constant_242), dimensions={}, metadata={op_name="parallelize(train_step_func_pipeshard_parallel_mesh_0)/jit(main)/jit(3)/jit(31)/transpose(jvp(remat))/WideResNet/BottleneckResNetBlock_6/BatchNorm_0/max" source_file="/home/cyxue/miniconda3/envs/alpa/lib/python3.8/site-packages/flax/linen/normalization.py" source_line=93}
  %maximum.695 = f32[448]{0} maximum(f32[448]{0} %param_3.1274, f32[448]{0} %broadcast.3550), metadata={op_name="parallelize(train_step_func_pipeshard_parallel_mesh_0)/jit(main)/jit(3)/jit(36)/transpose(jvp(remat))/WideResNet/BottleneckResNetBlock_1/BatchNorm_1/max" source_file="/home/cyxue/miniconda3/envs/alpa/lib/python3.8/site-packages/flax/linen/normalization.py" source_line=93}
  %constant_2864 = f32[] constant(1e-05)
  %broadcast.3549 = f32[448]{0} broadcast(f32[] %constant_2864), dimensions={}, metadata={op_name="parallelize(train_step_func_pipeshard_parallel_mesh_0)/jit(main)/jit(3)/jit(31)/transpose(jvp(remat))/WideResNet/BottleneckResNetBlock_6/BatchNorm_0/add" source_file="/home/cyxue/miniconda3/envs/alpa/lib/python3.8/site-packages/flax/linen/normalization.py" source_line=139}
  %add.1167 = f32[448]{0} add(f32[448]{0} %maximum.695, f32[448]{0} %broadcast.3549), metadata={op_name="parallelize(train_step_func_pipeshard_parallel_mesh_0)/jit(main)/jit(3)/jit(36)/transpose(jvp(remat))/WideResNet/BottleneckResNetBlock_1/BatchNorm_1/add" source_file="/home/cyxue/miniconda3/envs/alpa/lib/python3.8/site-packages/flax/linen/normalization.py" source_line=139}
  %bitcast.2126 = f32[1,1,1,448]{3,2,1,0} bitcast(f32[448]{0} %add.1167), metadata={op_name="parallelize(train_step_func_pipeshard_parallel_mesh_0)/jit(main)/jit(3)/jit(36)/transpose(jvp(remat))/WideResNet/BottleneckResNetBlock_1/BatchNorm_1/add" source_file="/home/cyxue/miniconda3/envs/alpa/lib/python3.8/site-packages/flax/linen/normalization.py" source_line=139}
  %rsqrt.461 = f32[1,1,1,448]{3,2,1,0} rsqrt(f32[1,1,1,448]{3,2,1,0} %bitcast.2126), metadata={op_name="parallelize(train_step_func_pipeshard_parallel_mesh_0)/jit(main)/jit(3)/jit(36)/transpose(jvp(remat))/WideResNet/BottleneckResNetBlock_1/BatchNorm_1/rsqrt" source_file="/home/cyxue/miniconda3/envs/alpa/lib/python3.8/site-packages/flax/linen/normalization.py" source_line=139}
  %param_2.1500 = f32[448]{0} parameter(2)
  %bitcast.2125 = f32[1,1,1,448]{3,2,1,0} bitcast(f32[448]{0} %param_2.1500), metadata={op_name="parallelize(train_step_func_pipeshard_parallel_mesh_0)/jit(main)/jit(3)/jit(36)/transpose(jvp(remat))/WideResNet/BottleneckResNetBlock_1/BatchNorm_1/reshape[new_sizes=(1, 1, 1, 448) dimensions=None]" source_file="/home/cyxue/miniconda3/envs/alpa/lib/python3.8/site-packages/flax/linen/normalization.py" source_line=142}
  %multiply.2180 = f32[1,1,1,448]{3,2,1,0} multiply(f32[1,1,1,448]{3,2,1,0} %rsqrt.461, f32[1,1,1,448]{3,2,1,0} %bitcast.2125), metadata={op_name="parallelize(train_step_func_pipeshard_parallel_mesh_0)/jit(main)/jit(3)/jit(36)/transpose(jvp(remat))/WideResNet/BottleneckResNetBlock_1/BatchNorm_1/mul" source_file="/home/cyxue/miniconda3/envs/alpa/lib/python3.8/site-packages/flax/linen/normalization.py" source_line=144}
  %bitcast.2124 = f32[448]{0} bitcast(f32[1,1,1,448]{3,2,1,0} %multiply.2180), metadata={op_name="parallelize(train_step_func_pipeshard_parallel_mesh_0)/jit(main)/jit(3)/jit(36)/transpose(jvp(remat))/WideResNet/BottleneckResNetBlock_1/BatchNorm_1/mul" source_file="/home/cyxue/miniconda3/envs/alpa/lib/python3.8/site-packages/flax/linen/normalization.py" source_line=146}
  %broadcast.3548 = f32[16,56,56,448]{2,1,3,0} broadcast(f32[448]{0} %bitcast.2124), dimensions={3}, metadata={op_name="parallelize(train_step_func_pipeshard_parallel_mesh_0)/jit(main)/jit(3)/jit(36)/transpose(jvp(remat))/WideResNet/BottleneckResNetBlock_1/BatchNorm_1/mul" source_file="/home/cyxue/miniconda3/envs/alpa/lib/python3.8/site-packages/flax/linen/normalization.py" source_line=146}
  %multiply.2179 = f32[16,56,56,448]{2,1,3,0} multiply(f32[16,56,56,448]{2,1,3,0} %subtract.377, f32[16,56,56,448]{2,1,3,0} %broadcast.3548), metadata={op_name="parallelize(train_step_func_pipeshard_parallel_mesh_0)/jit(main)/jit(3)/jit(36)/transpose(jvp(remat))/WideResNet/BottleneckResNetBlock_1/BatchNorm_1/mul" source_file="/home/cyxue/miniconda3/envs/alpa/lib/python3.8/site-packages/flax/linen/normalization.py" source_line=146}
  %param_1.2205 = f32[448]{0} parameter(1)
  %broadcast.3547 = f32[16,56,56,448]{2,1,3,0} broadcast(f32[448]{0} %param_1.2205), dimensions={3}, metadata={op_name="parallelize(train_step_func_pipeshard_parallel_mesh_0)/jit(main)/jit(3)/jit(36)/transpose(jvp(remat))/WideResNet/BottleneckResNetBlock_1/BatchNorm_1/add" source_file="/home/cyxue/miniconda3/envs/alpa/lib/python3.8/site-packages/flax/linen/normalization.py" source_line=150}
  %add.1166 = f32[16,56,56,448]{2,1,3,0} add(f32[16,56,56,448]{2,1,3,0} %multiply.2179, f32[16,56,56,448]{2,1,3,0} %broadcast.3547), metadata={op_name="parallelize(train_step_func_pipeshard_parallel_mesh_0)/jit(main)/jit(3)/jit(36)/transpose(jvp(remat))/WideResNet/BottleneckResNetBlock_1/BatchNorm_1/add" source_file="/home/cyxue/miniconda3/envs/alpa/lib/python3.8/site-packages/flax/linen/normalization.py" source_line=150}
  %broadcast.3546 = f32[16,56,56,448]{2,1,3,0} broadcast(f32[] %constant_242), dimensions={}, metadata={op_name="parallelize(train_step_func_pipeshard_parallel_mesh_0)/jit(main)/jit(3)/jit(34)/transpose(jvp(remat))/WideResNet/BottleneckResNetBlock_3/max" source_file="/home/cyxue/Projects/crius/Crius/runtime/crius_worker/jax/model/wide_resnet.py" source_line=85}
  %compare.285 = pred[16,56,56,448]{2,1,3,0} compare(f32[16,56,56,448]{2,1,3,0} %add.1166, f32[16,56,56,448]{2,1,3,0} %broadcast.3546), direction=GT, metadata={op_name="parallelize(train_step_func_pipeshard_parallel_mesh_0)/jit(main)/jit(3)/jit(36)/transpose(jvp(remat))/WideResNet/BottleneckResNetBlock_1/gt" source_file="/home/cyxue/Projects/crius/Crius/runtime/crius_worker/jax/model/wide_resnet.py" source_line=88}
  %param_0.1628 = f32[16,56,56,448]{2,1,3,0} parameter(0)
  %select.285 = f32[16,56,56,448]{2,1,3,0} select(pred[16,56,56,448]{2,1,3,0} %compare.285, f32[16,56,56,448]{2,1,3,0} %param_0.1628, f32[16,56,56,448]{2,1,3,0} %broadcast.3546), metadata={op_name="parallelize(train_step_func_pipeshard_parallel_mesh_0)/jit(main)/jit(3)/jit(36)/transpose(jvp(remat))/WideResNet/BottleneckResNetBlock_1/select_n" source_file="/home/cyxue/Projects/crius/Crius/runtime/crius_worker/jax/model/wide_resnet.py" source_line=88}
  %transpose.9 = f32[16,448,56,56]{3,2,1,0} transpose(f32[16,56,56,448]{2,1,3,0} %select.285), dimensions={0,3,1,2}
  %bitcast.626 = f32[16,448,3136]{2,1,0} bitcast(f32[16,448,56,56]{3,2,1,0} %transpose.9), metadata={op_name="parallelize(train_step_func_pipeshard_parallel_mesh_0)/jit(main)/jit(3)/jit(36)/transpose(jvp(remat))/WideResNet/BottleneckResNetBlock_1/select_n" source_file="/home/cyxue/Projects/crius/Crius/runtime/crius_worker/jax/model/wide_resnet.py" source_line=88}
  %reduce.712 = f32[16,448]{1,0} reduce(f32[16,448,3136]{2,1,0} %bitcast.626, f32[] %constant_242), dimensions={2}, to_apply=%region_63.4346.3
  %multiply.2197.clone.1 = f32[16,56,56,448]{2,1,3,0} multiply(f32[16,56,56,448]{2,1,3,0} %select.285, f32[16,56,56,448]{2,1,3,0} %broadcast.3548), metadata={op_name="parallelize(train_step_func_pipeshard_parallel_mesh_0)/jit(main)/jit(3)/jit(36)/transpose(jvp(remat))/WideResNet/BottleneckResNetBlock_1/BatchNorm_1/mul" source_file="/home/cyxue/miniconda3/envs/alpa/lib/python3.8/site-packages/flax/linen/normalization.py" source_line=146}
  %negate.13.clone.1 = f32[16,56,56,448]{2,1,3,0} negate(f32[16,56,56,448]{2,1,3,0} %multiply.2197.clone.1), metadata={op_name="parallelize(train_step_func_pipeshard_parallel_mesh_0)/jit(main)/jit(3)/jit(36)/transpose(jvp(remat))/WideResNet/BottleneckResNetBlock_1/BatchNorm_1/neg" source_file="/home/cyxue/miniconda3/envs/alpa/lib/python3.8/site-packages/flax/linen/normalization.py" source_line=138}
  %transpose.10 = f32[16,448,56,56]{3,2,1,0} transpose(f32[16,56,56,448]{2,1,3,0} %negate.13.clone.1), dimensions={0,3,1,2}
  %bitcast.646.clone.1 = f32[16,448,3136]{2,1,0} bitcast(f32[16,448,56,56]{3,2,1,0} %transpose.10), metadata={op_name="parallelize(train_step_func_pipeshard_parallel_mesh_0)/jit(main)/jit(3)/jit(36)/transpose(jvp(remat))/WideResNet/BottleneckResNetBlock_1/BatchNorm_1/neg" source_file="/home/cyxue/miniconda3/envs/alpa/lib/python3.8/site-packages/flax/linen/normalization.py" source_line=138}
  %reduce.725.clone.1 = f32[16,448]{1,0} reduce(f32[16,448,3136]{2,1,0} %bitcast.646.clone.1, f32[] %constant_242), dimensions={2}, to_apply=%region_63.4346.3
  %multiply.381.clone.1 = f32[16,56,56,448]{2,1,3,0} multiply(f32[16,56,56,448]{2,1,3,0} %subtract.377, f32[16,56,56,448]{2,1,3,0} %select.285), metadata={op_name="parallelize(train_step_func_pipeshard_parallel_mesh_0)/jit(main)/jit(3)/jit(36)/transpose(jvp(remat))/WideResNet/BottleneckResNetBlock_1/BatchNorm_1/mul" source_file="/home/cyxue/miniconda3/envs/alpa/lib/python3.8/site-packages/flax/linen/normalization.py" source_line=146}
  %transpose.11 = f32[16,448,56,56]{3,2,1,0} transpose(f32[16,56,56,448]{2,1,3,0} %multiply.381.clone.1), dimensions={0,3,1,2}
  %bitcast.648.clone.1 = f32[16,448,3136]{2,1,0} bitcast(f32[16,448,56,56]{3,2,1,0} %transpose.11), metadata={op_name="parallelize(train_step_func_pipeshard_parallel_mesh_0)/jit(main)/jit(3)/jit(36)/transpose(jvp(remat))/WideResNet/BottleneckResNetBlock_1/BatchNorm_1/mul" source_file="/home/cyxue/miniconda3/envs/alpa/lib/python3.8/site-packages/flax/linen/normalization.py" source_line=146}
  %reduce.727.clone.1 = f32[16,448]{1,0} reduce(f32[16,448,3136]{2,1,0} %bitcast.648.clone.1, f32[] %constant_242), dimensions={2}, to_apply=%region_63.4346.3
  ROOT %tuple.21 = (f32[16,448]{1,0}, f32[16,448]{1,0}, f32[16,448]{1,0}) tuple(f32[16,448]{1,0} %reduce.712, f32[16,448]{1,0} %reduce.725.clone.1, f32[16,448]{1,0} %reduce.727.clone.1)
}

%fused_computation.66 (param_0.119: f32[3,3,224,448], param_1.167: f32[3,3,224,448]) -> f32[3,3,224,448] {
  %param_1.167 = f32[3,3,224,448]{3,2,1,0} parameter(1)
  %copy.148 = f32[3,3,224,448]{1,0,2,3} copy(f32[3,3,224,448]{3,2,1,0} %param_1.167), metadata={op_name="3$start"}
  %param_0.119 = f32[3,3,224,448]{1,0,2,3} parameter(0)
  %add.57 = f32[3,3,224,448]{1,0,2,3} add(f32[3,3,224,448]{1,0,2,3} %copy.148, f32[3,3,224,448]{1,0,2,3} %param_0.119), metadata={op_name="parallelize(train_step_func_pipeshard_parallel_mesh_0)/jit(main)/jit(3)/jit(36)/add"}
  ROOT %copy.147 = f32[3,3,224,448]{3,2,1,0} copy(f32[3,3,224,448]{1,0,2,3} %add.57), metadata={op_name="tuple.85"}
}

%fused_computation.68 (param_0.1639: f32[16,56,56,224], param_1.2223: f32[224], param_2.1525: f32[224], param_3.1305: f32[224], param_4.1127: f32[16,56,56,224], param_5.1130: f32[224]) -> (f32[16,224], f32[16,224], f32[16,224]) {
  %param_4.1127 = f32[16,56,56,224]{2,1,3,0} parameter(4)
  %param_5.1130 = f32[224]{0} parameter(5)
  %constant_2919 = f32[] constant(1.99298465e-05)
  %broadcast.3634 = f32[224]{0} broadcast(f32[] %constant_2919), dimensions={}, metadata={op_name="parallelize(train_step_func_pipeshard_parallel_mesh_0)/jit(main)/jit(3)/jit(35)/transpose(jvp(remat))/WideResNet/BottleneckResNetBlock_2/BatchNorm_0/div" source_file="/home/cyxue/miniconda3/envs/alpa/lib/python3.8/site-packages/flax/linen/normalization.py" source_line=82}
  %multiply.2219 = f32[224]{0} multiply(f32[224]{0} %param_5.1130, f32[224]{0} %broadcast.3634), metadata={op_name="parallelize(train_step_func_pipeshard_parallel_mesh_0)/jit(main)/jit(3)/jit(36)/transpose(jvp(remat))/WideResNet/BottleneckResNetBlock_1/BatchNorm_0/div" source_file="/home/cyxue/miniconda3/envs/alpa/lib/python3.8/site-packages/flax/linen/normalization.py" source_line=82}
  %broadcast.3633 = f32[16,56,56,224]{2,1,3,0} broadcast(f32[224]{0} %multiply.2219), dimensions={3}, metadata={op_name="parallelize(train_step_func_pipeshard_parallel_mesh_0)/jit(main)/jit(3)/jit(36)/transpose(jvp(remat))/WideResNet/BottleneckResNetBlock_1/BatchNorm_0/sub" source_file="/home/cyxue/miniconda3/envs/alpa/lib/python3.8/site-packages/flax/linen/normalization.py" source_line=138}
  %subtract.387 = f32[16,56,56,224]{2,1,3,0} subtract(f32[16,56,56,224]{2,1,3,0} %param_4.1127, f32[16,56,56,224]{2,1,3,0} %broadcast.3633), metadata={op_name="parallelize(train_step_func_pipeshard_parallel_mesh_0)/jit(main)/jit(3)/jit(36)/transpose(jvp(remat))/WideResNet/BottleneckResNetBlock_1/BatchNorm_0/sub" source_file="/home/cyxue/miniconda3/envs/alpa/lib/python3.8/site-packages/flax/linen/normalization.py" source_line=138}
  %param_3.1305 = f32[224]{0} parameter(3)
  %constant_244 = f32[] constant(0)
  %broadcast.3632 = f32[224]{0} broadcast(f32[] %constant_244), dimensions={}, metadata={op_name="parallelize(train_step_func_pipeshard_parallel_mesh_0)/jit(main)/jit(3)/jit(35)/transpose(jvp(remat))/WideResNet/BottleneckResNetBlock_2/BatchNorm_0/max" source_file="/home/cyxue/miniconda3/envs/alpa/lib/python3.8/site-packages/flax/linen/normalization.py" source_line=93}
  %maximum.709 = f32[224]{0} maximum(f32[224]{0} %param_3.1305, f32[224]{0} %broadcast.3632), metadata={op_name="parallelize(train_step_func_pipeshard_parallel_mesh_0)/jit(main)/jit(3)/jit(36)/transpose(jvp(remat))/WideResNet/BottleneckResNetBlock_1/BatchNorm_0/max" source_file="/home/cyxue/miniconda3/envs/alpa/lib/python3.8/site-packages/flax/linen/normalization.py" source_line=93}
  %constant_2917 = f32[] constant(1e-05)
  %broadcast.3631 = f32[224]{0} broadcast(f32[] %constant_2917), dimensions={}, metadata={op_name="parallelize(train_step_func_pipeshard_parallel_mesh_0)/jit(main)/jit(3)/jit(35)/transpose(jvp(remat))/WideResNet/BottleneckResNetBlock_2/BatchNorm_0/add" source_file="/home/cyxue/miniconda3/envs/alpa/lib/python3.8/site-packages/flax/linen/normalization.py" source_line=139}
  %add.1191 = f32[224]{0} add(f32[224]{0} %maximum.709, f32[224]{0} %broadcast.3631), metadata={op_name="parallelize(train_step_func_pipeshard_parallel_mesh_0)/jit(main)/jit(3)/jit(36)/transpose(jvp(remat))/WideResNet/BottleneckResNetBlock_1/BatchNorm_0/add" source_file="/home/cyxue/miniconda3/envs/alpa/lib/python3.8/site-packages/flax/linen/normalization.py" source_line=139}
  %bitcast.2168 = f32[1,1,1,224]{3,2,1,0} bitcast(f32[224]{0} %add.1191), metadata={op_name="parallelize(train_step_func_pipeshard_parallel_mesh_0)/jit(main)/jit(3)/jit(36)/transpose(jvp(remat))/WideResNet/BottleneckResNetBlock_1/BatchNorm_0/add" source_file="/home/cyxue/miniconda3/envs/alpa/lib/python3.8/site-packages/flax/linen/normalization.py" source_line=139}
  %rsqrt.475 = f32[1,1,1,224]{3,2,1,0} rsqrt(f32[1,1,1,224]{3,2,1,0} %bitcast.2168), metadata={op_name="parallelize(train_step_func_pipeshard_parallel_mesh_0)/jit(main)/jit(3)/jit(36)/transpose(jvp(remat))/WideResNet/BottleneckResNetBlock_1/BatchNorm_0/rsqrt" source_file="/home/cyxue/miniconda3/envs/alpa/lib/python3.8/site-packages/flax/linen/normalization.py" source_line=139}
  %param_2.1525 = f32[224]{0} parameter(2)
  %bitcast.2167 = f32[1,1,1,224]{3,2,1,0} bitcast(f32[224]{0} %param_2.1525), metadata={op_name="parallelize(train_step_func_pipeshard_parallel_mesh_0)/jit(main)/jit(3)/jit(36)/transpose(jvp(remat))/WideResNet/BottleneckResNetBlock_1/BatchNorm_0/reshape[new_sizes=(1, 1, 1, 224) dimensions=None]" source_file="/home/cyxue/miniconda3/envs/alpa/lib/python3.8/site-packages/flax/linen/normalization.py" source_line=142}
  %multiply.2218 = f32[1,1,1,224]{3,2,1,0} multiply(f32[1,1,1,224]{3,2,1,0} %rsqrt.475, f32[1,1,1,224]{3,2,1,0} %bitcast.2167), metadata={op_name="parallelize(train_step_func_pipeshard_parallel_mesh_0)/jit(main)/jit(3)/jit(36)/transpose(jvp(remat))/WideResNet/BottleneckResNetBlock_1/BatchNorm_0/mul" source_file="/home/cyxue/miniconda3/envs/alpa/lib/python3.8/site-packages/flax/linen/normalization.py" source_line=144}
  %bitcast.2166 = f32[224]{0} bitcast(f32[1,1,1,224]{3,2,1,0} %multiply.2218), metadata={op_name="parallelize(train_step_func_pipeshard_parallel_mesh_0)/jit(main)/jit(3)/jit(36)/transpose(jvp(remat))/WideResNet/BottleneckResNetBlock_1/BatchNorm_0/mul" source_file="/home/cyxue/miniconda3/envs/alpa/lib/python3.8/site-packages/flax/linen/normalization.py" source_line=146}
  %broadcast.3630 = f32[16,56,56,224]{2,1,3,0} broadcast(f32[224]{0} %bitcast.2166), dimensions={3}, metadata={op_name="parallelize(train_step_func_pipeshard_parallel_mesh_0)/jit(main)/jit(3)/jit(36)/transpose(jvp(remat))/WideResNet/BottleneckResNetBlock_1/BatchNorm_0/mul" source_file="/home/cyxue/miniconda3/envs/alpa/lib/python3.8/site-packages/flax/linen/normalization.py" source_line=146}
…
  %cudnn-conv-bw-filter.16 = (f32[1,1,896,448]{1,0,2,3}, u8[0]{0}) custom-call(f32[16,56,56,896]{2,1,3,0} %copy.60, f32[16,56,56,448]{2,1,3,0} %fusion.232), window={size=1x1}, dim_labels=b01f_01io->b01f, custom_call_target="__cudnn$convBackwardFilter", metadata={op_name="parallelize(train_step_func_pipeshard_parallel_mesh_0)/jit(main)/jit(3)/jit(34)/transpose(jvp(remat))/WideResNet/BottleneckResNetBlock_3/Conv_0/conv_general_dilated[window_strides=(1, 1) padding=((0, 0), (0, 0)) lhs_dilation=(1, 1) rhs_dilation=(1, 1) dimension_numbers=ConvDimensionNumbers(lhs_spec=(3, 0, 1, 2), rhs_spec=(3, 0, 1, 2), out_spec=(2, 3, 0, 1)) feature_group_count=1 batch_group_count=1 lhs_shape=(16, 56, 56, 896) rhs_shape=(16, 56, 56, 448) precision=None preferred_element_type=None]" source_file="/home/cyxue/miniconda3/envs/alpa/lib/python3.8/site-packages/flax/linen/linear.py" source_line=435}, backend_config="{\"conv_result_scale\":1,\"activation_mode\":\"0\",\"side_input_scale\":0}"
  %get-tuple-element.48 = f32[1,1,896,448]{1,0,2,3} get-tuple-element((f32[1,1,896,448]{1,0,2,3}, u8[0]{0}) %cudnn-conv-bw-filter.16), index=0, metadata={op_name="parallelize(train_step_func_pipeshard_parallel_mesh_0)/jit(main)/jit(3)/jit(34)/transpose(jvp(remat))/WideResNet/BottleneckResNetBlock_3/Conv_0/conv_general_dilated[window_strides=(1, 1) padding=((0, 0), (0, 0)) lhs_dilation=(1, 1) rhs_dilation=(1, 1) dimension_numbers=ConvDimensionNumbers(lhs_spec=(3, 0, 1, 2), rhs_spec=(3, 0, 1, 2), out_spec=(2, 3, 0, 1)) feature_group_count=1 batch_group_count=1 lhs_shape=(16, 56, 56, 896) rhs_shape=(16, 56, 56, 448) precision=None preferred_element_type=None]" source_file="/home/cyxue/miniconda3/envs/alpa/lib/python3.8/site-packages/flax/linen/linear.py" source_line=435}
  %param_39 = f32[1,1,896,448]{3,2,1,0} parameter(39), metadata={op_name="3$start"}
  %fusion.231 = f32[1,1,896,448]{3,2,1,0} fusion(f32[1,1,896,448]{1,0,2,3} %get-tuple-element.48, f32[1,1,896,448]{3,2,1,0} %param_39), kind=kLoop, calls=%fused_computation.231, metadata={op_name="tuple.85"}
  %get-tuple-element.427 = f32[448]{0} get-tuple-element((f32[448]{0}, f32[896]{0}, f32[448]{0}, f32[1792]{0}, f32[224]{0}, /*index=5*/f32[896]{0}, f32[224]{0}, f32[448]{0}, f32[1792]{0}, f32[448]{0}, /*index=10*/f32[896]{0}, f32[224]{0}, f32[896]{0}, f32[896]{0}, f32[1792]{0}, /*index=15*/f32[896]{0}, f32[448]{0}, f32[448]{0}, f32[448]{0}, f32[224]{0}, /*index=20*/f32[896]{0}, f32[896]{0}) %fusion.527), index=16, metadata={op_name="parallelize(train_step_func_pipeshard_parallel_mesh_0)/jit(main)/jit(3)/jit(34)/add"}
  %get-tuple-element.428 = f32[448]{0} get-tuple-element((f32[448]{0}, f32[448]{0}, f32[896]{0}, f32[1792]{0}, f32[896]{0}, /*index=5*/f32[224]{0}, f32[448]{0}, f32[896]{0}, f32[224]{0}, f32[448]{0}, /*index=10*/f32[896]{0}, f32[224]{0}, f32[224]{0}, f32[448]{0}, f32[1792]{0}, /*index=15*/f32[896]{0}, f32[1792]{0}, f32[448]{0}, f32[896]{0}, f32[1792]{0}, /*index=20*/f32[448]{0}, f32[896]{0}) %fusion.526), index=1, metadata={op_name="parallelize(train_step_func_pipeshard_parallel_mesh_0)/jit(main)/jit(3)/jit(34)/add"}
  %cudnn-conv-bw-filter.15 = (f32[3,3,448,896]{1,0,2,3}, u8[0]{0}) custom-call(f32[16,57,57,448]{2,1,3,0} %fusion.265, f32[16,28,28,896]{2,1,3,0} %fusion.238), window={size=3x3 stride=2x2}, dim_labels=b01f_01io->b01f, custom_call_target="__cudnn$convBackwardFilter", metadata={op_name="parallelize(train_step_func_pipeshard_parallel_mesh_0)/jit(main)/jit(3)/jit(34)/transpose(jvp(remat))/WideResNet/BottleneckResNetBlock_3/Conv_1/conv_general_dilated[window_strides=(1, 1) padding=((0, 1), (0, 1)) lhs_dilation=(1, 1) rhs_dilation=(2, 2) dimension_numbers=ConvDimensionNumbers(lhs_spec=(3, 0, 1, 2), rhs_spec=(3, 0, 1, 2), out_spec=(2, 3, 0, 1)) feature_group_count=1 batch_group_count=1 lhs_shape=(16, 56, 56, 448) rhs_shape=(16, 28, 28, 896) precision=None preferred_element_type=None]" source_file="/home/cyxue/miniconda3/envs/alpa/lib/python3.8/site-packages/flax/linen/linear.py" source_line=435}, backend_config="{\"conv_result_scale\":1,\"activation_mode\":\"0\",\"side_input_scale\":0}"
  %get-tuple-element.46 = f32[3,3,448,896]{1,0,2,3} get-tuple-element((f32[3,3,448,896]{1,0,2,3}, u8[0]{0}) %cudnn-conv-bw-filter.15), index=0, metadata={op_name="parallelize(train_step_func_pipeshard_parallel_mesh_0)/jit(main)/jit(3)/jit(34)/transpose(jvp(remat))/WideResNet/BottleneckResNetBlock_3/Conv_1/conv_general_dilated[window_strides=(1, 1) padding=((0, 1), (0, 1)) lhs_dilation=(1, 1) rhs_dilation=(2, 2) dimension_numbers=ConvDimensionNumbers(lhs_spec=(3, 0, 1, 2), rhs_spec=(3, 0, 1, 2), out_spec=(2, 3, 0, 1)) feature_group_count=1 batch_group_count=1 lhs_shape=(16, 56, 56, 448) rhs_shape=(16, 28, 28, 896) precision=None preferred_element_type=None]" source_file="/home/cyxue/miniconda3/envs/alpa/lib/python3.8/site-packages/flax/linen/linear.py" source_line=435}
  %param_42 = f32[3,3,448,896]{3,2,1,0} parameter(42), metadata={op_name="3$start"}
  %fusion.227 = f32[3,3,448,896]{3,2,1,0} fusion(f32[3,3,448,896]{1,0,2,3} %get-tuple-element.46, f32[3,3,448,896]{3,2,1,0} %param_42), kind=kLoop, calls=%fused_computation.227, metadata={op_name="tuple.85"}
  %get-tuple-element.430 = f32[896]{0} get-tuple-element((f32[448]{0}, f32[896]{0}, f32[448]{0}, f32[1792]{0}, f32[224]{0}, /*index=5*/f32[896]{0}, f32[224]{0}, f32[448]{0}, f32[1792]{0}, f32[448]{0}, /*index=10*/f32[896]{0}, f32[224]{0}, f32[896]{0}, f32[896]{0}, f32[1792]{0}, /*index=15*/f32[896]{0}, f32[448]{0}, f32[448]{0}, f32[448]{0}, f32[224]{0}, /*index=20*/f32[896]{0}, f32[896]{0}) %fusion.527), index=1, metadata={op_name="parallelize(train_step_func_pipeshard_parallel_mesh_0)/jit(main)/jit(3)/jit(34)/add"}
  %get-tuple-element.431 = f32[896]{0} get-tuple-element((f32[448]{0}, f32[448]{0}, f32[896]{0}, f32[1792]{0}, f32[896]{0}, /*index=5*/f32[224]{0}, f32[448]{0}, f32[896]{0}, f32[224]{0}, f32[448]{0}, /*index=10*/f32[896]{0}, f32[224]{0}, f32[224]{0}, f32[448]{0}, f32[1792]{0}, /*index=15*/f32[896]{0}, f32[1792]{0}, f32[448]{0}, f32[896]{0}, f32[1792]{0}, /*index=20*/f32[448]{0}, f32[896]{0}) %fusion.526), index=4, metadata={op_name="parallelize(train_step_func_pipeshard_parallel_mesh_0)/jit(main)/jit(3)/jit(34)/add"}
  %cudnn-conv-bw-filter.14 = (f32[1,1,896,1792]{1,0,2,3}, u8[0]{0}) custom-call(f32[16,28,28,896]{2,1,3,0} %fusion.255, f32[16,28,28,1792]{2,1,3,0} %get-tuple-element.259), window={size=1x1}, dim_labels=b01f_01io->b01f, custom_call_target="__cudnn$convBackwardFilter", metadata={op_name="parallelize(train_step_func_pipeshard_parallel_mesh_0)/jit(main)/jit(3)/jit(34)/transpose(jvp(remat))/WideResNet/BottleneckResNetBlock_3/Conv_2/conv_general_dilated[window_strides=(1, 1) padding=((0, 0), (0, 0)) lhs_dilation=(1, 1) rhs_dilation=(1, 1) dimension_numbers=ConvDimensionNumbers(lhs_spec=(3, 0, 1, 2), rhs_spec=(3, 0, 1, 2), out_spec=(2, 3, 0, 1)) feature_group_count=1 batch_group_count=1 lhs_shape=(16, 28, 28, 896) rhs_shape=(16, 28, 28, 1792) precision=None preferred_element_type=None]" source_file="/home/cyxue/miniconda3/envs/alpa/lib/python3.8/site-packages/flax/linen/linear.py" source_line=435}, backend_config="{\"conv_result_scale\":1,\"activation_mode\":\"0\",\"side_input_scale\":0}"
  %get-tuple-element.44 = f32[1,1,896,1792]{1,0,2,3} get-tuple-element((f32[1,1,896,1792]{1,0,2,3}, u8[0]{0}) %cudnn-conv-bw-filter.14), index=0, metadata={op_name="parallelize(train_step_func_pipeshard_parallel_mesh_0)/jit(main)/jit(3)/jit(34)/transpose(jvp(remat))/WideResNet/BottleneckResNetBlock_3/Conv_2/conv_general_dilated[window_strides=(1, 1) padding=((0, 0), (0, 0)) lhs_dilation=(1, 1) rhs_dilation=(1, 1) dimension_numbers=ConvDimensionNumbers(lhs_spec=(3, 0, 1, 2), rhs_spec=(3, 0, 1, 2), out_spec=(2, 3, 0, 1)) feature_group_count=1 batch_group_count=1 lhs_shape=(16, 28, 28, 896) rhs_shape=(16, 28, 28, 1792) precision=None preferred_element_type=None]" source_file="/home/cyxue/miniconda3/envs/alpa/lib/python3.8/site-packages/flax/linen/linear.py" source_line=435}
  %param_45 = f32[1,1,896,1792]{3,2,1,0} parameter(45), metadata={op_name="3$start"}
  %fusion.223 = f32[1,1,896,1792]{3,2,1,0} fusion(f32[1,1,896,1792]{1,0,2,3} %get-tuple-element.44, f32[1,1,896,1792]{3,2,1,0} %param_45), kind=kLoop, calls=%fused_computation.223, metadata={op_name="tuple.85"}
  %get-tuple-element.433 = f32[1792]{0} get-tuple-element((f32[1792]{0}, f32[1792]{0}) %fusion.222), index=0
  %get-tuple-element.434 = f32[1792]{0} get-tuple-element((f32[1792]{0}, f32[1792]{0}, f32[896]{0}, f32[896]{0}) %fusion.528), index=0
  %cudnn-conv-bw-filter.13 = (f32[1,1,896,1792]{1,0,2,3}, u8[0]{0}) custom-call(f32[16,56,56,896]{2,1,3,0} %copy.60, f32[16,28,28,1792]{2,1,3,0} %get-tuple-element.260), window={size=1x1 stride=2x2}, dim_labels=b01f_01io->b01f, custom_call_target="__cudnn$convBackwardFilter", metadata={op_name="parallelize(train_step_func_pipeshard_parallel_mesh_0)/jit(main)/jit(3)/jit(34)/transpose(jvp(remat))/WideResNet/BottleneckResNetBlock_3/conv_proj/conv_general_dilated[window_strides=(1, 1) padding=((0, -1), (0, -1)) lhs_dilation=(1, 1) rhs_dilation=(2, 2) dimension_numbers=ConvDimensionNumbers(lhs_spec=(3, 0, 1, 2), rhs_spec=(3, 0, 1, 2), out_spec=(2, 3, 0, 1)) feature_group_count=1 batch_group_count=1 lhs_shape=(16, 56, 56, 896) rhs_shape=(16, 28, 28, 1792) precision=None preferred_element_type=None]" source_file="/home/cyxue/miniconda3/envs/alpa/lib/python3.8/site-packages/flax/linen/linear.py" source_line=435}, backend_config="{\"conv_result_scale\":1,\"activation_mode\":\"0\",\"side_input_scale\":0}"
  %get-tuple-element.40 = f32[1,1,896,1792]{1,0,2,3} get-tuple-element((f32[1,1,896,1792]{1,0,2,3}, u8[0]{0}) %cudnn-conv-bw-filter.13), index=0, metadata={op_name="parallelize(train_step_func_pipeshard_parallel_mesh_0)/jit(main)/jit(3)/jit(34)/transpose(jvp(remat))/WideResNet/BottleneckResNetBlock_3/conv_proj/conv_general_dilated[window_strides=(1, 1) padding=((0, -1), (0, -1)) lhs_dilation=(1, 1) rhs_dilation=(2, 2) dimension_numbers=ConvDimensionNumbers(lhs_spec=(3, 0, 1, 2), rhs_spec=(3, 0, 1, 2), out_spec=(2, 3, 0, 1)) feature_group_count=1 batch_group_count=1 lhs_shape=(16, 56, 56, 896) rhs_shape=(16, 28, 28, 1792) precision=None preferred_element_type=None]" source_file="/home/cyxue/miniconda3/envs/alpa/lib/python3.8/site-packages/flax/linen/linear.py" source_line=435}
  %param_48 = f32[1,1,896,1792]{3,2,1,0} parameter(48), metadata={op_name="3$start"}
  %fusion.209 = f32[1,1,896,1792]{3,2,1,0} fusion(f32[1,1,896,1792]{1,0,2,3} %get-tuple-element.40, f32[1,1,896,1792]{3,2,1,0} %param_48), kind=kLoop, calls=%fused_computation.209, metadata={op_name="tuple.85"}
  %get-tuple-element.436 = f32[1792]{0} get-tuple-element((f32[1792]{0}, f32[1792]{0}) %fusion.208), index=0
  %get-tuple-element.437 = f32[1792]{0} get-tuple-element((f32[3584]{0}, f32[3584]{0}, f32[1792]{0}, f32[896]{0}) %fusion.525), index=2, metadata={op_name="parallelize(train_step_func_pipeshard_parallel_mesh_0)/jit(main)/jit(3)/jit(34)/add"}
  %cudnn-conv-bw-filter.19 = (f32[1,1,896,224]{1,0,2,3}, u8[0]{0}) custom-call(f32[16,56,56,896]{2,1,3,0} %fusion.207, f32[16,56,56,224]{2,1,3,0} %fusion.161), window={size=1x1}, dim_labels=b01f_01io->b01f, custom_call_target="__cudnn$convBackwardFilter", metadata={op_name="parallelize(train_step_func_pipeshard_parallel_mesh_0)/jit(main)/jit(3)/jit(35)/transpose(jvp(remat))/WideResNet/BottleneckResNetBlock_2/Conv_0/conv_general_dilated[window_strides=(1, 1) padding=((0, 0), (0, 0)) lhs_dilation=(1, 1) rhs_dilation=(1, 1) dimension_numbers=ConvDimensionNumbers(lhs_spec=(3, 0, 1, 2), rhs_spec=(3, 0, 1, 2), out_spec=(2, 3, 0, 1)) feature_group_count=1 batch_group_count=1 lhs_shape=(16, 56, 56, 896) rhs_shape=(16, 56, 56, 224) precision=None preferred_element_type=None]" source_file="/home/cyxue/miniconda3/envs/alpa/lib/python3.8/site-packages/flax/linen/linear.py" source_line=435}, backend_config="{\"conv_result_scale\":1,\"activation_mode\":\"0\",\"side_input_scale\":0}"
  %get-tuple-element.58 = f32[1,1,896,224]{1,0,2,3} get-tuple-element((f32[1,1,896,224]{1,0,2,3}, u8[0]{0}) %cudnn-conv-bw-filter.19), index=0, metadata={op_name="parallelize(train_step_func_pipeshard_parallel_mesh_0)/jit(main)/jit(3)/jit(35)/transpose(jvp(remat))/WideResNet/BottleneckResNetBlock_2/Conv_0/conv_general_dilated[window_strides=(1, 1) padding=((0, 0), (0, 0)) lhs_dilation=(1, 1) rhs_dilation=(1, 1) dimension_numbers=ConvDimensionNumbers(lhs_spec=(3, 0, 1, 2), rhs_spec=(3, 0, 1, 2), out_spec=(2, 3, 0, 1)) feature_group_count=1 batch_group_count=1 lhs_shape=(16, 56, 56, 896) rhs_shape=(16, 56, 56, 224) precision=None preferred_element_type=None]" source_file="/home/cyxue/miniconda3/envs/alpa/lib/python3.8/site-packages/flax/linen/linear.py" source_line=435}
  %param_51 = f32[1,1,896,224]{3,2,1,0} parameter(51), metadata={op_name="3$start"}
  %fusion.160 = f32[1,1,896,224]{3,2,1,0} fusion(f32[1,1,896,224]{1,0,2,3} %get-tuple-element.58, f32[1,1,896,224]{3,2,1,0} %param_51), kind=kLoop, calls=%fused_computation.160, metadata={op_name="tuple.85"}
  %get-tuple-element.439 = f32[224]{0} get-tuple-element((f32[448]{0}, f32[896]{0}, f32[448]{0}, f32[1792]{0}, f32[224]{0}, /*index=5*/f32[896]{0}, f32[224]{0}, f32[448]{0}, f32[1792]{0}, f32[448]{0}, /*index=10*/f32[896]{0}, f32[224]{0}, f32[896]{0}, f32[896]{0}, f32[1792]{0}, /*index=15*/f32[896]{0}, f32[448]{0}, f32[448]{0}, f32[448]{0}, f32[224]{0}, /*index=20*/f32[896]{0}, f32[896]{0}) %fusion.527), index=19, metadata={op_name="parallelize(train_step_func_pipeshard_parallel_mesh_0)/jit(main)/jit(3)/jit(35)/add"}
  %get-tuple-element.440 = f32[224]{0} get-tuple-element((f32[448]{0}, f32[448]{0}, f32[896]{0}, f32[1792]{0}, f32[896]{0}, /*index=5*/f32[224]{0}, f32[448]{0}, f32[896]{0}, f32[224]{0}, f32[448]{0}, /*index=10*/f32[896]{0}, f32[224]{0}, f32[224]{0}, f32[448]{0}, f32[1792]{0}, /*index=15*/f32[896]{0}, f32[1792]{0}, f32[448]{0}, f32[896]{0}, f32[1792]{0}, /*index=20*/f32[448]{0}, f32[896]{0}) %fusion.526), index=5, metadata={op_name="parallelize(train_step_func_pipeshard_parallel_mesh_0)/jit(main)/jit(3)/jit(35)/add"}
  %cudnn-conv-bw-filter.18 = (f32[3,3,224,448]{1,0,2,3}, u8[0]{0}) custom-call(f32[16,56,56,224]{2,1,3,0} %fusion.197, f32[16,56,56,448]{2,1,3,0} %fusion.167), window={size=3x3 pad=1_1x1_1}, dim_labels=b01f_01io->b01f, custom_call_target="__cudnn$convBackwardFilter", metadata={op_name="parallelize(train_step_func_pipeshard_parallel_mesh_0)/jit(main)/jit(3)/jit(35)/transpose(jvp(remat))/WideResNet/BottleneckResNetBlock_2/Conv_1/conv_general_dilated[window_strides=(1, 1) padding=((1, 1), (1, 1)) lhs_dilation=(1, 1) rhs_dilation=(1, 1) dimension_numbers=ConvDimensionNumbers(lhs_spec=(3, 0, 1, 2), rhs_spec=(3, 0, 1, 2), out_spec=(2, 3, 0, 1)) feature_group_count=1 batch_group_count=1 lhs_shape=(16, 56, 56, 224) rhs_shape=(16, 56, 56, 448) precision=None preferred_element_type=None]" source_file="/home/cyxue/miniconda3/envs/alpa/lib/python3.8/site-packages/flax/linen/linear.py" source_line=435}, backend_config="{\"conv_result_scale\":1,\"activation_mode\":\"0\",\"side_input_scale\":0}"
  %get-tuple-element.56 = f32[3,3,224,448]{1,0,2,3} get-tuple-element((f32[3,3,224,448]{1,0,2,3}, u8[0]{0}) %cudnn-conv-bw-filter.18), index=0, metadata={op_name="parallelize(train_step_func_pipeshard_parallel_mesh_0)/jit(main)/jit(3)/jit(35)/transpose(jvp(remat))/WideResNet/BottleneckResNetBlock_2/Conv_1/conv_general_dilated[window_strides=(1, 1) padding=((1, 1), (1, 1)) lhs_dilation=(1, 1) rhs_dilation=(1, 1) dimension_numbers=ConvDimensionNumbers(lhs_spec=(3, 0, 1, 2), rhs_spec=(3, 0, 1, 2), out_spec=(2, 3, 0, 1)) feature_group_count=1 batch_group_count=1 lhs_shape=(16, 56, 56, 224) rhs_shape=(16, 56, 56, 448) precision=None preferred_element_type=None]" source_file="/home/cyxue/miniconda3/envs/alpa/lib/python3.8/site-packages/flax/linen/linear.py" source_line=435}
  %param_54 = f32[3,3,224,448]{3,2,1,0} parameter(54), metadata={op_name="3$start"}
  %fusion.156 = f32[3,3,224,448]{3,2,1,0} fusion(f32[3,3,224,448]{1,0,2,3} %get-tuple-element.56, f32[3,3,224,448]{3,2,1,0} %param_54), kind=kLoop, calls=%fused_computation.156, metadata={op_name="tuple.85"}
  %get-tuple-element.442 = f32[448]{0} get-tuple-element((f32[448]{0}, f32[896]{0}, f32[448]{0}, f32[1792]{0}, f32[224]{0}, /*index=5*/f32[896]{0}, f32[224]{0}, f32[448]{0}, f32[1792]{0}, f32[448]{0}, /*index=10*/f32[896]{0}, f32[224]{0}, f32[896]{0}, f32[896]{0}, f32[1792]{0}, /*index=15*/f32[896]{0}, f32[448]{0}, f32[448]{0}, f32[448]{0}, f32[224]{0}, /*index=20*/f32[896]{0}, f32[896]{0}) %fusion.527), index=17, metadata={op_name="parallelize(train_step_func_pipeshard_parallel_mesh_0)/jit(main)/jit(3)/jit(35)/add"}
  %get-tuple-element.443 = f32[448]{0} get-tuple-element((f32[448]{0}, f32[448]{0}, f32[896]{0}, f32[1792]{0}, f32[896]{0}, /*index=5*/f32[224]{0}, f32[448]{0}, f32[896]{0}, f32[224]{0}, f32[448]{0}, /*index=10*/f32[896]{0}, f32[224]{0}, f32[224]{0}, f32[448]{0}, f32[1792]{0}, /*index=15*/f32[896]{0}, f32[1792]{0}, f32[448]{0}, f32[896]{0}, f32[1792]{0}, /*index=20*/f32[448]{0}, f32[896]{0}) %fusion.526), index=6, metadata={op_name="parallelize(train_step_func_pipeshard_parallel_mesh_0)/jit(main)/jit(3)/jit(35)/add"}
  %cudnn-conv-bw-filter.17 = (f32[1,1,448,896]{1,0,2,3}, u8[0]{0}) custom-call(f32[16,56,56,448]{2,1,3,0} %fusion.187, f32[16,56,56,896]{2,1,3,0} %fusion.173), window={size=1x1}, dim_labels=b01f_01io->b01f, custom_call_target="__cudnn$convBackwardFilter", metadata={op_name="parallelize(train_step_func_pipeshard_parallel_mesh_0)/jit(main)/jit(3)/jit(35)/transpose(jvp(remat))/WideResNet/BottleneckResNetBlock_2/Conv_2/conv_general_dilated[window_strides=(1, 1) padding=((0, 0), (0, 0)) lhs_dilation=(1, 1) rhs_dilation=(1, 1) dimension_numbers=ConvDimensionNumbers(lhs_spec=(3, 0, 1, 2), rhs_spec=(3, 0, 1, 2), out_spec=(2, 3, 0, 1)) feature_group_count=1 batch_group_count=1 lhs_shape=(16, 56, 56, 448) rhs_shape=(16, 56, 56, 896) precision=None preferred_element_type=None]" source_file="/home/cyxue/miniconda3/envs/alpa/lib/python3.8/site-packages/flax/linen/linear.py" source_line=435}, backend_config="{\"conv_result_scale\":1,\"activation_mode\":\"0\",\"side_input_scale\":0}"
  %get-tuple-element.54 = f32[1,1,448,896]{1,0,2,3} get-tuple-element((f32[1,1,448,896]{1,0,2,3}, u8[0]{0}) %cudnn-conv-bw-filter.17), index=0, metadata={op_name="parallelize(train_step_func_pipeshard_parallel_mesh_0)/jit(main)/jit(3)/jit(35)/transpose(jvp(remat))/WideResNet/BottleneckResNetBlock_2/Conv_2/conv_general_dilated[window_strides=(1, 1) padding=((0, 0), (0, 0)) lhs_dilation=(1, 1) rhs_dilation=(1, 1) dimension_numbers=ConvDimensionNumbers(lhs_spec=(3, 0, 1, 2), rhs_spec=(3, 0, 1, 2), out_spec=(2, 3, 0, 1)) feature_group_count=1 batch_group_count=1 lhs_shape=(16, 56, 56, 448) rhs_shape=(16, 56, 56, 896) precision=None preferred_element_type=None]" source_file="/home/cyxue/miniconda3/envs/alpa/lib/python3.8/site-packages/flax/linen/linear.py" source_line=435}
  %param_57 = f32[1,1,448,896]{3,2,1,0} parameter(57), metadata={op_name="3$start"}
  %fusion.152 = f32[1,1,448,896]{3,2,1,0} fusion(f32[1,1,448,896]{1,0,2,3} %get-tuple-element.54, f32[1,1,448,896]{3,2,1,0} %param_57), kind=kLoop, calls=%fused_computation.152, metadata={op_name="tuple.85"}
  %get-tuple-element.445 = f32[896]{0} get-tuple-element((f32[448]{0}, f32[896]{0}, f32[448]{0}, f32[1792]{0}, f32[224]{0}, /*index=5*/f32[896]{0}, f32[224]{0}, f32[448]{0}, f32[1792]{0}, f32[448]{0}, /*index=10*/f32[896]{0}, f32[224]{0}, f32[896]{0}, f32[896]{0}, f32[1792]{0}, /*index=15*/f32[896]{0}, f32[448]{0}, f32[448]{0}, f32[448]{0}, f32[224]{0}, /*index=20*/f32[896]{0}, f32[896]{0}) %fusion.527), index=15, metadata={op_name="parallelize(train_step_func_pipeshard_parallel_mesh_0)/jit(main)/jit(3)/jit(35)/add"}
  %get-tuple-element.446 = f32[896]{0} get-tuple-element((f32[448]{0}, f32[448]{0}, f32[896]{0}, f32[1792]{0}, f32[896]{0}, /*index=5*/f32[224]{0}, f32[448]{0}, f32[896]{0}, f32[224]{0}, f32[448]{0}, /*index=10*/f32[896]{0}, f32[224]{0}, f32[224]{0}, f32[448]{0}, f32[1792]{0}, /*index=15*/f32[896]{0}, f32[1792]{0}, f32[448]{0}, f32[896]{0}, f32[1792]{0}, /*index=20*/f32[448]{0}, f32[896]{0}) %fusion.526), index=7, metadata={op_name="parallelize(train_step_func_pipeshard_parallel_mesh_0)/jit(main)/jit(3)/jit(35)/add"}
  %cudnn-conv-bw-filter.24 = (f32[1,1,448,896]{1,0,2,3}, u8[0]{0}) custom-call(f32[16,56,56,448]{2,1,3,0} %copy.91, f32[16,56,56,896]{2,1,3,0} %get-tuple-element.201), window={size=1x1}, dim_labels=b01f_01io->b01f, custom_call_target="__cudnn$convBackwardFilter", metadata={op_name="parallelize(train_step_func_pipeshard_parallel_mesh_0)/jit(main)/jit(3)/jit(36)/transpose(jvp(remat))/WideResNet/BottleneckResNetBlock_0/Conv_2/conv_general_dilated[window_strides=(1, 1) padding=((0, 0), (0, 0)) lhs_dilation=(1, 1) rhs_dilation=(1, 1) dimension_numbers=ConvDimensionNumbers(lhs_spec=(3, 0, 1, 2), rhs_spec=(3, 0, 1, 2), out_spec=(2, 3, 0, 1)) feature_group_count=1 batch_group_count=1 lhs_shape=(16, 56, 56, 448) rhs_shape=(16, 56, 56, 896) precision=None preferred_element_type=None]" source_file="/home/cyxue/miniconda3/envs/alpa/lib/python3.8/site-packages/flax/linen/linear.py" source_line=435}, backend_config="{\"conv_result_scale\":1,\"activation_mode\":\"0\",\"side_input_scale\":0}"
  %get-tuple-element.72 = f32[1,1,448,896]{1,0,2,3} get-tuple-element((f32[1,1,448,896]{1,0,2,3}, u8[0]{0}) %cudnn-conv-bw-filter.24), index=0, metadata={op_name="parallelize(train_step_func_pipeshard_parallel_mesh_0)/jit(main)/jit(3)/jit(36)/transpose(jvp(remat))/WideResNet/BottleneckResNetBlock_0/Conv_2/conv_general_dilated[window_strides=(1, 1) padding=((0, 0), (0, 0)) lhs_dilation=(1, 1) rhs_dilation=(1, 1) dimension_numbers=ConvDimensionNumbers(lhs_spec=(3, 0, 1, 2), rhs_spec=(3, 0, 1, 2), out_spec=(2, 3, 0, 1)) feature_group_count=1 batch_group_count=1 lhs_shape=(16, 56, 56, 448) rhs_shape=(16, 56, 56, 896) precision=None preferred_element_type=None]" source_file="/home/cyxue/miniconda3/envs/alpa/lib/python3.8/site-packages/flax/linen/linear.py" source_line=435}
  %param_60 = f32[1,1,448,896]{3,2,1,0} parameter(60), metadata={op_name="3$start"}
  %fusion.80 = f32[1,1,448,896]{3,2,1,0} fusion(f32[1,1,448,896]{1,0,2,3} %get-tuple-element.72, f32[1,1,448,896]{3,2,1,0} %param_60), kind=kLoop, calls=%fused_computation.80, metadata={op_name="tuple.85"}
  %get-tuple-element.448 = f32[896]{0} get-tuple-element((f32[448]{0}, f32[896]{0}, f32[448]{0}, f32[1792]{0}, f32[224]{0}, /*index=5*/f32[896]{0}, f32[224]{0}, f32[448]{0}, f32[1792]{0}, f32[448]{0}, /*index=10*/f32[896]{0}, f32[224]{0}, f32[896]{0}, f32[896]{0}, f32[1792]{0}, /*index=15*/f32[896]{0}, f32[448]{0}, f32[448]{0}, f32[448]{0}, f32[224]{0}, /*index=20*/f32[896]{0}, f32[896]{0}) %fusion.527), index=13, metadata={op_name="parallelize(train_step_func_pipeshard_parallel_mesh_0)/jit(main)/jit(3)/jit(36)/add"}
  %get-tuple-element.449 = f32[896]{0} get-tuple-element((f32[1792]{0}, f32[1792]{0}, f32[896]{0}, f32[896]{0}) %fusion.528), index=2
  %cudnn-conv-bw-filter.23 = (f32[1,1,224,896]{1,0,2,3}, u8[0]{0}) custom-call(f32[16,56,56,224]{2,1,3,0} %copy.81, f32[16,56,56,896]{2,1,3,0} %get-tuple-element.202), window={size=1x1}, dim_labels=b01f_01io->b01f, custom_call_target="__cudnn$convBackwardFilter", metadata={op_name="parallelize(train_step_func_pipeshard_parallel_mesh_0)/jit(main)/jit(3)/jit(36)/transpose(jvp(remat))/WideResNet/BottleneckResNetBlock_0/conv_proj/conv_general_dilated[window_strides=(1, 1) padding=((0, 0), (0, 0)) lhs_dilation=(1, 1) rhs_dilation=(1, 1) dimension_numbers=ConvDimensionNumbers(lhs_spec=(3, 0, 1, 2), rhs_spec=(3, 0, 1, 2), out_spec=(2, 3, 0, 1)) feature_group_count=1 batch_group_count=1 lhs_shape=(16, 56, 56, 224) rhs_shape=(16, 56, 56, 896) precision=None preferred_element_type=None]" source_file="/home/cyxue/miniconda3/envs/alpa/lib/python3.8/site-packages/flax/linen/linear.py" source_line=435}, backend_config="{\"conv_result_scale\":1,\"activation_mode\":\"0\",\"side_input_scale\":0}"
  %get-tuple-element.71 = f32[1,1,224,896]{1,0,2,3} get-tuple-element((f32[1,1,224,896]{1,0,2,3}, u8[0]{0}) %cudnn-conv-bw-filter.23), index=0, metadata={op_name="parallelize(train_step_func_pipeshard_parallel_mesh_0)/jit(main)/jit(3)/jit(36)/transpose(jvp(remat))/WideResNet/BottleneckResNetBlock_0/conv_proj/conv_general_dilated[window_strides=(1, 1) padding=((0, 0), (0, 0)) lhs_dilation=(1, 1) rhs_dilation=(1, 1) dimension_numbers=ConvDimensionNumbers(lhs_spec=(3, 0, 1, 2), rhs_spec=(3, 0, 1, 2), out_spec=(2, 3, 0, 1)) feature_group_count=1 batch_group_count=1 lhs_shape=(16, 56, 56, 224) rhs_shape=(16, 56, 56, 896) precision=None preferred_element_type=None]" source_file="/home/cyxue/miniconda3/envs/alpa/lib/python3.8/site-packages/flax/linen/linear.py" source_line=435}
  %param_63 = f32[1,1,224,896]{3,2,1,0} parameter(63), metadata={op_name="3$start"}
  %fusion.72 = f32[1,1,224,896]{3,2,1,0} fusion(f32[1,1,224,896]{1,0,2,3} %get-tuple-element.71, f32[1,1,224,896]{3,2,1,0} %param_63), kind=kLoop, calls=%fused_computation.72, metadata={op_name="tuple.85"}
  %get-tuple-element.451 = f32[896]{0} get-tuple-element((f32[448]{0}, f32[896]{0}, f32[448]{0}, f32[1792]{0}, f32[224]{0}, /*index=5*/f32[896]{0}, f32[224]{0}, f32[448]{0}, f32[1792]{0}, f32[448]{0}, /*index=10*/f32[896]{0}, f32[224]{0}, f32[896]{0}, f32[896]{0}, f32[1792]{0}, /*index=15*/f32[896]{0}, f32[448]{0}, f32[448]{0}, f32[448]{0}, f32[224]{0}, /*index=20*/f32[896]{0}, f32[896]{0}) %fusion.527), index=12, metadata={op_name="parallelize(train_step_func_pipeshard_parallel_mesh_0)/jit(main)/jit(3)/jit(36)/add"}
  %get-tuple-element.452 = f32[896]{0} get-tuple-element((f32[3584]{0}, f32[3584]{0}, f32[1792]{0}, f32[896]{0}) %fusion.525), index=3, metadata={op_name="parallelize(train_step_func_pipeshard_parallel_mesh_0)/jit(main)/jit(3)/jit(36)/add"}
  %cudnn-conv-bw-filter.22 = (f32[1,1,896,224]{1,0,2,3}, u8[0]{0}) custom-call(f32[16,56,56,896]{2,1,3,0} %fusion.130, f32[16,56,56,224]{2,1,3,0} %fusion.87), window={size=1x1}, dim_labels=b01f_01io->b01f, custom_call_target="__cudnn$convBackwardFilter", metadata={op_name="parallelize(train_step_func_pipeshard_parallel_mesh_0)/jit(main)/jit(3)/jit(36)/transpose(jvp(remat))/WideResNet/BottleneckResNetBlock_1/Conv_0/conv_general_dilated[window_strides=(1, 1) padding=((0, 0), (0, 0)) lhs_dilation=(1, 1) rhs_dilation=(1, 1) dimension_numbers=ConvDimensionNumbers(lhs_spec=(3, 0, 1, 2), rhs_spec=(3, 0, 1, 2), out_spec=(2, 3, 0, 1)) feature_group_count=1 batch_group_count=1 lhs_shape=(16, 56, 56, 896) rhs_shape=(16, 56, 56, 224) precision=None preferred_element_type=None]" source_file="/home/cyxue/miniconda3/envs/alpa/lib/python3.8/site-packages/flax/linen/linear.py" source_line=435}, backend_config="{\"conv_result_scale\":1,\"activation_mode\":\"0\",\"side_input_scale\":0}"
  %get-tuple-element.69 = f32[1,1,896,224]{1,0,2,3} get-tuple-element((f32[1,1,896,224]{1,0,2,3}, u8[0]{0}) %cudnn-conv-bw-filter.22), index=0, metadata={op_name="parallelize(train_step_func_pipeshard_parallel_mesh_0)/jit(main)/jit(3)/jit(36)/transpose(jvp(remat))/WideResNet/BottleneckResNetBlock_1/Conv_0/conv_general_dilated[window_strides=(1, 1) padding=((0, 0), (0, 0)) lhs_dilation=(1, 1) rhs_dilation=(1, 1) dimension_numbers=ConvDimensionNumbers(lhs_spec=(3, 0, 1, 2), rhs_spec=(3, 0, 1, 2), out_spec=(2, 3, 0, 1)) feature_group_count=1 batch_group_count=1 lhs_shape=(16, 56, 56, 896) rhs_shape=(16, 56, 56, 224) precision=None preferred_element_type=None]" source_file="/home/cyxue/miniconda3/envs/alpa/lib/python3.8/site-packages/flax/linen/linear.py" source_line=435}
  %param_66 = f32[1,1,896,224]{3,2,1,0} parameter(66), metadata={op_name="3$start"}
  %fusion.70 = f32[1,1,896,224]{3,2,1,0} fusion(f32[1,1,896,224]{1,0,2,3} %get-tuple-element.69, f32[1,1,896,224]{3,2,1,0} %param_66), kind=kLoop, calls=%fused_computation.70, metadata={op_name="tuple.85"}
  %get-tuple-element.454 = f32[224]{0} get-tuple-element((f32[448]{0}, f32[896]{0}, f32[448]{0}, f32[1792]{0}, f32[224]{0}, /*index=5*/f32[896]{0}, f32[224]{0}, f32[448]{0}, f32[1792]{0}, f32[448]{0}, /*index=10*/f32[896]{0}, f32[224]{0}, f32[896]{0}, f32[896]{0}, f32[1792]{0}, /*index=15*/f32[896]{0}, f32[448]{0}, f32[448]{0}, f32[448]{0}, f32[224]{0}, /*index=20*/f32[896]{0}, f32[896]{0}) %fusion.527), index=11, metadata={op_name="parallelize(train_step_func_pipeshard_parallel_mesh_0)/jit(main)/jit(3)/jit(36)/add"}
  %get-tuple-element.455 = f32[224]{0} get-tuple-element((f32[448]{0}, f32[448]{0}, f32[896]{0}, f32[1792]{0}, f32[896]{0}, /*index=5*/f32[224]{0}, f32[448]{0}, f32[896]{0}, f32[224]{0}, f32[448]{0}, /*index=10*/f32[896]{0}, f32[224]{0}, f32[224]{0}, f32[448]{0}, f32[1792]{0}, /*index=15*/f32[896]{0}, f32[1792]{0}, f32[448]{0}, f32[896]{0}, f32[1792]{0}, /*index=20*/f32[448]{0}, f32[896]{0}) %fusion.526), index=8, metadata={op_name="parallelize(train_step_func_pipeshard_parallel_mesh_0)/jit(main)/jit(3)/jit(36)/add"}
  %cudnn-conv-bw-filter.21 = (f32[3,3,224,448]{1,0,2,3}, u8[0]{0}) custom-call(f32[16,56,56,224]{2,1,3,0} %fusion.120, f32[16,56,56,448]{2,1,3,0} %fusion.93), window={size=3x3 pad=1_1x1_1}, dim_labels=b01f_01io->b01f, custom_call_target="__cudnn$convBackwardFilter", metadata={op_name="parallelize(train_step_func_pipeshard_parallel_mesh_0)/jit(main)/jit(3)/jit(36)/transpose(jvp(remat))/WideResNet/BottleneckResNetBlock_1/Conv_1/conv_general_dilated[window_strides=(1, 1) padding=((1, 1), (1, 1)) lhs_dilation=(1, 1) rhs_dilation=(1, 1) dimension_numbers=ConvDimensionNumbers(lhs_spec=(3, 0, 1, 2), rhs_spec=(3, 0, 1, 2), out_spec=(2, 3, 0, 1)) feature_group_count=1 batch_group_count=1 lhs_shape=(16, 56, 56, 224) rhs_shape=(16, 56, 56, 448) precision=None preferred_element_type=None]" source_file="/home/cyxue/miniconda3/envs/alpa/lib/python3.8/site-packages/flax/linen/linear.py" source_line=435}, backend_config="{\"conv_result_scale\":1,\"activation_mode\":\"0\",\"side_input_scale\":0}"
  %get-tuple-element.67 = f32[3,3,224,448]{1,0,2,3} get-tuple-element((f32[3,3,224,448]{1,0,2,3}, u8[0]{0}) %cudnn-conv-bw-filter.21), index=0, metadata={op_name="parallelize(train_step_func_pipeshard_parallel_mesh_0)/jit(main)/jit(3)/jit(36)/transpose(jvp(remat))/WideResNet/BottleneckResNetBlock_1/Conv_1/conv_general_dilated[window_strides=(1, 1) padding=((1, 1), (1, 1)) lhs_dilation=(1, 1) rhs_dilation=(1, 1) dimension_numbers=ConvDimensionNumbers(lhs_spec=(3, 0, 1, 2), rhs_spec=(3, 0, 1, 2), out_spec=(2, 3, 0, 1)) feature_group_count=1 batch_group_count=1 lhs_shape=(16, 56, 56, 224) rhs_shape=(16, 56, 56, 448) precision=None preferred_element_type=None]" source_file="/home/cyxue/miniconda3/envs/alpa/lib/python3.8/site-packages/flax/linen/linear.py" source_line=435}
  %param_69 = f32[3,3,224,448]{3,2,1,0} parameter(69), metadata={op_name="3$start"}
  %fusion.66 = f32[3,3,224,448]{3,2,1,0} fusion(f32[3,3,224,448]{1,0,2,3} %get-tuple-element.67, f32[3,3,224,448]{3,2,1,0} %param_69), kind=kLoop, calls=%fused_computation.66, metadata={op_name="tuple.85"}
  %get-tuple-element.457 = f32[448]{0} get-tuple-element((f32[448]{0}, f32[896]{0}, f32[448]{0}, f32[1792]{0}, f32[224]{0}, /*index=5*/f32[896]{0}, f32[224]{0}, f32[448]{0}, f32[1792]{0}, f32[448]{0}, /*index=10*/f32[896]{0}, f32[224]{0}, f32[896]{0}, f32[896]{0}, f32[1792]{0}, /*index=15*/f32[896]{0}, f32[448]{0}, f32[448]{0}, f32[448]{0}, f32[224]{0}, /*index=20*/f32[896]{0}, f32[896]{0}) %fusion.527), index=9, metadata={op_name="parallelize(train_step_func_pipeshard_parallel_mesh_0)/jit(main)/jit(3)/jit(36)/add"}
  %get-tuple-element.458 = f32[448]{0} get-tuple-element((f32[448]{0}, f32[448]{0}, f32[896]{0}, f32[1792]{0}, f32[896]{0}, /*index=5*/f32[224]{0}, f32[448]{0}, f32[896]{0}, f32[224]{0}, f32[448]{0}, /*index=10*/f32[896]{0}, f32[224]{0}, f32[224]{0}, f32[448]{0}, f32[1792]{0}, /*index=15*/f32[896]{0}, f32[1792]{0}, f32[448]{0}, f32[896]{0}, f32[1792]{0}, /*index=20*/f32[448]{0}, f32[896]{0}) %fusion.526), index=9, metadata={op_name="parallelize(train_step_func_pipeshard_parallel_mesh_0)/jit(main)/jit(3)/jit(36)/add"}
  %cudnn-conv-bw-filter.20 = (f32[1,1,448,896]{1,0,2,3}, u8[0]{0}) custom-call(f32[16,56,56,448]{2,1,3,0} %fusion.110, f32[16,56,56,896]{2,1,3,0} %fusion.99), window={size=1x1}, dim_labels=b01f_01io->b01f, custom_call_target="__cudnn$convBackwardFilter", metadata={op_name="parallelize(train_step_func_pipeshard_parallel_mesh_0)/jit(main)/jit(3)/jit(36)/transpose(jvp(remat))/WideResNet/BottleneckResNetBlock_1/Conv_2/conv_general_dilated[window_strides=(1, 1) padding=((0, 0), (0, 0)) lhs_dilation=(1, 1) rhs_dilation=(1, 1) dimension_numbers=ConvDimensionNumbers(lhs_spec=(3, 0, 1, 2), rhs_spec=(3, 0, 1, 2), out_spec=(2, 3, 0, 1)) feature_group_count=1 batch_group_count=1 lhs_shape=(16, 56, 56, 448) rhs_shape=(16, 56, 56, 896) precision=None preferred_element_type=None]" source_file="/home/cyxue/miniconda3/envs/alpa/lib/python3.8/site-packages/flax/linen/linear.py" source_line=435}, backend_config="{\"conv_result_scale\":1,\"activation_mode\":\"0\",\"side_input_scale\":0}"
  %get-tuple-element.65 = f32[1,1,448,896]{1,0,2,3} get-tuple-element((f32[1,1,448,896]{1,0,2,3}, u8[0]{0}) %cudnn-conv-bw-filter.20), index=0, metadata={op_name="parallelize(train_step_func_pipeshard_parallel_mesh_0)/jit(main)/jit(3)/jit(36)/transpose(jvp(remat))/WideResNet/BottleneckResNetBlock_1/Conv_2/conv_general_dilated[window_strides=(1, 1) padding=((0, 0), (0, 0)) lhs_dilation=(1, 1) rhs_dilation=(1, 1) dimension_numbers=ConvDimensionNumbers(lhs_spec=(3, 0, 1, 2), rhs_spec=(3, 0, 1, 2), out_spec=(2, 3, 0, 1)) feature_group_count=1 batch_group_count=1 lhs_shape=(16, 56, 56, 448) rhs_shape=(16, 56, 56, 896) precision=None preferred_element_type=None]" source_file="/home/cyxue/miniconda3/envs/alpa/lib/python3.8/site-packages/flax/linen/linear.py" source_line=435}
  %param_72 = f32[1,1,448,896]{3,2,1,0} parameter(72), metadata={op_name="3$start"}
  %fusion.62 = f32[1,1,448,896]{3,2,1,0} fusion(f32[1,1,448,896]{1,0,2,3} %get-tuple-element.65, f32[1,1,448,896]{3,2,1,0} %param_72), kind=kLoop, calls=%fused_computation.62, metadata={op_name="tuple.85"}
  %get-tuple-element.460 = f32[896]{0} get-tuple-element((f32[896]{0}, f32[896]{0}) %fusion.61), index=0
  %get-tuple-element.461 = f32[896]{0} get-tuple-element((f32[448]{0}, f32[448]{0}, f32[896]{0}, f32[1792]{0}, f32[896]{0}, /*index=5*/f32[224]{0}, f32[448]{0}, f32[896]{0}, f32[224]{0}, f32[448]{0}, /*index=10*/f32[896]{0}, f32[224]{0}, f32[224]{0}, f32[448]{0}, f32[1792]{0}, /*index=15*/f32[896]{0}, f32[1792]{0}, f32[448]{0}, f32[896]{0}, f32[1792]{0}, /*index=20*/f32[448]{0}, f32[896]{0}) %fusion.526), index=10, metadata={op_name="parallelize(train_step_func_pipeshard_parallel_mesh_0)/jit(main)/jit(3)/jit(36)/add"}
  %get-tuple-element.180 = f32[16,224]{1,0} get-tuple-element((f32[16,224]{1,0}, f32[16,224]{1,0}, f32[16,224]{1,0}) %fusion.9), index=1
  %reduce.388 = f32[224]{0} reduce(f32[16,224]{1,0} %get-tuple-element.180, f32[] %constant_708), dimensions={0}, to_apply=%region_63.4346.3, metadata={op_name="parallelize(train_step_func_pipeshard_parallel_mesh_0)/jit(main)/jit(3)/jit(37)/transpose(jvp(remat))/WideResNet/bn_init/reduce_sum[axes=(0, 1, 2)]" source_file="/home/cyxue/miniconda3/envs/alpa/lib/python3.8/site-packages/flax/linen/normalization.py" source_line=138}
  %fusion.12 = f32[16,112,112,224]{2,1,3,0} fusion(f32[224]{0} %reduce.388, f32[224]{0} %reduce.377, f32[16,112,112,224]{2,1,3,0} %get-tuple-element.75, f32[224]{0} %fusion.53, f32[1,1,1,224]{3,2,1,0} %fusion.14, /*index=5*/f32[224]{0} %get-tuple-element.764, f32[16,113,113,224]{2,1,3,0} %select-and-scatter.1, f32[224]{0} %get-tuple-element.765), kind=kLoop, calls=%fused_computation.12, metadata={op_name="parallelize(train_step_func_pipeshard_parallel_mesh_0)/jit(main)/jit(3)/jit(37)/transpose(jvp(remat))/WideResNet/bn_init/add_any" source_file="/home/cyxue/miniconda3/envs/alpa/lib/python3.8/site-packages/flax/linen/normalization.py" source_line=82}
  %cudnn-conv-bw-filter.27 = (f32[7,7,3,224]{1,0,2,3}, u8[0]{0}) custom-call(f32[16,224,224,3]{2,1,3,0} %fusion.58, f32[16,112,112,224]{2,1,3,0} %fusion.12), window={size=7x7 stride=2x2 pad=3_3x3_3}, dim_labels=b01f_01io->b01f, custom_call_target="__cudnn$convBackwardFilter", metadata={op_name="parallelize(train_step_func_pipeshard_parallel_mesh_0)/jit(main)/jit(3)/jit(37)/transpose(jvp(remat))/WideResNet/conv_init/conv_general_dilated[window_strides=(1, 1) padding=((3, 2), (3, 2)) lhs_dilation=(1, 1) rhs_dilation=(2, 2) dimension_numbers=ConvDimensionNumbers(lhs_spec=(3, 0, 1, 2), rhs_spec=(3, 0, 1, 2), out_spec=(2, 3, 0, 1)) feature_group_count=1 batch_group_count=1 lhs_shape=(16, 224, 224, 3) rhs_shape=(16, 112, 112, 224) precision=None preferred_element_type=None]" source_file="/home/cyxue/miniconda3/envs/alpa/lib/python3.8/site-packages/flax/linen/linear.py" source_line=435}, backend_config="{\"conv_result_scale\":1,\"activation_mode\":\"0\",\"side_input_scale\":0}"
  %get-tuple-element.82 = f32[7,7,3,224]{1,0,2,3} get-tuple-element((f32[7,7,3,224]{1,0,2,3}, u8[0]{0}) %cudnn-conv-bw-filter.27), index=0, metadata={op_name="parallelize(train_step_func_pipeshard_parallel_mesh_0)/jit(main)/jit(3)/jit(37)/transpose(jvp(remat))/WideResNet/conv_init/conv_general_dilated[window_strides=(1, 1) padding=((3, 2), (3, 2)) lhs_dilation=(1, 1) rhs_dilation=(2, 2) dimension_numbers=ConvDimensionNumbers(lhs_spec=(3, 0, 1, 2), rhs_spec=(3, 0, 1, 2), out_spec=(2, 3, 0, 1)) feature_group_count=1 batch_group_count=1 lhs_shape=(16, 224, 224, 3) rhs_shape=(16, 112, 112, 224) precision=None preferred_element_type=None]" source_file="/home/cyxue/miniconda3/envs/alpa/lib/python3.8/site-packages/flax/linen/linear.py" source_line=435}
  %param_75 = f32[7,7,3,224]{3,2,1,0} parameter(75), metadata={op_name="3$start"}
  %fusion.11 = f32[7,7,3,224]{3,2,1,0} fusion(f32[7,7,3,224]{1,0,2,3} %get-tuple-element.82, f32[7,7,3,224]{3,2,1,0} %param_75), kind=kLoop, calls=%fused_computation.11, metadata={op_name="tuple.85"}
  %get-tuple-element.463 = f32[224]{0} get-tuple-element((f32[448]{0}, f32[896]{0}, f32[448]{0}, f32[1792]{0}, f32[224]{0}, /*index=5*/f32[896]{0}, f32[224]{0}, f32[448]{0}, f32[1792]{0}, f32[448]{0}, /*index=10*/f32[896]{0}, f32[224]{0}, f32[896]{0}, f32[896]{0}, f32[1792]{0}, /*index=15*/f32[896]{0}, f32[448]{0}, f32[448]{0}, f32[448]{0}, f32[224]{0}, /*index=20*/f32[896]{0}, f32[896]{0}) %fusion.527), index=6, metadata={op_name="parallelize(train_step_func_pipeshard_parallel_mesh_0)/jit(main)/jit(3)/jit(37)/add"}
  %get-tuple-element.464 = f32[224]{0} get-tuple-element((f32[448]{0}, f32[448]{0}, f32[896]{0}, f32[1792]{0}, f32[896]{0}, /*index=5*/f32[224]{0}, f32[448]{0}, f32[896]{0}, f32[224]{0}, f32[448]{0}, /*index=10*/f32[896]{0}, f32[224]{0}, f32[224]{0}, f32[448]{0}, f32[1792]{0}, /*index=15*/f32[896]{0}, f32[1792]{0}, f32[448]{0}, f32[896]{0}, f32[1792]{0}, /*index=20*/f32[448]{0}, f32[896]{0}) %fusion.526), index=11, metadata={op_name="parallelize(train_step_func_pipeshard_parallel_mesh_0)/jit(main)/jit(3)/jit(37)/add"}
  %cudnn-conv-bw-filter.26 = (f32[1,1,224,224]{1,0,2,3}, u8[0]{0}) custom-call(f32[16,56,56,224]{2,1,3,0} %fusion.518, f32[16,56,56,224]{2,1,3,0} %fusion.18), window={size=1x1}, dim_labels=b01f_01io->b01f, custom_call_target="__cudnn$convBackwardFilter", metadata={op_name="parallelize(train_step_func_pipeshard_parallel_mesh_0)/jit(main)/jit(3)/jit(37)/transpose(jvp(remat))/WideResNet/BottleneckResNetBlock_0/Conv_0/conv_general_dilated[window_strides=(1, 1) padding=((0, 0), (0, 0)) lhs_dilation=(1, 1) rhs_dilation=(1, 1) dimension_numbers=ConvDimensionNumbers(lhs_spec=(3, 0, 1, 2), rhs_spec=(3, 0, 1, 2), out_spec=(2, 3, 0, 1)) feature_group_count=1 batch_group_count=1 lhs_shape=(16, 56, 56, 224) rhs_shape=(16, 56, 56, 224) precision=None preferred_element_type=None]" source_file="/home/cyxue/miniconda3/envs/alpa/lib/python3.8/site-packages/flax/linen/linear.py" source_line=435}, backend_config="{\"conv_result_scale\":1,\"activation_mode\":\"0\",\"side_input_scale\":0}"
  %get-tuple-element.80 = f32[1,1,224,224]{1,0,2,3} get-tuple-element((f32[1,1,224,224]{1,0,2,3}, u8[0]{0}) %cudnn-conv-bw-filter.26), index=0, metadata={op_name="parallelize(train_step_func_pipeshard_parallel_mesh_0)/jit(main)/jit(3)/jit(37)/transpose(jvp(remat))/WideResNet/BottleneckResNetBlock_0/Conv_0/conv_general_dilated[window_strides=(1, 1) padding=((0, 0), (0, 0)) lhs_dilation=(1, 1) rhs_dilation=(1, 1) dimension_numbers=ConvDimensionNumbers(lhs_spec=(3, 0, 1, 2), rhs_spec=(3, 0, 1, 2), out_spec=(2, 3, 0, 1)) feature_group_count=1 batch_group_count=1 lhs_shape=(16, 56, 56, 224) rhs_shape=(16, 56, 56, 224) precision=None preferred_element_type=None]" source_file="/home/cyxue/miniconda3/envs/alpa/lib/python3.8/site-packages/flax/linen/linear.py" source_line=435}
  %param_78 = f32[1,1,224,224]{3,2,1,0} parameter(78), metadata={op_name="3$start"}
  %fusion.7 = f32[1,1,224,224]{3,2,1,0} fusion(f32[1,1,224,224]{1,0,2,3} %get-tuple-element.80, f32[1,1,224,224]{3,2,1,0} %param_78), kind=kLoop, calls=%fused_computation.7, metadata={op_name="tuple.85"}
  %get-tuple-element.466 = f32[224]{0} get-tuple-element((f32[448]{0}, f32[896]{0}, f32[448]{0}, f32[1792]{0}, f32[224]{0}, /*index=5*/f32[896]{0}, f32[224]{0}, f32[448]{0}, f32[1792]{0}, f32[448]{0}, /*index=10*/f32[896]{0}, f32[224]{0}, f32[896]{0}, f32[896]{0}, f32[1792]{0}, /*index=15*/f32[896]{0}, f32[448]{0}, f32[448]{0}, f32[448]{0}, f32[224]{0}, /*index=20*/f32[896]{0}, f32[896]{0}) %fusion.527), index=4, metadata={op_name="parallelize(train_step_func_pipeshard_parallel_mesh_0)/jit(main)/jit(3)/jit(37)/add"}
  %get-tuple-element.467 = f32[224]{0} get-tuple-element((f32[448]{0}, f32[448]{0}, f32[896]{0}, f32[1792]{0}, f32[896]{0}, /*index=5*/f32[224]{0}, f32[448]{0}, f32[896]{0}, f32[224]{0}, f32[448]{0}, /*index=10*/f32[896]{0}, f32[224]{0}, f32[224]{0}, f32[448]{0}, f32[1792]{0}, /*index=15*/f32[896]{0}, f32[1792]{0}, f32[448]{0}, f32[896]{0}, f32[1792]{0}, /*index=20*/f32[448]{0}, f32[896]{0}) %fusion.526), index=12, metadata={op_name="parallelize(train_step_func_pipeshard_parallel_mesh_0)/jit(main)/jit(3)/jit(37)/add"}
  %cudnn-conv-bw-filter.25 = (f32[3,3,224,448]{1,0,2,3}, u8[0]{0}) custom-call(f32[16,56,56,224]{2,1,3,0} %fusion.38, f32[16,56,56,448]{2,1,3,0} %fusion.24), window={size=3x3 pad=1_1x1_1}, dim_labels=b01f_01io->b01f, custom_call_target="__cudnn$convBackwardFilter", metadata={op_name="parallelize(train_step_func_pipeshard_parallel_mesh_0)/jit(main)/jit(3)/jit(37)/transpose(jvp(remat))/WideResNet/BottleneckResNetBlock_0/Conv_1/conv_general_dilated[window_strides=(1, 1) padding=((1, 1), (1, 1)) lhs_dilation=(1, 1) rhs_dilation=(1, 1) dimension_numbers=ConvDimensionNumbers(lhs_spec=(3, 0, 1, 2), rhs_spec=(3, 0, 1, 2), out_spec=(2, 3, 0, 1)) feature_group_count=1 batch_group_count=1 lhs_shape=(16, 56, 56, 224) rhs_shape=(16, 56, 56, 448) precision=None preferred_element_type=None]" source_file="/home/cyxue/miniconda3/envs/alpa/lib/python3.8/site-packages/flax/linen/linear.py" source_line=435}, backend_config="{\"conv_result_scale\":1,\"activation_mode\":\"0\",\"side_input_scale\":0}"
  %get-tuple-element.78 = f32[3,3,224,448]{1,0,2,3} get-tuple-element((f32[3,3,224,448]{1,0,2,3}, u8[0]{0}) %cudnn-conv-bw-filter.25), index=0, metadata={op_name="parallelize(train_step_func_pipeshard_parallel_mesh_0)/jit(main)/jit(3)/jit(37)/transpose(jvp(remat))/WideResNet/BottleneckResNetBlock_0/Conv_1/conv_general_dilated[window_strides=(1, 1) padding=((1, 1), (1, 1)) lhs_dilation=(1, 1) rhs_dilation=(1, 1) dimension_numbers=ConvDimensionNumbers(lhs_spec=(3, 0, 1, 2), rhs_spec=(3, 0, 1, 2), out_spec=(2, 3, 0, 1)) feature_group_count=1 batch_group_count=1 lhs_shape=(16, 56, 56, 224) rhs_shape=(16, 56, 56, 448) precision=None preferred_element_type=None]" source_file="/home/cyxue/miniconda3/envs/alpa/lib/python3.8/site-packages/flax/linen/linear.py" source_line=435}
  %param_81 = f32[3,3,224,448]{3,2,1,0} parameter(81), metadata={op_name="3$start"}
  %fusion.3 = f32[3,3,224,448]{3,2,1,0} fusion(f32[3,3,224,448]{1,0,2,3} %get-tuple-element.78, f32[3,3,224,448]{3,2,1,0} %param_81), kind=kLoop, calls=%fused_computation.3, metadata={op_name="tuple.85"}
  %get-tuple-element.469 = f32[448]{0} get-tuple-element((f32[448]{0}, f32[896]{0}, f32[448]{0}, f32[1792]{0}, f32[224]{0}, /*index=5*/f32[896]{0}, f32[224]{0}, f32[448]{0}, f32[1792]{0}, f32[448]{0}, /*index=10*/f32[896]{0}, f32[224]{0}, f32[896]{0}, f32[896]{0}, f32[1792]{0}, /*index=15*/f32[896]{0}, f32[448]{0}, f32[448]{0}, f32[448]{0}, f32[224]{0}, /*index=20*/f32[896]{0}, f32[896]{0}) %fusion.527), index=2, metadata={op_name="parallelize(train_step_func_pipeshard_parallel_mesh_0)/jit(main)/jit(3)/jit(37)/add"}
  %get-tuple-element.470 = f32[448]{0} get-tuple-element((f32[448]{0}, f32[448]{0}, f32[896]{0}, f32[1792]{0}, f32[896]{0}, /*index=5*/f32[224]{0}, f32[448]{0}, f32[896]{0}, f32[224]{0}, f32[448]{0}, /*index=10*/f32[896]{0}, f32[224]{0}, f32[224]{0}, f32[448]{0}, f32[1792]{0}, /*index=15*/f32[896]{0}, f32[1792]{0}, f32[448]{0}, f32[896]{0}, f32[1792]{0}, /*index=20*/f32[448]{0}, f32[896]{0}) %fusion.526), index=13, metadata={op_name="parallelize(train_step_func_pipeshard_parallel_mesh_0)/jit(main)/jit(3)/jit(37)/add"}
  ROOT %tuple.148 = (f32[1,1,1792,896]{3,2,1,0}, f32[896]{0}, f32[896]{0}, f32[3,3,896,1792]{3,2,1,0}, f32[1792]{0}, /*index=5*/f32[1792]{0}, f32[1,1,1792,3584]{3,2,1,0}, f32[3584]{0}, f32[3584]{0}, f32[1,1,1792,3584]{3,2,1,0}, /*index=10*/f32[3584]{0}, f32[3584]{0}, f32[1,1,1792,448]{3,2,1,0}, f32[448]{0}, f32[448]{0}, /*index=15*/f32[3,3,448,896]{3,2,1,0}, f32[896]{0}, f32[896]{0}, f32[1,1,896,1792]{3,2,1,0}, f32[1792]{0}, /*index=20*/f32[1792]{0}, f32[1,1,1792,448]{3,2,1,0}, f32[448]{0}, f32[448]{0}, f32[3,3,448,896]{3,2,1,0}, /*index=25*/f32[896]{0}, f32[896]{0}, f32[1,1,896,1792]{3,2,1,0}, f32[1792]{0}, f32[1792]{0}, /*index=30*/f32[1,1,1792,448]{3,2,1,0}, f32[448]{0}, f32[448]{0}, f32[3,3,448,896]{3,2,1,0}, f32[896]{0}, /*index=35*/f32[896]{0}, f32[1,1,896,1792]{3,2,1,0}, f32[1792]{0}, f32[1792]{0}, f32[1,1,896,448]{3,2,1,0}, /*index=40*/f32[448]{0}, f32[448]{0}, f32[3,3,448,896]{3,2,1,0}, f32[896]{0}, f32[896]{0}, /*index=45*/f32[1,1,896,1792]{3,2,1,0}, f32[1792]{0}, f32[1792]{0}, f32[1,1,896,1792]{3,2,1,0}, f32[1792]{0}, /*index=50*/f32[1792]{0}, f32[1,1,896,224]{3,2,1,0}, f32[224]{0}, f32[224]{0}, f32[3,3,224,448]{3,2,1,0}, /*index=55*/f32[448]{0}, f32[448]{0}, f32[1,1,448,896]{3,2,1,0}, f32[896]{0}, f32[896]{0}, /*index=60*/f32[1,1,448,896]{3,2,1,0}, f32[896]{0}, f32[896]{0}, f32[1,1,224,896]{3,2,1,0}, f32[896]{0}, /*index=65*/f32[896]{0}, f32[1,1,896,224]{3,2,1,0}, f32[224]{0}, f32[224]{0}, f32[3,3,224,448]{3,2,1,0}, /*index=70*/f32[448]{0}, f32[448]{0}, f32[1,1,448,896]{3,2,1,0}, f32[896]{0}, f32[896]{0}, /*index=75*/f32[7,7,3,224]{3,2,1,0}, f32[224]{0}, f32[224]{0}, f32[1,1,224,224]{3,2,1,0}, f32[224]{0}, /*index=80*/f32[224]{0}, f32[3,3,224,448]{3,2,1,0}, f32[448]{0}, f32[448]{0}) tuple(f32[1,1,1792,896]{3,2,1,0} %fusion.473, f32[896]{0} %get-tuple-element.388, f32[896]{0} %get-tuple-element.389, f32[3,3,896,1792]{3,2,1,0} %fusion.469, f32[1792]{0} %get-tuple-element.391, /*index=5*/f32[1792]{0} %get-tuple-element.392, f32[1,1,1792,3584]{3,2,1,0} %fusion.465, f32[3584]{0} %get-tuple-element.394, f32[3584]{0} %get-tuple-element.395, f32[1,1,1792,3584]{3,2,1,0} %fusion.451, /*index=10*/f32[3584]{0} %get-tuple-element.397, f32[3584]{0} %get-tuple-element.398, f32[1,1,1792,448]{3,2,1,0} %fusion.403, f32[448]{0} %get-tuple-element.400, f32[448]{0} %get-tuple-element.401, /*index=15*/f32[3,3,448,896]{3,2,1,0} %fusion.399, f32[896]{0} %get-tuple-element.403, f32[896]{0} %get-tuple-element.404, f32[1,1,896,1792]{3,2,1,0} %fusion.395, f32[1792]{0} %get-tuple-element.406, /*index=20*/f32[1792]{0} %get-tuple-element.407, f32[1,1,1792,448]{3,2,1,0} %fusion.344, f32[448]{0} %get-tuple-element.409, f32[448]{0} %get-tuple-element.410, f32[3,3,448,896]{3,2,1,0} %fusion.340, /*index=25*/f32[896]{0} %get-tuple-element.412, f32[896]{0} %get-tuple-element.413, f32[1,1,896,1792]{3,2,1,0} %fusion.336, f32[1792]{0} %get-tuple-element.415, f32[1792]{0} %get-tuple-element.416, /*index=30*/f32[1,1,1792,448]{3,2,1,0} %fusion.287, f32[448]{0} %get-tuple-element.418, f32[448]{0} %get-tuple-element.419, f32[3,3,448,896]{3,2,1,0} %fusion.283, f32[896]{0} %get-tuple-element.421, /*index=35*/f32[896]{0} %get-tuple-element.422, f32[1,1,896,1792]{3,2,1,0} %fusion.279, f32[1792]{0} %get-tuple-element.424, f32[1792]{0} %get-tuple-element.425, f32[1,1,896,448]{3,2,1,0} %fusion.231, /*index=40*/f32[448]{0} %get-tuple-element.427, f32[448]{0} %get-tuple-element.428, f32[3,3,448,896]{3,2,1,0} %fusion.227, f32[896]{0} %get-tuple-element.430, f32[896]{0} %get-tuple-element.431, /*index=45*/f32[1,1,896,1792]{3,2,1,0} %fusion.223, f32[1792]{0} %get-tuple-element.433, f32[1792]{0} %get-tuple-element.434, f32[1,1,896,1792]{3,2,1,0} %fusion.209, f32[1792]{0} %get-tuple-element.436, /*index=50*/f32[1792]{0} %get-tuple-element.437, f32[1,1,896,224]{3,2,1,0} %fusion.160, f32[224]{0} %get-tuple-element.439, f32[224]{0} %get-tuple-element.440, f32[3,3,224,448]{3,2,1,0} %fusion.156, /*index=55*/f32[448]{0} %get-tuple-element.442, f32[448]{0} %get-tuple-element.443, f32[1,1,448,896]{3,2,1,0} %fusion.152, f32[896]{0} %get-tuple-element.445, f32[896]{0} %get-tuple-element.446, /*index=60*/f32[1,1,448,896]{3,2,1,0} %fusion.80, f32[896]{0} %get-tuple-element.448, f32[896]{0} %get-tuple-element.449, f32[1,1,224,896]{3,2,1,0} %fusion.72, f32[896]{0} %get-tuple-element.451, /*index=65*/f32[896]{0} %get-tuple-element.452, f32[1,1,896,224]{3,2,1,0} %fusion.70, f32[224]{0} %get-tuple-element.454, f32[224]{0} %get-tuple-element.455, f32[3,3,224,448]{3,2,1,0} %fusion.66, /*index=70*/f32[448]{0} %get-tuple-element.457, f32[448]{0} %get-tuple-element.458, f32[1,1,448,896]{3,2,1,0} %fusion.62, f32[896]{0} %get-tuple-element.460, f32[896]{0} %get-tuple-element.461, /*index=75*/f32[7,7,3,224]{3,2,1,0} %fusion.11, f32[224]{0} %get-tuple-element.463, f32[224]{0} %get-tuple-element.464, f32[1,1,224,224]{3,2,1,0} %fusion.7, f32[224]{0} %get-tuple-element.466, /*index=80*/f32[224]{0} %get-tuple-element.467, f32[3,3,224,448]{3,2,1,0} %fusion.3, f32[448]{0} %get-tuple-element.469, f32[448]{0} %get-tuple-element.470)
}

