HloModule train_step_func_pipeshard_parallel_mesh_1-1_apply_grad, input_output_alias={ {0}: (0, {}, may-alias), {1}: (1, {}, may-alias), {2}: (2, {}, may-alias), {3}: (3, {}, may-alias), {4}: (4, {}, may-alias), {5}: (5, {}, may-alias), {6}: (6, {}, may-alias), {7}: (7, {}, may-alias), {8}: (8, {}, may-alias), {9}: (9, {}, may-alias), {10}: (10, {}, may-alias), {11}: (11, {}, may-alias), {12}: (12, {}, may-alias), {13}: (13, {}, may-alias), {14}: (14, {}, may-alias), {15}: (15, {}, may-alias), {16}: (16, {}, may-alias), {17}: (17, {}, may-alias), {18}: (18, {}, may-alias), {19}: (19, {}, may-alias), {20}: (20, {}, may-alias), {21}: (21, {}, may-alias), {22}: (22, {}, may-alias), {23}: (23, {}, may-alias), {24}: (24, {}, may-alias), {25}: (25, {}, may-alias), {26}: (26, {}, may-alias), {27}: (27, {}, may-alias), {28}: (28, {}, may-alias), {29}: (29, {}, may-alias), {30}: (30, {}, may-alias), {31}: (31, {}, may-alias), {32}: (32, {}, may-alias), {33}: (33, {}, may-alias), {34}: (34, {}, may-alias), {35}: (35, {}, may-alias), {36}: (36, {}, may-alias), {37}: (37, {}, may-alias), {38}: (38, {}, may-alias), {39}: (39, {}, may-alias), {40}: (40, {}, may-alias), {41}: (41, {}, may-alias), {42}: (42, {}, may-alias), {43}: (43, {}, may-alias), {44}: (44, {}, may-alias), {45}: (45, {}, may-alias), {46}: (46, {}, may-alias), {47}: (47, {}, may-alias), {48}: (48, {}, may-alias), {49}: (49, {}, may-alias), {50}: (50, {}, may-alias), {51}: (51, {}, may-alias), {52}: (52, {}, may-alias), {53}: (53, {}, may-alias), {54}: (54, {}, may-alias), {55}: (55, {}, may-alias), {56}: (56, {}, may-alias), {57}: (57, {}, may-alias), {58}: (58, {}, may-alias), {59}: (59, {}, may-alias), {60}: (60, {}, may-alias), {61}: (61, {}, may-alias), {62}: (62, {}, may-alias), {63}: (63, {}, may-alias), {64}: (64, {}, may-alias), {65}: (65, {}, may-alias), {66}: (66, {}, may-alias), {67}: (67, {}, may-alias), {68}: (68, {}, may-alias), {69}: (69, {}, may-alias), {70}: (70, {}, may-alias), {71}: (71, {}, may-alias), {72}: (72, {}, may-alias), {73}: (73, {}, may-alias), {74}: (74, {}, may-alias), {75}: (75, {}, may-alias), {76}: (76, {}, may-alias), {77}: (77, {}, may-alias), {78}: (78, {}, may-alias), {79}: (79, {}, may-alias), {80}: (80, {}, may-alias), {81}: (81, {}, may-alias), {82}: (82, {}, may-alias), {83}: (83, {}, may-alias), {84}: (84, {}, may-alias), {85}: (85, {}, may-alias), {86}: (86, {}, may-alias), {87}: (87, {}, may-alias), {88}: (88, {}, may-alias), {89}: (89, {}, may-alias), {90}: (90, {}, may-alias), {91}: (91, {}, may-alias), {92}: (92, {}, may-alias), {93}: (93, {}, may-alias), {94}: (94, {}, may-alias), {95}: (95, {}, may-alias), {96}: (96, {}, may-alias), {97}: (97, {}, may-alias), {98}: (98, {}, may-alias), {99}: (99, {}, may-alias), {100}: (100, {}, may-alias), {101}: (101, {}, may-alias), {102}: (102, {}, may-alias), {103}: (103, {}, may-alias), {104}: (104, {}, may-alias), {105}: (105, {}, may-alias), {106}: (106, {}, may-alias), {107}: (107, {}, may-alias), {108}: (108, {}, may-alias), {109}: (109, {}, may-alias), {110}: (110, {}, may-alias), {111}: (111, {}, may-alias), {112}: (112, {}, may-alias), {113}: (113, {}, may-alias), {114}: (114, {}, may-alias), {115}: (115, {}, may-alias), {116}: (116, {}, may-alias), {117}: (117, {}, may-alias), {118}: (118, {}, may-alias), {119}: (119, {}, may-alias), {120}: (120, {}, may-alias), {121}: (121, {}, may-alias), {122}: (122, {}, may-alias), {123}: (123, {}, may-alias), {124}: (124, {}, may-alias), {125}: (125, {}, may-alias), {126}: (126, {}, may-alias), {127}: (127, {}, may-alias), {128}: (128, {}, may-alias), {129}: (129, {}, may-alias), {130}: (130, {}, may-alias), {131}: (131, {}, may-alias), {132}: (132, {}, may-alias), {133}: (133, {}, may-alias), {134}: (134, {}, may-alias), {135}: (135, {}, may-alias), {136}: (136, {}, may-alias), {137}: (137, {}, may-alias), {138}: (138, {}, may-alias), {139}: (139, {}, may-alias), {140}: (140, {}, may-alias), {141}: (141, {}, may-alias), {142}: (142, {}, may-alias), {143}: (143, {}, may-alias), {144}: (144, {}, may-alias), {145}: (145, {}, may-alias), {146}: (146, {}, may-alias), {147}: (147, {}, may-alias), {148}: (148, {}, may-alias), {149}: (149, {}, may-alias), {150}: (150, {}, may-alias), {151}: (151, {}, may-alias), {152}: (152, {}, may-alias), {153}: (153, {}, may-alias), {154}: (154, {}, may-alias), {155}: (155, {}, may-alias), {156}: (156, {}, may-alias), {157}: (157, {}, may-alias), {158}: (158, {}, may-alias), {159}: (159, {}, may-alias), {160}: (160, {}, may-alias), {161}: (161, {}, may-alias), {162}: (162, {}, may-alias), {163}: (163, {}, may-alias), {164}: (164, {}, may-alias), {165}: (165, {}, may-alias), {166}: (166, {}, may-alias), {167}: (167, {}, may-alias), {168}: (168, {}, may-alias), {169}: (169, {}, may-alias), {170}: (170, {}, may-alias), {171}: (171, {}, may-alias), {172}: (172, {}, may-alias), {173}: (173, {}, may-alias), {174}: (174, {}, may-alias), {175}: (175, {}, may-alias), {176}: (176, {}, may-alias), {177}: (177, {}, may-alias), {178}: (178, {}, may-alias), {179}: (179, {}, may-alias), {180}: (180, {}, may-alias), {181}: (181, {}, may-alias), {182}: (182, {}, may-alias), {183}: (183, {}, may-alias), {184}: (184, {}, may-alias), {185}: (185, {}, may-alias), {186}: (186, {}, may-alias), {187}: (187, {}, may-alias), {188}: (188, {}, may-alias), {189}: (189, {}, may-alias), {190}: (190, {}, may-alias), {191}: (191, {}, may-alias), {192}: (192, {}, may-alias), {193}: (193, {}, may-alias), {194}: (194, {}, may-alias), {195}: (195, {}, may-alias), {196}: (196, {}, may-alias), {197}: (197, {}, may-alias), {198}: (198, {}, may-alias), {199}: (199, {}, may-alias), {200}: (200, {}, may-alias), {201}: (201, {}, may-alias), {202}: (202, {}, may-alias), {203}: (203, {}, may-alias), {204}: (204, {}, may-alias), {205}: (205, {}, may-alias) }, entry_computation_layout={(f32[896]{0},f32[896]{0},f32[1792]{0},f32[1792]{0},f32[3584]{0},f32[3584]{0},f32[1,1,3584,896]{3,2,1,0},f32[3,3,896,1792]{3,2,1,0},f32[1,1,1792,3584]{3,2,1,0},f32[896]{0},f32[896]{0},f32[1792]{0},f32[1792]{0},f32[3584]{0},f32[3584]{0},f32[1,1,3584,896]{3,2,1,0},f32[3,3,896,1792]{3,2,1,0},f32[1,1,1792,3584]{3,2,1,0},f32[896]{0},f32[896]{0},f32[1792]{0},f32[1792]{0},f32[3584]{0},f32[3584]{0},f32[1,1,3584,896]{3,2,1,0},f32[3,3,896,1792]{3,2,1,0},f32[1,1,1792,3584]{3,2,1,0},f32[1792]{0},f32[1792]{0},f32[3584]{0},f32[3584]{0},f32[7168]{0},f32[7168]{0},f32[1,1,3584,1792]{3,2,1,0},f32[3,3,1792,3584]{3,2,1,0},f32[1,1,3584,7168]{3,2,1,0},f32[1,1,3584,7168]{3,2,1,0},f32[7168]{0},f32[7168]{0},f32[1792]{0},f32[1792]{0},f32[3584]{0},f32[3584]{0},f32[7168]{0},f32[7168]{0},f32[1,1,7168,1792]{3,2,1,0},f32[3,3,1792,3584]{3,2,1,0},f32[1,1,3584,7168]{3,2,1,0},f32[1792]{0},f32[1792]{0},f32[3584]{0},f32[3584]{0},f32[7168]{0},f32[7168]{0},f32[1,1,7168,1792]{3,2,1,0},f32[3,3,1792,3584]{3,2,1,0},f32[1,1,3584,7168]{3,2,1,0},f32[896]{0},f32[896]{0},f32[1792]{0},f32[1792]{0},f32[3584]{0},f32[3584]{0},f32[1,1,3584,896]{3,2,1,0},f32[3,3,896,1792]{3,2,1,0},f32[1,1,1792,3584]{3,2,1,0},f32[896]{0},f32[896]{0},f32[1792]{0},f32[1792]{0},f32[3584]{0},f32[3584]{0},f32[1,1,3584,896]{3,2,1,0},f32[3,3,896,1792]{3,2,1,0},f32[1,1,1792,3584]{3,2,1,0},f32[1024]{0},f32[7168,1024]{1,0},s32[],f32[896]{0},f32[896]{0},f32[1792]{0},f32[1792]{0},f32[3584]{0},f32[3584]{0},f32[1,1,3584,896]{3,2,1,0},f32[3,3,896,1792]{3,2,1,0},f32[1,1,1792,3584]{3,2,1,0},f32[896]{0},f32[896]{0},f32[1792]{0},f32[1792]{0},f32[3584]{0},f32[3584]{0},f32[1,1,3584,896]{3,2,1,0},f32[3,3,896,1792]{3,2,1,0},f32[1,1,1792,3584]{3,2,1,0},f32[896]{0},f32[896]{0},f32[1792]{0},f32[1792]{0},f32[3584]{0},f32[3584]{0},f32[1,1,3584,896]{3,2,1,0},f32[3,3,896,1792]{3,2,1,0},f32[1,1,1792,3584]{3,2,1,0},f32[1792]{0},f32[1792]{0},f32[3584]{0},f32[3584]{0},f32[7168]{0},f32[7168]{0},f32[1,1,3584,1792]{3,2,1,0},f32[3,3,1792,3584]{3,2,1,0},f32[1,1,3584,7168]{3,2,1,0},f32[1,1,3584,7168]{3,2,1,0},f32[7168]{0},f32[7168]{0},f32[1792]{0},f32[1792]{0},f32[3584]{0},f32[3584]{0},f32[7168]{0},f32[7168]{0},f32[1,1,7168,1792]{3,2,1,0},f32[3,3,1792,3584]{3,2,1,0},f32[1,1,3584,7168]{3,2,1,0},f32[1792]{0},f32[1792]{0},f32[3584]{0},f32[3584]{0},f32[7168]{0},f32[7168]{0},f32[1,1,7168,1792]{3,2,1,0},f32[3,3,1792,3584]{3,2,1,0},f32[1,1,3584,7168]{3,2,1,0},f32[896]{0},f32[896]{0},f32[1792]{0},f32[1792]{0},f32[3584]{0},f32[3584]{0},f32[1,1,3584,896]{3,2,1,0},f32[3,3,896,1792]{3,2,1,0},f32[1,1,1792,3584]{3,2,1,0},f32[896]{0},f32[896]{0},f32[1792]{0},f32[1792]{0},f32[3584]{0},f32[3584]{0},f32[1,1,3584,896]{3,2,1,0},f32[3,3,896,1792]{3,2,1,0},f32[1,1,1792,3584]{3,2,1,0},f32[1024]{0},f32[7168,1024]{1,0},s32[],f32[896]{0},f32[896]{0},f32[1792]{0},f32[1792]{0},f32[3584]{0},f32[3584]{0},f32[896]{0},f32[896]{0},f32[1792]{0},f32[1792]{0},f32[3584]{0},f32[3584]{0},f32[896]{0},f32[896]{0},f32[1792]{0},f32[1792]{0},f32[3584]{0},f32[3584]{0},f32[1792]{0},f32[1792]{0},f32[3584]{0},f32[3584]{0},f32[7168]{0},f32[7168]{0},f32[7168]{0},f32[7168]{0},f32[1792]{0},f32[1792]{0},f32[3584]{0},f32[3584]{0},f32[7168]{0},f32[7168]{0},f32[1792]{0},f32[1792]{0},f32[3584]{0},f32[3584]{0},f32[7168]{0},f32[7168]{0},f32[896]{0},f32[896]{0},f32[1792]{0},f32[1792]{0},f32[3584]{0},f32[3584]{0},f32[896]{0},f32[896]{0},f32[1792]{0},f32[1792]{0},f32[3584]{0},f32[3584]{0},f32[896]{0},f32[896]{0},f32[1792]{0},f32[1792]{0},f32[3584]{0},f32[3584]{0},f32[1,1,3584,896]{3,2,1,0},f32[3,3,896,1792]{3,2,1,0},f32[1,1,1792,3584]{3,2,1,0},f32[896]{0},f32[896]{0},f32[1792]{0},f32[1792]{0},f32[3584]{0},f32[3584]{0},f32[1,1,3584,896]{3,2,1,0},f32[3,3,896,1792]{3,2,1,0},f32[1,1,1792,3584]{3,2,1,0},f32[896]{0},f32[896]{0},f32[1792]{0},f32[1792]{0},f32[3584]{0},f32[3584]{0},f32[1,1,3584,896]{3,2,1,0},f32[3,3,896,1792]{3,2,1,0},f32[1,1,1792,3584]{3,2,1,0},f32[1792]{0},f32[1792]{0},f32[3584]{0},f32[3584]{0},f32[7168]{0},f32[7168]{0},f32[1,1,3584,1792]{3,2,1,0},f32[3,3,1792,3584]{3,2,1,0},f32[1,1,3584,7168]{3,2,1,0},f32[1,1,3584,7168]{3,2,1,0},f32[7168]{0},f32[7168]{0},f32[1792]{0},f32[1792]{0},f32[3584]{0},f32[3584]{0},f32[7168]{0},f32[7168]{0},f32[1,1,7168,1792]{3,2,1,0},f32[3,3,1792,3584]{3,2,1,0},f32[1,1,3584,7168]{3,2,1,0},f32[1792]{0},f32[1792]{0},f32[3584]{0},f32[3584]{0},f32[7168]{0},f32[7168]{0},f32[1,1,7168,1792]{3,2,1,0},f32[3,3,1792,3584]{3,2,1,0},f32[1,1,3584,7168]{3,2,1,0},f32[896]{0},f32[896]{0},f32[1792]{0},f32[1792]{0},f32[3584]{0},f32[3584]{0},f32[1,1,3584,896]{3,2,1,0},f32[3,3,896,1792]{3,2,1,0},f32[1,1,1792,3584]{3,2,1,0},f32[896]{0},f32[896]{0},f32[1792]{0},f32[1792]{0},f32[3584]{0},f32[3584]{0},f32[1,1,3584,896]{3,2,1,0},f32[3,3,896,1792]{3,2,1,0},f32[1,1,1792,3584]{3,2,1,0},f32[1024]{0},f32[7168,1024]{1,0},f32[896]{0},f32[896]{0},f32[1792]{0},f32[1792]{0},f32[3584]{0},f32[3584]{0},f32[896]{0},f32[896]{0},f32[1792]{0},f32[1792]{0},f32[3584]{0},f32[3584]{0},f32[896]{0},f32[896]{0},f32[1792]{0},f32[1792]{0},f32[3584]{0},f32[3584]{0},f32[1792]{0},f32[1792]{0},f32[3584]{0},f32[3584]{0},f32[7168]{0},f32[7168]{0},f32[7168]{0},f32[7168]{0},f32[1792]{0},f32[1792]{0},f32[3584]{0},f32[3584]{0},f32[7168]{0},f32[7168]{0},f32[1792]{0},f32[1792]{0},f32[3584]{0},f32[3584]{0},f32[7168]{0},f32[7168]{0},f32[896]{0},f32[896]{0},f32[1792]{0},f32[1792]{0},f32[3584]{0},f32[3584]{0},f32[896]{0},f32[896]{0},f32[1792]{0},f32[1792]{0},f32[3584]{0},f32[3584]{0},f32[],f32[],f32[])->(f32[896]{0}, f32[896]{0}, f32[1792]{0}, f32[1792]{0}, f32[3584]{0}, /*index=5*/f32[3584]{0}, f32[1,1,3584,896]{3,2,1,0}, f32[3,3,896,1792]{3,2,1,0}, f32[1,1,1792,3584]{3,2,1,0}, f32[896]{0}, /*index=10*/f32[896]{0}, f32[1792]{0}, f32[1792]{0}, f32[3584]{0}, f32[3584]{0}, /*index=15*/f32[1,1,3584,896]{3,2,1,0}, f32[3,3,896,1792]{3,2,1,0}, f32[1,1,1792,3584]{3,2,1,0}, f32[896]{0}, f32[896]{0}, /*index=20*/f32[1792]{0}, f32[1792]{0}, f32[3584]{0}, f32[3584]{0}, f32[1,1,3584,896]{3,2,1,0}, /*index=25*/f32[3,3,896,1792]{3,2,1,0}, f32[1,1,1792,3584]{3,2,1,0}, f32[1792]{0}, f32[1792]{0}, f32[3584]{0}, /*index=30*/f32[3584]{0}, f32[7168]{0}, f32[7168]{0}, f32[1,1,3584,1792]{3,2,1,0}, f32[3,3,1792,3584]{3,2,1,0}, /*index=35*/f32[1,1,3584,7168]{3,2,1,0}, f32[1,1,3584,7168]{3,2,1,0}, f32[7168]{0}, f32[7168]{0}, f32[1792]{0}, /*index=40*/f32[1792]{0}, f32[3584]{0}, f32[3584]{0}, f32[7168]{0}, f32[7168]{0}, /*index=45*/f32[1,1,7168,1792]{3,2,1,0}, f32[3,3,1792,3584]{3,2,1,0}, f32[1,1,3584,7168]{3,2,1,0}, f32[1792]{0}, f32[1792]{0}, /*index=50*/f32[3584]{0}, f32[3584]{0}, f32[7168]{0}, f32[7168]{0}, f32[1,1,7168,1792]{3,2,1,0}, /*index=55*/f32[3,3,1792,3584]{3,2,1,0}, f32[1,1,3584,7168]{3,2,1,0}, f32[896]{0}, f32[896]{0}, f32[1792]{0}, /*index=60*/f32[1792]{0}, f32[3584]{0}, f32[3584]{0}, f32[1,1,3584,896]{3,2,1,0}, f32[3,3,896,1792]{3,2,1,0}, /*index=65*/f32[1,1,1792,3584]{3,2,1,0}, f32[896]{0}, f32[896]{0}, f32[1792]{0}, f32[1792]{0}, /*index=70*/f32[3584]{0}, f32[3584]{0}, f32[1,1,3584,896]{3,2,1,0}, f32[3,3,896,1792]{3,2,1,0}, f32[1,1,1792,3584]{3,2,1,0}, /*index=75*/f32[1024]{0}, f32[7168,1024]{1,0}, s32[], f32[896]{0}, f32[896]{0}, /*index=80*/f32[1792]{0}, f32[1792]{0}, f32[3584]{0}, f32[3584]{0}, f32[1,1,3584,896]{3,2,1,0}, /*index=85*/f32[3,3,896,1792]{3,2,1,0}, f32[1,1,1792,3584]{3,2,1,0}, f32[896]{0}, f32[896]{0}, f32[1792]{0}, /*index=90*/f32[1792]{0}, f32[3584]{0}, f32[3584]{0}, f32[1,1,3584,896]{3,2,1,0}, f32[3,3,896,1792]{3,2,1,0}, /*index=95*/f32[1,1,1792,3584]{3,2,1,0}, f32[896]{0}, f32[896]{0}, f32[1792]{0}, f32[1792]{0}, /*index=100*/f32[3584]{0}, f32[3584]{0}, f32[1,1,3584,896]{3,2,1,0}, f32[3,3,896,1792]{3,2,1,0}, f32[1,1,1792,3584]{3,2,1,0}, /*index=105*/f32[1792]{0}, f32[1792]{0}, f32[3584]{0}, f32[3584]{0}, f32[7168]{0}, /*index=110*/f32[7168]{0}, f32[1,1,3584,1792]{3,2,1,0}, f32[3,3,1792,3584]{3,2,1,0}, f32[1,1,3584,7168]{3,2,1,0}, f32[1,1,3584,7168]{3,2,1,0}, /*index=115*/f32[7168]{0}, f32[7168]{0}, f32[1792]{0}, f32[1792]{0}, f32[3584]{0}, /*index=120*/f32[3584]{0}, f32[7168]{0}, f32[7168]{0}, f32[1,1,7168,1792]{3,2,1,0}, f32[3,3,1792,3584]{3,2,1,0}, /*index=125*/f32[1,1,3584,7168]{3,2,1,0}, f32[1792]{0}, f32[1792]{0}, f32[3584]{0}, f32[3584]{0}, /*index=130*/f32[7168]{0}, f32[7168]{0}, f32[1,1,7168,1792]{3,2,1,0}, f32[3,3,1792,3584]{3,2,1,0}, f32[1,1,3584,7168]{3,2,1,0}, /*index=135*/f32[896]{0}, f32[896]{0}, f32[1792]{0}, f32[1792]{0}, f32[3584]{0}, /*index=140*/f32[3584]{0}, f32[1,1,3584,896]{3,2,1,0}, f32[3,3,896,1792]{3,2,1,0}, f32[1,1,1792,3584]{3,2,1,0}, f32[896]{0}, /*index=145*/f32[896]{0}, f32[1792]{0}, f32[1792]{0}, f32[3584]{0}, f32[3584]{0}, /*index=150*/f32[1,1,3584,896]{3,2,1,0}, f32[3,3,896,1792]{3,2,1,0}, f32[1,1,1792,3584]{3,2,1,0}, f32[1024]{0}, f32[7168,1024]{1,0}, /*index=155*/s32[], f32[896]{0}, f32[896]{0}, f32[1792]{0}, f32[1792]{0}, /*index=160*/f32[3584]{0}, f32[3584]{0}, f32[896]{0}, f32[896]{0}, f32[1792]{0}, /*index=165*/f32[1792]{0}, f32[3584]{0}, f32[3584]{0}, f32[896]{0}, f32[896]{0}, /*index=170*/f32[1792]{0}, f32[1792]{0}, f32[3584]{0}, f32[3584]{0}, f32[1792]{0}, /*index=175*/f32[1792]{0}, f32[3584]{0}, f32[3584]{0}, f32[7168]{0}, f32[7168]{0}, /*index=180*/f32[7168]{0}, f32[7168]{0}, f32[1792]{0}, f32[1792]{0}, f32[3584]{0}, /*index=185*/f32[3584]{0}, f32[7168]{0}, f32[7168]{0}, f32[1792]{0}, f32[1792]{0}, /*index=190*/f32[3584]{0}, f32[3584]{0}, f32[7168]{0}, f32[7168]{0}, f32[896]{0}, /*index=195*/f32[896]{0}, f32[1792]{0}, f32[1792]{0}, f32[3584]{0}, f32[3584]{0}, /*index=200*/f32[896]{0}, f32[896]{0}, f32[1792]{0}, f32[1792]{0}, f32[3584]{0}, /*index=205*/f32[3584]{0}, f32[], f32[], f32[])}

%fused_computation.50 (param_0.51: f32[7168,1024], param_1.805: f32[7168,1024], param_2.705: s32[], param_3.710: f32[7168,1024]) -> (f32[7168,1024], f32[7168,1024]) {
  %param_0.51 = f32[7168,1024]{1,0} parameter(0)
  %param_2.705 = s32[] parameter(2)
  %convert.9 = f32[] convert(s32[] %param_2.705), metadata={op_name="parallelize(train_step_func_pipeshard_parallel_mesh_1)/jit(main)/convert_element_type[new_dtype=float32 weak_type=True]" source_file="/home/cyxue/miniconda3/envs/alpa/lib/python3.8/site-packages/optax/_src/schedule.py" source_line=394}
  %constant_974 = f32[] constant(50000)
  %compare.5 = pred[] compare(f32[] %convert.9, f32[] %constant_974), direction=LT, metadata={op_name="parallelize(train_step_func_pipeshard_parallel_mesh_1)/jit(main)/lt" source_file="/home/cyxue/miniconda3/envs/alpa/lib/python3.8/site-packages/optax/_src/schedule.py" source_line=394}
  %constant_973 = f32[] constant(1)
  %constant_972 = s32[] constant(0)
  %maximum.4 = s32[] maximum(s32[] %param_2.705, s32[] %constant_972), metadata={op_name="parallelize(train_step_func_pipeshard_parallel_mesh_1)/jit(main)/max" source_file="/home/cyxue/miniconda3/envs/alpa/lib/python3.8/site-packages/optax/_src/schedule.py" source_line=86}
  %convert.8 = f32[] convert(s32[] %maximum.4), metadata={op_name="parallelize(train_step_func_pipeshard_parallel_mesh_1)/jit(main)/convert_element_type[new_dtype=float32 weak_type=True]" source_file="/home/cyxue/miniconda3/envs/alpa/lib/python3.8/site-packages/optax/_src/schedule.py" source_line=86}
  %minimum.9 = f32[] minimum(f32[] %convert.8, f32[] %constant_974), metadata={op_name="parallelize(train_step_func_pipeshard_parallel_mesh_1)/jit(main)/min" source_file="/home/cyxue/miniconda3/envs/alpa/lib/python3.8/site-packages/optax/_src/schedule.py" source_line=86}
  %constant_971 = f32[] constant(2e-05)
  %multiply.826 = f32[] multiply(f32[] %minimum.9, f32[] %constant_971), metadata={op_name="parallelize(train_step_func_pipeshard_parallel_mesh_1)/jit(main)/div" source_file="/home/cyxue/miniconda3/envs/alpa/lib/python3.8/site-packages/optax/_src/schedule.py" source_line=87}
  %subtract.4 = f32[] subtract(f32[] %constant_973, f32[] %multiply.826), metadata={op_name="parallelize(train_step_func_pipeshard_parallel_mesh_1)/jit(main)/sub" source_file="/home/cyxue/miniconda3/envs/alpa/lib/python3.8/site-packages/optax/_src/schedule.py" source_line=87}
  %constant_970 = f32[] constant(-0.1)
  %multiply.825 = f32[] multiply(f32[] %subtract.4, f32[] %constant_970), metadata={op_name="parallelize(train_step_func_pipeshard_parallel_mesh_1)/jit(main)/mul" source_file="/home/cyxue/miniconda3/envs/alpa/lib/python3.8/site-packages/optax/_src/schedule.py" source_line=88}
  %constant_969 = f32[] constant(0.1)
  %add.247 = f32[] add(f32[] %multiply.825, f32[] %constant_969), metadata={op_name="parallelize(train_step_func_pipeshard_parallel_mesh_1)/jit(main)/add" source_file="/home/cyxue/miniconda3/envs/alpa/lib/python3.8/site-packages/optax/_src/schedule.py" source_line=88}
  %constant_968 = f32[] constant(-50000)
  %add.246 = f32[] add(f32[] %convert.9, f32[] %constant_968), metadata={op_name="parallelize(train_step_func_pipeshard_parallel_mesh_1)/jit(main)/sub" source_file="/home/cyxue/miniconda3/envs/alpa/lib/python3.8/site-packages/optax/_src/schedule.py" source_line=394}
  %constant_967 = f32[] constant(950000)
  %minimum.8 = f32[] minimum(f32[] %add.246, f32[] %constant_967), metadata={op_name="parallelize(train_step_func_pipeshard_parallel_mesh_1)/jit(main)/min" source_file="/home/cyxue/miniconda3/envs/alpa/lib/python3.8/site-packages/optax/_src/schedule.py" source_line=235}
  %constant_966 = f32[] constant(3.30693956e-06)
  %multiply.824 = f32[] multiply(f32[] %minimum.8, f32[] %constant_966), metadata={op_name="parallelize(train_step_func_pipeshard_parallel_mesh_1)/jit(main)/div" source_file="/home/cyxue/miniconda3/envs/alpa/lib/python3.8/site-packages/optax/_src/schedule.py" source_line=236}
  %cosine.4 = f32[] cosine(f32[] %multiply.824), metadata={op_name="parallelize(train_step_func_pipeshard_parallel_mesh_1)/jit(main)/cos" source_file="/home/cyxue/miniconda3/envs/alpa/lib/python3.8/site-packages/optax/_src/schedule.py" source_line=236}
  %add.245 = f32[] add(f32[] %cosine.4, f32[] %constant_973), metadata={op_name="parallelize(train_step_func_pipeshard_parallel_mesh_1)/jit(main)/add" source_file="/home/cyxue/miniconda3/envs/alpa/lib/python3.8/site-packages/optax/_src/schedule.py" source_line=236}
  %constant_965 = f32[] constant(0.05)
  %multiply.823 = f32[] multiply(f32[] %add.245, f32[] %constant_965), metadata={op_name="parallelize(train_step_func_pipeshard_parallel_mesh_1)/jit(main)/mul" source_file="/home/cyxue/miniconda3/envs/alpa/lib/python3.8/site-packages/optax/_src/schedule.py" source_line=238}
  %select.5 = f32[] select(pred[] %compare.5, f32[] %add.247, f32[] %multiply.823), metadata={op_name="parallelize(train_step_func_pipeshard_parallel_mesh_1)/jit(main)/select_n" source_file="/home/cyxue/miniconda3/envs/alpa/lib/python3.8/site-packages/optax/_src/schedule.py" source_line=394}
  %constant_964 = f32[] constant(-1)
  %multiply.822 = f32[] multiply(f32[] %select.5, f32[] %constant_964), metadata={op_name="parallelize(train_step_func_pipeshard_parallel_mesh_1)/jit(main)/mul" source_file="/home/cyxue/miniconda3/envs/alpa/lib/python3.8/site-packages/optax/_src/alias.py" source_line=37}
  %broadcast.177 = f32[7168,1024]{1,0} broadcast(f32[] %multiply.822), dimensions={}, metadata={op_name="parallelize(train_step_func_pipeshard_parallel_mesh_1)/jit(main)/mul" source_file="/home/cyxue/miniconda3/envs/alpa/lib/python3.8/site-packages/optax/_src/transform.py" source_line=694}
  %param_1.805 = f32[7168,1024]{1,0} parameter(1)
  %constant_928 = f32[] constant(0.0625)
  %broadcast.818 = f32[7168,1024]{1,0} broadcast(f32[] %constant_928), dimensions={}, metadata={op_name="parallelize(train_step_func_pipeshard_parallel_mesh_1)/jit(main)/div"}
  %multiply.806 = f32[7168,1024]{1,0} multiply(f32[7168,1024]{1,0} %param_1.805, f32[7168,1024]{1,0} %broadcast.818), metadata={op_name="parallelize(train_step_func_pipeshard_parallel_mesh_1)/jit(main)/div"}
  %param_3.710 = f32[7168,1024]{1,0} parameter(3)
  %constant_197 = f32[] constant(0.9)
  %broadcast.331.clone.1 = f32[7168,1024]{1,0} broadcast(f32[] %constant_197), dimensions={}, metadata={op_name="parallelize(train_step_func_pipeshard_parallel_mesh_1)/jit(main)/mul" source_file="/home/cyxue/miniconda3/envs/alpa/lib/python3.8/site-packages/optax/_src/transform.py" source_line=70}
  %multiply.345.clone.1 = f32[7168,1024]{1,0} multiply(f32[7168,1024]{1,0} %param_3.710, f32[7168,1024]{1,0} %broadcast.331.clone.1), metadata={op_name="parallelize(train_step_func_pipeshard_parallel_mesh_1)/jit(main)/mul" source_file="/home/cyxue/miniconda3/envs/alpa/lib/python3.8/site-packages/optax/_src/transform.py" source_line=70}
  %add.159.clone.1 = f32[7168,1024]{1,0} add(f32[7168,1024]{1,0} %multiply.806, f32[7168,1024]{1,0} %multiply.345.clone.1), metadata={op_name="parallelize(train_step_func_pipeshard_parallel_mesh_1)/jit(main)/add" source_file="/home/cyxue/miniconda3/envs/alpa/lib/python3.8/site-packages/optax/_src/transform.py" source_line=70}
  %multiply.187 = f32[7168,1024]{1,0} multiply(f32[7168,1024]{1,0} %add.159.clone.1, f32[7168,1024]{1,0} %broadcast.331.clone.1), metadata={op_name="parallelize(train_step_func_pipeshard_parallel_mesh_1)/jit(main)/mul" source_file="/home/cyxue/miniconda3/envs/alpa/lib/python3.8/site-packages/optax/_src/transform.py" source_line=70}
  %add.2 = f32[7168,1024]{1,0} add(f32[7168,1024]{1,0} %multiply.806, f32[7168,1024]{1,0} %multiply.187), metadata={op_name="parallelize(train_step_func_pipeshard_parallel_mesh_1)/jit(main)/add" source_file="/home/cyxue/miniconda3/envs/alpa/lib/python3.8/site-packages/optax/_src/transform.py" source_line=70}
  %multiply.186 = f32[7168,1024]{1,0} multiply(f32[7168,1024]{1,0} %broadcast.177, f32[7168,1024]{1,0} %add.2), metadata={op_name="parallelize(train_step_func_pipeshard_parallel_mesh_1)/jit(main)/mul" source_file="/home/cyxue/miniconda3/envs/alpa/lib/python3.8/site-packages/optax/_src/transform.py" source_line=694}
  %add.1 = f32[7168,1024]{1,0} add(f32[7168,1024]{1,0} %param_0.51, f32[7168,1024]{1,0} %multiply.186), metadata={op_name="parallelize(train_step_func_pipeshard_parallel_mesh_1)/jit(main)/add" source_file="/home/cyxue/miniconda3/envs/alpa/lib/python3.8/site-packages/optax/_src/update.py" source_line=43}
  ROOT %tuple.62 = (f32[7168,1024]{1,0}, f32[7168,1024]{1,0}) tuple(f32[7168,1024]{1,0} %add.1, f32[7168,1024]{1,0} %add.159.clone.1)
}

%fused_computation.51 (param_0.52: f32[1024], param_1.806: f32[1024], param_2.706: s32[], param_3.712: f32[1024]) -> (f32[1024], f32[1024]) {
  %param_0.52 = f32[1024]{0} parameter(0)
  %param_2.706 = s32[] parameter(2)
  %convert.17 = f32[] convert(s32[] %param_2.706), metadata={op_name="parallelize(train_step_func_pipeshard_parallel_mesh_1)/jit(main)/convert_element_type[new_dtype=float32 weak_type=True]" source_file="/home/cyxue/miniconda3/envs/alpa/lib/python3.8/site-packages/optax/_src/schedule.py" source_line=394}
  %constant_1020 = f32[] constant(50000)
  %compare.9 = pred[] compare(f32[] %convert.17, f32[] %constant_1020), direction=LT, metadata={op_name="parallelize(train_step_func_pipeshard_parallel_mesh_1)/jit(main)/lt" source_file="/home/cyxue/miniconda3/envs/alpa/lib/python3.8/site-packages/optax/_src/schedule.py" source_line=394}
  %constant_1019 = f32[] constant(1)
  %constant_1018 = s32[] constant(0)
  %maximum.8 = s32[] maximum(s32[] %param_2.706, s32[] %constant_1018), metadata={op_name="parallelize(train_step_func_pipeshard_parallel_mesh_1)/jit(main)/max" source_file="/home/cyxue/miniconda3/envs/alpa/lib/python3.8/site-packages/optax/_src/schedule.py" source_line=86}
  %convert.16 = f32[] convert(s32[] %maximum.8), metadata={op_name="parallelize(train_step_func_pipeshard_parallel_mesh_1)/jit(main)/convert_element_type[new_dtype=float32 weak_type=True]" source_file="/home/cyxue/miniconda3/envs/alpa/lib/python3.8/site-packages/optax/_src/schedule.py" source_line=86}
  %minimum.17 = f32[] minimum(f32[] %convert.16, f32[] %constant_1020), metadata={op_name="parallelize(train_step_func_pipeshard_parallel_mesh_1)/jit(main)/min" source_file="/home/cyxue/miniconda3/envs/alpa/lib/python3.8/site-packages/optax/_src/schedule.py" source_line=86}
  %constant_1017 = f32[] constant(2e-05)
  %multiply.846 = f32[] multiply(f32[] %minimum.17, f32[] %constant_1017), metadata={op_name="parallelize(train_step_func_pipeshard_parallel_mesh_1)/jit(main)/div" source_file="/home/cyxue/miniconda3/envs/alpa/lib/python3.8/site-packages/optax/_src/schedule.py" source_line=87}
  %subtract.8 = f32[] subtract(f32[] %constant_1019, f32[] %multiply.846), metadata={op_name="parallelize(train_step_func_pipeshard_parallel_mesh_1)/jit(main)/sub" source_file="/home/cyxue/miniconda3/envs/alpa/lib/python3.8/site-packages/optax/_src/schedule.py" source_line=87}
  %constant_1016 = f32[] constant(-0.1)
  %multiply.845 = f32[] multiply(f32[] %subtract.8, f32[] %constant_1016), metadata={op_name="parallelize(train_step_func_pipeshard_parallel_mesh_1)/jit(main)/mul" source_file="/home/cyxue/miniconda3/envs/alpa/lib/python3.8/site-packages/optax/_src/schedule.py" source_line=88}
  %constant_1015 = f32[] constant(0.1)
  %add.259 = f32[] add(f32[] %multiply.845, f32[] %constant_1015), metadata={op_name="parallelize(train_step_func_pipeshard_parallel_mesh_1)/jit(main)/add" source_file="/home/cyxue/miniconda3/envs/alpa/lib/python3.8/site-packages/optax/_src/schedule.py" source_line=88}
  %constant_1014 = f32[] constant(-50000)
  %add.258 = f32[] add(f32[] %convert.17, f32[] %constant_1014), metadata={op_name="parallelize(train_step_func_pipeshard_parallel_mesh_1)/jit(main)/sub" source_file="/home/cyxue/miniconda3/envs/alpa/lib/python3.8/site-packages/optax/_src/schedule.py" source_line=394}
  %constant_1013 = f32[] constant(950000)
  %minimum.16 = f32[] minimum(f32[] %add.258, f32[] %constant_1013), metadata={op_name="parallelize(train_step_func_pipeshard_parallel_mesh_1)/jit(main)/min" source_file="/home/cyxue/miniconda3/envs/alpa/lib/python3.8/site-packages/optax/_src/schedule.py" source_line=235}
  %constant_1012 = f32[] constant(3.30693956e-06)
  %multiply.844 = f32[] multiply(f32[] %minimum.16, f32[] %constant_1012), metadata={op_name="parallelize(train_step_func_pipeshard_parallel_mesh_1)/jit(main)/div" source_file="/home/cyxue/miniconda3/envs/alpa/lib/python3.8/site-packages/optax/_src/schedule.py" source_line=236}
  %cosine.8 = f32[] cosine(f32[] %multiply.844), metadata={op_name="parallelize(train_step_func_pipeshard_parallel_mesh_1)/jit(main)/cos" source_file="/home/cyxue/miniconda3/envs/alpa/lib/python3.8/site-packages/optax/_src/schedule.py" source_line=236}
  %add.257 = f32[] add(f32[] %cosine.8, f32[] %constant_1019), metadata={op_name="parallelize(train_step_func_pipeshard_parallel_mesh_1)/jit(main)/add" source_file="/home/cyxue/miniconda3/envs/alpa/lib/python3.8/site-packages/optax/_src/schedule.py" source_line=236}
  %constant_1011 = f32[] constant(0.05)
  %multiply.843 = f32[] multiply(f32[] %add.257, f32[] %constant_1011), metadata={op_name="parallelize(train_step_func_pipeshard_parallel_mesh_1)/jit(main)/mul" source_file="/home/cyxue/miniconda3/envs/alpa/lib/python3.8/site-packages/optax/_src/schedule.py" source_line=238}
  %select.9 = f32[] select(pred[] %compare.9, f32[] %add.259, f32[] %multiply.843), metadata={op_name="parallelize(train_step_func_pipeshard_parallel_mesh_1)/jit(main)/select_n" source_file="/home/cyxue/miniconda3/envs/alpa/lib/python3.8/site-packages/optax/_src/schedule.py" source_line=394}
  %constant_1010 = f32[] constant(-1)
  %multiply.842 = f32[] multiply(f32[] %select.9, f32[] %constant_1010), metadata={op_name="parallelize(train_step_func_pipeshard_parallel_mesh_1)/jit(main)/mul" source_file="/home/cyxue/miniconda3/envs/alpa/lib/python3.8/site-packages/optax/_src/alias.py" source_line=37}
  %broadcast.179 = f32[1024]{0} broadcast(f32[] %multiply.842), dimensions={}, metadata={op_name="parallelize(train_step_func_pipeshard_parallel_mesh_1)/jit(main)/mul" source_file="/home/cyxue/miniconda3/envs/alpa/lib/python3.8/site-packages/optax/_src/transform.py" source_line=694}
  %param_1.806 = f32[1024]{0} parameter(1)
  %constant_922 = f32[] constant(0.0625)
  %broadcast.814 = f32[1024]{0} broadcast(f32[] %constant_922), dimensions={}, metadata={op_name="parallelize(train_step_func_pipeshard_parallel_mesh_1)/jit(main)/div"}
  %multiply.802 = f32[1024]{0} multiply(f32[1024]{0} %param_1.806, f32[1024]{0} %broadcast.814), metadata={op_name="parallelize(train_step_func_pipeshard_parallel_mesh_1)/jit(main)/div"}
  %param_3.712 = f32[1024]{0} parameter(3)
  %constant_198 = f32[] constant(0.9)
  %broadcast.333.clone.1 = f32[1024]{0} broadcast(f32[] %constant_198), dimensions={}, metadata={op_name="parallelize(train_step_func_pipeshard_parallel_mesh_1)/jit(main)/mul" source_file="/home/cyxue/miniconda3/envs/alpa/lib/python3.8/site-packages/optax/_src/transform.py" source_line=70}
  %multiply.347.clone.1 = f32[1024]{0} multiply(f32[1024]{0} %param_3.712, f32[1024]{0} %broadcast.333.clone.1), metadata={op_name="parallelize(train_step_func_pipeshard_parallel_mesh_1)/jit(main)/mul" source_file="/home/cyxue/miniconda3/envs/alpa/lib/python3.8/site-packages/optax/_src/transform.py" source_line=70}
  %add.160.clone.1 = f32[1024]{0} add(f32[1024]{0} %multiply.802, f32[1024]{0} %multiply.347.clone.1), metadata={op_name="parallelize(train_step_func_pipeshard_parallel_mesh_1)/jit(main)/add" source_file="/home/cyxue/miniconda3/envs/alpa/lib/python3.8/site-packages/optax/_src/transform.py" source_line=70}
  %multiply.189 = f32[1024]{0} multiply(f32[1024]{0} %add.160.clone.1, f32[1024]{0} %broadcast.333.clone.1), metadata={op_name="parallelize(train_step_func_pipeshard_parallel_mesh_1)/jit(main)/mul" source_file="/home/cyxue/miniconda3/envs/alpa/lib/python3.8/site-packages/optax/_src/transform.py" source_line=70}
  %add.4 = f32[1024]{0} add(f32[1024]{0} %multiply.802, f32[1024]{0} %multiply.189), metadata={op_name="parallelize(train_step_func_pipeshard_parallel_mesh_1)/jit(main)/add" source_file="/home/cyxue/miniconda3/envs/alpa/lib/python3.8/site-packages/optax/_src/transform.py" source_line=70}
  %multiply.188 = f32[1024]{0} multiply(f32[1024]{0} %broadcast.179, f32[1024]{0} %add.4), metadata={op_name="parallelize(train_step_func_pipeshard_parallel_mesh_1)/jit(main)/mul" source_file="/home/cyxue/miniconda3/envs/alpa/lib/python3.8/site-packages/optax/_src/transform.py" source_line=694}
  %add.3 = f32[1024]{0} add(f32[1024]{0} %param_0.52, f32[1024]{0} %multiply.188), metadata={op_name="parallelize(train_step_func_pipeshard_parallel_mesh_1)/jit(main)/add" source_file="/home/cyxue/miniconda3/envs/alpa/lib/python3.8/site-packages/optax/_src/update.py" source_line=43}
  ROOT %tuple.63 = (f32[1024]{0}, f32[1024]{0}) tuple(f32[1024]{0} %add.3, f32[1024]{0} %add.160.clone.1)
}

%fused_computation.81 (param_0.82: f32[1,1,7168,1792], param_1.807: f32[1,1,7168,1792], param_2.707: s32[], param_3.713: f32[1,1,7168,1792], param_4.875: f32[1,1,7168,1792], param_5.584: f32[1,1,7168,1792], param_6.1053: f32[1,1,7168,1792]) -> (f32[1,1,7168,1792], f32[1,1,7168,1792], f32[1,1,7168,1792], f32[1,1,7168,1792]) {
  %param_0.82 = f32[1,1,7168,1792]{3,2,1,0} parameter(0)
  %param_2.707 = s32[] parameter(2)
  %convert.53 = f32[] convert(s32[] %param_2.707), metadata={op_name="parallelize(train_step_func_pipeshard_parallel_mesh_1)/jit(main)/convert_element_type[new_dtype=float32 weak_type=True]" source_file="/home/cyxue/miniconda3/envs/alpa/lib/python3.8/site-packages/optax/_src/schedule.py" source_line=394}
  %constant_1227 = f32[] constant(50000)
  %compare.27 = pred[] compare(f32[] %convert.53, f32[] %constant_1227), direction=LT, metadata={op_name="parallelize(train_step_func_pipeshard_parallel_mesh_1)/jit(main)/lt" source_file="/home/cyxue/miniconda3/envs/alpa/lib/python3.8/site-packages/optax/_src/schedule.py" source_line=394}
  %constant_1226 = f32[] constant(1)
  %constant_1225 = s32[] constant(0)
  %maximum.26 = s32[] maximum(s32[] %param_2.707, s32[] %constant_1225), metadata={op_name="parallelize(train_step_func_pipeshard_parallel_mesh_1)/jit(main)/max" source_file="/home/cyxue/miniconda3/envs/alpa/lib/python3.8/site-packages/optax/_src/schedule.py" source_line=86}
  %convert.52 = f32[] convert(s32[] %maximum.26), metadata={op_name="parallelize(train_step_func_pipeshard_parallel_mesh_1)/jit(main)/convert_element_type[new_dtype=float32 weak_type=True]" source_file="/home/cyxue/miniconda3/envs/alpa/lib/python3.8/site-packages/optax/_src/schedule.py" source_line=86}
  %minimum.53 = f32[] minimum(f32[] %convert.52, f32[] %constant_1227), metadata={op_name="parallelize(train_step_func_pipeshard_parallel_mesh_1)/jit(main)/min" source_file="/home/cyxue/miniconda3/envs/alpa/lib/python3.8/site-packages/optax/_src/schedule.py" source_line=86}
  %constant_1224 = f32[] constant(2e-05)
  %multiply.936 = f32[] multiply(f32[] %minimum.53, f32[] %constant_1224), metadata={op_name="parallelize(train_step_func_pipeshard_parallel_mesh_1)/jit(main)/div" source_file="/home/cyxue/miniconda3/envs/alpa/lib/python3.8/site-packages/optax/_src/schedule.py" source_line=87}
  %subtract.26 = f32[] subtract(f32[] %constant_1226, f32[] %multiply.936), metadata={op_name="parallelize(train_step_func_pipeshard_parallel_mesh_1)/jit(main)/sub" source_file="/home/cyxue/miniconda3/envs/alpa/lib/python3.8/site-packages/optax/_src/schedule.py" source_line=87}
  %constant_1223 = f32[] constant(-0.1)
  %multiply.935 = f32[] multiply(f32[] %subtract.26, f32[] %constant_1223), metadata={op_name="parallelize(train_step_func_pipeshard_parallel_mesh_1)/jit(main)/mul" source_file="/home/cyxue/miniconda3/envs/alpa/lib/python3.8/site-packages/optax/_src/schedule.py" source_line=88}
  %constant_1222 = f32[] constant(0.1)
  %add.313 = f32[] add(f32[] %multiply.935, f32[] %constant_1222), metadata={op_name="parallelize(train_step_func_pipeshard_parallel_mesh_1)/jit(main)/add" source_file="/home/cyxue/miniconda3/envs/alpa/lib/python3.8/site-packages/optax/_src/schedule.py" source_line=88}
  %constant_1221 = f32[] constant(-50000)
  %add.312 = f32[] add(f32[] %convert.53, f32[] %constant_1221), metadata={op_name="parallelize(train_step_func_pipeshard_parallel_mesh_1)/jit(main)/sub" source_file="/home/cyxue/miniconda3/envs/alpa/lib/python3.8/site-packages/optax/_src/schedule.py" source_line=394}
  %constant_1220 = f32[] constant(950000)
  %minimum.52 = f32[] minimum(f32[] %add.312, f32[] %constant_1220), metadata={op_name="parallelize(train_step_func_pipeshard_parallel_mesh_1)/jit(main)/min" source_file="/home/cyxue/miniconda3/envs/alpa/lib/python3.8/site-packages/optax/_src/schedule.py" source_line=235}
  %constant_1219 = f32[] constant(3.30693956e-06)
  %multiply.934 = f32[] multiply(f32[] %minimum.52, f32[] %constant_1219), metadata={op_name="parallelize(train_step_func_pipeshard_parallel_mesh_1)/jit(main)/div" source_file="/home/cyxue/miniconda3/envs/alpa/lib/python3.8/site-packages/optax/_src/schedule.py" source_line=236}
  %cosine.26 = f32[] cosine(f32[] %multiply.934), metadata={op_name="parallelize(train_step_func_pipeshard_parallel_mesh_1)/jit(main)/cos" source_file="/home/cyxue/miniconda3/envs/alpa/lib/python3.8/site-packages/optax/_src/schedule.py" source_line=236}
  %add.311 = f32[] add(f32[] %cosine.26, f32[] %constant_1226), metadata={op_name="parallelize(train_step_func_pipeshard_parallel_mesh_1)/jit(main)/add" source_file="/home/cyxue/miniconda3/envs/alpa/lib/python3.8/site-packages/optax/_src/schedule.py" source_line=236}
  %constant_1218 = f32[] constant(0.05)
  %multiply.933 = f32[] multiply(f32[] %add.311, f32[] %constant_1218), metadata={op_name="parallelize(train_step_func_pipeshard_parallel_mesh_1)/jit(main)/mul" source_file="/home/cyxue/miniconda3/envs/alpa/lib/python3.8/site-packages/optax/_src/schedule.py" source_line=238}
  %select.27 = f32[] select(pred[] %compare.27, f32[] %add.313, f32[] %multiply.933), metadata={op_name="parallelize(train_step_func_pipeshard_parallel_mesh_1)/jit(main)/select_n" source_file="/home/cyxue/miniconda3/envs/alpa/lib/python3.8/site-packages/optax/_src/schedule.py" source_line=394}
  %constant_1217 = f32[] constant(-1)
  %multiply.932 = f32[] multiply(f32[] %select.27, f32[] %constant_1217), metadata={op_name="parallelize(train_step_func_pipeshard_parallel_mesh_1)/jit(main)/mul" source_file="/home/cyxue/miniconda3/envs/alpa/lib/python3.8/site-packages/optax/_src/alias.py" source_line=37}
  %broadcast.239 = f32[1,1,7168,1792]{3,2,1,0} broadcast(f32[] %multiply.932), dimensions={}, metadata={op_name="parallelize(train_step_func_pipeshard_parallel_mesh_1)/jit(main)/mul" source_file="/home/cyxue/miniconda3/envs/alpa/lib/python3.8/site-packages/optax/_src/transform.py" source_line=694}
  %param_1.807 = f32[1,1,7168,1792]{3,2,1,0} parameter(1)
  %constant_742 = f32[] constant(0.0625)
  %broadcast.694 = f32[1,1,7168,1792]{3,2,1,0} broadcast(f32[] %constant_742), dimensions={}, metadata={op_name="parallelize(train_step_func_pipeshard_parallel_mesh_1)/jit(main)/div"}
  %multiply.682 = f32[1,1,7168,1792]{3,2,1,0} multiply(f32[1,1,7168,1792]{3,2,1,0} %param_1.807, f32[1,1,7168,1792]{3,2,1,0} %broadcast.694), metadata={op_name="parallelize(train_step_func_pipeshard_parallel_mesh_1)/jit(main)/div"}
  %param_6.1053 = f32[1,1,7168,1792]{3,2,1,0} parameter(6)
  %constant_228 = f32[] constant(0.9)
  %broadcast.419.clone.1 = f32[1,1,7168,1792]{3,2,1,0} broadcast(f32[] %constant_228), dimensions={}, metadata={op_name="parallelize(train_step_func_pipeshard_parallel_mesh_1)/jit(main)/mul" source_file="/home/cyxue/miniconda3/envs/alpa/lib/python3.8/site-packages/optax/_src/transform.py" source_line=70}
  %multiply.407.clone.1 = f32[1,1,7168,1792]{3,2,1,0} multiply(f32[1,1,7168,1792]{3,2,1,0} %param_6.1053, f32[1,1,7168,1792]{3,2,1,0} %broadcast.419.clone.1), metadata={op_name="parallelize(train_step_func_pipeshard_parallel_mesh_1)/jit(main)/mul" source_file="/home/cyxue/miniconda3/envs/alpa/lib/python3.8/site-packages/optax/_src/transform.py" source_line=70}
  %add.190.clone.1 = f32[1,1,7168,1792]{3,2,1,0} add(f32[1,1,7168,1792]{3,2,1,0} %multiply.682, f32[1,1,7168,1792]{3,2,1,0} %multiply.407.clone.1), metadata={op_name="parallelize(train_step_func_pipeshard_parallel_mesh_1)/jit(main)/add" source_file="/home/cyxue/miniconda3/envs/alpa/lib/python3.8/site-packages/optax/_src/transform.py" source_line=70}
  %multiply.249 = f32[1,1,7168,1792]{3,2,1,0} multiply(f32[1,1,7168,1792]{3,2,1,0} %add.190.clone.1, f32[1,1,7168,1792]{3,2,1,0} %broadcast.419.clone.1), metadata={op_name="parallelize(train_step_func_pipeshard_parallel_mesh_1)/jit(main)/mul" source_file="/home/cyxue/miniconda3/envs/alpa/lib/python3.8/site-packages/optax/_src/transform.py" source_line=70}
  %add.64 = f32[1,1,7168,1792]{3,2,1,0} add(f32[1,1,7168,1792]{3,2,1,0} %multiply.682, f32[1,1,7168,1792]{3,2,1,0} %multiply.249), metadata={op_name="parallelize(train_step_func_pipeshard_parallel_mesh_1)/jit(main)/add" source_file="/home/cyxue/miniconda3/envs/alpa/lib/python3.8/site-packages/optax/_src/transform.py" source_line=70}
  %multiply.248 = f32[1,1,7168,1792]{3,2,1,0} multiply(f32[1,1,7168,1792]{3,2,1,0} %broadcast.239, f32[1,1,7168,1792]{3,2,1,0} %add.64), metadata={op_name="parallelize(train_step_func_pipeshard_parallel_mesh_1)/jit(main)/mul" source_file="/home/cyxue/miniconda3/envs/alpa/lib/python3.8/site-packages/optax/_src/transform.py" source_line=694}
  %add.63 = f32[1,1,7168,1792]{3,2,1,0} add(f32[1,1,7168,1792]{3,2,1,0} %param_0.82, f32[1,1,7168,1792]{3,2,1,0} %multiply.248), metadata={op_name="parallelize(train_step_func_pipeshard_parallel_mesh_1)/jit(main)/add" source_file="/home/cyxue/miniconda3/envs/alpa/lib/python3.8/site-packages/optax/_src/update.py" source_line=43}
  %param_3.713 = f32[1,1,7168,1792]{3,2,1,0} parameter(3)
  %param_4.875 = f32[1,1,7168,1792]{3,2,1,0} parameter(4)
  %multiply.718.clone.1 = f32[1,1,7168,1792]{3,2,1,0} multiply(f32[1,1,7168,1792]{3,2,1,0} %param_4.875, f32[1,1,7168,1792]{3,2,1,0} %broadcast.694), metadata={op_name="parallelize(train_step_func_pipeshard_parallel_mesh_1)/jit(main)/div"}
  %param_5.584 = f32[1,1,7168,1792]{3,2,1,0} parameter(5)
  %multiply.389.clone.1 = f32[1,1,7168,1792]{3,2,1,0} multiply(f32[1,1,7168,1792]{3,2,1,0} %param_5.584, f32[1,1,7168,1792]{3,2,1,0} %broadcast.419.clone.1), metadata={op_name="parallelize(train_step_func_pipeshard_parallel_mesh_1)/jit(main)/mul" source_file="/home/cyxue/miniconda3/envs/alpa/lib/python3.8/site-packages/optax/_src/transform.py" source_line=70}
  %add.181.clone.1 = f32[1,1,7168,1792]{3,2,1,0} add(f32[1,1,7168,1792]{3,2,1,0} %multiply.718.clone.1, f32[1,1,7168,1792]{3,2,1,0} %multiply.389.clone.1), metadata={op_name="parallelize(train_step_func_pipeshard_parallel_mesh_1)/jit(main)/add" source_file="/home/cyxue/miniconda3/envs/alpa/lib/python3.8/site-packages/optax/_src/transform.py" source_line=70}
  %multiply.231.clone.1 = f32[1,1,7168,1792]{3,2,1,0} multiply(f32[1,1,7168,1792]{3,2,1,0} %add.181.clone.1, f32[1,1,7168,1792]{3,2,1,0} %broadcast.419.clone.1), metadata={op_name="parallelize(train_step_func_pipeshard_parallel_mesh_1)/jit(main)/mul" source_file="/home/cyxue/miniconda3/envs/alpa/lib/python3.8/site-packages/optax/_src/transform.py" source_line=70}
  %add.46.clone.1 = f32[1,1,7168,1792]{3,2,1,0} add(f32[1,1,7168,1792]{3,2,1,0} %multiply.718.clone.1, f32[1,1,7168,1792]{3,2,1,0} %multiply.231.clone.1), metadata={op_name="parallelize(train_step_func_pipeshard_parallel_mesh_1)/jit(main)/add" source_file="/home/cyxue/miniconda3/envs/alpa/lib/python3.8/site-packages/optax/_src/transform.py" source_line=70}
  %multiply.230.clone.1 = f32[1,1,7168,1792]{3,2,1,0} multiply(f32[1,1,7168,1792]{3,2,1,0} %broadcast.239, f32[1,1,7168,1792]{3,2,1,0} %add.46.clone.1), metadata={op_name="parallelize(train_step_func_pipeshard_parallel_mesh_1)/jit(main)/mul" source_file="/home/cyxue/miniconda3/envs/alpa/lib/python3.8/site-packages/optax/_src/transform.py" source_line=694}
  %add.45.clone.1 = f32[1,1,7168,1792]{3,2,1,0} add(f32[1,1,7168,1792]{3,2,1,0} %param_3.713, f32[1,1,7168,1792]{3,2,1,0} %multiply.230.clone.1), metadata={op_name="parallelize(train_step_func_pipeshard_parallel_mesh_1)/jit(main)/add" source_file="/home/cyxue/miniconda3/envs/alpa/lib/python3.8/site-packages/optax/_src/update.py" source_line=43}
  ROOT %tuple.87 = (f32[1,1,7168,1792]{3,2,1,0}, f32[1,1,7168,1792]{3,2,1,0}, f32[1,1,7168,1792]{3,2,1,0}, f32[1,1,7168,1792]{3,2,1,0}) tuple(f32[1,1,7168,1792]{3,2,1,0} %add.63, f32[1,1,7168,1792]{3,2,1,0} %add.45.clone.1, f32[1,1,7168,1792]{3,2,1,0} %add.181.clone.1, f32[1,1,7168,1792]{3,2,1,0} %add.190.clone.1)
}

%fused_computation.91 (param_0.92: f32[1,1,3584,7168], param_1.808: f32[1,1,3584,7168], param_2.708: s32[], param_3.714: f32[1,1,3584,7168], param_4.876: f32[1,1,3584,7168], param_5.585: f32[1,1,3584,7168], param_6.1054: f32[1,1,3584,7168], param_7.797: f32[1,1,3584,7168], param_8.216: f32[1,1,3584,7168], param_9.118: f32[1,1,3584,7168], param_10.218: f32[1,1,3584,7168], param_11.219: f32[1,1,3584,7168], param_12.111: f32[1,1,3584,7168]) -> (f32[1,1,3584,7168], f32[1,1,3584,7168], f32[1,1,3584,7168], f32[1,1,3584,7168], f32[1,1,3584,7168], /*index=5*/f32[1,1,3584,7168], f32[1,1,3584,7168], f32[1,1,3584,7168]) {
  %param_0.92 = f32[1,1,3584,7168]{3,2,1,0} parameter(0)
  %param_2.708 = s32[] parameter(2)
  %convert.45 = f32[] convert(s32[] %param_2.708), metadata={op_name="parallelize(train_step_func_pipeshard_parallel_mesh_1)/jit(main)/convert_element_type[new_dtype=float32 weak_type=True]" source_file="/home/cyxue/miniconda3/envs/alpa/lib/python3.8/site-packages/optax/_src/schedule.py" source_line=394}
  %constant_1181 = f32[] constant(50000)
  %compare.23 = pred[] compare(f32[] %convert.45, f32[] %constant_1181), direction=LT, metadata={op_name="parallelize(train_step_func_pipeshard_parallel_mesh_1)/jit(main)/lt" source_file="/home/cyxue/miniconda3/envs/alpa/lib/python3.8/site-packages/optax/_src/schedule.py" source_line=394}
  %constant_1180 = f32[] constant(1)
  %constant_1179 = s32[] constant(0)
  %maximum.22 = s32[] maximum(s32[] %param_2.708, s32[] %constant_1179), metadata={op_name="parallelize(train_step_func_pipeshard_parallel_mesh_1)/jit(main)/max" source_file="/home/cyxue/miniconda3/envs/alpa/lib/python3.8/site-packages/optax/_src/schedule.py" source_line=86}
  %convert.44 = f32[] convert(s32[] %maximum.22), metadata={op_name="parallelize(train_step_func_pipeshard_parallel_mesh_1)/jit(main)/convert_element_type[new_dtype=float32 weak_type=True]" source_file="/home/cyxue/miniconda3/envs/alpa/lib/python3.8/site-packages/optax/_src/schedule.py" source_line=86}
  %minimum.45 = f32[] minimum(f32[] %convert.44, f32[] %constant_1181), metadata={op_name="parallelize(train_step_func_pipeshard_parallel_mesh_1)/jit(main)/min" source_file="/home/cyxue/miniconda3/envs/alpa/lib/python3.8/site-packages/optax/_src/schedule.py" source_line=86}
  %constant_1178 = f32[] constant(2e-05)
  %multiply.916 = f32[] multiply(f32[] %minimum.45, f32[] %constant_1178), metadata={op_name="parallelize(train_step_func_pipeshard_parallel_mesh_1)/jit(main)/div" source_file="/home/cyxue/miniconda3/envs/alpa/lib/python3.8/site-packages/optax/_src/schedule.py" source_line=87}
  %subtract.22 = f32[] subtract(f32[] %constant_1180, f32[] %multiply.916), metadata={op_name="parallelize(train_step_func_pipeshard_parallel_mesh_1)/jit(main)/sub" source_file="/home/cyxue/miniconda3/envs/alpa/lib/python3.8/site-packages/optax/_src/schedule.py" source_line=87}
  %constant_1177 = f32[] constant(-0.1)
  %multiply.915 = f32[] multiply(f32[] %subtract.22, f32[] %constant_1177), metadata={op_name="parallelize(train_step_func_pipeshard_parallel_mesh_1)/jit(main)/mul" source_file="/home/cyxue/miniconda3/envs/alpa/lib/python3.8/site-packages/optax/_src/schedule.py" source_line=88}
  %constant_1176 = f32[] constant(0.1)
  %add.301 = f32[] add(f32[] %multiply.915, f32[] %constant_1176), metadata={op_name="parallelize(train_step_func_pipeshard_parallel_mesh_1)/jit(main)/add" source_file="/home/cyxue/miniconda3/envs/alpa/lib/python3.8/site-packages/optax/_src/schedule.py" source_line=88}
  %constant_1175 = f32[] constant(-50000)
  %add.300 = f32[] add(f32[] %convert.45, f32[] %constant_1175), metadata={op_name="parallelize(train_step_func_pipeshard_parallel_mesh_1)/jit(main)/sub" source_file="/home/cyxue/miniconda3/envs/alpa/lib/python3.8/site-packages/optax/_src/schedule.py" source_line=394}
  %constant_1174 = f32[] constant(950000)
  %minimum.44 = f32[] minimum(f32[] %add.300, f32[] %constant_1174), metadata={op_name="parallelize(train_step_func_pipeshard_parallel_mesh_1)/jit(main)/min" source_file="/home/cyxue/miniconda3/envs/alpa/lib/python3.8/site-packages/optax/_src/schedule.py" source_line=235}
  %constant_1173 = f32[] constant(3.30693956e-06)
  %multiply.914 = f32[] multiply(f32[] %minimum.44, f32[] %constant_1173), metadata={op_name="parallelize(train_step_func_pipeshard_parallel_mesh_1)/jit(main)/div" source_file="/home/cyxue/miniconda3/envs/alpa/lib/python3.8/site-packages/optax/_src/schedule.py" source_line=236}
  %cosine.22 = f32[] cosine(f32[] %multiply.914), metadata={op_name="parallelize(train_step_func_pipeshard_parallel_mesh_1)/jit(main)/cos" source_file="/home/cyxue/miniconda3/envs/alpa/lib/python3.8/site-packages/optax/_src/schedule.py" source_line=236}
  %add.299 = f32[] add(f32[] %cosine.22, f32[] %constant_1180), metadata={op_name="parallelize(train_step_func_pipeshard_parallel_mesh_1)/jit(main)/add" source_file="/home/cyxue/miniconda3/envs/alpa/lib/python3.8/site-packages/optax/_src/schedule.py" source_line=236}
  %constant_1172 = f32[] constant(0.05)
  %multiply.913 = f32[] multiply(f32[] %add.299, f32[] %constant_1172), metadata={op_name="parallelize(train_step_func_pipeshard_parallel_mesh_1)/jit(main)/mul" source_file="/home/cyxue/miniconda3/envs/alpa/lib/python3.8/site-packages/optax/_src/schedule.py" source_line=238}
  %select.23 = f32[] select(pred[] %compare.23, f32[] %add.301, f32[] %multiply.913), metadata={op_name="parallelize(train_step_func_pipeshard_parallel_mesh_1)/jit(main)/select_n" source_file="/home/cyxue/miniconda3/envs/alpa/lib/python3.8/site-packages/optax/_src/schedule.py" source_line=394}
  %constant_1171 = f32[] constant(-1)
  %multiply.912 = f32[] multiply(f32[] %select.23, f32[] %constant_1171), metadata={op_name="parallelize(train_step_func_pipeshard_parallel_mesh_1)/jit(main)/mul" source_file="/home/cyxue/miniconda3/envs/alpa/lib/python3.8/site-packages/optax/_src/alias.py" source_line=37}
  %broadcast.259 = f32[1,1,3584,7168]{3,2,1,0} broadcast(f32[] %multiply.912), dimensions={}, metadata={op_name="parallelize(train_step_func_pipeshard_parallel_mesh_1)/jit(main)/mul" source_file="/home/cyxue/miniconda3/envs/alpa/lib/python3.8/site-packages/optax/_src/transform.py" source_line=694}
  %param_1.808 = f32[1,1,3584,7168]{3,2,1,0} parameter(1)
  %constant_682 = f32[] constant(0.0625)
  %broadcast.654 = f32[1,1,3584,7168]{3,2,1,0} broadcast(f32[] %constant_682), dimensions={}, metadata={op_name="parallelize(train_step_func_pipeshard_parallel_mesh_1)/jit(main)/div"}
  %multiply.642 = f32[1,1,3584,7168]{3,2,1,0} multiply(f32[1,1,3584,7168]{3,2,1,0} %param_1.808, f32[1,1,3584,7168]{3,2,1,0} %broadcast.654), metadata={op_name="parallelize(train_step_func_pipeshard_parallel_mesh_1)/jit(main)/div"}
  %param_12.111 = f32[1,1,3584,7168]{3,2,1,0} parameter(12)
  %constant_238 = f32[] constant(0.9)
  %broadcast.439.clone.1 = f32[1,1,3584,7168]{3,2,1,0} broadcast(f32[] %constant_238), dimensions={}, metadata={op_name="parallelize(train_step_func_pipeshard_parallel_mesh_1)/jit(main)/mul" source_file="/home/cyxue/miniconda3/envs/alpa/lib/python3.8/site-packages/optax/_src/transform.py" source_line=70}
  %multiply.427.clone.1 = f32[1,1,3584,7168]{3,2,1,0} multiply(f32[1,1,3584,7168]{3,2,1,0} %param_12.111, f32[1,1,3584,7168]{3,2,1,0} %broadcast.439.clone.1), metadata={op_name="parallelize(train_step_func_pipeshard_parallel_mesh_1)/jit(main)/mul" source_file="/home/cyxue/miniconda3/envs/alpa/lib/python3.8/site-packages/optax/_src/transform.py" source_line=70}
  %add.200.clone.1 = f32[1,1,3584,7168]{3,2,1,0} add(f32[1,1,3584,7168]{3,2,1,0} %multiply.642, f32[1,1,3584,7168]{3,2,1,0} %multiply.427.clone.1), metadata={op_name="parallelize(train_step_func_pipeshard_parallel_mesh_1)/jit(main)/add" source_file="/home/cyxue/miniconda3/envs/alpa/lib/python3.8/site-packages/optax/_src/transform.py" source_line=70}
  %multiply.269 = f32[1,1,3584,7168]{3,2,1,0} multiply(f32[1,1,3584,7168]{3,2,1,0} %add.200.clone.1, f32[1,1,3584,7168]{3,2,1,0} %broadcast.439.clone.1), metadata={op_name="parallelize(train_step_func_pipeshard_parallel_mesh_1)/jit(main)/mul" source_file="/home/cyxue/miniconda3/envs/alpa/lib/python3.8/site-packages/optax/_src/transform.py" source_line=70}
  %add.84 = f32[1,1,3584,7168]{3,2,1,0} add(f32[1,1,3584,7168]{3,2,1,0} %multiply.642, f32[1,1,3584,7168]{3,2,1,0} %multiply.269), metadata={op_name="parallelize(train_step_func_pipeshard_parallel_mesh_1)/jit(main)/add" source_file="/home/cyxue/miniconda3/envs/alpa/lib/python3.8/site-packages/optax/_src/transform.py" source_line=70}
  %multiply.268 = f32[1,1,3584,7168]{3,2,1,0} multiply(f32[1,1,3584,7168]{3,2,1,0} %broadcast.259, f32[1,1,3584,7168]{3,2,1,0} %add.84), metadata={op_name="parallelize(train_step_func_pipeshard_parallel_mesh_1)/jit(main)/mul" source_file="/home/cyxue/miniconda3/envs/alpa/lib/python3.8/site-packages/optax/_src/transform.py" source_line=694}
  %add.83 = f32[1,1,3584,7168]{3,2,1,0} add(f32[1,1,3584,7168]{3,2,1,0} %param_0.92, f32[1,1,3584,7168]{3,2,1,0} %multiply.268), metadata={op_name="parallelize(train_step_func_pipeshard_parallel_mesh_1)/jit(main)/add" source_file="/home/cyxue/miniconda3/envs/alpa/lib/python3.8/site-packages/optax/_src/update.py" source_line=43}
  %param_3.714 = f32[1,1,3584,7168]{3,2,1,0} parameter(3)
  %param_4.876 = f32[1,1,3584,7168]{3,2,1,0} parameter(4)
  %multiply.726.clone.1 = f32[1,1,3584,7168]{3,2,1,0} multiply(f32[1,1,3584,7168]{3,2,1,0} %param_4.876, f32[1,1,3584,7168]{3,2,1,0} %broadcast.654), metadata={op_name="parallelize(train_step_func_pipeshard_parallel_mesh_1)/jit(main)/div"}
  %param_9.118 = f32[1,1,3584,7168]{3,2,1,0} parameter(9)
  %multiply.385.clone.1 = f32[1,1,3584,7168]{3,2,1,0} multiply(f32[1,1,3584,7168]{3,2,1,0} %param_9.118, f32[1,1,3584,7168]{3,2,1,0} %broadcast.439.clone.1), metadata={op_name="parallelize(train_step_func_pipeshard_parallel_mesh_1)/jit(main)/mul" source_file="/home/cyxue/miniconda3/envs/alpa/lib/python3.8/site-packages/optax/_src/transform.py" source_line=70}
  %add.179.clone.1 = f32[1,1,3584,7168]{3,2,1,0} add(f32[1,1,3584,7168]{3,2,1,0} %multiply.726.clone.1, f32[1,1,3584,7168]{3,2,1,0} %multiply.385.clone.1), metadata={op_name="parallelize(train_step_func_pipeshard_parallel_mesh_1)/jit(main)/add" source_file="/home/cyxue/miniconda3/envs/alpa/lib/python3.8/site-packages/optax/_src/transform.py" source_line=70}
  %multiply.227.clone.1 = f32[1,1,3584,7168]{3,2,1,0} multiply(f32[1,1,3584,7168]{3,2,1,0} %add.179.clone.1, f32[1,1,3584,7168]{3,2,1,0} %broadcast.439.clone.1), metadata={op_name="parallelize(train_step_func_pipeshard_parallel_mesh_1)/jit(main)/mul" source_file="/home/cyxue/miniconda3/envs/alpa/lib/python3.8/site-packages/optax/_src/transform.py" source_line=70}
  %add.42.clone.1 = f32[1,1,3584,7168]{3,2,1,0} add(f32[1,1,3584,7168]{3,2,1,0} %multiply.726.clone.1, f32[1,1,3584,7168]{3,2,1,0} %multiply.227.clone.1), metadata={op_name="parallelize(train_step_func_pipeshard_parallel_mesh_1)/jit(main)/add" source_file="/home/cyxue/miniconda3/envs/alpa/lib/python3.8/site-packages/optax/_src/transform.py" source_line=70}
  %multiply.226.clone.1 = f32[1,1,3584,7168]{3,2,1,0} multiply(f32[1,1,3584,7168]{3,2,1,0} %broadcast.259, f32[1,1,3584,7168]{3,2,1,0} %add.42.clone.1), metadata={op_name="parallelize(train_step_func_pipeshard_parallel_mesh_1)/jit(main)/mul" source_file="/home/cyxue/miniconda3/envs/alpa/lib/python3.8/site-packages/optax/_src/transform.py" source_line=694}
  %add.41.clone.1 = f32[1,1,3584,7168]{3,2,1,0} add(f32[1,1,3584,7168]{3,2,1,0} %param_3.714, f32[1,1,3584,7168]{3,2,1,0} %multiply.226.clone.1), metadata={op_name="parallelize(train_step_func_pipeshard_parallel_mesh_1)/jit(main)/add" source_file="/home/cyxue/miniconda3/envs/alpa/lib/python3.8/site-packages/optax/_src/update.py" source_line=43}
  %param_5.585 = f32[1,1,3584,7168]{3,2,1,0} parameter(5)
  %param_6.1054 = f32[1,1,3584,7168]{3,2,1,0} parameter(6)
  %multiply.690.clone.1 = f32[1,1,3584,7168]{3,2,1,0} multiply(f32[1,1,3584,7168]{3,2,1,0} %param_6.1054, f32[1,1,3584,7168]{3,2,1,0} %broadcast.654), metadata={op_name="parallelize(train_step_func_pipeshard_parallel_mesh_1)/jit(main)/div"}
  %param_10.218 = f32[1,1,3584,7168]{3,2,1,0} parameter(10)
  %multiply.403.clone.1 = f32[1,1,3584,7168]{3,2,1,0} multiply(f32[1,1,3584,7168]{3,2,1,0} %param_10.218, f32[1,1,3584,7168]{3,2,1,0} %broadcast.439.clone.1), metadata={op_name="parallelize(train_step_func_pipeshard_parallel_mesh_1)/jit(main)/mul" source_file="/home/cyxue/miniconda3/envs/alpa/lib/python3.8/site-packages/optax/_src/transform.py" source_line=70}
  %add.188.clone.1 = f32[1,1,3584,7168]{3,2,1,0} add(f32[1,1,3584,7168]{3,2,1,0} %multiply.690.clone.1, f32[1,1,3584,7168]{3,2,1,0} %multiply.403.clone.1), metadata={op_name="parallelize(train_step_func_pipeshard_parallel_mesh_1)/jit(main)/add" source_file="/home/cyxue/miniconda3/envs/alpa/lib/python3.8/site-packages/optax/_src/transform.py" source_line=70}
  %multiply.245.clone.1 = f32[1,1,3584,7168]{3,2,1,0} multiply(f32[1,1,3584,7168]{3,2,1,0} %add.188.clone.1, f32[1,1,3584,7168]{3,2,1,0} %broadcast.439.clone.1), metadata={op_name="parallelize(train_step_func_pipeshard_parallel_mesh_1)/jit(main)/mul" source_file="/home/cyxue/miniconda3/envs/alpa/lib/python3.8/site-packages/optax/_src/transform.py" source_line=70}
  %add.60.clone.1 = f32[1,1,3584,7168]{3,2,1,0} add(f32[1,1,3584,7168]{3,2,1,0} %multiply.690.clone.1, f32[1,1,3584,7168]{3,2,1,0} %multiply.245.clone.1), metadata={op_name="parallelize(train_step_func_pipeshard_parallel_mesh_1)/jit(main)/add" source_file="/home/cyxue/miniconda3/envs/alpa/lib/python3.8/site-packages/optax/_src/transform.py" source_line=70}
  %multiply.244.clone.1 = f32[1,1,3584,7168]{3,2,1,0} multiply(f32[1,1,3584,7168]{3,2,1,0} %broadcast.259, f32[1,1,3584,7168]{3,2,1,0} %add.60.clone.1), metadata={op_name="parallelize(train_step_func_pipeshard_parallel_mesh_1)/jit(main)/mul" source_file="/home/cyxue/miniconda3/envs/alpa/lib/python3.8/site-packages/optax/_src/transform.py" source_line=694}
  %add.59.clone.1 = f32[1,1,3584,7168]{3,2,1,0} add(f32[1,1,3584,7168]{3,2,1,0} %param_5.585, f32[1,1,3584,7168]{3,2,1,0} %multiply.244.clone.1), metadata={op_name="parallelize(train_step_func_pipeshard_parallel_mesh_1)/jit(main)/add" source_file="/home/cyxue/miniconda3/envs/alpa/lib/python3.8/site-packages/optax/_src/update.py" source_line=43}
  %param_7.797 = f32[1,1,3584,7168]{3,2,1,0} parameter(7)
  %param_8.216 = f32[1,1,3584,7168]{3,2,1,0} parameter(8)
  %multiply.646.clone.1 = f32[1,1,3584,7168]{3,2,1,0} multiply(f32[1,1,3584,7168]{3,2,1,0} %param_8.216, f32[1,1,3584,7168]{3,2,1,0} %broadcast.654), metadata={op_name="parallelize(train_step_func_pipeshard_parallel_mesh_1)/jit(main)/div"}
  %param_11.219 = f32[1,1,3584,7168]{3,2,1,0} parameter(11)
  %multiply.425.clone.1 = f32[1,1,3584,7168]{3,2,1,0} multiply(f32[1,1,3584,7168]{3,2,1,0} %param_11.219, f32[1,1,3584,7168]{3,2,1,0} %broadcast.439.clone.1), metadata={op_name="parallelize(train_step_func_pipeshard_parallel_mesh_1)/jit(main)/mul" source_file="/home/cyxue/miniconda3/envs/alpa/lib/python3.8/site-packages/optax/_src/transform.py" source_line=70}
  %add.199.clone.1 = f32[1,1,3584,7168]{3,2,1,0} add(f32[1,1,3584,7168]{3,2,1,0} %multiply.646.clone.1, f32[1,1,3584,7168]{3,2,1,0} %multiply.425.clone.1), metadata={op_name="parallelize(train_step_func_pipeshard_parallel_mesh_1)/jit(main)/add" source_file="/home/cyxue/miniconda3/envs/alpa/lib/python3.8/site-packages/optax/_src/transform.py" source_line=70}
  %multiply.267.clone.1 = f32[1,1,3584,7168]{3,2,1,0} multiply(f32[1,1,3584,7168]{3,2,1,0} %add.199.clone.1, f32[1,1,3584,7168]{3,2,1,0} %broadcast.439.clone.1), metadata={op_name="parallelize(train_step_func_pipeshard_parallel_mesh_1)/jit(main)/mul" source_file="/home/cyxue/miniconda3/envs/alpa/lib/python3.8/site-packages/optax/_src/transform.py" source_line=70}
  %add.82.clone.1 = f32[1,1,3584,7168]{3,2,1,0} add(f32[1,1,3584,7168]{3,2,1,0} %multiply.646.clone.1, f32[1,1,3584,7168]{3,2,1,0} %multiply.267.clone.1), metadata={op_name="parallelize(train_step_func_pipeshard_parallel_mesh_1)/jit(main)/add" source_file="/home/cyxue/miniconda3/envs/alpa/lib/python3.8/site-packages/optax/_src/transform.py" source_line=70}
  %multiply.266.clone.1 = f32[1,1,3584,7168]{3,2,1,0} multiply(f32[1,1,3584,7168]{3,2,1,0} %broadcast.259, f32[1,1,3584,7168]{3,2,1,0} %add.82.clone.1), metadata={op_name="parallelize(train_step_func_pipeshard_parallel_mesh_1)/jit(main)/mul" source_file="/home/cyxue/miniconda3/envs/alpa/lib/python3.8/site-packages/optax/_src/transform.py" source_line=694}
  %add.81.clone.1 = f32[1,1,3584,7168]{3,2,1,0} add(f32[1,1,3584,7168]{3,2,1,0} %param_7.797, f32[1,1,3584,7168]{3,2,1,0} %multiply.266.clone.1), metadata={op_name="parallelize(train_step_func_pipeshard_parallel_mesh_1)/jit(main)/add" source_file="/home/cyxue/miniconda3/envs/alpa/lib/python3.8/site-packages/optax/_src/update.py" source_line=43}
  ROOT %tuple.93 = (f32[1,1,3584,7168]{3,2,1,0}, f32[1,1,3584,7168]{3,2,1,0}, f32[1,1,3584,7168]{3,2,1,0}, f32[1,1,3584,7168]{3,2,1,0}, f32[1,1,3584,7168]{3,2,1,0}, /*index=5*/f32[1,1,3584,7168]{3,2,1,0}, f32[1,1,3584,7168]{3,2,1,0}, f32[1,1,3584,7168]{3,2,1,0}) tuple(f32[1,1,3584,7168]{3,2,1,0} %add.83, f32[1,1,3584,7168]{3,2,1,0} %add.41.clone.1, f32[1,1,3584,7168]{3,2,1,0} %add.59.clone.1, f32[1,1,3584,7168]{3,2,1,0} %add.81.clone.1, f32[1,1,3584,7168]{3,2,1,0} %add.179.clone.1, /*index=5*/f32[1,1,3584,7168]{3,2,1,0} %add.188.clone.1, f32[1,1,3584,7168]{3,2,1,0} %add.199.clone.1, f32[1,1,3584,7168]{3,2,1,0} %add.200.clone.1)
}

%fused_computation.92 (param_0.93: f32[3,3,1792,3584], param_1.809: f32[3,3,1792,3584], param_2.709: s32[], param_3.715: f32[3,3,1792,3584], param_4.877: f32[3,3,1792,3584], param_5.586: f32[3,3,1792,3584], param_6.1055: f32[3,3,1792,3584], param_7.798: f32[3,3,1792,3584], param_8.217: f32[3,3,1792,3584], param_9.120: f32[3,3,1792,3584]) -> (f32[3,3,1792,3584], f32[3,3,1792,3584], f32[3,3,1792,3584], f32[3,3,1792,3584], f32[3,3,1792,3584], /*index=5*/f32[3,3,1792,3584]) {
  %param_0.93 = f32[3,3,1792,3584]{3,2,1,0} parameter(0)
  %param_2.709 = s32[] parameter(2)
  %convert.41 = f32[] convert(s32[] %param_2.709), metadata={op_name="parallelize(train_step_func_pipeshard_parallel_mesh_1)/jit(main)/convert_element_type[new_dtype=float32 weak_type=True]" source_file="/home/cyxue/miniconda3/envs/alpa/lib/python3.8/site-packages/optax/_src/schedule.py" source_line=394}
  %constant_1158 = f32[] constant(50000)
  %compare.21 = pred[] compare(f32[] %convert.41, f32[] %constant_1158), direction=LT, metadata={op_name="parallelize(train_step_func_pipeshard_parallel_mesh_1)/jit(main)/lt" source_file="/home/cyxue/miniconda3/envs/alpa/lib/python3.8/site-packages/optax/_src/schedule.py" source_line=394}
  %constant_1157 = f32[] constant(1)
  %constant_1156 = s32[] constant(0)
  %maximum.20 = s32[] maximum(s32[] %param_2.709, s32[] %constant_1156), metadata={op_name="parallelize(train_step_func_pipeshard_parallel_mesh_1)/jit(main)/max" source_file="/home/cyxue/miniconda3/envs/alpa/lib/python3.8/site-packages/optax/_src/schedule.py" source_line=86}
  %convert.40 = f32[] convert(s32[] %maximum.20), metadata={op_name="parallelize(train_step_func_pipeshard_parallel_mesh_1)/jit(main)/convert_element_type[new_dtype=float32 weak_type=True]" source_file="/home/cyxue/miniconda3/envs/alpa/lib/python3.8/site-packages/optax/_src/schedule.py" source_line=86}
  %minimum.41 = f32[] minimum(f32[] %convert.40, f32[] %constant_1158), metadata={op_name="parallelize(train_step_func_pipeshard_parallel_mesh_1)/jit(main)/min" source_file="/home/cyxue/miniconda3/envs/alpa/lib/python3.8/site-packages/optax/_src/schedule.py" source_line=86}
  %constant_1155 = f32[] constant(2e-05)
  %multiply.906 = f32[] multiply(f32[] %minimum.41, f32[] %constant_1155), metadata={op_name="parallelize(train_step_func_pipeshard_parallel_mesh_1)/jit(main)/div" source_file="/home/cyxue/miniconda3/envs/alpa/lib/python3.8/site-packages/optax/_src/schedule.py" source_line=87}
  %subtract.20 = f32[] subtract(f32[] %constant_1157, f32[] %multiply.906), metadata={op_name="parallelize(train_step_func_pipeshard_parallel_mesh_1)/jit(main)/sub" source_file="/home/cyxue/miniconda3/envs/alpa/lib/python3.8/site-packages/optax/_src/schedule.py" source_line=87}
  %constant_1154 = f32[] constant(-0.1)
  %multiply.905 = f32[] multiply(f32[] %subtract.20, f32[] %constant_1154), metadata={op_name="parallelize(train_step_func_pipeshard_parallel_mesh_1)/jit(main)/mul" source_file="/home/cyxue/miniconda3/envs/alpa/lib/python3.8/site-packages/optax/_src/schedule.py" source_line=88}
  %constant_1153 = f32[] constant(0.1)
  %add.295 = f32[] add(f32[] %multiply.905, f32[] %constant_1153), metadata={op_name="parallelize(train_step_func_pipeshard_parallel_mesh_1)/jit(main)/add" source_file="/home/cyxue/miniconda3/envs/alpa/lib/python3.8/site-packages/optax/_src/schedule.py" source_line=88}
  %constant_1152 = f32[] constant(-50000)
  %add.294 = f32[] add(f32[] %convert.41, f32[] %constant_1152), metadata={op_name="parallelize(train_step_func_pipeshard_parallel_mesh_1)/jit(main)/sub" source_file="/home/cyxue/miniconda3/envs/alpa/lib/python3.8/site-packages/optax/_src/schedule.py" source_line=394}
  %constant_1151 = f32[] constant(950000)
  %minimum.40 = f32[] minimum(f32[] %add.294, f32[] %constant_1151), metadata={op_name="parallelize(train_step_func_pipeshard_parallel_mesh_1)/jit(main)/min" source_file="/home/cyxue/miniconda3/envs/alpa/lib/python3.8/site-packages/optax/_src/schedule.py" source_line=235}
  %constant_1150 = f32[] constant(3.30693956e-06)
  %multiply.904 = f32[] multiply(f32[] %minimum.40, f32[] %constant_1150), metadata={op_name="parallelize(train_step_func_pipeshard_parallel_mesh_1)/jit(main)/div" source_file="/home/cyxue/miniconda3/envs/alpa/lib/python3.8/site-packages/optax/_src/schedule.py" source_line=236}
  %cosine.20 = f32[] cosine(f32[] %multiply.904), metadata={op_name="parallelize(train_step_func_pipeshard_parallel_mesh_1)/jit(main)/cos" source_file="/home/cyxue/miniconda3/envs/alpa/lib/python3.8/site-packages/optax/_src/schedule.py" source_line=236}
  %add.293 = f32[] add(f32[] %cosine.20, f32[] %constant_1157), metadata={op_name="parallelize(train_step_func_pipeshard_parallel_mesh_1)/jit(main)/add" source_file="/home/cyxue/miniconda3/envs/alpa/lib/python3.8/site-packages/optax/_src/schedule.py" source_line=236}
  %constant_1149 = f32[] constant(0.05)
  %multiply.903 = f32[] multiply(f32[] %add.293, f32[] %constant_1149), metadata={op_name="parallelize(train_step_func_pipeshard_parallel_mesh_1)/jit(main)/mul" source_file="/home/cyxue/miniconda3/envs/alpa/lib/python3.8/site-packages/optax/_src/schedule.py" source_line=238}
  %select.21 = f32[] select(pred[] %compare.21, f32[] %add.295, f32[] %multiply.903), metadata={op_name="parallelize(train_step_func_pipeshard_parallel_mesh_1)/jit(main)/select_n" source_file="/home/cyxue/miniconda3/envs/alpa/lib/python3.8/site-packages/optax/_src/schedule.py" source_line=394}
  %constant_1148 = f32[] constant(-1)
  %multiply.902 = f32[] multiply(f32[] %select.21, f32[] %constant_1148), metadata={op_name="parallelize(train_step_func_pipeshard_parallel_mesh_1)/jit(main)/mul" source_file="/home/cyxue/miniconda3/envs/alpa/lib/python3.8/site-packages/optax/_src/alias.py" source_line=37}
  %broadcast.261 = f32[3,3,1792,3584]{3,2,1,0} broadcast(f32[] %multiply.902), dimensions={}, metadata={op_name="parallelize(train_step_func_pipeshard_parallel_mesh_1)/jit(main)/mul" source_file="/home/cyxue/miniconda3/envs/alpa/lib/python3.8/site-packages/optax/_src/transform.py" source_line=694}
  %param_1.809 = f32[3,3,1792,3584]{3,2,1,0} parameter(1)
  %constant_676 = f32[] constant(0.0625)
  %broadcast.650 = f32[3,3,1792,3584]{3,2,1,0} broadcast(f32[] %constant_676), dimensions={}, metadata={op_name="parallelize(train_step_func_pipeshard_parallel_mesh_1)/jit(main)/div"}
  %multiply.638 = f32[3,3,1792,3584]{3,2,1,0} multiply(f32[3,3,1792,3584]{3,2,1,0} %param_1.809, f32[3,3,1792,3584]{3,2,1,0} %broadcast.650), metadata={op_name="parallelize(train_step_func_pipeshard_parallel_mesh_1)/jit(main)/div"}
  %param_9.120 = f32[3,3,1792,3584]{3,2,1,0} parameter(9)
  %constant_239 = f32[] constant(0.9)
  %broadcast.441.clone.1 = f32[3,3,1792,3584]{3,2,1,0} broadcast(f32[] %constant_239), dimensions={}, metadata={op_name="parallelize(train_step_func_pipeshard_parallel_mesh_1)/jit(main)/mul" source_file="/home/cyxue/miniconda3/envs/alpa/lib/python3.8/site-packages/optax/_src/transform.py" source_line=70}
  %multiply.429.clone.1 = f32[3,3,1792,3584]{3,2,1,0} multiply(f32[3,3,1792,3584]{3,2,1,0} %param_9.120, f32[3,3,1792,3584]{3,2,1,0} %broadcast.441.clone.1), metadata={op_name="parallelize(train_step_func_pipeshard_parallel_mesh_1)/jit(main)/mul" source_file="/home/cyxue/miniconda3/envs/alpa/lib/python3.8/site-packages/optax/_src/transform.py" source_line=70}
  %add.201.clone.1 = f32[3,3,1792,3584]{3,2,1,0} add(f32[3,3,1792,3584]{3,2,1,0} %multiply.638, f32[3,3,1792,3584]{3,2,1,0} %multiply.429.clone.1), metadata={op_name="parallelize(train_step_func_pipeshard_parallel_mesh_1)/jit(main)/add" source_file="/home/cyxue/miniconda3/envs/alpa/lib/python3.8/site-packages/optax/_src/transform.py" source_line=70}
  %multiply.271 = f32[3,3,1792,3584]{3,2,1,0} multiply(f32[3,3,1792,3584]{3,2,1,0} %add.201.clone.1, f32[3,3,1792,3584]{3,2,1,0} %broadcast.441.clone.1), metadata={op_name="parallelize(train_step_func_pipeshard_parallel_mesh_1)/jit(main)/mul" source_file="/home/cyxue/miniconda3/envs/alpa/lib/python3.8/site-packages/optax/_src/transform.py" source_line=70}
  %add.86 = f32[3,3,1792,3584]{3,2,1,0} add(f32[3,3,1792,3584]{3,2,1,0} %multiply.638, f32[3,3,1792,3584]{3,2,1,0} %multiply.271), metadata={op_name="parallelize(train_step_func_pipeshard_parallel_mesh_1)/jit(main)/add" source_file="/home/cyxue/miniconda3/envs/alpa/lib/python3.8/site-packages/optax/_src/transform.py" source_line=70}
  %multiply.270 = f32[3,3,1792,3584]{3,2,1,0} multiply(f32[3,3,1792,3584]{3,2,1,0} %broadcast.261, f32[3,3,1792,3584]{3,2,1,0} %add.86), metadata={op_name="parallelize(train_step_func_pipeshard_parallel_mesh_1)/jit(main)/mul" source_file="/home/cyxue/miniconda3/envs/alpa/lib/python3.8/site-packages/optax/_src/transform.py" source_line=694}
  %add.85 = f32[3,3,1792,3584]{3,2,1,0} add(f32[3,3,1792,3584]{3,2,1,0} %param_0.93, f32[3,3,1792,3584]{3,2,1,0} %multiply.270), metadata={op_name="parallelize(train_step_func_pipeshard_parallel_mesh_1)/jit(main)/add" source_file="/home/cyxue/miniconda3/envs/alpa/lib/python3.8/site-packages/optax/_src/update.py" source_line=43}
  %param_3.715 = f32[3,3,1792,3584]{3,2,1,0} parameter(3)
  %param_4.877 = f32[3,3,1792,3584]{3,2,1,0} parameter(4)
  %multiply.722.clone.1 = f32[3,3,1792,3584]{3,2,1,0} multiply(f32[3,3,1792,3584]{3,2,1,0} %param_4.877, f32[3,3,1792,3584]{3,2,1,0} %broadcast.650), metadata={op_name="parallelize(train_step_func_pipeshard_parallel_mesh_1)/jit(main)/div"}
  %param_7.798 = f32[3,3,1792,3584]{3,2,1,0} parameter(7)
  %multiply.387.clone.1 = f32[3,3,1792,3584]{3,2,1,0} multiply(f32[3,3,1792,3584]{3,2,1,0} %param_7.798, f32[3,3,1792,3584]{3,2,1,0} %broadcast.441.clone.1), metadata={op_name="parallelize(train_step_func_pipeshard_parallel_mesh_1)/jit(main)/mul" source_file="/home/cyxue/miniconda3/envs/alpa/lib/python3.8/site-packages/optax/_src/transform.py" source_line=70}
  %add.180.clone.1 = f32[3,3,1792,3584]{3,2,1,0} add(f32[3,3,1792,3584]{3,2,1,0} %multiply.722.clone.1, f32[3,3,1792,3584]{3,2,1,0} %multiply.387.clone.1), metadata={op_name="parallelize(train_step_func_pipeshard_parallel_mesh_1)/jit(main)/add" source_file="/home/cyxue/miniconda3/envs/alpa/lib/python3.8/site-packages/optax/_src/transform.py" source_line=70}
  %multiply.229.clone.1 = f32[3,3,1792,3584]{3,2,1,0} multiply(f32[3,3,1792,3584]{3,2,1,0} %add.180.clone.1, f32[3,3,1792,3584]{3,2,1,0} %broadcast.441.clone.1), metadata={op_name="parallelize(train_step_func_pipeshard_parallel_mesh_1)/jit(main)/mul" source_file="/home/cyxue/miniconda3/envs/alpa/lib/python3.8/site-packages/optax/_src/transform.py" source_line=70}
  %add.44.clone.1 = f32[3,3,1792,3584]{3,2,1,0} add(f32[3,3,1792,3584]{3,2,1,0} %multiply.722.clone.1, f32[3,3,1792,3584]{3,2,1,0} %multiply.229.clone.1), metadata={op_name="parallelize(train_step_func_pipeshard_parallel_mesh_1)/jit(main)/add" source_file="/home/cyxue/miniconda3/envs/alpa/lib/python3.8/site-packages/optax/_src/transform.py" source_line=70}
  %multiply.228.clone.1 = f32[3,3,1792,3584]{3,2,1,0} multiply(f32[3,3,1792,3584]{3,2,1,0} %broadcast.261, f32[3,3,1792,3584]{3,2,1,0} %add.44.clone.1), metadata={op_name="parallelize(train_step_func_pipeshard_parallel_mesh_1)/jit(main)/mul" source_file="/home/cyxue/miniconda3/envs/alpa/lib/python3.8/site-packages/optax/_src/transform.py" source_line=694}
  %add.43.clone.1 = f32[3,3,1792,3584]{3,2,1,0} add(f32[3,3,1792,3584]{3,2,1,0} %param_3.715, f32[3,3,1792,3584]{3,2,1,0} %multiply.228.clone.1), metadata={op_name="parallelize(train_step_func_pipeshard_parallel_mesh_1)/jit(main)/add" source_file="/home/cyxue/miniconda3/envs/alpa/lib/python3.8/site-packages/optax/_src/update.py" source_line=43}
  %param_5.586 = f32[3,3,1792,3584]{3,2,1,0} parameter(5)
  %param_6.1055 = f32[3,3,1792,3584]{3,2,1,0} parameter(6)
  %multiply.686.clone.1 = f32[3,3,1792,3584]{3,2,1,0} multiply(f32[3,3,1792,3584]{3,2,1,0} %param_6.1055, f32[3,3,1792,3584]{3,2,1,0} %broadcast.650), metadata={op_name="parallelize(train_step_func_pipeshard_parallel_mesh_1)/jit(main)/div"}
  %param_8.217 = f32[3,3,1792,3584]{3,2,1,0} parameter(8)
  %multiply.405.clone.1 = f32[3,3,1792,3584]{3,2,1,0} multiply(f32[3,3,1792,3584]{3,2,1,0} %param_8.217, f32[3,3,1792,3584]{3,2,1,0} %broadcast.441.clone.1), metadata={op_name="parallelize(train_step_func_pipeshard_parallel_mesh_1)/jit(main)/mul" source_file="/home/cyxue/miniconda3/envs/alpa/lib/python3.8/site-packages/optax/_src/transform.py" source_line=70}
  %add.189.clone.1 = f32[3,3,1792,3584]{3,2,1,0} add(f32[3,3,1792,3584]{3,2,1,0} %multiply.686.clone.1, f32[3,3,1792,3584]{3,2,1,0} %multiply.405.clone.1), metadata={op_name="parallelize(train_step_func_pipeshard_parallel_mesh_1)/jit(main)/add" source_file="/home/cyxue/miniconda3/envs/alpa/lib/python3.8/site-packages/optax/_src/transform.py" source_line=70}
  %multiply.247.clone.1 = f32[3,3,1792,3584]{3,2,1,0} multiply(f32[3,3,1792,3584]{3,2,1,0} %add.189.clone.1, f32[3,3,1792,3584]{3,2,1,0} %broadcast.441.clone.1), metadata={op_name="parallelize(train_step_func_pipeshard_parallel_mesh_1)/jit(main)/mul" source_file="/home/cyxue/miniconda3/envs/alpa/lib/python3.8/site-packages/optax/_src/transform.py" source_line=70}
  %add.62.clone.1 = f32[3,3,1792,3584]{3,2,1,0} add(f32[3,3,1792,3584]{3,2,1,0} %multiply.686.clone.1, f32[3,3,1792,3584]{3,2,1,0} %multiply.247.clone.1), metadata={op_name="parallelize(train_step_func_pipeshard_parallel_mesh_1)/jit(main)/add" source_file="/home/cyxue/miniconda3/envs/alpa/lib/python3.8/site-packages/optax/_src/transform.py" source_line=70}
  %multiply.246.clone.1 = f32[3,3,1792,3584]{3,2,1,0} multiply(f32[3,3,1792,3584]{3,2,1,0} %broadcast.261, f32[3,3,1792,3584]{3,2,1,0} %add.62.clone.1), metadata={op_name="parallelize(train_step_func_pipeshard_parallel_mesh_1)/jit(main)/mul" source_file="/home/cyxue/miniconda3/envs/alpa/lib/python3.8/site-packages/optax/_src/transform.py" source_line=694}
  %add.61.clone.1 = f32[3,3,1792,3584]{3,2,1,0} add(f32[3,3,1792,3584]{3,2,1,0} %param_5.586, f32[3,3,1792,3584]{3,2,1,0} %multiply.246.clone.1), metadata={op_name="parallelize(train_step_func_pipeshard_parallel_mesh_1)/jit(main)/add" source_file="/home/cyxue/miniconda3/envs/alpa/lib/python3.8/site-packages/optax/_src/update.py" source_line=43}
  ROOT %tuple.94 = (f32[3,3,1792,3584]{3,2,1,0}, f32[3,3,1792,3584]{3,2,1,0}, f32[3,3,1792,3584]{3,2,1,0}, f32[3,3,1792,3584]{3,2,1,0}, f32[3,3,1792,3584]{3,2,1,0}, /*index=5*/f32[3,3,1792,3584]{3,2,1,0}) tuple(f32[3,3,1792,3584]{3,2,1,0} %add.85, f32[3,3,1792,3584]{3,2,1,0} %add.43.clone.1, f32[3,3,1792,3584]{3,2,1,0} %add.61.clone.1, f32[3,3,1792,3584]{3,2,1,0} %add.180.clone.1, f32[3,3,1792,3584]{3,2,1,0} %add.189.clone.1, /*index=5*/f32[3,3,1792,3584]{3,2,1,0} %add.201.clone.1)
}

%fused_computation.93 (param_0.94: f32[1,1,3584,1792], param_1.810: f32[1,1,3584,1792], param_2.710: s32[], param_3.717: f32[1,1,3584,1792]) -> (f32[1,1,3584,1792], f32[1,1,3584,1792]) {
  %param_0.94 = f32[1,1,3584,1792]{3,2,1,0} parameter(0)
  %param_2.710 = s32[] parameter(2)
  %convert.25 = f32[] convert(s32[] %param_2.710), metadata={op_name="parallelize(train_step_func_pipeshard_parallel_mesh_1)/jit(main)/convert_element_type[new_dtype=float32 weak_type=True]" source_file="/home/cyxue/miniconda3/envs/alpa/lib/python3.8/site-packages/optax/_src/schedule.py" source_line=394}
  %constant_1066 = f32[] constant(50000)
  %compare.13 = pred[] compare(f32[] %convert.25, f32[] %constant_1066), direction=LT, metadata={op_name="parallelize(train_step_func_pipeshard_parallel_mesh_1)/jit(main)/lt" source_file="/home/cyxue/miniconda3/envs/alpa/lib/python3.8/site-packages/optax/_src/schedule.py" source_line=394}
  %constant_1065 = f32[] constant(1)
  %constant_1064 = s32[] constant(0)
  %maximum.12 = s32[] maximum(s32[] %param_2.710, s32[] %constant_1064), metadata={op_name="parallelize(train_step_func_pipeshard_parallel_mesh_1)/jit(main)/max" source_file="/home/cyxue/miniconda3/envs/alpa/lib/python3.8/site-packages/optax/_src/schedule.py" source_line=86}
  %convert.24 = f32[] convert(s32[] %maximum.12), metadata={op_name="parallelize(train_step_func_pipeshard_parallel_mesh_1)/jit(main)/convert_element_type[new_dtype=float32 weak_type=True]" source_file="/home/cyxue/miniconda3/envs/alpa/lib/python3.8/site-packages/optax/_src/schedule.py" source_line=86}
  %minimum.25 = f32[] minimum(f32[] %convert.24, f32[] %constant_1066), metadata={op_name="parallelize(train_step_func_pipeshard_parallel_mesh_1)/jit(main)/min" source_file="/home/cyxue/miniconda3/envs/alpa/lib/python3.8/site-packages/optax/_src/schedule.py" source_line=86}
  %constant_1063 = f32[] constant(2e-05)
  %multiply.866 = f32[] multiply(f32[] %minimum.25, f32[] %constant_1063), metadata={op_name="parallelize(train_step_func_pipeshard_parallel_mesh_1)/jit(main)/div" source_file="/home/cyxue/miniconda3/envs/alpa/lib/python3.8/site-packages/optax/_src/schedule.py" source_line=87}
  %subtract.12 = f32[] subtract(f32[] %constant_1065, f32[] %multiply.866), metadata={op_name="parallelize(train_step_func_pipeshard_parallel_mesh_1)/jit(main)/sub" source_file="/home/cyxue/miniconda3/envs/alpa/lib/python3.8/site-packages/optax/_src/schedule.py" source_line=87}
  %constant_1062 = f32[] constant(-0.1)
  %multiply.865 = f32[] multiply(f32[] %subtract.12, f32[] %constant_1062), metadata={op_name="parallelize(train_step_func_pipeshard_parallel_mesh_1)/jit(main)/mul" source_file="/home/cyxue/miniconda3/envs/alpa/lib/python3.8/site-packages/optax/_src/schedule.py" source_line=88}
  %constant_1061 = f32[] constant(0.1)
  %add.271 = f32[] add(f32[] %multiply.865, f32[] %constant_1061), metadata={op_name="parallelize(train_step_func_pipeshard_parallel_mesh_1)/jit(main)/add" source_file="/home/cyxue/miniconda3/envs/alpa/lib/python3.8/site-packages/optax/_src/schedule.py" source_line=88}
  %constant_1060 = f32[] constant(-50000)
  %add.270 = f32[] add(f32[] %convert.25, f32[] %constant_1060), metadata={op_name="parallelize(train_step_func_pipeshard_parallel_mesh_1)/jit(main)/sub" source_file="/home/cyxue/miniconda3/envs/alpa/lib/python3.8/site-packages/optax/_src/schedule.py" source_line=394}
  %constant_1059 = f32[] constant(950000)
  %minimum.24 = f32[] minimum(f32[] %add.270, f32[] %constant_1059), metadata={op_name="parallelize(train_step_func_pipeshard_parallel_mesh_1)/jit(main)/min" source_file="/home/cyxue/miniconda3/envs/alpa/lib/python3.8/site-packages/optax/_src/schedule.py" source_line=235}
  %constant_1058 = f32[] constant(3.30693956e-06)
  %multiply.864 = f32[] multiply(f32[] %minimum.24, f32[] %constant_1058), metadata={op_name="parallelize(train_step_func_pipeshard_parallel_mesh_1)/jit(main)/div" source_file="/home/cyxue/miniconda3/envs/alpa/lib/python3.8/site-packages/optax/_src/schedule.py" source_line=236}
  %cosine.12 = f32[] cosine(f32[] %multiply.864), metadata={op_name="parallelize(train_step_func_pipeshard_parallel_mesh_1)/jit(main)/cos" source_file="/home/cyxue/miniconda3/envs/alpa/lib/python3.8/site-packages/optax/_src/schedule.py" source_line=236}
  %add.269 = f32[] add(f32[] %cosine.12, f32[] %constant_1065), metadata={op_name="parallelize(train_step_func_pipeshard_parallel_mesh_1)/jit(main)/add" source_file="/home/cyxue/miniconda3/envs/alpa/lib/python3.8/site-packages/optax/_src/schedule.py" source_line=236}
  %constant_1057 = f32[] constant(0.05)
  %multiply.863 = f32[] multiply(f32[] %add.269, f32[] %constant_1057), metadata={op_name="parallelize(train_step_func_pipeshard_parallel_mesh_1)/jit(main)/mul" source_file="/home/cyxue/miniconda3/envs/alpa/lib/python3.8/site-packages/optax/_src/schedule.py" source_line=238}
  %select.13 = f32[] select(pred[] %compare.13, f32[] %add.271, f32[] %multiply.863), metadata={op_name="parallelize(train_step_func_pipeshard_parallel_mesh_1)/jit(main)/select_n" source_file="/home/cyxue/miniconda3/envs/alpa/lib/python3.8/site-packages/optax/_src/schedule.py" source_line=394}
  %constant_1056 = f32[] constant(-1)
  %multiply.862 = f32[] multiply(f32[] %select.13, f32[] %constant_1056), metadata={op_name="parallelize(train_step_func_pipeshard_parallel_mesh_1)/jit(main)/mul" source_file="/home/cyxue/miniconda3/envs/alpa/lib/python3.8/site-packages/optax/_src/alias.py" source_line=37}
  %broadcast.263 = f32[1,1,3584,1792]{3,2,1,0} broadcast(f32[] %multiply.862), dimensions={}, metadata={op_name="parallelize(train_step_func_pipeshard_parallel_mesh_1)/jit(main)/mul" source_file="/home/cyxue/miniconda3/envs/alpa/lib/python3.8/site-packages/optax/_src/transform.py" source_line=694}
  %param_1.810 = f32[1,1,3584,1792]{3,2,1,0} parameter(1)
  %constant_670 = f32[] constant(0.0625)
  %broadcast.646 = f32[1,1,3584,1792]{3,2,1,0} broadcast(f32[] %constant_670), dimensions={}, metadata={op_name="parallelize(train_step_func_pipeshard_parallel_mesh_1)/jit(main)/div"}
  %multiply.634 = f32[1,1,3584,1792]{3,2,1,0} multiply(f32[1,1,3584,1792]{3,2,1,0} %param_1.810, f32[1,1,3584,1792]{3,2,1,0} %broadcast.646), metadata={op_name="parallelize(train_step_func_pipeshard_parallel_mesh_1)/jit(main)/div"}
  %param_3.717 = f32[1,1,3584,1792]{3,2,1,0} parameter(3)
  %constant_240 = f32[] constant(0.9)
  %broadcast.443.clone.1 = f32[1,1,3584,1792]{3,2,1,0} broadcast(f32[] %constant_240), dimensions={}, metadata={op_name="parallelize(train_step_func_pipeshard_parallel_mesh_1)/jit(main)/mul" source_file="/home/cyxue/miniconda3/envs/alpa/lib/python3.8/site-packages/optax/_src/transform.py" source_line=70}
  %multiply.431.clone.1 = f32[1,1,3584,1792]{3,2,1,0} multiply(f32[1,1,3584,1792]{3,2,1,0} %param_3.717, f32[1,1,3584,1792]{3,2,1,0} %broadcast.443.clone.1), metadata={op_name="parallelize(train_step_func_pipeshard_parallel_mesh_1)/jit(main)/mul" source_file="/home/cyxue/miniconda3/envs/alpa/lib/python3.8/site-packages/optax/_src/transform.py" source_line=70}
  %add.202.clone.1 = f32[1,1,3584,1792]{3,2,1,0} add(f32[1,1,3584,1792]{3,2,1,0} %multiply.634, f32[1,1,3584,1792]{3,2,1,0} %multiply.431.clone.1), metadata={op_name="parallelize(train_step_func_pipeshard_parallel_mesh_1)/jit(main)/add" source_file="/home/cyxue/miniconda3/envs/alpa/lib/python3.8/site-packages/optax/_src/transform.py" source_line=70}
  %multiply.273 = f32[1,1,3584,1792]{3,2,1,0} multiply(f32[1,1,3584,1792]{3,2,1,0} %add.202.clone.1, f32[1,1,3584,1792]{3,2,1,0} %broadcast.443.clone.1), metadata={op_name="parallelize(train_step_func_pipeshard_parallel_mesh_1)/jit(main)/mul" source_file="/home/cyxue/miniconda3/envs/alpa/lib/python3.8/site-packages/optax/_src/transform.py" source_line=70}
  %add.88 = f32[1,1,3584,1792]{3,2,1,0} add(f32[1,1,3584,1792]{3,2,1,0} %multiply.634, f32[1,1,3584,1792]{3,2,1,0} %multiply.273), metadata={op_name="parallelize(train_step_func_pipeshard_parallel_mesh_1)/jit(main)/add" source_file="/home/cyxue/miniconda3/envs/alpa/lib/python3.8/site-packages/optax/_src/transform.py" source_line=70}
  %multiply.272 = f32[1,1,3584,1792]{3,2,1,0} multiply(f32[1,1,3584,1792]{3,2,1,0} %broadcast.263, f32[1,1,3584,1792]{3,2,1,0} %add.88), metadata={op_name="parallelize(train_step_func_pipeshard_parallel_mesh_1)/jit(main)/mul" source_file="/home/cyxue/miniconda3/envs/alpa/lib/python3.8/site-packages/optax/_src/transform.py" source_line=694}
  %add.87 = f32[1,1,3584,1792]{3,2,1,0} add(f32[1,1,3584,1792]{3,2,1,0} %param_0.94, f32[1,1,3584,1792]{3,2,1,0} %multiply.272), metadata={op_name="parallelize(train_step_func_pipeshard_parallel_mesh_1)/jit(main)/add" source_file="/home/cyxue/miniconda3/envs/alpa/lib/python3.8/site-packages/optax/_src/update.py" source_line=43}
  ROOT %tuple.95 = (f32[1,1,3584,1792]{3,2,1,0}, f32[1,1,3584,1792]{3,2,1,0}) tuple(f32[1,1,3584,1792]{3,2,1,0} %add.87, f32[1,1,3584,1792]{3,2,1,0} %add.202.clone.1)
}

%fused_computation.95 (param_0.96: f32[7168], param_1.811: f32[7168], param_2.711: s32[], param_3.718: f32[7168], param_4.882: f32[7168], param_5.589: f32[7168], param_6.1056: f32[7168], param_7.799: f32[7168], param_8.218: f32[7168], param_9.121: f32[7168], param_10.223: f32[7168], param_11.222: f32[7168], param_12.112: f32[7168], param_13.206: f32[7168], param_14.202: f32[7168], param_15.103: f32[7168], param_16.188: f32[7168], param_17.175: f32[7168], param_18.74: f32[7168], param_19.132: f32[7168], param_20.127: f32[7168], param_21.56: f32[7168], param_22.96: f32[7168], param_23.100: f32[7168], param_24.64: f32[7168]) -> (f32[7168], f32[7168], f32[7168], f32[7168], f32[7168], /*index=5*/f32[7168], f32[7168], f32[7168], f32[7168], f32[7168], /*index=10*/f32[7168], f32[7168], f32[7168], f32[7168], f32[7168], /*index=15*/f32[7168]) {
  %param_0.96 = f32[7168]{0} parameter(0)
  %param_2.711 = s32[] parameter(2)
  %convert.49 = f32[] convert(s32[] %param_2.711), metadata={op_name="parallelize(train_step_func_pipeshard_parallel_mesh_1)/jit(main)/convert_element_type[new_dtype=float32 weak_type=True]" source_file="/home/cyxue/miniconda3/envs/alpa/lib/python3.8/site-packages/optax/_src/schedule.py" source_line=394}
  %constant_1204 = f32[] constant(50000)
  %compare.25 = pred[] compare(f32[] %convert.49, f32[] %constant_1204), direction=LT, metadata={op_name="parallelize(train_step_func_pipeshard_parallel_mesh_1)/jit(main)/lt" source_file="/home/cyxue/miniconda3/envs/alpa/lib/python3.8/site-packages/optax/_src/schedule.py" source_line=394}
  %constant_1203 = f32[] constant(1)
  %constant_1202 = s32[] constant(0)
  %maximum.24 = s32[] maximum(s32[] %param_2.711, s32[] %constant_1202), metadata={op_name="parallelize(train_step_func_pipeshard_parallel_mesh_1)/jit(main)/max" source_file="/home/cyxue/miniconda3/envs/alpa/lib/python3.8/site-packages/optax/_src/schedule.py" source_line=86}
  %convert.48 = f32[] convert(s32[] %maximum.24), metadata={op_name="parallelize(train_step_func_pipeshard_parallel_mesh_1)/jit(main)/convert_element_type[new_dtype=float32 weak_type=True]" source_file="/home/cyxue/miniconda3/envs/alpa/lib/python3.8/site-packages/optax/_src/schedule.py" source_line=86}
  %minimum.49 = f32[] minimum(f32[] %convert.48, f32[] %constant_1204), metadata={op_name="parallelize(train_step_func_pipeshard_parallel_mesh_1)/jit(main)/min" source_file="/home/cyxue/miniconda3/envs/alpa/lib/python3.8/site-packages/optax/_src/schedule.py" source_line=86}
  %constant_1201 = f32[] constant(2e-05)
  %multiply.926 = f32[] multiply(f32[] %minimum.49, f32[] %constant_1201), metadata={op_name="parallelize(train_step_func_pipeshard_parallel_mesh_1)/jit(main)/div" source_file="/home/cyxue/miniconda3/envs/alpa/lib/python3.8/site-packages/optax/_src/schedule.py" source_line=87}
  %subtract.24 = f32[] subtract(f32[] %constant_1203, f32[] %multiply.926), metadata={op_name="parallelize(train_step_func_pipeshard_parallel_mesh_1)/jit(main)/sub" source_file="/home/cyxue/miniconda3/envs/alpa/lib/python3.8/site-packages/optax/_src/schedule.py" source_line=87}
  %constant_1200 = f32[] constant(-0.1)
  %multiply.925 = f32[] multiply(f32[] %subtract.24, f32[] %constant_1200), metadata={op_name="parallelize(train_step_func_pipeshard_parallel_mesh_1)/jit(main)/mul" source_file="/home/cyxue/miniconda3/envs/alpa/lib/python3.8/site-packages/optax/_src/schedule.py" source_line=88}
  %constant_1199 = f32[] constant(0.1)
  %add.307 = f32[] add(f32[] %multiply.925, f32[] %constant_1199), metadata={op_name="parallelize(train_step_func_pipeshard_parallel_mesh_1)/jit(main)/add" source_file="/home/cyxue/miniconda3/envs/alpa/lib/python3.8/site-packages/optax/_src/schedule.py" source_line=88}
  %constant_1198 = f32[] constant(-50000)
  %add.306 = f32[] add(f32[] %convert.49, f32[] %constant_1198), metadata={op_name="parallelize(train_step_func_pipeshard_parallel_mesh_1)/jit(main)/sub" source_file="/home/cyxue/miniconda3/envs/alpa/lib/python3.8/site-packages/optax/_src/schedule.py" source_line=394}
  %constant_1197 = f32[] constant(950000)
  %minimum.48 = f32[] minimum(f32[] %add.306, f32[] %constant_1197), metadata={op_name="parallelize(train_step_func_pipeshard_parallel_mesh_1)/jit(main)/min" source_file="/home/cyxue/miniconda3/envs/alpa/lib/python3.8/site-packages/optax/_src/schedule.py" source_line=235}
  %constant_1196 = f32[] constant(3.30693956e-06)
  %multiply.924 = f32[] multiply(f32[] %minimum.48, f32[] %constant_1196), metadata={op_name="parallelize(train_step_func_pipeshard_parallel_mesh_1)/jit(main)/div" source_file="/home/cyxue/miniconda3/envs/alpa/lib/python3.8/site-packages/optax/_src/schedule.py" source_line=236}
  %cosine.24 = f32[] cosine(f32[] %multiply.924), metadata={op_name="parallelize(train_step_func_pipeshard_parallel_mesh_1)/jit(main)/cos" source_file="/home/cyxue/miniconda3/envs/alpa/lib/python3.8/site-packages/optax/_src/schedule.py" source_line=236}
  %add.305 = f32[] add(f32[] %cosine.24, f32[] %constant_1203), metadata={op_name="parallelize(train_step_func_pipeshard_parallel_mesh_1)/jit(main)/add" source_file="/home/cyxue/miniconda3/envs/alpa/lib/python3.8/site-packages/optax/_src/schedule.py" source_line=236}
  %constant_1195 = f32[] constant(0.05)
  %multiply.923 = f32[] multiply(f32[] %add.305, f32[] %constant_1195), metadata={op_name="parallelize(train_step_func_pipeshard_parallel_mesh_1)/jit(main)/mul" source_file="/home/cyxue/miniconda3/envs/alpa/lib/python3.8/site-packages/optax/_src/schedule.py" source_line=238}
  %select.25 = f32[] select(pred[] %compare.25, f32[] %add.307, f32[] %multiply.923), metadata={op_name="parallelize(train_step_func_pipeshard_parallel_mesh_1)/jit(main)/select_n" source_file="/home/cyxue/miniconda3/envs/alpa/lib/python3.8/site-packages/optax/_src/schedule.py" source_line=394}
  %constant_1194 = f32[] constant(-1)
  %multiply.922 = f32[] multiply(f32[] %select.25, f32[] %constant_1194), metadata={op_name="parallelize(train_step_func_pipeshard_parallel_mesh_1)/jit(main)/mul" source_file="/home/cyxue/miniconda3/envs/alpa/lib/python3.8/site-packages/optax/_src/alias.py" source_line=37}
  %broadcast.267 = f32[7168]{0} broadcast(f32[] %multiply.922), dimensions={}, metadata={op_name="parallelize(train_step_func_pipeshard_parallel_mesh_1)/jit(main)/mul" source_file="/home/cyxue/miniconda3/envs/alpa/lib/python3.8/site-packages/optax/_src/transform.py" source_line=694}
  %param_1.811 = f32[7168]{0} parameter(1)
  %constant_658 = f32[] constant(0.0625)
  %broadcast.638 = f32[7168]{0} broadcast(f32[] %constant_658), dimensions={}, metadata={op_name="parallelize(train_step_func_pipeshard_parallel_mesh_1)/jit(main)/div"}
  %multiply.626 = f32[7168]{0} multiply(f32[7168]{0} %param_1.811, f32[7168]{0} %broadcast.638), metadata={op_name="parallelize(train_step_func_pipeshard_parallel_mesh_1)/jit(main)/div"}
  %param_24.64 = f32[7168]{0} parameter(24)
  %constant_242 = f32[] constant(0.9)
  %broadcast.447.clone.1 = f32[7168]{0} broadcast(f32[] %constant_242), dimensions={}, metadata={op_name="parallelize(train_step_func_pipeshard_parallel_mesh_1)/jit(main)/mul" source_file="/home/cyxue/miniconda3/envs/alpa/lib/python3.8/site-packages/optax/_src/transform.py" source_line=70}
  %multiply.435.clone.1 = f32[7168]{0} multiply(f32[7168]{0} %param_24.64, f32[7168]{0} %broadcast.447.clone.1), metadata={op_name="parallelize(train_step_func_pipeshard_parallel_mesh_1)/jit(main)/mul" source_file="/home/cyxue/miniconda3/envs/alpa/lib/python3.8/site-packages/optax/_src/transform.py" source_line=70}
  %add.204.clone.1 = f32[7168]{0} add(f32[7168]{0} %multiply.626, f32[7168]{0} %multiply.435.clone.1), metadata={op_name="parallelize(train_step_func_pipeshard_parallel_mesh_1)/jit(main)/add" source_file="/home/cyxue/miniconda3/envs/alpa/lib/python3.8/site-packages/optax/_src/transform.py" source_line=70}
  %multiply.277 = f32[7168]{0} multiply(f32[7168]{0} %add.204.clone.1, f32[7168]{0} %broadcast.447.clone.1), metadata={op_name="parallelize(train_step_func_pipeshard_parallel_mesh_1)/jit(main)/mul" source_file="/home/cyxue/miniconda3/envs/alpa/lib/python3.8/site-packages/optax/_src/transform.py" source_line=70}
  %add.92 = f32[7168]{0} add(f32[7168]{0} %multiply.626, f32[7168]{0} %multiply.277), metadata={op_name="parallelize(train_step_func_pipeshard_parallel_mesh_1)/jit(main)/add" source_file="/home/cyxue/miniconda3/envs/alpa/lib/python3.8/site-packages/optax/_src/transform.py" source_line=70}
  %multiply.276 = f32[7168]{0} multiply(f32[7168]{0} %broadcast.267, f32[7168]{0} %add.92), metadata={op_name="parallelize(train_step_func_pipeshard_parallel_mesh_1)/jit(main)/mul" source_file="/home/cyxue/miniconda3/envs/alpa/lib/python3.8/site-packages/optax/_src/transform.py" source_line=694}
  %add.91 = f32[7168]{0} add(f32[7168]{0} %param_0.96, f32[7168]{0} %multiply.276), metadata={op_name="parallelize(train_step_func_pipeshard_parallel_mesh_1)/jit(main)/add" source_file="/home/cyxue/miniconda3/envs/alpa/lib/python3.8/site-packages/optax/_src/update.py" source_line=43}
  %param_3.718 = f32[7168]{0} parameter(3)
  %param_4.882 = f32[7168]{0} parameter(4)
  %multiply.714.clone.1 = f32[7168]{0} multiply(f32[7168]{0} %param_4.882, f32[7168]{0} %broadcast.638), metadata={op_name="parallelize(train_step_func_pipeshard_parallel_mesh_1)/jit(main)/div"}
  %param_17.175 = f32[7168]{0} parameter(17)
  %multiply.391.clone.1 = f32[7168]{0} multiply(f32[7168]{0} %param_17.175, f32[7168]{0} %broadcast.447.clone.1), metadata={op_name="parallelize(train_step_func_pipeshard_parallel_mesh_1)/jit(main)/mul" source_file="/home/cyxue/miniconda3/envs/alpa/lib/python3.8/site-packages/optax/_src/transform.py" source_line=70}
  %add.182.clone.1 = f32[7168]{0} add(f32[7168]{0} %multiply.714.clone.1, f32[7168]{0} %multiply.391.clone.1), metadata={op_name="parallelize(train_step_func_pipeshard_parallel_mesh_1)/jit(main)/add" source_file="/home/cyxue/miniconda3/envs/alpa/lib/python3.8/site-packages/optax/_src/transform.py" source_line=70}
  %multiply.233.clone.1 = f32[7168]{0} multiply(f32[7168]{0} %add.182.clone.1, f32[7168]{0} %broadcast.447.clone.1), metadata={op_name="parallelize(train_step_func_pipeshard_parallel_mesh_1)/jit(main)/mul" source_file="/home/cyxue/miniconda3/envs/alpa/lib/python3.8/site-packages/optax/_src/transform.py" source_line=70}
  %add.48.clone.1 = f32[7168]{0} add(f32[7168]{0} %multiply.714.clone.1, f32[7168]{0} %multiply.233.clone.1), metadata={op_name="parallelize(train_step_func_pipeshard_parallel_mesh_1)/jit(main)/add" source_file="/home/cyxue/miniconda3/envs/alpa/lib/python3.8/site-packages/optax/_src/transform.py" source_line=70}
  %multiply.232.clone.1 = f32[7168]{0} multiply(f32[7168]{0} %broadcast.267, f32[7168]{0} %add.48.clone.1), metadata={op_name="parallelize(train_step_func_pipeshard_parallel_mesh_1)/jit(main)/mul" source_file="/home/cyxue/miniconda3/envs/alpa/lib/python3.8/site-packages/optax/_src/transform.py" source_line=694}
  %add.47.clone.1 = f32[7168]{0} add(f32[7168]{0} %param_3.718, f32[7168]{0} %multiply.232.clone.1), metadata={op_name="parallelize(train_step_func_pipeshard_parallel_mesh_1)/jit(main)/add" source_file="/home/cyxue/miniconda3/envs/alpa/lib/python3.8/site-packages/optax/_src/update.py" source_line=43}
  %param_5.589 = f32[7168]{0} parameter(5)
  %param_6.1056 = f32[7168]{0} parameter(6)
  %multiply.710.clone.1 = f32[7168]{0} multiply(f32[7168]{0} %param_6.1056, f32[7168]{0} %broadcast.638), metadata={op_name="parallelize(train_step_func_pipeshard_parallel_mesh_1)/jit(main)/div"}
  %param_18.74 = f32[7168]{0} parameter(18)
  %multiply.393.clone.1 = f32[7168]{0} multiply(f32[7168]{0} %param_18.74, f32[7168]{0} %broadcast.447.clone.1), metadata={op_name="parallelize(train_step_func_pipeshard_parallel_mesh_1)/jit(main)/mul" source_file="/home/cyxue/miniconda3/envs/alpa/lib/python3.8/site-packages/optax/_src/transform.py" source_line=70}
  %add.183.clone.1 = f32[7168]{0} add(f32[7168]{0} %multiply.710.clone.1, f32[7168]{0} %multiply.393.clone.1), metadata={op_name="parallelize(train_step_func_pipeshard_parallel_mesh_1)/jit(main)/add" source_file="/home/cyxue/miniconda3/envs/alpa/lib/python3.8/site-packages/optax/_src/transform.py" source_line=70}
  %multiply.235.clone.1 = f32[7168]{0} multiply(f32[7168]{0} %add.183.clone.1, f32[7168]{0} %broadcast.447.clone.1), metadata={op_name="parallelize(train_step_func_pipeshard_parallel_mesh_1)/jit(main)/mul" source_file="/home/cyxue/miniconda3/envs/alpa/lib/python3.8/site-packages/optax/_src/transform.py" source_line=70}
  %add.50.clone.1 = f32[7168]{0} add(f32[7168]{0} %multiply.710.clone.1, f32[7168]{0} %multiply.235.clone.1), metadata={op_name="parallelize(train_step_func_pipeshard_parallel_mesh_1)/jit(main)/add" source_file="/home/cyxue/miniconda3/envs/alpa/lib/python3.8/site-packages/optax/_src/transform.py" source_line=70}
  %multiply.234.clone.1 = f32[7168]{0} multiply(f32[7168]{0} %broadcast.267, f32[7168]{0} %add.50.clone.1), metadata={op_name="parallelize(train_step_func_pipeshard_parallel_mesh_1)/jit(main)/mul" source_file="/home/cyxue/miniconda3/envs/alpa/lib/python3.8/site-packages/optax/_src/transform.py" source_line=694}
  %add.49.clone.1 = f32[7168]{0} add(f32[7168]{0} %param_5.589, f32[7168]{0} %multiply.234.clone.1), metadata={op_name="parallelize(train_step_func_pipeshard_parallel_mesh_1)/jit(main)/add" source_file="/home/cyxue/miniconda3/envs/alpa/lib/python3.8/site-packages/optax/_src/update.py" source_line=43}
  %param_7.799 = f32[7168]{0} parameter(7)
  %param_8.218 = f32[7168]{0} parameter(8)
  %multiply.678.clone.1 = f32[7168]{0} multiply(f32[7168]{0} %param_8.218, f32[7168]{0} %broadcast.638), metadata={op_name="parallelize(train_step_func_pipeshard_parallel_mesh_1)/jit(main)/div"}
  %param_19.132 = f32[7168]{0} parameter(19)
  %multiply.409.clone.1 = f32[7168]{0} multiply(f32[7168]{0} %param_19.132, f32[7168]{0} %broadcast.447.clone.1), metadata={op_name="parallelize(train_step_func_pipeshard_parallel_mesh_1)/jit(main)/mul" source_file="/home/cyxue/miniconda3/envs/alpa/lib/python3.8/site-packages/optax/_src/transform.py" source_line=70}
  %add.191.clone.1 = f32[7168]{0} add(f32[7168]{0} %multiply.678.clone.1, f32[7168]{0} %multiply.409.clone.1), metadata={op_name="parallelize(train_step_func_pipeshard_parallel_mesh_1)/jit(main)/add" source_file="/home/cyxue/miniconda3/envs/alpa/lib/python3.8/site-packages/optax/_src/transform.py" source_line=70}
  %multiply.251.clone.1 = f32[7168]{0} multiply(f32[7168]{0} %add.191.clone.1, f32[7168]{0} %broadcast.447.clone.1), metadata={op_name="parallelize(train_step_func_pipeshard_parallel_mesh_1)/jit(main)/mul" source_file="/home/cyxue/miniconda3/envs/alpa/lib/python3.8/site-packages/optax/_src/transform.py" source_line=70}
  %add.66.clone.1 = f32[7168]{0} add(f32[7168]{0} %multiply.678.clone.1, f32[7168]{0} %multiply.251.clone.1), metadata={op_name="parallelize(train_step_func_pipeshard_parallel_mesh_1)/jit(main)/add" source_file="/home/cyxue/miniconda3/envs/alpa/lib/python3.8/site-packages/optax/_src/transform.py" source_line=70}
  %multiply.250.clone.1 = f32[7168]{0} multiply(f32[7168]{0} %broadcast.267, f32[7168]{0} %add.66.clone.1), metadata={op_name="parallelize(train_step_func_pipeshard_parallel_mesh_1)/jit(main)/mul" source_file="/home/cyxue/miniconda3/envs/alpa/lib/python3.8/site-packages/optax/_src/transform.py" source_line=694}
  %add.65.clone.1 = f32[7168]{0} add(f32[7168]{0} %param_7.799, f32[7168]{0} %multiply.250.clone.1), metadata={op_name="parallelize(train_step_func_pipeshard_parallel_mesh_1)/jit(main)/add" source_file="/home/cyxue/miniconda3/envs/alpa/lib/python3.8/site-packages/optax/_src/update.py" source_line=43}
  %param_9.121 = f32[7168]{0} parameter(9)
  %param_10.223 = f32[7168]{0} parameter(10)
  %multiply.674.clone.1 = f32[7168]{0} multiply(f32[7168]{0} %param_10.223, f32[7168]{0} %broadcast.638), metadata={op_name="parallelize(train_step_func_pipeshard_parallel_mesh_1)/jit(main)/div"}
  %param_20.127 = f32[7168]{0} parameter(20)
  %multiply.411.clone.1 = f32[7168]{0} multiply(f32[7168]{0} %param_20.127, f32[7168]{0} %broadcast.447.clone.1), metadata={op_name="parallelize(train_step_func_pipeshard_parallel_mesh_1)/jit(main)/mul" source_file="/home/cyxue/miniconda3/envs/alpa/lib/python3.8/site-packages/optax/_src/transform.py" source_line=70}
  %add.192.clone.1 = f32[7168]{0} add(f32[7168]{0} %multiply.674.clone.1, f32[7168]{0} %multiply.411.clone.1), metadata={op_name="parallelize(train_step_func_pipeshard_parallel_mesh_1)/jit(main)/add" source_file="/home/cyxue/miniconda3/envs/alpa/lib/python3.8/site-packages/optax/_src/transform.py" source_line=70}
  %multiply.253.clone.1 = f32[7168]{0} multiply(f32[7168]{0} %add.192.clone.1, f32[7168]{0} %broadcast.447.clone.1), metadata={op_name="parallelize(train_step_func_pipeshard_parallel_mesh_1)/jit(main)/mul" source_file="/home/cyxue/miniconda3/envs/alpa/lib/python3.8/site-packages/optax/_src/transform.py" source_line=70}
  %add.68.clone.1 = f32[7168]{0} add(f32[7168]{0} %multiply.674.clone.1, f32[7168]{0} %multiply.253.clone.1), metadata={op_name="parallelize(train_step_func_pipeshard_parallel_mesh_1)/jit(main)/add" source_file="/home/cyxue/miniconda3/envs/alpa/lib/python3.8/site-packages/optax/_src/transform.py" source_line=70}
  %multiply.252.clone.1 = f32[7168]{0} multiply(f32[7168]{0} %broadcast.267, f32[7168]{0} %add.68.clone.1), metadata={op_name="parallelize(train_step_func_pipeshard_parallel_mesh_1)/jit(main)/mul" source_file="/home/cyxue/miniconda3/envs/alpa/lib/python3.8/site-packages/optax/_src/transform.py" source_line=694}
  %add.67.clone.1 = f32[7168]{0} add(f32[7168]{0} %param_9.121, f32[7168]{0} %multiply.252.clone.1), metadata={op_name="parallelize(train_step_func_pipeshard_parallel_mesh_1)/jit(main)/add" source_file="/home/cyxue/miniconda3/envs/alpa/lib/python3.8/site-packages/optax/_src/update.py" source_line=43}
  %param_11.222 = f32[7168]{0} parameter(11)
  %param_12.112 = f32[7168]{0} parameter(12)
  %multiply.654.clone.1 = f32[7168]{0} multiply(f32[7168]{0} %param_12.112, f32[7168]{0} %broadcast.638), metadata={op_name="parallelize(train_step_func_pipeshard_parallel_mesh_1)/jit(main)/div"}
  %param_21.56 = f32[7168]{0} parameter(21)
  %multiply.421.clone.1 = f32[7168]{0} multiply(f32[7168]{0} %param_21.56, f32[7168]{0} %broadcast.447.clone.1), metadata={op_name="parallelize(train_step_func_pipeshard_parallel_mesh_1)/jit(main)/mul" source_file="/home/cyxue/miniconda3/envs/alpa/lib/python3.8/site-packages/optax/_src/transform.py" source_line=70}
  %add.197.clone.1 = f32[7168]{0} add(f32[7168]{0} %multiply.654.clone.1, f32[7168]{0} %multiply.421.clone.1), metadata={op_name="parallelize(train_step_func_pipeshard_parallel_mesh_1)/jit(main)/add" source_file="/home/cyxue/miniconda3/envs/alpa/lib/python3.8/site-packages/optax/_src/transform.py" source_line=70}
  %multiply.263.clone.1 = f32[7168]{0} multiply(f32[7168]{0} %add.197.clone.1, f32[7168]{0} %broadcast.447.clone.1), metadata={op_name="parallelize(train_step_func_pipeshard_parallel_mesh_1)/jit(main)/mul" source_file="/home/cyxue/miniconda3/envs/alpa/lib/python3.8/site-packages/optax/_src/transform.py" source_line=70}
  %add.78.clone.1 = f32[7168]{0} add(f32[7168]{0} %multiply.654.clone.1, f32[7168]{0} %multiply.263.clone.1), metadata={op_name="parallelize(train_step_func_pipeshard_parallel_mesh_1)/jit(main)/add" source_file="/home/cyxue/miniconda3/envs/alpa/lib/python3.8/site-packages/optax/_src/transform.py" source_line=70}
  %multiply.262.clone.1 = f32[7168]{0} multiply(f32[7168]{0} %broadcast.267, f32[7168]{0} %add.78.clone.1), metadata={op_name="parallelize(train_step_func_pipeshard_parallel_mesh_1)/jit(main)/mul" source_file="/home/cyxue/miniconda3/envs/alpa/lib/python3.8/site-packages/optax/_src/transform.py" source_line=694}
  %add.77.clone.1 = f32[7168]{0} add(f32[7168]{0} %param_11.222, f32[7168]{0} %multiply.262.clone.1), metadata={op_name="parallelize(train_step_func_pipeshard_parallel_mesh_1)/jit(main)/add" source_file="/home/cyxue/miniconda3/envs/alpa/lib/python3.8/site-packages/optax/_src/update.py" source_line=43}
  %param_13.206 = f32[7168]{0} parameter(13)
  %param_14.202 = f32[7168]{0} parameter(14)
  %multiply.650.clone.1 = f32[7168]{0} multiply(f32[7168]{0} %param_14.202, f32[7168]{0} %broadcast.638), metadata={op_name="parallelize(train_step_func_pipeshard_parallel_mesh_1)/jit(main)/div"}
  %param_22.96 = f32[7168]{0} parameter(22)
  %multiply.423.clone.1 = f32[7168]{0} multiply(f32[7168]{0} %param_22.96, f32[7168]{0} %broadcast.447.clone.1), metadata={op_name="parallelize(train_step_func_pipeshard_parallel_mesh_1)/jit(main)/mul" source_file="/home/cyxue/miniconda3/envs/alpa/lib/python3.8/site-packages/optax/_src/transform.py" source_line=70}
  %add.198.clone.1 = f32[7168]{0} add(f32[7168]{0} %multiply.650.clone.1, f32[7168]{0} %multiply.423.clone.1), metadata={op_name="parallelize(train_step_func_pipeshard_parallel_mesh_1)/jit(main)/add" source_file="/home/cyxue/miniconda3/envs/alpa/lib/python3.8/site-packages/optax/_src/transform.py" source_line=70}
  %multiply.265.clone.1 = f32[7168]{0} multiply(f32[7168]{0} %add.198.clone.1, f32[7168]{0} %broadcast.447.clone.1), metadata={op_name="parallelize(train_step_func_pipeshard_parallel_mesh_1)/jit(main)/mul" source_file="/home/cyxue/miniconda3/envs/alpa/lib/python3.8/site-packages/optax/_src/transform.py" source_line=70}
  %add.80.clone.1 = f32[7168]{0} add(f32[7168]{0} %multiply.650.clone.1, f32[7168]{0} %multiply.265.clone.1), metadata={op_name="parallelize(train_step_func_pipeshard_parallel_mesh_1)/jit(main)/add" source_file="/home/cyxue/miniconda3/envs/alpa/lib/python3.8/site-packages/optax/_src/transform.py" source_line=70}
  %multiply.264.clone.1 = f32[7168]{0} multiply(f32[7168]{0} %broadcast.267, f32[7168]{0} %add.80.clone.1), metadata={op_name="parallelize(train_step_func_pipeshard_parallel_mesh_1)/jit(main)/mul" source_file="/home/cyxue/miniconda3/envs/alpa/lib/python3.8/site-packages/optax/_src/transform.py" source_line=694}
  %add.79.clone.1 = f32[7168]{0} add(f32[7168]{0} %param_13.206, f32[7168]{0} %multiply.264.clone.1), metadata={op_name="parallelize(train_step_func_pipeshard_parallel_mesh_1)/jit(main)/add" source_file="/home/cyxue/miniconda3/envs/alpa/lib/python3.8/site-packages/optax/_src/update.py" source_line=43}
  %param_15.103 = f32[7168]{0} parameter(15)
  %param_16.188 = f32[7168]{0} parameter(16)
  %multiply.630.clone.1 = f32[7168]{0} multiply(f32[7168]{0} %param_16.188, f32[7168]{0} %broadcast.638), metadata={op_name="parallelize(train_step_func_pipeshard_parallel_mesh_1)/jit(main)/div"}
  %param_23.100 = f32[7168]{0} parameter(23)
  %multiply.433.clone.1 = f32[7168]{0} multiply(f32[7168]{0} %param_23.100, f32[7168]{0} %broadcast.447.clone.1), metadata={op_name="parallelize(train_step_func_pipeshard_parallel_mesh_1)/jit(main)/mul" source_file="/home/cyxue/miniconda3/envs/alpa/lib/python3.8/site-packages/optax/_src/transform.py" source_line=70}
  %add.203.clone.1 = f32[7168]{0} add(f32[7168]{0} %multiply.630.clone.1, f32[7168]{0} %multiply.433.clone.1), metadata={op_name="parallelize(train_step_func_pipeshard_parallel_mesh_1)/jit(main)/add" source_file="/home/cyxue/miniconda3/envs/alpa/lib/python3.8/site-packages/optax/_src/transform.py" source_line=70}
  %multiply.275.clone.1 = f32[7168]{0} multiply(f32[7168]{0} %add.203.clone.1, f32[7168]{0} %broadcast.447.clone.1), metadata={op_name="parallelize(train_step_func_pipeshard_parallel_mesh_1)/jit(main)/mul" source_file="/home/cyxue/miniconda3/envs/alpa/lib/python3.8/site-packages/optax/_src/transform.py" source_line=70}
  %add.90.clone.1 = f32[7168]{0} add(f32[7168]{0} %multiply.630.clone.1, f32[7168]{0} %multiply.275.clone.1), metadata={op_name="parallelize(train_step_func_pipeshard_parallel_mesh_1)/jit(main)/add" source_file="/home/cyxue/miniconda3/envs/alpa/lib/python3.8/site-packages/optax/_src/transform.py" source_line=70}
  %multiply.274.clone.1 = f32[7168]{0} multiply(f32[7168]{0} %broadcast.267, f32[7168]{0} %add.90.clone.1), metadata={op_name="parallelize(train_step_func_pipeshard_parallel_mesh_1)/jit(main)/mul" source_file="/home/cyxue/miniconda3/envs/alpa/lib/python3.8/site-packages/optax/_src/transform.py" source_line=694}
  %add.89.clone.1 = f32[7168]{0} add(f32[7168]{0} %param_15.103, f32[7168]{0} %multiply.274.clone.1), metadata={op_name="parallelize(train_step_func_pipeshard_parallel_mesh_1)/jit(main)/add" source_file="/home/cyxue/miniconda3/envs/alpa/lib/python3.8/site-packages/optax/_src/update.py" source_line=43}
  ROOT %tuple.97 = (f32[7168]{0}, f32[7168]{0}, f32[7168]{0}, f32[7168]{0}, f32[7168]{0}, /*index=5*/f32[7168]{0}, f32[7168]{0}, f32[7168]{0}, f32[7168]{0}, f32[7168]{0}, /*index=10*/f32[7168]{0}, f32[7168]{0}, f32[7168]{0}, f32[7168]{0}, f32[7168]{0}, /*index=15*/f32[7168]{0}) tuple(f32[7168]{0} %add.91, f32[7168]{0} %add.47.clone.1, f32[7168]{0} %add.49.clone.1, f32[7168]{0} %add.65.clone.1, f32[7168]{0} %add.67.clone.1, /*index=5*/f32[7168]{0} %add.77.clone.1, f32[7168]{0} %add.79.clone.1, f32[7168]{0} %add.89.clone.1, f32[7168]{0} %add.182.clone.1, f32[7168]{0} %add.183.clone.1, /*index=10*/f32[7168]{0} %add.191.clone.1, f32[7168]{0} %add.192.clone.1, f32[7168]{0} %add.197.clone.1, f32[7168]{0} %add.198.clone.1, f32[7168]{0} %add.203.clone.1, /*index=15*/f32[7168]{0} %add.204.clone.1)
}

%fused_computation.118 (param_0.119: f32[1,1,1792,3584], param_1.812: f32[1,1,1792,3584], param_2.712: s32[], param_3.719: f32[1,1,1792,3584], param_4.883: f32[1,1,1792,3584], param_5.590: f32[1,1,1792,3584], param_6.1057: f32[1,1,1792,3584], param_7.800: f32[1,1,1792,3584], param_8.219: f32[1,1,1792,3584], param_9.125: f32[1,1,1792,3584], param_10.227: f32[1,1,1792,3584], param_11.229: f32[1,1,1792,3584], param_12.119: f32[1,1,1792,3584], param_13.213: f32[1,1,1792,3584], param_14.209: f32[1,1,1792,3584], param_15.117: f32[1,1,1792,3584]) -> (f32[1,1,1792,3584], f32[1,1,1792,3584], f32[1,1,1792,3584], f32[1,1,1792,3584], f32[1,1,1792,3584], /*index=5*/f32[1,1,1792,3584], f32[1,1,1792,3584], f32[1,1,1792,3584], f32[1,1,1792,3584], f32[1,1,1792,3584]) {
  %param_0.119 = f32[1,1,1792,3584]{3,2,1,0} parameter(0)
  %param_2.712 = s32[] parameter(2)
  %convert.37 = f32[] convert(s32[] %param_2.712), metadata={op_name="parallelize(train_step_func_pipeshard_parallel_mesh_1)/jit(main)/convert_element_type[new_dtype=float32 weak_type=True]" source_file="/home/cyxue/miniconda3/envs/alpa/lib/python3.8/site-packages/optax/_src/schedule.py" source_line=394}
  %constant_1135 = f32[] constant(50000)
  %compare.19 = pred[] compare(f32[] %convert.37, f32[] %constant_1135), direction=LT, metadata={op_name="parallelize(train_step_func_pipeshard_parallel_mesh_1)/jit(main)/lt" source_file="/home/cyxue/miniconda3/envs/alpa/lib/python3.8/site-packages/optax/_src/schedule.py" source_line=394}
  %constant_1134 = f32[] constant(1)
  %constant_1133 = s32[] constant(0)
  %maximum.18 = s32[] maximum(s32[] %param_2.712, s32[] %constant_1133), metadata={op_name="parallelize(train_step_func_pipeshard_parallel_mesh_1)/jit(main)/max" source_file="/home/cyxue/miniconda3/envs/alpa/lib/python3.8/site-packages/optax/_src/schedule.py" source_line=86}
  %convert.36 = f32[] convert(s32[] %maximum.18), metadata={op_name="parallelize(train_step_func_pipeshard_parallel_mesh_1)/jit(main)/convert_element_type[new_dtype=float32 weak_type=True]" source_file="/home/cyxue/miniconda3/envs/alpa/lib/python3.8/site-packages/optax/_src/schedule.py" source_line=86}
  %minimum.37 = f32[] minimum(f32[] %convert.36, f32[] %constant_1135), metadata={op_name="parallelize(train_step_func_pipeshard_parallel_mesh_1)/jit(main)/min" source_file="/home/cyxue/miniconda3/envs/alpa/lib/python3.8/site-packages/optax/_src/schedule.py" source_line=86}
  %constant_1132 = f32[] constant(2e-05)
  %multiply.896 = f32[] multiply(f32[] %minimum.37, f32[] %constant_1132), metadata={op_name="parallelize(train_step_func_pipeshard_parallel_mesh_1)/jit(main)/div" source_file="/home/cyxue/miniconda3/envs/alpa/lib/python3.8/site-packages/optax/_src/schedule.py" source_line=87}
  %subtract.18 = f32[] subtract(f32[] %constant_1134, f32[] %multiply.896), metadata={op_name="parallelize(train_step_func_pipeshard_parallel_mesh_1)/jit(main)/sub" source_file="/home/cyxue/miniconda3/envs/alpa/lib/python3.8/site-packages/optax/_src/schedule.py" source_line=87}
  %constant_1131 = f32[] constant(-0.1)
  %multiply.895 = f32[] multiply(f32[] %subtract.18, f32[] %constant_1131), metadata={op_name="parallelize(train_step_func_pipeshard_parallel_mesh_1)/jit(main)/mul" source_file="/home/cyxue/miniconda3/envs/alpa/lib/python3.8/site-packages/optax/_src/schedule.py" source_line=88}
  %constant_1130 = f32[] constant(0.1)
  %add.289 = f32[] add(f32[] %multiply.895, f32[] %constant_1130), metadata={op_name="parallelize(train_step_func_pipeshard_parallel_mesh_1)/jit(main)/add" source_file="/home/cyxue/miniconda3/envs/alpa/lib/python3.8/site-packages/optax/_src/schedule.py" source_line=88}
  %constant_1129 = f32[] constant(-50000)
  %add.288 = f32[] add(f32[] %convert.37, f32[] %constant_1129), metadata={op_name="parallelize(train_step_func_pipeshard_parallel_mesh_1)/jit(main)/sub" source_file="/home/cyxue/miniconda3/envs/alpa/lib/python3.8/site-packages/optax/_src/schedule.py" source_line=394}
  %constant_1128 = f32[] constant(950000)
  %minimum.36 = f32[] minimum(f32[] %add.288, f32[] %constant_1128), metadata={op_name="parallelize(train_step_func_pipeshard_parallel_mesh_1)/jit(main)/min" source_file="/home/cyxue/miniconda3/envs/alpa/lib/python3.8/site-packages/optax/_src/schedule.py" source_line=235}
  %constant_1127 = f32[] constant(3.30693956e-06)
  %multiply.894 = f32[] multiply(f32[] %minimum.36, f32[] %constant_1127), metadata={op_name="parallelize(train_step_func_pipeshard_parallel_mesh_1)/jit(main)/div" source_file="/home/cyxue/miniconda3/envs/alpa/lib/python3.8/site-packages/optax/_src/schedule.py" source_line=236}
  %cosine.18 = f32[] cosine(f32[] %multiply.894), metadata={op_name="parallelize(train_step_func_pipeshard_parallel_mesh_1)/jit(main)/cos" source_file="/home/cyxue/miniconda3/envs/alpa/lib/python3.8/site-packages/optax/_src/schedule.py" source_line=236}
  %add.287 = f32[] add(f32[] %cosine.18, f32[] %constant_1134), metadata={op_name="parallelize(train_step_func_pipeshard_parallel_mesh_1)/jit(main)/add" source_file="/home/cyxue/miniconda3/envs/alpa/lib/python3.8/site-packages/optax/_src/schedule.py" source_line=236}
  %constant_1126 = f32[] constant(0.05)
  %multiply.893 = f32[] multiply(f32[] %add.287, f32[] %constant_1126), metadata={op_name="parallelize(train_step_func_pipeshard_parallel_mesh_1)/jit(main)/mul" source_file="/home/cyxue/miniconda3/envs/alpa/lib/python3.8/site-packages/optax/_src/schedule.py" source_line=238}
  %select.19 = f32[] select(pred[] %compare.19, f32[] %add.289, f32[] %multiply.893), metadata={op_name="parallelize(train_step_func_pipeshard_parallel_mesh_1)/jit(main)/select_n" source_file="/home/cyxue/miniconda3/envs/alpa/lib/python3.8/site-packages/optax/_src/schedule.py" source_line=394}
  %constant_1125 = f32[] constant(-1)
  %multiply.892 = f32[] multiply(f32[] %select.19, f32[] %constant_1125), metadata={op_name="parallelize(train_step_func_pipeshard_parallel_mesh_1)/jit(main)/mul" source_file="/home/cyxue/miniconda3/envs/alpa/lib/python3.8/site-packages/optax/_src/alias.py" source_line=37}
  %broadcast.313 = f32[1,1,1792,3584]{3,2,1,0} broadcast(f32[] %multiply.892), dimensions={}, metadata={op_name="parallelize(train_step_func_pipeshard_parallel_mesh_1)/jit(main)/mul" source_file="/home/cyxue/miniconda3/envs/alpa/lib/python3.8/site-packages/optax/_src/transform.py" source_line=694}
  %param_1.812 = f32[1,1,1792,3584]{3,2,1,0} parameter(1)
  %constant_520 = f32[] constant(0.0625)
  %broadcast.546 = f32[1,1,1792,3584]{3,2,1,0} broadcast(f32[] %constant_520), dimensions={}, metadata={op_name="parallelize(train_step_func_pipeshard_parallel_mesh_1)/jit(main)/div"}
  %multiply.534 = f32[1,1,1792,3584]{3,2,1,0} multiply(f32[1,1,1792,3584]{3,2,1,0} %param_1.812, f32[1,1,1792,3584]{3,2,1,0} %broadcast.546), metadata={op_name="parallelize(train_step_func_pipeshard_parallel_mesh_1)/jit(main)/div"}
  %param_15.117 = f32[1,1,1792,3584]{3,2,1,0} parameter(15)
  %constant_265 = f32[] constant(0.9)
  %broadcast.493.clone.1 = f32[1,1,1792,3584]{3,2,1,0} broadcast(f32[] %constant_265), dimensions={}, metadata={op_name="parallelize(train_step_func_pipeshard_parallel_mesh_1)/jit(main)/mul" source_file="/home/cyxue/miniconda3/envs/alpa/lib/python3.8/site-packages/optax/_src/transform.py" source_line=70}
  %multiply.481.clone.1 = f32[1,1,1792,3584]{3,2,1,0} multiply(f32[1,1,1792,3584]{3,2,1,0} %param_15.117, f32[1,1,1792,3584]{3,2,1,0} %broadcast.493.clone.1), metadata={op_name="parallelize(train_step_func_pipeshard_parallel_mesh_1)/jit(main)/mul" source_file="/home/cyxue/miniconda3/envs/alpa/lib/python3.8/site-packages/optax/_src/transform.py" source_line=70}
  %add.227.clone.1 = f32[1,1,1792,3584]{3,2,1,0} add(f32[1,1,1792,3584]{3,2,1,0} %multiply.534, f32[1,1,1792,3584]{3,2,1,0} %multiply.481.clone.1), metadata={op_name="parallelize(train_step_func_pipeshard_parallel_mesh_1)/jit(main)/add" source_file="/home/cyxue/miniconda3/envs/alpa/lib/python3.8/site-packages/optax/_src/transform.py" source_line=70}
  %multiply.323 = f32[1,1,1792,3584]{3,2,1,0} multiply(f32[1,1,1792,3584]{3,2,1,0} %add.227.clone.1, f32[1,1,1792,3584]{3,2,1,0} %broadcast.493.clone.1), metadata={op_name="parallelize(train_step_func_pipeshard_parallel_mesh_1)/jit(main)/mul" source_file="/home/cyxue/miniconda3/envs/alpa/lib/python3.8/site-packages/optax/_src/transform.py" source_line=70}
  %add.138 = f32[1,1,1792,3584]{3,2,1,0} add(f32[1,1,1792,3584]{3,2,1,0} %multiply.534, f32[1,1,1792,3584]{3,2,1,0} %multiply.323), metadata={op_name="parallelize(train_step_func_pipeshard_parallel_mesh_1)/jit(main)/add" source_file="/home/cyxue/miniconda3/envs/alpa/lib/python3.8/site-packages/optax/_src/transform.py" source_line=70}
  %multiply.322 = f32[1,1,1792,3584]{3,2,1,0} multiply(f32[1,1,1792,3584]{3,2,1,0} %broadcast.313, f32[1,1,1792,3584]{3,2,1,0} %add.138), metadata={op_name="parallelize(train_step_func_pipeshard_parallel_mesh_1)/jit(main)/mul" source_file="/home/cyxue/miniconda3/envs/alpa/lib/python3.8/site-packages/optax/_src/transform.py" source_line=694}
  %add.137 = f32[1,1,1792,3584]{3,2,1,0} add(f32[1,1,1792,3584]{3,2,1,0} %param_0.119, f32[1,1,1792,3584]{3,2,1,0} %multiply.322), metadata={op_name="parallelize(train_step_func_pipeshard_parallel_mesh_1)/jit(main)/add" source_file="/home/cyxue/miniconda3/envs/alpa/lib/python3.8/site-packages/optax/_src/update.py" source_line=43}
  %param_3.719 = f32[1,1,1792,3584]{3,2,1,0} parameter(3)
  %param_4.883 = f32[1,1,1792,3584]{3,2,1,0} parameter(4)
  %multiply.798.clone.1 = f32[1,1,1792,3584]{3,2,1,0} multiply(f32[1,1,1792,3584]{3,2,1,0} %param_4.883, f32[1,1,1792,3584]{3,2,1,0} %broadcast.546), metadata={op_name="parallelize(train_step_func_pipeshard_parallel_mesh_1)/jit(main)/div"}
  %param_11.229 = f32[1,1,1792,3584]{3,2,1,0} parameter(11)
  %multiply.349.clone.1 = f32[1,1,1792,3584]{3,2,1,0} multiply(f32[1,1,1792,3584]{3,2,1,0} %param_11.229, f32[1,1,1792,3584]{3,2,1,0} %broadcast.493.clone.1), metadata={op_name="parallelize(train_step_func_pipeshard_parallel_mesh_1)/jit(main)/mul" source_file="/home/cyxue/miniconda3/envs/alpa/lib/python3.8/site-packages/optax/_src/transform.py" source_line=70}
  %add.161.clone.1 = f32[1,1,1792,3584]{3,2,1,0} add(f32[1,1,1792,3584]{3,2,1,0} %multiply.798.clone.1, f32[1,1,1792,3584]{3,2,1,0} %multiply.349.clone.1), metadata={op_name="parallelize(train_step_func_pipeshard_parallel_mesh_1)/jit(main)/add" source_file="/home/cyxue/miniconda3/envs/alpa/lib/python3.8/site-packages/optax/_src/transform.py" source_line=70}
  %multiply.191.clone.1 = f32[1,1,1792,3584]{3,2,1,0} multiply(f32[1,1,1792,3584]{3,2,1,0} %add.161.clone.1, f32[1,1,1792,3584]{3,2,1,0} %broadcast.493.clone.1), metadata={op_name="parallelize(train_step_func_pipeshard_parallel_mesh_1)/jit(main)/mul" source_file="/home/cyxue/miniconda3/envs/alpa/lib/python3.8/site-packages/optax/_src/transform.py" source_line=70}
  %add.6.clone.1 = f32[1,1,1792,3584]{3,2,1,0} add(f32[1,1,1792,3584]{3,2,1,0} %multiply.798.clone.1, f32[1,1,1792,3584]{3,2,1,0} %multiply.191.clone.1), metadata={op_name="parallelize(train_step_func_pipeshard_parallel_mesh_1)/jit(main)/add" source_file="/home/cyxue/miniconda3/envs/alpa/lib/python3.8/site-packages/optax/_src/transform.py" source_line=70}
  %multiply.190.clone.1 = f32[1,1,1792,3584]{3,2,1,0} multiply(f32[1,1,1792,3584]{3,2,1,0} %broadcast.313, f32[1,1,1792,3584]{3,2,1,0} %add.6.clone.1), metadata={op_name="parallelize(train_step_func_pipeshard_parallel_mesh_1)/jit(main)/mul" source_file="/home/cyxue/miniconda3/envs/alpa/lib/python3.8/site-packages/optax/_src/transform.py" source_line=694}
  %add.5.clone.1 = f32[1,1,1792,3584]{3,2,1,0} add(f32[1,1,1792,3584]{3,2,1,0} %param_3.719, f32[1,1,1792,3584]{3,2,1,0} %multiply.190.clone.1), metadata={op_name="parallelize(train_step_func_pipeshard_parallel_mesh_1)/jit(main)/add" source_file="/home/cyxue/miniconda3/envs/alpa/lib/python3.8/site-packages/optax/_src/update.py" source_line=43}
  %param_5.590 = f32[1,1,1792,3584]{3,2,1,0} parameter(5)
  %param_6.1057 = f32[1,1,1792,3584]{3,2,1,0} parameter(6)
  %multiply.762.clone.1 = f32[1,1,1792,3584]{3,2,1,0} multiply(f32[1,1,1792,3584]{3,2,1,0} %param_6.1057, f32[1,1,1792,3584]{3,2,1,0} %broadcast.546), metadata={op_name="parallelize(train_step_func_pipeshard_parallel_mesh_1)/jit(main)/div"}
  %param_12.119 = f32[1,1,1792,3584]{3,2,1,0} parameter(12)
  %multiply.367.clone.1 = f32[1,1,1792,3584]{3,2,1,0} multiply(f32[1,1,1792,3584]{3,2,1,0} %param_12.119, f32[1,1,1792,3584]{3,2,1,0} %broadcast.493.clone.1), metadata={op_name="parallelize(train_step_func_pipeshard_parallel_mesh_1)/jit(main)/mul" source_file="/home/cyxue/miniconda3/envs/alpa/lib/python3.8/site-packages/optax/_src/transform.py" source_line=70}
  %add.170.clone.1 = f32[1,1,1792,3584]{3,2,1,0} add(f32[1,1,1792,3584]{3,2,1,0} %multiply.762.clone.1, f32[1,1,1792,3584]{3,2,1,0} %multiply.367.clone.1), metadata={op_name="parallelize(train_step_func_pipeshard_parallel_mesh_1)/jit(main)/add" source_file="/home/cyxue/miniconda3/envs/alpa/lib/python3.8/site-packages/optax/_src/transform.py" source_line=70}
  %multiply.209.clone.1 = f32[1,1,1792,3584]{3,2,1,0} multiply(f32[1,1,1792,3584]{3,2,1,0} %add.170.clone.1, f32[1,1,1792,3584]{3,2,1,0} %broadcast.493.clone.1), metadata={op_name="parallelize(train_step_func_pipeshard_parallel_mesh_1)/jit(main)/mul" source_file="/home/cyxue/miniconda3/envs/alpa/lib/python3.8/site-packages/optax/_src/transform.py" source_line=70}
  %add.24.clone.1 = f32[1,1,1792,3584]{3,2,1,0} add(f32[1,1,1792,3584]{3,2,1,0} %multiply.762.clone.1, f32[1,1,1792,3584]{3,2,1,0} %multiply.209.clone.1), metadata={op_name="parallelize(train_step_func_pipeshard_parallel_mesh_1)/jit(main)/add" source_file="/home/cyxue/miniconda3/envs/alpa/lib/python3.8/site-packages/optax/_src/transform.py" source_line=70}
  %multiply.208.clone.1 = f32[1,1,1792,3584]{3,2,1,0} multiply(f32[1,1,1792,3584]{3,2,1,0} %broadcast.313, f32[1,1,1792,3584]{3,2,1,0} %add.24.clone.1), metadata={op_name="parallelize(train_step_func_pipeshard_parallel_mesh_1)/jit(main)/mul" source_file="/home/cyxue/miniconda3/envs/alpa/lib/python3.8/site-packages/optax/_src/transform.py" source_line=694}
  %add.23.clone.1 = f32[1,1,1792,3584]{3,2,1,0} add(f32[1,1,1792,3584]{3,2,1,0} %param_5.590, f32[1,1,1792,3584]{3,2,1,0} %multiply.208.clone.1), metadata={op_name="parallelize(train_step_func_pipeshard_parallel_mesh_1)/jit(main)/add" source_file="/home/cyxue/miniconda3/envs/alpa/lib/python3.8/site-packages/optax/_src/update.py" source_line=43}
  %param_7.800 = f32[1,1,1792,3584]{3,2,1,0} parameter(7)
  %param_8.219 = f32[1,1,1792,3584]{3,2,1,0} parameter(8)
  %multiply.606.clone.1 = f32[1,1,1792,3584]{3,2,1,0} multiply(f32[1,1,1792,3584]{3,2,1,0} %param_8.219, f32[1,1,1792,3584]{3,2,1,0} %broadcast.546), metadata={op_name="parallelize(train_step_func_pipeshard_parallel_mesh_1)/jit(main)/div"}
  %param_13.213 = f32[1,1,1792,3584]{3,2,1,0} parameter(13)
  %multiply.445.clone.1 = f32[1,1,1792,3584]{3,2,1,0} multiply(f32[1,1,1792,3584]{3,2,1,0} %param_13.213, f32[1,1,1792,3584]{3,2,1,0} %broadcast.493.clone.1), metadata={op_name="parallelize(train_step_func_pipeshard_parallel_mesh_1)/jit(main)/mul" source_file="/home/cyxue/miniconda3/envs/alpa/lib/python3.8/site-packages/optax/_src/transform.py" source_line=70}
  %add.209.clone.1 = f32[1,1,1792,3584]{3,2,1,0} add(f32[1,1,1792,3584]{3,2,1,0} %multiply.606.clone.1, f32[1,1,1792,3584]{3,2,1,0} %multiply.445.clone.1), metadata={op_name="parallelize(train_step_func_pipeshard_parallel_mesh_1)/jit(main)/add" source_file="/home/cyxue/miniconda3/envs/alpa/lib/python3.8/site-packages/optax/_src/transform.py" source_line=70}
  %multiply.287.clone.1 = f32[1,1,1792,3584]{3,2,1,0} multiply(f32[1,1,1792,3584]{3,2,1,0} %add.209.clone.1, f32[1,1,1792,3584]{3,2,1,0} %broadcast.493.clone.1), metadata={op_name="parallelize(train_step_func_pipeshard_parallel_mesh_1)/jit(main)/mul" source_file="/home/cyxue/miniconda3/envs/alpa/lib/python3.8/site-packages/optax/_src/transform.py" source_line=70}
  %add.102.clone.1 = f32[1,1,1792,3584]{3,2,1,0} add(f32[1,1,1792,3584]{3,2,1,0} %multiply.606.clone.1, f32[1,1,1792,3584]{3,2,1,0} %multiply.287.clone.1), metadata={op_name="parallelize(train_step_func_pipeshard_parallel_mesh_1)/jit(main)/add" source_file="/home/cyxue/miniconda3/envs/alpa/lib/python3.8/site-packages/optax/_src/transform.py" source_line=70}
  %multiply.286.clone.1 = f32[1,1,1792,3584]{3,2,1,0} multiply(f32[1,1,1792,3584]{3,2,1,0} %broadcast.313, f32[1,1,1792,3584]{3,2,1,0} %add.102.clone.1), metadata={op_name="parallelize(train_step_func_pipeshard_parallel_mesh_1)/jit(main)/mul" source_file="/home/cyxue/miniconda3/envs/alpa/lib/python3.8/site-packages/optax/_src/transform.py" source_line=694}
  %add.101.clone.1 = f32[1,1,1792,3584]{3,2,1,0} add(f32[1,1,1792,3584]{3,2,1,0} %param_7.800, f32[1,1,1792,3584]{3,2,1,0} %multiply.286.clone.1), metadata={op_name="parallelize(train_step_func_pipeshard_parallel_mesh_1)/jit(main)/add" source_file="/home/cyxue/miniconda3/envs/alpa/lib/python3.8/site-packages/optax/_src/update.py" source_line=43}
  %param_9.125 = f32[1,1,1792,3584]{3,2,1,0} parameter(9)
  %param_10.227 = f32[1,1,1792,3584]{3,2,1,0} parameter(10)
  %multiply.570.clone.1 = f32[1,1,1792,3584]{3,2,1,0} multiply(f32[1,1,1792,3584]{3,2,1,0} %param_10.227, f32[1,1,1792,3584]{3,2,1,0} %broadcast.546), metadata={op_name="parallelize(train_step_func_pipeshard_parallel_mesh_1)/jit(main)/div"}
  %param_14.209 = f32[1,1,1792,3584]{3,2,1,0} parameter(14)
  %multiply.463.clone.1 = f32[1,1,1792,3584]{3,2,1,0} multiply(f32[1,1,1792,3584]{3,2,1,0} %param_14.209, f32[1,1,1792,3584]{3,2,1,0} %broadcast.493.clone.1), metadata={op_name="parallelize(train_step_func_pipeshard_parallel_mesh_1)/jit(main)/mul" source_file="/home/cyxue/miniconda3/envs/alpa/lib/python3.8/site-packages/optax/_src/transform.py" source_line=70}
  %add.218.clone.1 = f32[1,1,1792,3584]{3,2,1,0} add(f32[1,1,1792,3584]{3,2,1,0} %multiply.570.clone.1, f32[1,1,1792,3584]{3,2,1,0} %multiply.463.clone.1), metadata={op_name="parallelize(train_step_func_pipeshard_parallel_mesh_1)/jit(main)/add" source_file="/home/cyxue/miniconda3/envs/alpa/lib/python3.8/site-packages/optax/_src/transform.py" source_line=70}
  %multiply.305.clone.1 = f32[1,1,1792,3584]{3,2,1,0} multiply(f32[1,1,1792,3584]{3,2,1,0} %add.218.clone.1, f32[1,1,1792,3584]{3,2,1,0} %broadcast.493.clone.1), metadata={op_name="parallelize(train_step_func_pipeshard_parallel_mesh_1)/jit(main)/mul" source_file="/home/cyxue/miniconda3/envs/alpa/lib/python3.8/site-packages/optax/_src/transform.py" source_line=70}
  %add.120.clone.1 = f32[1,1,1792,3584]{3,2,1,0} add(f32[1,1,1792,3584]{3,2,1,0} %multiply.570.clone.1, f32[1,1,1792,3584]{3,2,1,0} %multiply.305.clone.1), metadata={op_name="parallelize(train_step_func_pipeshard_parallel_mesh_1)/jit(main)/add" source_file="/home/cyxue/miniconda3/envs/alpa/lib/python3.8/site-packages/optax/_src/transform.py" source_line=70}
  %multiply.304.clone.1 = f32[1,1,1792,3584]{3,2,1,0} multiply(f32[1,1,1792,3584]{3,2,1,0} %broadcast.313, f32[1,1,1792,3584]{3,2,1,0} %add.120.clone.1), metadata={op_name="parallelize(train_step_func_pipeshard_parallel_mesh_1)/jit(main)/mul" source_file="/home/cyxue/miniconda3/envs/alpa/lib/python3.8/site-packages/optax/_src/transform.py" source_line=694}
  %add.119.clone.1 = f32[1,1,1792,3584]{3,2,1,0} add(f32[1,1,1792,3584]{3,2,1,0} %param_9.125, f32[1,1,1792,3584]{3,2,1,0} %multiply.304.clone.1), metadata={op_name="parallelize(train_step_func_pipeshard_parallel_mesh_1)/jit(main)/add" source_file="/home/cyxue/miniconda3/envs/alpa/lib/python3.8/site-packages/optax/_src/update.py" source_line=43}
  ROOT %tuple.108 = (f32[1,1,1792,3584]{3,2,1,0}, f32[1,1,1792,3584]{3,2,1,0}, f32[1,1,1792,3584]{3,2,1,0}, f32[1,1,1792,3584]{3,2,1,0}, f32[1,1,1792,3584]{3,2,1,0}, /*index=5*/f32[1,1,1792,3584]{3,2,1,0}, f32[1,1,1792,3584]{3,2,1,0}, f32[1,1,1792,3584]{3,2,1,0}, f32[1,1,1792,3584]{3,2,1,0}, f32[1,1,1792,3584]{3,2,1,0}) tuple(f32[1,1,1792,3584]{3,2,1,0} %add.137, f32[1,1,1792,3584]{3,2,1,0} %add.5.clone.1, f32[1,1,1792,3584]{3,2,1,0} %add.23.clone.1, f32[1,1,1792,3584]{3,2,1,0} %add.101.clone.1, f32[1,1,1792,3584]{3,2,1,0} %add.119.clone.1, /*index=5*/f32[1,1,1792,3584]{3,2,1,0} %add.161.clone.1, f32[1,1,1792,3584]{3,2,1,0} %add.170.clone.1, f32[1,1,1792,3584]{3,2,1,0} %add.209.clone.1, f32[1,1,1792,3584]{3,2,1,0} %add.218.clone.1, f32[1,1,1792,3584]{3,2,1,0} %add.227.clone.1)
}

%fused_computation.119 (param_0.120: f32[3,3,896,1792], param_1.813: f32[3,3,896,1792], param_2.713: s32[], param_3.720: f32[3,3,896,1792], param_4.884: f32[3,3,896,1792], param_5.591: f32[3,3,896,1792], param_6.1058: f32[3,3,896,1792], param_7.801: f32[3,3,896,1792], param_8.220: f32[3,3,896,1792], param_9.126: f32[3,3,896,1792], param_10.228: f32[3,3,896,1792], param_11.230: f32[3,3,896,1792], param_12.120: f32[3,3,896,1792], param_13.214: f32[3,3,896,1792], param_14.210: f32[3,3,896,1792], param_15.119: f32[3,3,896,1792]) -> (f32[3,3,896,1792], f32[3,3,896,1792], f32[3,3,896,1792], f32[3,3,896,1792], f32[3,3,896,1792], /*index=5*/f32[3,3,896,1792], f32[3,3,896,1792], f32[3,3,896,1792], f32[3,3,896,1792], f32[3,3,896,1792]) {
  %param_0.120 = f32[3,3,896,1792]{3,2,1,0} parameter(0)
  %param_2.713 = s32[] parameter(2)
  %convert.33 = f32[] convert(s32[] %param_2.713), metadata={op_name="parallelize(train_step_func_pipeshard_parallel_mesh_1)/jit(main)/convert_element_type[new_dtype=float32 weak_type=True]" source_file="/home/cyxue/miniconda3/envs/alpa/lib/python3.8/site-packages/optax/_src/schedule.py" source_line=394}
  %constant_1112 = f32[] constant(50000)
  %compare.17 = pred[] compare(f32[] %convert.33, f32[] %constant_1112), direction=LT, metadata={op_name="parallelize(train_step_func_pipeshard_parallel_mesh_1)/jit(main)/lt" source_file="/home/cyxue/miniconda3/envs/alpa/lib/python3.8/site-packages/optax/_src/schedule.py" source_line=394}
  %constant_1111 = f32[] constant(1)
  %constant_1110 = s32[] constant(0)
  %maximum.16 = s32[] maximum(s32[] %param_2.713, s32[] %constant_1110), metadata={op_name="parallelize(train_step_func_pipeshard_parallel_mesh_1)/jit(main)/max" source_file="/home/cyxue/miniconda3/envs/alpa/lib/python3.8/site-packages/optax/_src/schedule.py" source_line=86}
  %convert.32 = f32[] convert(s32[] %maximum.16), metadata={op_name="parallelize(train_step_func_pipeshard_parallel_mesh_1)/jit(main)/convert_element_type[new_dtype=float32 weak_type=True]" source_file="/home/cyxue/miniconda3/envs/alpa/lib/python3.8/site-packages/optax/_src/schedule.py" source_line=86}
  %minimum.33 = f32[] minimum(f32[] %convert.32, f32[] %constant_1112), metadata={op_name="parallelize(train_step_func_pipeshard_parallel_mesh_1)/jit(main)/min" source_file="/home/cyxue/miniconda3/envs/alpa/lib/python3.8/site-packages/optax/_src/schedule.py" source_line=86}
  %constant_1109 = f32[] constant(2e-05)
  %multiply.886 = f32[] multiply(f32[] %minimum.33, f32[] %constant_1109), metadata={op_name="parallelize(train_step_func_pipeshard_parallel_mesh_1)/jit(main)/div" source_file="/home/cyxue/miniconda3/envs/alpa/lib/python3.8/site-packages/optax/_src/schedule.py" source_line=87}
  %subtract.16 = f32[] subtract(f32[] %constant_1111, f32[] %multiply.886), metadata={op_name="parallelize(train_step_func_pipeshard_parallel_mesh_1)/jit(main)/sub" source_file="/home/cyxue/miniconda3/envs/alpa/lib/python3.8/site-packages/optax/_src/schedule.py" source_line=87}
  %constant_1108 = f32[] constant(-0.1)
  %multiply.885 = f32[] multiply(f32[] %subtract.16, f32[] %constant_1108), metadata={op_name="parallelize(train_step_func_pipeshard_parallel_mesh_1)/jit(main)/mul" source_file="/home/cyxue/miniconda3/envs/alpa/lib/python3.8/site-packages/optax/_src/schedule.py" source_line=88}
  %constant_1107 = f32[] constant(0.1)
  %add.283 = f32[] add(f32[] %multiply.885, f32[] %constant_1107), metadata={op_name="parallelize(train_step_func_pipeshard_parallel_mesh_1)/jit(main)/add" source_file="/home/cyxue/miniconda3/envs/alpa/lib/python3.8/site-packages/optax/_src/schedule.py" source_line=88}
  %constant_1106 = f32[] constant(-50000)
  %add.282 = f32[] add(f32[] %convert.33, f32[] %constant_1106), metadata={op_name="parallelize(train_step_func_pipeshard_parallel_mesh_1)/jit(main)/sub" source_file="/home/cyxue/miniconda3/envs/alpa/lib/python3.8/site-packages/optax/_src/schedule.py" source_line=394}
  %constant_1105 = f32[] constant(950000)
  %minimum.32 = f32[] minimum(f32[] %add.282, f32[] %constant_1105), metadata={op_name="parallelize(train_step_func_pipeshard_parallel_mesh_1)/jit(main)/min" source_file="/home/cyxue/miniconda3/envs/alpa/lib/python3.8/site-packages/optax/_src/schedule.py" source_line=235}
  %constant_1104 = f32[] constant(3.30693956e-06)
  %multiply.884 = f32[] multiply(f32[] %minimum.32, f32[] %constant_1104), metadata={op_name="parallelize(train_step_func_pipeshard_parallel_mesh_1)/jit(main)/div" source_file="/home/cyxue/miniconda3/envs/alpa/lib/python3.8/site-packages/optax/_src/schedule.py" source_line=236}
  %cosine.16 = f32[] cosine(f32[] %multiply.884), metadata={op_name="parallelize(train_step_func_pipeshard_parallel_mesh_1)/jit(main)/cos" source_file="/home/cyxue/miniconda3/envs/alpa/lib/python3.8/site-packages/optax/_src/schedule.py" source_line=236}
  %add.281 = f32[] add(f32[] %cosine.16, f32[] %constant_1111), metadata={op_name="parallelize(train_step_func_pipeshard_parallel_mesh_1)/jit(main)/add" source_file="/home/cyxue/miniconda3/envs/alpa/lib/python3.8/site-packages/optax/_src/schedule.py" source_line=236}
  %constant_1103 = f32[] constant(0.05)
  %multiply.883 = f32[] multiply(f32[] %add.281, f32[] %constant_1103), metadata={op_name="parallelize(train_step_func_pipeshard_parallel_mesh_1)/jit(main)/mul" source_file="/home/cyxue/miniconda3/envs/alpa/lib/python3.8/site-packages/optax/_src/schedule.py" source_line=238}
  %select.17 = f32[] select(pred[] %compare.17, f32[] %add.283, f32[] %multiply.883), metadata={op_name="parallelize(train_step_func_pipeshard_parallel_mesh_1)/jit(main)/select_n" source_file="/home/cyxue/miniconda3/envs/alpa/lib/python3.8/site-packages/optax/_src/schedule.py" source_line=394}
  %constant_1102 = f32[] constant(-1)
  %multiply.882 = f32[] multiply(f32[] %select.17, f32[] %constant_1102), metadata={op_name="parallelize(train_step_func_pipeshard_parallel_mesh_1)/jit(main)/mul" source_file="/home/cyxue/miniconda3/envs/alpa/lib/python3.8/site-packages/optax/_src/alias.py" source_line=37}
  %broadcast.315 = f32[3,3,896,1792]{3,2,1,0} broadcast(f32[] %multiply.882), dimensions={}, metadata={op_name="parallelize(train_step_func_pipeshard_parallel_mesh_1)/jit(main)/mul" source_file="/home/cyxue/miniconda3/envs/alpa/lib/python3.8/site-packages/optax/_src/transform.py" source_line=694}
  %param_1.813 = f32[3,3,896,1792]{3,2,1,0} parameter(1)
  %constant_514 = f32[] constant(0.0625)
  %broadcast.542 = f32[3,3,896,1792]{3,2,1,0} broadcast(f32[] %constant_514), dimensions={}, metadata={op_name="parallelize(train_step_func_pipeshard_parallel_mesh_1)/jit(main)/div"}
  %multiply.530 = f32[3,3,896,1792]{3,2,1,0} multiply(f32[3,3,896,1792]{3,2,1,0} %param_1.813, f32[3,3,896,1792]{3,2,1,0} %broadcast.542), metadata={op_name="parallelize(train_step_func_pipeshard_parallel_mesh_1)/jit(main)/div"}
  %param_15.119 = f32[3,3,896,1792]{3,2,1,0} parameter(15)
  %constant_266 = f32[] constant(0.9)
  %broadcast.495.clone.1 = f32[3,3,896,1792]{3,2,1,0} broadcast(f32[] %constant_266), dimensions={}, metadata={op_name="parallelize(train_step_func_pipeshard_parallel_mesh_1)/jit(main)/mul" source_file="/home/cyxue/miniconda3/envs/alpa/lib/python3.8/site-packages/optax/_src/transform.py" source_line=70}
  %multiply.483.clone.1 = f32[3,3,896,1792]{3,2,1,0} multiply(f32[3,3,896,1792]{3,2,1,0} %param_15.119, f32[3,3,896,1792]{3,2,1,0} %broadcast.495.clone.1), metadata={op_name="parallelize(train_step_func_pipeshard_parallel_mesh_1)/jit(main)/mul" source_file="/home/cyxue/miniconda3/envs/alpa/lib/python3.8/site-packages/optax/_src/transform.py" source_line=70}
  %add.228.clone.1 = f32[3,3,896,1792]{3,2,1,0} add(f32[3,3,896,1792]{3,2,1,0} %multiply.530, f32[3,3,896,1792]{3,2,1,0} %multiply.483.clone.1), metadata={op_name="parallelize(train_step_func_pipeshard_parallel_mesh_1)/jit(main)/add" source_file="/home/cyxue/miniconda3/envs/alpa/lib/python3.8/site-packages/optax/_src/transform.py" source_line=70}
  %multiply.325 = f32[3,3,896,1792]{3,2,1,0} multiply(f32[3,3,896,1792]{3,2,1,0} %add.228.clone.1, f32[3,3,896,1792]{3,2,1,0} %broadcast.495.clone.1), metadata={op_name="parallelize(train_step_func_pipeshard_parallel_mesh_1)/jit(main)/mul" source_file="/home/cyxue/miniconda3/envs/alpa/lib/python3.8/site-packages/optax/_src/transform.py" source_line=70}
  %add.140 = f32[3,3,896,1792]{3,2,1,0} add(f32[3,3,896,1792]{3,2,1,0} %multiply.530, f32[3,3,896,1792]{3,2,1,0} %multiply.325), metadata={op_name="parallelize(train_step_func_pipeshard_parallel_mesh_1)/jit(main)/add" source_file="/home/cyxue/miniconda3/envs/alpa/lib/python3.8/site-packages/optax/_src/transform.py" source_line=70}
  %multiply.324 = f32[3,3,896,1792]{3,2,1,0} multiply(f32[3,3,896,1792]{3,2,1,0} %broadcast.315, f32[3,3,896,1792]{3,2,1,0} %add.140), metadata={op_name="parallelize(train_step_func_pipeshard_parallel_mesh_1)/jit(main)/mul" source_file="/home/cyxue/miniconda3/envs/alpa/lib/python3.8/site-packages/optax/_src/transform.py" source_line=694}
  %add.139 = f32[3,3,896,1792]{3,2,1,0} add(f32[3,3,896,1792]{3,2,1,0} %param_0.120, f32[3,3,896,1792]{3,2,1,0} %multiply.324), metadata={op_name="parallelize(train_step_func_pipeshard_parallel_mesh_1)/jit(main)/add" source_file="/home/cyxue/miniconda3/envs/alpa/lib/python3.8/site-packages/optax/_src/update.py" source_line=43}
  %param_3.720 = f32[3,3,896,1792]{3,2,1,0} parameter(3)
  %param_4.884 = f32[3,3,896,1792]{3,2,1,0} parameter(4)
  %multiply.794.clone.1 = f32[3,3,896,1792]{3,2,1,0} multiply(f32[3,3,896,1792]{3,2,1,0} %param_4.884, f32[3,3,896,1792]{3,2,1,0} %broadcast.542), metadata={op_name="parallelize(train_step_func_pipeshard_parallel_mesh_1)/jit(main)/div"}
  %param_11.230 = f32[3,3,896,1792]{3,2,1,0} parameter(11)
  %multiply.351.clone.1 = f32[3,3,896,1792]{3,2,1,0} multiply(f32[3,3,896,1792]{3,2,1,0} %param_11.230, f32[3,3,896,1792]{3,2,1,0} %broadcast.495.clone.1), metadata={op_name="parallelize(train_step_func_pipeshard_parallel_mesh_1)/jit(main)/mul" source_file="/home/cyxue/miniconda3/envs/alpa/lib/python3.8/site-packages/optax/_src/transform.py" source_line=70}
  %add.162.clone.1 = f32[3,3,896,1792]{3,2,1,0} add(f32[3,3,896,1792]{3,2,1,0} %multiply.794.clone.1, f32[3,3,896,1792]{3,2,1,0} %multiply.351.clone.1), metadata={op_name="parallelize(train_step_func_pipeshard_parallel_mesh_1)/jit(main)/add" source_file="/home/cyxue/miniconda3/envs/alpa/lib/python3.8/site-packages/optax/_src/transform.py" source_line=70}
  %multiply.193.clone.1 = f32[3,3,896,1792]{3,2,1,0} multiply(f32[3,3,896,1792]{3,2,1,0} %add.162.clone.1, f32[3,3,896,1792]{3,2,1,0} %broadcast.495.clone.1), metadata={op_name="parallelize(train_step_func_pipeshard_parallel_mesh_1)/jit(main)/mul" source_file="/home/cyxue/miniconda3/envs/alpa/lib/python3.8/site-packages/optax/_src/transform.py" source_line=70}
  %add.8.clone.1 = f32[3,3,896,1792]{3,2,1,0} add(f32[3,3,896,1792]{3,2,1,0} %multiply.794.clone.1, f32[3,3,896,1792]{3,2,1,0} %multiply.193.clone.1), metadata={op_name="parallelize(train_step_func_pipeshard_parallel_mesh_1)/jit(main)/add" source_file="/home/cyxue/miniconda3/envs/alpa/lib/python3.8/site-packages/optax/_src/transform.py" source_line=70}
  %multiply.192.clone.1 = f32[3,3,896,1792]{3,2,1,0} multiply(f32[3,3,896,1792]{3,2,1,0} %broadcast.315, f32[3,3,896,1792]{3,2,1,0} %add.8.clone.1), metadata={op_name="parallelize(train_step_func_pipeshard_parallel_mesh_1)/jit(main)/mul" source_file="/home/cyxue/miniconda3/envs/alpa/lib/python3.8/site-packages/optax/_src/transform.py" source_line=694}
  %add.7.clone.1 = f32[3,3,896,1792]{3,2,1,0} add(f32[3,3,896,1792]{3,2,1,0} %param_3.720, f32[3,3,896,1792]{3,2,1,0} %multiply.192.clone.1), metadata={op_name="parallelize(train_step_func_pipeshard_parallel_mesh_1)/jit(main)/add" source_file="/home/cyxue/miniconda3/envs/alpa/lib/python3.8/site-packages/optax/_src/update.py" source_line=43}
  %param_5.591 = f32[3,3,896,1792]{3,2,1,0} parameter(5)
  %param_6.1058 = f32[3,3,896,1792]{3,2,1,0} parameter(6)
  %multiply.758.clone.1 = f32[3,3,896,1792]{3,2,1,0} multiply(f32[3,3,896,1792]{3,2,1,0} %param_6.1058, f32[3,3,896,1792]{3,2,1,0} %broadcast.542), metadata={op_name="parallelize(train_step_func_pipeshard_parallel_mesh_1)/jit(main)/div"}
  %param_12.120 = f32[3,3,896,1792]{3,2,1,0} parameter(12)
  %multiply.369.clone.1 = f32[3,3,896,1792]{3,2,1,0} multiply(f32[3,3,896,1792]{3,2,1,0} %param_12.120, f32[3,3,896,1792]{3,2,1,0} %broadcast.495.clone.1), metadata={op_name="parallelize(train_step_func_pipeshard_parallel_mesh_1)/jit(main)/mul" source_file="/home/cyxue/miniconda3/envs/alpa/lib/python3.8/site-packages/optax/_src/transform.py" source_line=70}
  %add.171.clone.1 = f32[3,3,896,1792]{3,2,1,0} add(f32[3,3,896,1792]{3,2,1,0} %multiply.758.clone.1, f32[3,3,896,1792]{3,2,1,0} %multiply.369.clone.1), metadata={op_name="parallelize(train_step_func_pipeshard_parallel_mesh_1)/jit(main)/add" source_file="/home/cyxue/miniconda3/envs/alpa/lib/python3.8/site-packages/optax/_src/transform.py" source_line=70}
  %multiply.211.clone.1 = f32[3,3,896,1792]{3,2,1,0} multiply(f32[3,3,896,1792]{3,2,1,0} %add.171.clone.1, f32[3,3,896,1792]{3,2,1,0} %broadcast.495.clone.1), metadata={op_name="parallelize(train_step_func_pipeshard_parallel_mesh_1)/jit(main)/mul" source_file="/home/cyxue/miniconda3/envs/alpa/lib/python3.8/site-packages/optax/_src/transform.py" source_line=70}
  %add.26.clone.1 = f32[3,3,896,1792]{3,2,1,0} add(f32[3,3,896,1792]{3,2,1,0} %multiply.758.clone.1, f32[3,3,896,1792]{3,2,1,0} %multiply.211.clone.1), metadata={op_name="parallelize(train_step_func_pipeshard_parallel_mesh_1)/jit(main)/add" source_file="/home/cyxue/miniconda3/envs/alpa/lib/python3.8/site-packages/optax/_src/transform.py" source_line=70}
  %multiply.210.clone.1 = f32[3,3,896,1792]{3,2,1,0} multiply(f32[3,3,896,1792]{3,2,1,0} %broadcast.315, f32[3,3,896,1792]{3,2,1,0} %add.26.clone.1), metadata={op_name="parallelize(train_step_func_pipeshard_parallel_mesh_1)/jit(main)/mul" source_file="/home/cyxue/miniconda3/envs/alpa/lib/python3.8/site-packages/optax/_src/transform.py" source_line=694}
  %add.25.clone.1 = f32[3,3,896,1792]{3,2,1,0} add(f32[3,3,896,1792]{3,2,1,0} %param_5.591, f32[3,3,896,1792]{3,2,1,0} %multiply.210.clone.1), metadata={op_name="parallelize(train_step_func_pipeshard_parallel_mesh_1)/jit(main)/add" source_file="/home/cyxue/miniconda3/envs/alpa/lib/python3.8/site-packages/optax/_src/update.py" source_line=43}
  %param_7.801 = f32[3,3,896,1792]{3,2,1,0} parameter(7)
  %param_8.220 = f32[3,3,896,1792]{3,2,1,0} parameter(8)
  %multiply.602.clone.1 = f32[3,3,896,1792]{3,2,1,0} multiply(f32[3,3,896,1792]{3,2,1,0} %param_8.220, f32[3,3,896,1792]{3,2,1,0} %broadcast.542), metadata={op_name="parallelize(train_step_func_pipeshard_parallel_mesh_1)/jit(main)/div"}
  %param_13.214 = f32[3,3,896,1792]{3,2,1,0} parameter(13)
  %multiply.447.clone.1 = f32[3,3,896,1792]{3,2,1,0} multiply(f32[3,3,896,1792]{3,2,1,0} %param_13.214, f32[3,3,896,1792]{3,2,1,0} %broadcast.495.clone.1), metadata={op_name="parallelize(train_step_func_pipeshard_parallel_mesh_1)/jit(main)/mul" source_file="/home/cyxue/miniconda3/envs/alpa/lib/python3.8/site-packages/optax/_src/transform.py" source_line=70}
  %add.210.clone.1 = f32[3,3,896,1792]{3,2,1,0} add(f32[3,3,896,1792]{3,2,1,0} %multiply.602.clone.1, f32[3,3,896,1792]{3,2,1,0} %multiply.447.clone.1), metadata={op_name="parallelize(train_step_func_pipeshard_parallel_mesh_1)/jit(main)/add" source_file="/home/cyxue/miniconda3/envs/alpa/lib/python3.8/site-packages/optax/_src/transform.py" source_line=70}
  %multiply.289.clone.1 = f32[3,3,896,1792]{3,2,1,0} multiply(f32[3,3,896,1792]{3,2,1,0} %add.210.clone.1, f32[3,3,896,1792]{3,2,1,0} %broadcast.495.clone.1), metadata={op_name="parallelize(train_step_func_pipeshard_parallel_mesh_1)/jit(main)/mul" source_file="/home/cyxue/miniconda3/envs/alpa/lib/python3.8/site-packages/optax/_src/transform.py" source_line=70}
  %add.104.clone.1 = f32[3,3,896,1792]{3,2,1,0} add(f32[3,3,896,1792]{3,2,1,0} %multiply.602.clone.1, f32[3,3,896,1792]{3,2,1,0} %multiply.289.clone.1), metadata={op_name="parallelize(train_step_func_pipeshard_parallel_mesh_1)/jit(main)/add" source_file="/home/cyxue/miniconda3/envs/alpa/lib/python3.8/site-packages/optax/_src/transform.py" source_line=70}
  %multiply.288.clone.1 = f32[3,3,896,1792]{3,2,1,0} multiply(f32[3,3,896,1792]{3,2,1,0} %broadcast.315, f32[3,3,896,1792]{3,2,1,0} %add.104.clone.1), metadata={op_name="parallelize(train_step_func_pipeshard_parallel_mesh_1)/jit(main)/mul" source_file="/home/cyxue/miniconda3/envs/alpa/lib/python3.8/site-packages/optax/_src/transform.py" source_line=694}
  %add.103.clone.1 = f32[3,3,896,1792]{3,2,1,0} add(f32[3,3,896,1792]{3,2,1,0} %param_7.801, f32[3,3,896,1792]{3,2,1,0} %multiply.288.clone.1), metadata={op_name="parallelize(train_step_func_pipeshard_parallel_mesh_1)/jit(main)/add" source_file="/home/cyxue/miniconda3/envs/alpa/lib/python3.8/site-packages/optax/_src/update.py" source_line=43}
  %param_9.126 = f32[3,3,896,1792]{3,2,1,0} parameter(9)
  %param_10.228 = f32[3,3,896,1792]{3,2,1,0} parameter(10)
  %multiply.566.clone.1 = f32[3,3,896,1792]{3,2,1,0} multiply(f32[3,3,896,1792]{3,2,1,0} %param_10.228, f32[3,3,896,1792]{3,2,1,0} %broadcast.542), metadata={op_name="parallelize(train_step_func_pipeshard_parallel_mesh_1)/jit(main)/div"}
  %param_14.210 = f32[3,3,896,1792]{3,2,1,0} parameter(14)
  %multiply.465.clone.1 = f32[3,3,896,1792]{3,2,1,0} multiply(f32[3,3,896,1792]{3,2,1,0} %param_14.210, f32[3,3,896,1792]{3,2,1,0} %broadcast.495.clone.1), metadata={op_name="parallelize(train_step_func_pipeshard_parallel_mesh_1)/jit(main)/mul" source_file="/home/cyxue/miniconda3/envs/alpa/lib/python3.8/site-packages/optax/_src/transform.py" source_line=70}
  %add.219.clone.1 = f32[3,3,896,1792]{3,2,1,0} add(f32[3,3,896,1792]{3,2,1,0} %multiply.566.clone.1, f32[3,3,896,1792]{3,2,1,0} %multiply.465.clone.1), metadata={op_name="parallelize(train_step_func_pipeshard_parallel_mesh_1)/jit(main)/add" source_file="/home/cyxue/miniconda3/envs/alpa/lib/python3.8/site-packages/optax/_src/transform.py" source_line=70}
  %multiply.307.clone.1 = f32[3,3,896,1792]{3,2,1,0} multiply(f32[3,3,896,1792]{3,2,1,0} %add.219.clone.1, f32[3,3,896,1792]{3,2,1,0} %broadcast.495.clone.1), metadata={op_name="parallelize(train_step_func_pipeshard_parallel_mesh_1)/jit(main)/mul" source_file="/home/cyxue/miniconda3/envs/alpa/lib/python3.8/site-packages/optax/_src/transform.py" source_line=70}
  %add.122.clone.1 = f32[3,3,896,1792]{3,2,1,0} add(f32[3,3,896,1792]{3,2,1,0} %multiply.566.clone.1, f32[3,3,896,1792]{3,2,1,0} %multiply.307.clone.1), metadata={op_name="parallelize(train_step_func_pipeshard_parallel_mesh_1)/jit(main)/add" source_file="/home/cyxue/miniconda3/envs/alpa/lib/python3.8/site-packages/optax/_src/transform.py" source_line=70}
…
  %param_322 = f32[896]{0} parameter(322), metadata={op_name="1_apply_grad$start"}
  %param_323 = f32[1792]{0} parameter(323), metadata={op_name="1_apply_grad$start"}
  %param_324 = f32[1792]{0} parameter(324), metadata={op_name="1_apply_grad$start"}
  %param_325 = f32[3584]{0} parameter(325), metadata={op_name="1_apply_grad$start"}
  %param_326 = f32[3584]{0} parameter(326), metadata={op_name="1_apply_grad$start"}
  %param_327 = f32[896]{0} parameter(327), metadata={op_name="1_apply_grad$start"}
  %param_328 = f32[896]{0} parameter(328), metadata={op_name="1_apply_grad$start"}
  %param_329 = f32[1792]{0} parameter(329), metadata={op_name="1_apply_grad$start"}
  %param_330 = f32[1792]{0} parameter(330), metadata={op_name="1_apply_grad$start"}
  %param_331 = f32[3584]{0} parameter(331), metadata={op_name="1_apply_grad$start"}
  %param_332 = f32[3584]{0} parameter(332), metadata={op_name="1_apply_grad$start"}
  %param_295 = f32[896]{0} parameter(295), metadata={op_name="1_apply_grad$start"}
  %param_283 = f32[896]{0} parameter(283), metadata={op_name="1_apply_grad$start"}
  %param_284 = f32[896]{0} parameter(284), metadata={op_name="1_apply_grad$start"}
  %param_285 = f32[1792]{0} parameter(285), metadata={op_name="1_apply_grad$start"}
  %param_286 = f32[1792]{0} parameter(286), metadata={op_name="1_apply_grad$start"}
  %param_287 = f32[3584]{0} parameter(287), metadata={op_name="1_apply_grad$start"}
  %param_288 = f32[3584]{0} parameter(288), metadata={op_name="1_apply_grad$start"}
  %param_289 = f32[896]{0} parameter(289), metadata={op_name="1_apply_grad$start"}
  %fusion.287 = (f32[896]{0}, f32[1792]{0}, f32[1792]{0}, f32[3584]{0}, f32[3584]{0}, /*index=5*/f32[7168]{0}, f32[7168]{0}, f32[1792]{0}, f32[1792]{0}, f32[3584]{0}, /*index=10*/f32[3584]{0}, f32[7168]{0}, f32[7168]{0}, f32[896]{0}, f32[1792]{0}, /*index=15*/f32[1792]{0}, f32[3584]{0}, f32[3584]{0}, f32[896]{0}, f32[896]{0}, /*index=20*/f32[1792]{0}, f32[1792]{0}, f32[3584]{0}, f32[3584]{0}, f32[896]{0}, /*index=25*/f32[896]{0}, f32[896]{0}, f32[1792]{0}, f32[1792]{0}, f32[3584]{0}, /*index=30*/f32[3584]{0}, f32[896]{0}) fusion(f32[896]{0} %param_321, f32[1792]{0} %param_309, f32[1792]{0} %param_310, f32[3584]{0} %param_311, f32[3584]{0} %param_312, /*index=5*/f32[7168]{0} %param_313, f32[7168]{0} %param_314, f32[1792]{0} %param_315, f32[1792]{0} %param_316, f32[3584]{0} %param_317, /*index=10*/f32[3584]{0} %param_318, f32[7168]{0} %param_319, f32[7168]{0} %param_320, f32[896]{0} %param_322, f32[1792]{0} %param_323, /*index=15*/f32[1792]{0} %param_324, f32[3584]{0} %param_325, f32[3584]{0} %param_326, f32[896]{0} %param_327, f32[896]{0} %param_328, /*index=20*/f32[1792]{0} %param_329, f32[1792]{0} %param_330, f32[3584]{0} %param_331, f32[3584]{0} %param_332, f32[896]{0} %param_295, /*index=25*/f32[896]{0} %param_283, f32[896]{0} %param_284, f32[1792]{0} %param_285, f32[1792]{0} %param_286, f32[3584]{0} %param_287, /*index=30*/f32[3584]{0} %param_288, f32[896]{0} %param_289), kind=kInput, calls=%horizontally_fused_computation.1, metadata={op_name="parallelize(train_step_func_pipeshard_parallel_mesh_1)/jit(main)/div"}
  %get-tuple-element.363 = f32[896]{0} get-tuple-element((f32[896]{0}, f32[1792]{0}, f32[1792]{0}, f32[3584]{0}, f32[3584]{0}, /*index=5*/f32[7168]{0}, f32[7168]{0}, f32[1792]{0}, f32[1792]{0}, f32[3584]{0}, /*index=10*/f32[3584]{0}, f32[7168]{0}, f32[7168]{0}, f32[896]{0}, f32[1792]{0}, /*index=15*/f32[1792]{0}, f32[3584]{0}, f32[3584]{0}, f32[896]{0}, f32[896]{0}, /*index=20*/f32[1792]{0}, f32[1792]{0}, f32[3584]{0}, f32[3584]{0}, f32[896]{0}, /*index=25*/f32[896]{0}, f32[896]{0}, f32[1792]{0}, f32[1792]{0}, f32[3584]{0}, /*index=30*/f32[3584]{0}, f32[896]{0}) %fusion.287), index=25, metadata={op_name="parallelize(train_step_func_pipeshard_parallel_mesh_1)/jit(main)/div"}
  %get-tuple-element.364 = f32[896]{0} get-tuple-element((f32[896]{0}, f32[1792]{0}, f32[1792]{0}, f32[3584]{0}, f32[3584]{0}, /*index=5*/f32[7168]{0}, f32[7168]{0}, f32[1792]{0}, f32[1792]{0}, f32[3584]{0}, /*index=10*/f32[3584]{0}, f32[7168]{0}, f32[7168]{0}, f32[896]{0}, f32[1792]{0}, /*index=15*/f32[1792]{0}, f32[3584]{0}, f32[3584]{0}, f32[896]{0}, f32[896]{0}, /*index=20*/f32[1792]{0}, f32[1792]{0}, f32[3584]{0}, f32[3584]{0}, f32[896]{0}, /*index=25*/f32[896]{0}, f32[896]{0}, f32[1792]{0}, f32[1792]{0}, f32[3584]{0}, /*index=30*/f32[3584]{0}, f32[896]{0}) %fusion.287), index=26, metadata={op_name="parallelize(train_step_func_pipeshard_parallel_mesh_1)/jit(main)/div"}
  %get-tuple-element.365 = f32[1792]{0} get-tuple-element((f32[896]{0}, f32[1792]{0}, f32[1792]{0}, f32[3584]{0}, f32[3584]{0}, /*index=5*/f32[7168]{0}, f32[7168]{0}, f32[1792]{0}, f32[1792]{0}, f32[3584]{0}, /*index=10*/f32[3584]{0}, f32[7168]{0}, f32[7168]{0}, f32[896]{0}, f32[1792]{0}, /*index=15*/f32[1792]{0}, f32[3584]{0}, f32[3584]{0}, f32[896]{0}, f32[896]{0}, /*index=20*/f32[1792]{0}, f32[1792]{0}, f32[3584]{0}, f32[3584]{0}, f32[896]{0}, /*index=25*/f32[896]{0}, f32[896]{0}, f32[1792]{0}, f32[1792]{0}, f32[3584]{0}, /*index=30*/f32[3584]{0}, f32[896]{0}) %fusion.287), index=27, metadata={op_name="parallelize(train_step_func_pipeshard_parallel_mesh_1)/jit(main)/div"}
  %get-tuple-element.366 = f32[1792]{0} get-tuple-element((f32[896]{0}, f32[1792]{0}, f32[1792]{0}, f32[3584]{0}, f32[3584]{0}, /*index=5*/f32[7168]{0}, f32[7168]{0}, f32[1792]{0}, f32[1792]{0}, f32[3584]{0}, /*index=10*/f32[3584]{0}, f32[7168]{0}, f32[7168]{0}, f32[896]{0}, f32[1792]{0}, /*index=15*/f32[1792]{0}, f32[3584]{0}, f32[3584]{0}, f32[896]{0}, f32[896]{0}, /*index=20*/f32[1792]{0}, f32[1792]{0}, f32[3584]{0}, f32[3584]{0}, f32[896]{0}, /*index=25*/f32[896]{0}, f32[896]{0}, f32[1792]{0}, f32[1792]{0}, f32[3584]{0}, /*index=30*/f32[3584]{0}, f32[896]{0}) %fusion.287), index=28, metadata={op_name="parallelize(train_step_func_pipeshard_parallel_mesh_1)/jit(main)/div"}
  %get-tuple-element.367 = f32[3584]{0} get-tuple-element((f32[896]{0}, f32[1792]{0}, f32[1792]{0}, f32[3584]{0}, f32[3584]{0}, /*index=5*/f32[7168]{0}, f32[7168]{0}, f32[1792]{0}, f32[1792]{0}, f32[3584]{0}, /*index=10*/f32[3584]{0}, f32[7168]{0}, f32[7168]{0}, f32[896]{0}, f32[1792]{0}, /*index=15*/f32[1792]{0}, f32[3584]{0}, f32[3584]{0}, f32[896]{0}, f32[896]{0}, /*index=20*/f32[1792]{0}, f32[1792]{0}, f32[3584]{0}, f32[3584]{0}, f32[896]{0}, /*index=25*/f32[896]{0}, f32[896]{0}, f32[1792]{0}, f32[1792]{0}, f32[3584]{0}, /*index=30*/f32[3584]{0}, f32[896]{0}) %fusion.287), index=29, metadata={op_name="parallelize(train_step_func_pipeshard_parallel_mesh_1)/jit(main)/div"}
  %get-tuple-element.368 = f32[3584]{0} get-tuple-element((f32[896]{0}, f32[1792]{0}, f32[1792]{0}, f32[3584]{0}, f32[3584]{0}, /*index=5*/f32[7168]{0}, f32[7168]{0}, f32[1792]{0}, f32[1792]{0}, f32[3584]{0}, /*index=10*/f32[3584]{0}, f32[7168]{0}, f32[7168]{0}, f32[896]{0}, f32[1792]{0}, /*index=15*/f32[1792]{0}, f32[3584]{0}, f32[3584]{0}, f32[896]{0}, f32[896]{0}, /*index=20*/f32[1792]{0}, f32[1792]{0}, f32[3584]{0}, f32[3584]{0}, f32[896]{0}, /*index=25*/f32[896]{0}, f32[896]{0}, f32[1792]{0}, f32[1792]{0}, f32[3584]{0}, /*index=30*/f32[3584]{0}, f32[896]{0}) %fusion.287), index=30, metadata={op_name="parallelize(train_step_func_pipeshard_parallel_mesh_1)/jit(main)/div"}
  %get-tuple-element.369 = f32[896]{0} get-tuple-element((f32[896]{0}, f32[1792]{0}, f32[1792]{0}, f32[3584]{0}, f32[3584]{0}, /*index=5*/f32[7168]{0}, f32[7168]{0}, f32[1792]{0}, f32[1792]{0}, f32[3584]{0}, /*index=10*/f32[3584]{0}, f32[7168]{0}, f32[7168]{0}, f32[896]{0}, f32[1792]{0}, /*index=15*/f32[1792]{0}, f32[3584]{0}, f32[3584]{0}, f32[896]{0}, f32[896]{0}, /*index=20*/f32[1792]{0}, f32[1792]{0}, f32[3584]{0}, f32[3584]{0}, f32[896]{0}, /*index=25*/f32[896]{0}, f32[896]{0}, f32[1792]{0}, f32[1792]{0}, f32[3584]{0}, /*index=30*/f32[3584]{0}, f32[896]{0}) %fusion.287), index=31, metadata={op_name="parallelize(train_step_func_pipeshard_parallel_mesh_1)/jit(main)/div"}
  %param_290 = f32[896]{0} parameter(290), metadata={op_name="1_apply_grad$start"}
  %param_291 = f32[1792]{0} parameter(291), metadata={op_name="1_apply_grad$start"}
  %param_292 = f32[1792]{0} parameter(292), metadata={op_name="1_apply_grad$start"}
  %param_293 = f32[3584]{0} parameter(293), metadata={op_name="1_apply_grad$start"}
  %param_294 = f32[3584]{0} parameter(294), metadata={op_name="1_apply_grad$start"}
  %param_308 = f32[7168]{0} parameter(308), metadata={op_name="1_apply_grad$start"}
  %param_296 = f32[896]{0} parameter(296), metadata={op_name="1_apply_grad$start"}
  %param_297 = f32[1792]{0} parameter(297), metadata={op_name="1_apply_grad$start"}
  %param_298 = f32[1792]{0} parameter(298), metadata={op_name="1_apply_grad$start"}
  %param_299 = f32[3584]{0} parameter(299), metadata={op_name="1_apply_grad$start"}
  %param_300 = f32[3584]{0} parameter(300), metadata={op_name="1_apply_grad$start"}
  %param_301 = f32[1792]{0} parameter(301), metadata={op_name="1_apply_grad$start"}
  %param_302 = f32[1792]{0} parameter(302), metadata={op_name="1_apply_grad$start"}
  %param_303 = f32[3584]{0} parameter(303), metadata={op_name="1_apply_grad$start"}
  %param_304 = f32[3584]{0} parameter(304), metadata={op_name="1_apply_grad$start"}
  %param_305 = f32[7168]{0} parameter(305), metadata={op_name="1_apply_grad$start"}
  %param_306 = f32[7168]{0} parameter(306), metadata={op_name="1_apply_grad$start"}
  %param_307 = f32[7168]{0} parameter(307), metadata={op_name="1_apply_grad$start"}
  %fusion.288 = (f32[896]{0}, f32[1792]{0}, f32[1792]{0}, f32[3584]{0}, f32[3584]{0}, /*index=5*/f32[7168]{0}, f32[896]{0}, f32[1792]{0}, f32[1792]{0}, f32[3584]{0}, /*index=10*/f32[3584]{0}, f32[1792]{0}, f32[1792]{0}, f32[3584]{0}, f32[3584]{0}, /*index=15*/f32[7168]{0}, f32[7168]{0}, f32[7168]{0}) fusion(f32[896]{0} %param_290, f32[1792]{0} %param_291, f32[1792]{0} %param_292, f32[3584]{0} %param_293, f32[3584]{0} %param_294, /*index=5*/f32[7168]{0} %param_308, f32[896]{0} %param_296, f32[1792]{0} %param_297, f32[1792]{0} %param_298, f32[3584]{0} %param_299, /*index=10*/f32[3584]{0} %param_300, f32[1792]{0} %param_301, f32[1792]{0} %param_302, f32[3584]{0} %param_303, f32[3584]{0} %param_304, /*index=15*/f32[7168]{0} %param_305, f32[7168]{0} %param_306, f32[7168]{0} %param_307), kind=kInput, calls=%horizontally_fused_computation.2, metadata={op_name="parallelize(train_step_func_pipeshard_parallel_mesh_1)/jit(main)/div"}
  %get-tuple-element.370 = f32[896]{0} get-tuple-element((f32[896]{0}, f32[1792]{0}, f32[1792]{0}, f32[3584]{0}, f32[3584]{0}, /*index=5*/f32[7168]{0}, f32[896]{0}, f32[1792]{0}, f32[1792]{0}, f32[3584]{0}, /*index=10*/f32[3584]{0}, f32[1792]{0}, f32[1792]{0}, f32[3584]{0}, f32[3584]{0}, /*index=15*/f32[7168]{0}, f32[7168]{0}, f32[7168]{0}) %fusion.288), index=0, metadata={op_name="parallelize(train_step_func_pipeshard_parallel_mesh_1)/jit(main)/div"}
  %get-tuple-element.371 = f32[1792]{0} get-tuple-element((f32[896]{0}, f32[1792]{0}, f32[1792]{0}, f32[3584]{0}, f32[3584]{0}, /*index=5*/f32[7168]{0}, f32[896]{0}, f32[1792]{0}, f32[1792]{0}, f32[3584]{0}, /*index=10*/f32[3584]{0}, f32[1792]{0}, f32[1792]{0}, f32[3584]{0}, f32[3584]{0}, /*index=15*/f32[7168]{0}, f32[7168]{0}, f32[7168]{0}) %fusion.288), index=1, metadata={op_name="parallelize(train_step_func_pipeshard_parallel_mesh_1)/jit(main)/div"}
  %get-tuple-element.372 = f32[1792]{0} get-tuple-element((f32[896]{0}, f32[1792]{0}, f32[1792]{0}, f32[3584]{0}, f32[3584]{0}, /*index=5*/f32[7168]{0}, f32[896]{0}, f32[1792]{0}, f32[1792]{0}, f32[3584]{0}, /*index=10*/f32[3584]{0}, f32[1792]{0}, f32[1792]{0}, f32[3584]{0}, f32[3584]{0}, /*index=15*/f32[7168]{0}, f32[7168]{0}, f32[7168]{0}) %fusion.288), index=2, metadata={op_name="parallelize(train_step_func_pipeshard_parallel_mesh_1)/jit(main)/div"}
  %get-tuple-element.373 = f32[3584]{0} get-tuple-element((f32[896]{0}, f32[1792]{0}, f32[1792]{0}, f32[3584]{0}, f32[3584]{0}, /*index=5*/f32[7168]{0}, f32[896]{0}, f32[1792]{0}, f32[1792]{0}, f32[3584]{0}, /*index=10*/f32[3584]{0}, f32[1792]{0}, f32[1792]{0}, f32[3584]{0}, f32[3584]{0}, /*index=15*/f32[7168]{0}, f32[7168]{0}, f32[7168]{0}) %fusion.288), index=3, metadata={op_name="parallelize(train_step_func_pipeshard_parallel_mesh_1)/jit(main)/div"}
  %get-tuple-element.374 = f32[3584]{0} get-tuple-element((f32[896]{0}, f32[1792]{0}, f32[1792]{0}, f32[3584]{0}, f32[3584]{0}, /*index=5*/f32[7168]{0}, f32[896]{0}, f32[1792]{0}, f32[1792]{0}, f32[3584]{0}, /*index=10*/f32[3584]{0}, f32[1792]{0}, f32[1792]{0}, f32[3584]{0}, f32[3584]{0}, /*index=15*/f32[7168]{0}, f32[7168]{0}, f32[7168]{0}) %fusion.288), index=4, metadata={op_name="parallelize(train_step_func_pipeshard_parallel_mesh_1)/jit(main)/div"}
  %get-tuple-element.375 = f32[896]{0} get-tuple-element((f32[896]{0}, f32[1792]{0}, f32[1792]{0}, f32[3584]{0}, f32[3584]{0}, /*index=5*/f32[7168]{0}, f32[7168]{0}, f32[1792]{0}, f32[1792]{0}, f32[3584]{0}, /*index=10*/f32[3584]{0}, f32[7168]{0}, f32[7168]{0}, f32[896]{0}, f32[1792]{0}, /*index=15*/f32[1792]{0}, f32[3584]{0}, f32[3584]{0}, f32[896]{0}, f32[896]{0}, /*index=20*/f32[1792]{0}, f32[1792]{0}, f32[3584]{0}, f32[3584]{0}, f32[896]{0}, /*index=25*/f32[896]{0}, f32[896]{0}, f32[1792]{0}, f32[1792]{0}, f32[3584]{0}, /*index=30*/f32[3584]{0}, f32[896]{0}) %fusion.287), index=24, metadata={op_name="parallelize(train_step_func_pipeshard_parallel_mesh_1)/jit(main)/div"}
  %get-tuple-element.376 = f32[896]{0} get-tuple-element((f32[896]{0}, f32[1792]{0}, f32[1792]{0}, f32[3584]{0}, f32[3584]{0}, /*index=5*/f32[7168]{0}, f32[896]{0}, f32[1792]{0}, f32[1792]{0}, f32[3584]{0}, /*index=10*/f32[3584]{0}, f32[1792]{0}, f32[1792]{0}, f32[3584]{0}, f32[3584]{0}, /*index=15*/f32[7168]{0}, f32[7168]{0}, f32[7168]{0}) %fusion.288), index=6, metadata={op_name="parallelize(train_step_func_pipeshard_parallel_mesh_1)/jit(main)/div"}
  %get-tuple-element.377 = f32[1792]{0} get-tuple-element((f32[896]{0}, f32[1792]{0}, f32[1792]{0}, f32[3584]{0}, f32[3584]{0}, /*index=5*/f32[7168]{0}, f32[896]{0}, f32[1792]{0}, f32[1792]{0}, f32[3584]{0}, /*index=10*/f32[3584]{0}, f32[1792]{0}, f32[1792]{0}, f32[3584]{0}, f32[3584]{0}, /*index=15*/f32[7168]{0}, f32[7168]{0}, f32[7168]{0}) %fusion.288), index=7, metadata={op_name="parallelize(train_step_func_pipeshard_parallel_mesh_1)/jit(main)/div"}
  %get-tuple-element.378 = f32[1792]{0} get-tuple-element((f32[896]{0}, f32[1792]{0}, f32[1792]{0}, f32[3584]{0}, f32[3584]{0}, /*index=5*/f32[7168]{0}, f32[896]{0}, f32[1792]{0}, f32[1792]{0}, f32[3584]{0}, /*index=10*/f32[3584]{0}, f32[1792]{0}, f32[1792]{0}, f32[3584]{0}, f32[3584]{0}, /*index=15*/f32[7168]{0}, f32[7168]{0}, f32[7168]{0}) %fusion.288), index=8, metadata={op_name="parallelize(train_step_func_pipeshard_parallel_mesh_1)/jit(main)/div"}
  %get-tuple-element.379 = f32[3584]{0} get-tuple-element((f32[896]{0}, f32[1792]{0}, f32[1792]{0}, f32[3584]{0}, f32[3584]{0}, /*index=5*/f32[7168]{0}, f32[896]{0}, f32[1792]{0}, f32[1792]{0}, f32[3584]{0}, /*index=10*/f32[3584]{0}, f32[1792]{0}, f32[1792]{0}, f32[3584]{0}, f32[3584]{0}, /*index=15*/f32[7168]{0}, f32[7168]{0}, f32[7168]{0}) %fusion.288), index=9, metadata={op_name="parallelize(train_step_func_pipeshard_parallel_mesh_1)/jit(main)/div"}
  %get-tuple-element.380 = f32[3584]{0} get-tuple-element((f32[896]{0}, f32[1792]{0}, f32[1792]{0}, f32[3584]{0}, f32[3584]{0}, /*index=5*/f32[7168]{0}, f32[896]{0}, f32[1792]{0}, f32[1792]{0}, f32[3584]{0}, /*index=10*/f32[3584]{0}, f32[1792]{0}, f32[1792]{0}, f32[3584]{0}, f32[3584]{0}, /*index=15*/f32[7168]{0}, f32[7168]{0}, f32[7168]{0}) %fusion.288), index=10, metadata={op_name="parallelize(train_step_func_pipeshard_parallel_mesh_1)/jit(main)/div"}
  %get-tuple-element.381 = f32[1792]{0} get-tuple-element((f32[896]{0}, f32[1792]{0}, f32[1792]{0}, f32[3584]{0}, f32[3584]{0}, /*index=5*/f32[7168]{0}, f32[896]{0}, f32[1792]{0}, f32[1792]{0}, f32[3584]{0}, /*index=10*/f32[3584]{0}, f32[1792]{0}, f32[1792]{0}, f32[3584]{0}, f32[3584]{0}, /*index=15*/f32[7168]{0}, f32[7168]{0}, f32[7168]{0}) %fusion.288), index=11, metadata={op_name="parallelize(train_step_func_pipeshard_parallel_mesh_1)/jit(main)/div"}
  %get-tuple-element.382 = f32[1792]{0} get-tuple-element((f32[896]{0}, f32[1792]{0}, f32[1792]{0}, f32[3584]{0}, f32[3584]{0}, /*index=5*/f32[7168]{0}, f32[896]{0}, f32[1792]{0}, f32[1792]{0}, f32[3584]{0}, /*index=10*/f32[3584]{0}, f32[1792]{0}, f32[1792]{0}, f32[3584]{0}, f32[3584]{0}, /*index=15*/f32[7168]{0}, f32[7168]{0}, f32[7168]{0}) %fusion.288), index=12, metadata={op_name="parallelize(train_step_func_pipeshard_parallel_mesh_1)/jit(main)/div"}
  %get-tuple-element.383 = f32[3584]{0} get-tuple-element((f32[896]{0}, f32[1792]{0}, f32[1792]{0}, f32[3584]{0}, f32[3584]{0}, /*index=5*/f32[7168]{0}, f32[896]{0}, f32[1792]{0}, f32[1792]{0}, f32[3584]{0}, /*index=10*/f32[3584]{0}, f32[1792]{0}, f32[1792]{0}, f32[3584]{0}, f32[3584]{0}, /*index=15*/f32[7168]{0}, f32[7168]{0}, f32[7168]{0}) %fusion.288), index=13, metadata={op_name="parallelize(train_step_func_pipeshard_parallel_mesh_1)/jit(main)/div"}
  %get-tuple-element.384 = f32[3584]{0} get-tuple-element((f32[896]{0}, f32[1792]{0}, f32[1792]{0}, f32[3584]{0}, f32[3584]{0}, /*index=5*/f32[7168]{0}, f32[896]{0}, f32[1792]{0}, f32[1792]{0}, f32[3584]{0}, /*index=10*/f32[3584]{0}, f32[1792]{0}, f32[1792]{0}, f32[3584]{0}, f32[3584]{0}, /*index=15*/f32[7168]{0}, f32[7168]{0}, f32[7168]{0}) %fusion.288), index=14, metadata={op_name="parallelize(train_step_func_pipeshard_parallel_mesh_1)/jit(main)/div"}
  %get-tuple-element.385 = f32[7168]{0} get-tuple-element((f32[896]{0}, f32[1792]{0}, f32[1792]{0}, f32[3584]{0}, f32[3584]{0}, /*index=5*/f32[7168]{0}, f32[896]{0}, f32[1792]{0}, f32[1792]{0}, f32[3584]{0}, /*index=10*/f32[3584]{0}, f32[1792]{0}, f32[1792]{0}, f32[3584]{0}, f32[3584]{0}, /*index=15*/f32[7168]{0}, f32[7168]{0}, f32[7168]{0}) %fusion.288), index=15, metadata={op_name="parallelize(train_step_func_pipeshard_parallel_mesh_1)/jit(main)/div"}
  %get-tuple-element.386 = f32[7168]{0} get-tuple-element((f32[896]{0}, f32[1792]{0}, f32[1792]{0}, f32[3584]{0}, f32[3584]{0}, /*index=5*/f32[7168]{0}, f32[896]{0}, f32[1792]{0}, f32[1792]{0}, f32[3584]{0}, /*index=10*/f32[3584]{0}, f32[1792]{0}, f32[1792]{0}, f32[3584]{0}, f32[3584]{0}, /*index=15*/f32[7168]{0}, f32[7168]{0}, f32[7168]{0}) %fusion.288), index=16, metadata={op_name="parallelize(train_step_func_pipeshard_parallel_mesh_1)/jit(main)/div"}
  %get-tuple-element.387 = f32[7168]{0} get-tuple-element((f32[896]{0}, f32[1792]{0}, f32[1792]{0}, f32[3584]{0}, f32[3584]{0}, /*index=5*/f32[7168]{0}, f32[896]{0}, f32[1792]{0}, f32[1792]{0}, f32[3584]{0}, /*index=10*/f32[3584]{0}, f32[1792]{0}, f32[1792]{0}, f32[3584]{0}, f32[3584]{0}, /*index=15*/f32[7168]{0}, f32[7168]{0}, f32[7168]{0}) %fusion.288), index=17, metadata={op_name="parallelize(train_step_func_pipeshard_parallel_mesh_1)/jit(main)/div"}
  %get-tuple-element.388 = f32[7168]{0} get-tuple-element((f32[896]{0}, f32[1792]{0}, f32[1792]{0}, f32[3584]{0}, f32[3584]{0}, /*index=5*/f32[7168]{0}, f32[896]{0}, f32[1792]{0}, f32[1792]{0}, f32[3584]{0}, /*index=10*/f32[3584]{0}, f32[1792]{0}, f32[1792]{0}, f32[3584]{0}, f32[3584]{0}, /*index=15*/f32[7168]{0}, f32[7168]{0}, f32[7168]{0}) %fusion.288), index=5, metadata={op_name="parallelize(train_step_func_pipeshard_parallel_mesh_1)/jit(main)/div"}
  %get-tuple-element.389 = f32[1792]{0} get-tuple-element((f32[896]{0}, f32[1792]{0}, f32[1792]{0}, f32[3584]{0}, f32[3584]{0}, /*index=5*/f32[7168]{0}, f32[7168]{0}, f32[1792]{0}, f32[1792]{0}, f32[3584]{0}, /*index=10*/f32[3584]{0}, f32[7168]{0}, f32[7168]{0}, f32[896]{0}, f32[1792]{0}, /*index=15*/f32[1792]{0}, f32[3584]{0}, f32[3584]{0}, f32[896]{0}, f32[896]{0}, /*index=20*/f32[1792]{0}, f32[1792]{0}, f32[3584]{0}, f32[3584]{0}, f32[896]{0}, /*index=25*/f32[896]{0}, f32[896]{0}, f32[1792]{0}, f32[1792]{0}, f32[3584]{0}, /*index=30*/f32[3584]{0}, f32[896]{0}) %fusion.287), index=1, metadata={op_name="parallelize(train_step_func_pipeshard_parallel_mesh_1)/jit(main)/div"}
  %get-tuple-element.390 = f32[1792]{0} get-tuple-element((f32[896]{0}, f32[1792]{0}, f32[1792]{0}, f32[3584]{0}, f32[3584]{0}, /*index=5*/f32[7168]{0}, f32[7168]{0}, f32[1792]{0}, f32[1792]{0}, f32[3584]{0}, /*index=10*/f32[3584]{0}, f32[7168]{0}, f32[7168]{0}, f32[896]{0}, f32[1792]{0}, /*index=15*/f32[1792]{0}, f32[3584]{0}, f32[3584]{0}, f32[896]{0}, f32[896]{0}, /*index=20*/f32[1792]{0}, f32[1792]{0}, f32[3584]{0}, f32[3584]{0}, f32[896]{0}, /*index=25*/f32[896]{0}, f32[896]{0}, f32[1792]{0}, f32[1792]{0}, f32[3584]{0}, /*index=30*/f32[3584]{0}, f32[896]{0}) %fusion.287), index=2, metadata={op_name="parallelize(train_step_func_pipeshard_parallel_mesh_1)/jit(main)/div"}
  %get-tuple-element.391 = f32[3584]{0} get-tuple-element((f32[896]{0}, f32[1792]{0}, f32[1792]{0}, f32[3584]{0}, f32[3584]{0}, /*index=5*/f32[7168]{0}, f32[7168]{0}, f32[1792]{0}, f32[1792]{0}, f32[3584]{0}, /*index=10*/f32[3584]{0}, f32[7168]{0}, f32[7168]{0}, f32[896]{0}, f32[1792]{0}, /*index=15*/f32[1792]{0}, f32[3584]{0}, f32[3584]{0}, f32[896]{0}, f32[896]{0}, /*index=20*/f32[1792]{0}, f32[1792]{0}, f32[3584]{0}, f32[3584]{0}, f32[896]{0}, /*index=25*/f32[896]{0}, f32[896]{0}, f32[1792]{0}, f32[1792]{0}, f32[3584]{0}, /*index=30*/f32[3584]{0}, f32[896]{0}) %fusion.287), index=3, metadata={op_name="parallelize(train_step_func_pipeshard_parallel_mesh_1)/jit(main)/div"}
  %get-tuple-element.392 = f32[3584]{0} get-tuple-element((f32[896]{0}, f32[1792]{0}, f32[1792]{0}, f32[3584]{0}, f32[3584]{0}, /*index=5*/f32[7168]{0}, f32[7168]{0}, f32[1792]{0}, f32[1792]{0}, f32[3584]{0}, /*index=10*/f32[3584]{0}, f32[7168]{0}, f32[7168]{0}, f32[896]{0}, f32[1792]{0}, /*index=15*/f32[1792]{0}, f32[3584]{0}, f32[3584]{0}, f32[896]{0}, f32[896]{0}, /*index=20*/f32[1792]{0}, f32[1792]{0}, f32[3584]{0}, f32[3584]{0}, f32[896]{0}, /*index=25*/f32[896]{0}, f32[896]{0}, f32[1792]{0}, f32[1792]{0}, f32[3584]{0}, /*index=30*/f32[3584]{0}, f32[896]{0}) %fusion.287), index=4, metadata={op_name="parallelize(train_step_func_pipeshard_parallel_mesh_1)/jit(main)/div"}
  %get-tuple-element.393 = f32[7168]{0} get-tuple-element((f32[896]{0}, f32[1792]{0}, f32[1792]{0}, f32[3584]{0}, f32[3584]{0}, /*index=5*/f32[7168]{0}, f32[7168]{0}, f32[1792]{0}, f32[1792]{0}, f32[3584]{0}, /*index=10*/f32[3584]{0}, f32[7168]{0}, f32[7168]{0}, f32[896]{0}, f32[1792]{0}, /*index=15*/f32[1792]{0}, f32[3584]{0}, f32[3584]{0}, f32[896]{0}, f32[896]{0}, /*index=20*/f32[1792]{0}, f32[1792]{0}, f32[3584]{0}, f32[3584]{0}, f32[896]{0}, /*index=25*/f32[896]{0}, f32[896]{0}, f32[1792]{0}, f32[1792]{0}, f32[3584]{0}, /*index=30*/f32[3584]{0}, f32[896]{0}) %fusion.287), index=5, metadata={op_name="parallelize(train_step_func_pipeshard_parallel_mesh_1)/jit(main)/div"}
  %get-tuple-element.394 = f32[7168]{0} get-tuple-element((f32[896]{0}, f32[1792]{0}, f32[1792]{0}, f32[3584]{0}, f32[3584]{0}, /*index=5*/f32[7168]{0}, f32[7168]{0}, f32[1792]{0}, f32[1792]{0}, f32[3584]{0}, /*index=10*/f32[3584]{0}, f32[7168]{0}, f32[7168]{0}, f32[896]{0}, f32[1792]{0}, /*index=15*/f32[1792]{0}, f32[3584]{0}, f32[3584]{0}, f32[896]{0}, f32[896]{0}, /*index=20*/f32[1792]{0}, f32[1792]{0}, f32[3584]{0}, f32[3584]{0}, f32[896]{0}, /*index=25*/f32[896]{0}, f32[896]{0}, f32[1792]{0}, f32[1792]{0}, f32[3584]{0}, /*index=30*/f32[3584]{0}, f32[896]{0}) %fusion.287), index=6, metadata={op_name="parallelize(train_step_func_pipeshard_parallel_mesh_1)/jit(main)/div"}
  %get-tuple-element.395 = f32[1792]{0} get-tuple-element((f32[896]{0}, f32[1792]{0}, f32[1792]{0}, f32[3584]{0}, f32[3584]{0}, /*index=5*/f32[7168]{0}, f32[7168]{0}, f32[1792]{0}, f32[1792]{0}, f32[3584]{0}, /*index=10*/f32[3584]{0}, f32[7168]{0}, f32[7168]{0}, f32[896]{0}, f32[1792]{0}, /*index=15*/f32[1792]{0}, f32[3584]{0}, f32[3584]{0}, f32[896]{0}, f32[896]{0}, /*index=20*/f32[1792]{0}, f32[1792]{0}, f32[3584]{0}, f32[3584]{0}, f32[896]{0}, /*index=25*/f32[896]{0}, f32[896]{0}, f32[1792]{0}, f32[1792]{0}, f32[3584]{0}, /*index=30*/f32[3584]{0}, f32[896]{0}) %fusion.287), index=7, metadata={op_name="parallelize(train_step_func_pipeshard_parallel_mesh_1)/jit(main)/div"}
  %get-tuple-element.396 = f32[1792]{0} get-tuple-element((f32[896]{0}, f32[1792]{0}, f32[1792]{0}, f32[3584]{0}, f32[3584]{0}, /*index=5*/f32[7168]{0}, f32[7168]{0}, f32[1792]{0}, f32[1792]{0}, f32[3584]{0}, /*index=10*/f32[3584]{0}, f32[7168]{0}, f32[7168]{0}, f32[896]{0}, f32[1792]{0}, /*index=15*/f32[1792]{0}, f32[3584]{0}, f32[3584]{0}, f32[896]{0}, f32[896]{0}, /*index=20*/f32[1792]{0}, f32[1792]{0}, f32[3584]{0}, f32[3584]{0}, f32[896]{0}, /*index=25*/f32[896]{0}, f32[896]{0}, f32[1792]{0}, f32[1792]{0}, f32[3584]{0}, /*index=30*/f32[3584]{0}, f32[896]{0}) %fusion.287), index=8, metadata={op_name="parallelize(train_step_func_pipeshard_parallel_mesh_1)/jit(main)/div"}
  %get-tuple-element.397 = f32[3584]{0} get-tuple-element((f32[896]{0}, f32[1792]{0}, f32[1792]{0}, f32[3584]{0}, f32[3584]{0}, /*index=5*/f32[7168]{0}, f32[7168]{0}, f32[1792]{0}, f32[1792]{0}, f32[3584]{0}, /*index=10*/f32[3584]{0}, f32[7168]{0}, f32[7168]{0}, f32[896]{0}, f32[1792]{0}, /*index=15*/f32[1792]{0}, f32[3584]{0}, f32[3584]{0}, f32[896]{0}, f32[896]{0}, /*index=20*/f32[1792]{0}, f32[1792]{0}, f32[3584]{0}, f32[3584]{0}, f32[896]{0}, /*index=25*/f32[896]{0}, f32[896]{0}, f32[1792]{0}, f32[1792]{0}, f32[3584]{0}, /*index=30*/f32[3584]{0}, f32[896]{0}) %fusion.287), index=9, metadata={op_name="parallelize(train_step_func_pipeshard_parallel_mesh_1)/jit(main)/div"}
  %get-tuple-element.398 = f32[3584]{0} get-tuple-element((f32[896]{0}, f32[1792]{0}, f32[1792]{0}, f32[3584]{0}, f32[3584]{0}, /*index=5*/f32[7168]{0}, f32[7168]{0}, f32[1792]{0}, f32[1792]{0}, f32[3584]{0}, /*index=10*/f32[3584]{0}, f32[7168]{0}, f32[7168]{0}, f32[896]{0}, f32[1792]{0}, /*index=15*/f32[1792]{0}, f32[3584]{0}, f32[3584]{0}, f32[896]{0}, f32[896]{0}, /*index=20*/f32[1792]{0}, f32[1792]{0}, f32[3584]{0}, f32[3584]{0}, f32[896]{0}, /*index=25*/f32[896]{0}, f32[896]{0}, f32[1792]{0}, f32[1792]{0}, f32[3584]{0}, /*index=30*/f32[3584]{0}, f32[896]{0}) %fusion.287), index=10, metadata={op_name="parallelize(train_step_func_pipeshard_parallel_mesh_1)/jit(main)/div"}
  %get-tuple-element.399 = f32[7168]{0} get-tuple-element((f32[896]{0}, f32[1792]{0}, f32[1792]{0}, f32[3584]{0}, f32[3584]{0}, /*index=5*/f32[7168]{0}, f32[7168]{0}, f32[1792]{0}, f32[1792]{0}, f32[3584]{0}, /*index=10*/f32[3584]{0}, f32[7168]{0}, f32[7168]{0}, f32[896]{0}, f32[1792]{0}, /*index=15*/f32[1792]{0}, f32[3584]{0}, f32[3584]{0}, f32[896]{0}, f32[896]{0}, /*index=20*/f32[1792]{0}, f32[1792]{0}, f32[3584]{0}, f32[3584]{0}, f32[896]{0}, /*index=25*/f32[896]{0}, f32[896]{0}, f32[1792]{0}, f32[1792]{0}, f32[3584]{0}, /*index=30*/f32[3584]{0}, f32[896]{0}) %fusion.287), index=11, metadata={op_name="parallelize(train_step_func_pipeshard_parallel_mesh_1)/jit(main)/div"}
  %get-tuple-element.400 = f32[7168]{0} get-tuple-element((f32[896]{0}, f32[1792]{0}, f32[1792]{0}, f32[3584]{0}, f32[3584]{0}, /*index=5*/f32[7168]{0}, f32[7168]{0}, f32[1792]{0}, f32[1792]{0}, f32[3584]{0}, /*index=10*/f32[3584]{0}, f32[7168]{0}, f32[7168]{0}, f32[896]{0}, f32[1792]{0}, /*index=15*/f32[1792]{0}, f32[3584]{0}, f32[3584]{0}, f32[896]{0}, f32[896]{0}, /*index=20*/f32[1792]{0}, f32[1792]{0}, f32[3584]{0}, f32[3584]{0}, f32[896]{0}, /*index=25*/f32[896]{0}, f32[896]{0}, f32[1792]{0}, f32[1792]{0}, f32[3584]{0}, /*index=30*/f32[3584]{0}, f32[896]{0}) %fusion.287), index=12, metadata={op_name="parallelize(train_step_func_pipeshard_parallel_mesh_1)/jit(main)/div"}
  %get-tuple-element.401 = f32[896]{0} get-tuple-element((f32[896]{0}, f32[1792]{0}, f32[1792]{0}, f32[3584]{0}, f32[3584]{0}, /*index=5*/f32[7168]{0}, f32[7168]{0}, f32[1792]{0}, f32[1792]{0}, f32[3584]{0}, /*index=10*/f32[3584]{0}, f32[7168]{0}, f32[7168]{0}, f32[896]{0}, f32[1792]{0}, /*index=15*/f32[1792]{0}, f32[3584]{0}, f32[3584]{0}, f32[896]{0}, f32[896]{0}, /*index=20*/f32[1792]{0}, f32[1792]{0}, f32[3584]{0}, f32[3584]{0}, f32[896]{0}, /*index=25*/f32[896]{0}, f32[896]{0}, f32[1792]{0}, f32[1792]{0}, f32[3584]{0}, /*index=30*/f32[3584]{0}, f32[896]{0}) %fusion.287), index=0, metadata={op_name="parallelize(train_step_func_pipeshard_parallel_mesh_1)/jit(main)/div"}
  %get-tuple-element.402 = f32[896]{0} get-tuple-element((f32[896]{0}, f32[1792]{0}, f32[1792]{0}, f32[3584]{0}, f32[3584]{0}, /*index=5*/f32[7168]{0}, f32[7168]{0}, f32[1792]{0}, f32[1792]{0}, f32[3584]{0}, /*index=10*/f32[3584]{0}, f32[7168]{0}, f32[7168]{0}, f32[896]{0}, f32[1792]{0}, /*index=15*/f32[1792]{0}, f32[3584]{0}, f32[3584]{0}, f32[896]{0}, f32[896]{0}, /*index=20*/f32[1792]{0}, f32[1792]{0}, f32[3584]{0}, f32[3584]{0}, f32[896]{0}, /*index=25*/f32[896]{0}, f32[896]{0}, f32[1792]{0}, f32[1792]{0}, f32[3584]{0}, /*index=30*/f32[3584]{0}, f32[896]{0}) %fusion.287), index=13, metadata={op_name="parallelize(train_step_func_pipeshard_parallel_mesh_1)/jit(main)/div"}
  %get-tuple-element.403 = f32[1792]{0} get-tuple-element((f32[896]{0}, f32[1792]{0}, f32[1792]{0}, f32[3584]{0}, f32[3584]{0}, /*index=5*/f32[7168]{0}, f32[7168]{0}, f32[1792]{0}, f32[1792]{0}, f32[3584]{0}, /*index=10*/f32[3584]{0}, f32[7168]{0}, f32[7168]{0}, f32[896]{0}, f32[1792]{0}, /*index=15*/f32[1792]{0}, f32[3584]{0}, f32[3584]{0}, f32[896]{0}, f32[896]{0}, /*index=20*/f32[1792]{0}, f32[1792]{0}, f32[3584]{0}, f32[3584]{0}, f32[896]{0}, /*index=25*/f32[896]{0}, f32[896]{0}, f32[1792]{0}, f32[1792]{0}, f32[3584]{0}, /*index=30*/f32[3584]{0}, f32[896]{0}) %fusion.287), index=14, metadata={op_name="parallelize(train_step_func_pipeshard_parallel_mesh_1)/jit(main)/div"}
  %get-tuple-element.404 = f32[1792]{0} get-tuple-element((f32[896]{0}, f32[1792]{0}, f32[1792]{0}, f32[3584]{0}, f32[3584]{0}, /*index=5*/f32[7168]{0}, f32[7168]{0}, f32[1792]{0}, f32[1792]{0}, f32[3584]{0}, /*index=10*/f32[3584]{0}, f32[7168]{0}, f32[7168]{0}, f32[896]{0}, f32[1792]{0}, /*index=15*/f32[1792]{0}, f32[3584]{0}, f32[3584]{0}, f32[896]{0}, f32[896]{0}, /*index=20*/f32[1792]{0}, f32[1792]{0}, f32[3584]{0}, f32[3584]{0}, f32[896]{0}, /*index=25*/f32[896]{0}, f32[896]{0}, f32[1792]{0}, f32[1792]{0}, f32[3584]{0}, /*index=30*/f32[3584]{0}, f32[896]{0}) %fusion.287), index=15, metadata={op_name="parallelize(train_step_func_pipeshard_parallel_mesh_1)/jit(main)/div"}
  %get-tuple-element.405 = f32[3584]{0} get-tuple-element((f32[896]{0}, f32[1792]{0}, f32[1792]{0}, f32[3584]{0}, f32[3584]{0}, /*index=5*/f32[7168]{0}, f32[7168]{0}, f32[1792]{0}, f32[1792]{0}, f32[3584]{0}, /*index=10*/f32[3584]{0}, f32[7168]{0}, f32[7168]{0}, f32[896]{0}, f32[1792]{0}, /*index=15*/f32[1792]{0}, f32[3584]{0}, f32[3584]{0}, f32[896]{0}, f32[896]{0}, /*index=20*/f32[1792]{0}, f32[1792]{0}, f32[3584]{0}, f32[3584]{0}, f32[896]{0}, /*index=25*/f32[896]{0}, f32[896]{0}, f32[1792]{0}, f32[1792]{0}, f32[3584]{0}, /*index=30*/f32[3584]{0}, f32[896]{0}) %fusion.287), index=16, metadata={op_name="parallelize(train_step_func_pipeshard_parallel_mesh_1)/jit(main)/div"}
  %get-tuple-element.406 = f32[3584]{0} get-tuple-element((f32[896]{0}, f32[1792]{0}, f32[1792]{0}, f32[3584]{0}, f32[3584]{0}, /*index=5*/f32[7168]{0}, f32[7168]{0}, f32[1792]{0}, f32[1792]{0}, f32[3584]{0}, /*index=10*/f32[3584]{0}, f32[7168]{0}, f32[7168]{0}, f32[896]{0}, f32[1792]{0}, /*index=15*/f32[1792]{0}, f32[3584]{0}, f32[3584]{0}, f32[896]{0}, f32[896]{0}, /*index=20*/f32[1792]{0}, f32[1792]{0}, f32[3584]{0}, f32[3584]{0}, f32[896]{0}, /*index=25*/f32[896]{0}, f32[896]{0}, f32[1792]{0}, f32[1792]{0}, f32[3584]{0}, /*index=30*/f32[3584]{0}, f32[896]{0}) %fusion.287), index=17, metadata={op_name="parallelize(train_step_func_pipeshard_parallel_mesh_1)/jit(main)/div"}
  %get-tuple-element.407 = f32[896]{0} get-tuple-element((f32[896]{0}, f32[1792]{0}, f32[1792]{0}, f32[3584]{0}, f32[3584]{0}, /*index=5*/f32[7168]{0}, f32[7168]{0}, f32[1792]{0}, f32[1792]{0}, f32[3584]{0}, /*index=10*/f32[3584]{0}, f32[7168]{0}, f32[7168]{0}, f32[896]{0}, f32[1792]{0}, /*index=15*/f32[1792]{0}, f32[3584]{0}, f32[3584]{0}, f32[896]{0}, f32[896]{0}, /*index=20*/f32[1792]{0}, f32[1792]{0}, f32[3584]{0}, f32[3584]{0}, f32[896]{0}, /*index=25*/f32[896]{0}, f32[896]{0}, f32[1792]{0}, f32[1792]{0}, f32[3584]{0}, /*index=30*/f32[3584]{0}, f32[896]{0}) %fusion.287), index=18, metadata={op_name="parallelize(train_step_func_pipeshard_parallel_mesh_1)/jit(main)/div"}
  %get-tuple-element.408 = f32[896]{0} get-tuple-element((f32[896]{0}, f32[1792]{0}, f32[1792]{0}, f32[3584]{0}, f32[3584]{0}, /*index=5*/f32[7168]{0}, f32[7168]{0}, f32[1792]{0}, f32[1792]{0}, f32[3584]{0}, /*index=10*/f32[3584]{0}, f32[7168]{0}, f32[7168]{0}, f32[896]{0}, f32[1792]{0}, /*index=15*/f32[1792]{0}, f32[3584]{0}, f32[3584]{0}, f32[896]{0}, f32[896]{0}, /*index=20*/f32[1792]{0}, f32[1792]{0}, f32[3584]{0}, f32[3584]{0}, f32[896]{0}, /*index=25*/f32[896]{0}, f32[896]{0}, f32[1792]{0}, f32[1792]{0}, f32[3584]{0}, /*index=30*/f32[3584]{0}, f32[896]{0}) %fusion.287), index=19, metadata={op_name="parallelize(train_step_func_pipeshard_parallel_mesh_1)/jit(main)/div"}
  %get-tuple-element.409 = f32[1792]{0} get-tuple-element((f32[896]{0}, f32[1792]{0}, f32[1792]{0}, f32[3584]{0}, f32[3584]{0}, /*index=5*/f32[7168]{0}, f32[7168]{0}, f32[1792]{0}, f32[1792]{0}, f32[3584]{0}, /*index=10*/f32[3584]{0}, f32[7168]{0}, f32[7168]{0}, f32[896]{0}, f32[1792]{0}, /*index=15*/f32[1792]{0}, f32[3584]{0}, f32[3584]{0}, f32[896]{0}, f32[896]{0}, /*index=20*/f32[1792]{0}, f32[1792]{0}, f32[3584]{0}, f32[3584]{0}, f32[896]{0}, /*index=25*/f32[896]{0}, f32[896]{0}, f32[1792]{0}, f32[1792]{0}, f32[3584]{0}, /*index=30*/f32[3584]{0}, f32[896]{0}) %fusion.287), index=20, metadata={op_name="parallelize(train_step_func_pipeshard_parallel_mesh_1)/jit(main)/div"}
  %get-tuple-element.410 = f32[1792]{0} get-tuple-element((f32[896]{0}, f32[1792]{0}, f32[1792]{0}, f32[3584]{0}, f32[3584]{0}, /*index=5*/f32[7168]{0}, f32[7168]{0}, f32[1792]{0}, f32[1792]{0}, f32[3584]{0}, /*index=10*/f32[3584]{0}, f32[7168]{0}, f32[7168]{0}, f32[896]{0}, f32[1792]{0}, /*index=15*/f32[1792]{0}, f32[3584]{0}, f32[3584]{0}, f32[896]{0}, f32[896]{0}, /*index=20*/f32[1792]{0}, f32[1792]{0}, f32[3584]{0}, f32[3584]{0}, f32[896]{0}, /*index=25*/f32[896]{0}, f32[896]{0}, f32[1792]{0}, f32[1792]{0}, f32[3584]{0}, /*index=30*/f32[3584]{0}, f32[896]{0}) %fusion.287), index=21, metadata={op_name="parallelize(train_step_func_pipeshard_parallel_mesh_1)/jit(main)/div"}
  %get-tuple-element.411 = f32[3584]{0} get-tuple-element((f32[896]{0}, f32[1792]{0}, f32[1792]{0}, f32[3584]{0}, f32[3584]{0}, /*index=5*/f32[7168]{0}, f32[7168]{0}, f32[1792]{0}, f32[1792]{0}, f32[3584]{0}, /*index=10*/f32[3584]{0}, f32[7168]{0}, f32[7168]{0}, f32[896]{0}, f32[1792]{0}, /*index=15*/f32[1792]{0}, f32[3584]{0}, f32[3584]{0}, f32[896]{0}, f32[896]{0}, /*index=20*/f32[1792]{0}, f32[1792]{0}, f32[3584]{0}, f32[3584]{0}, f32[896]{0}, /*index=25*/f32[896]{0}, f32[896]{0}, f32[1792]{0}, f32[1792]{0}, f32[3584]{0}, /*index=30*/f32[3584]{0}, f32[896]{0}) %fusion.287), index=22, metadata={op_name="parallelize(train_step_func_pipeshard_parallel_mesh_1)/jit(main)/div"}
  %get-tuple-element.412 = f32[3584]{0} get-tuple-element((f32[896]{0}, f32[1792]{0}, f32[1792]{0}, f32[3584]{0}, f32[3584]{0}, /*index=5*/f32[7168]{0}, f32[7168]{0}, f32[1792]{0}, f32[1792]{0}, f32[3584]{0}, /*index=10*/f32[3584]{0}, f32[7168]{0}, f32[7168]{0}, f32[896]{0}, f32[1792]{0}, /*index=15*/f32[1792]{0}, f32[3584]{0}, f32[3584]{0}, f32[896]{0}, f32[896]{0}, /*index=20*/f32[1792]{0}, f32[1792]{0}, f32[3584]{0}, f32[3584]{0}, f32[896]{0}, /*index=25*/f32[896]{0}, f32[896]{0}, f32[1792]{0}, f32[1792]{0}, f32[3584]{0}, /*index=30*/f32[3584]{0}, f32[896]{0}) %fusion.287), index=23, metadata={op_name="parallelize(train_step_func_pipeshard_parallel_mesh_1)/jit(main)/div"}
  %param_335 = f32[] parameter(335), metadata={op_name="1_apply_grad$start"}
  %constant = f32[] constant(0.0625)
  %param_333 = f32[] parameter(333), metadata={op_name="1_apply_grad$start"}
  %param_334 = f32[] parameter(334), metadata={op_name="1_apply_grad$start"}
  %fusion.286 = (f32[1]{0}, f32[1]{0}, f32[1]{0}) fusion(f32[] %param_335, f32[] %constant, f32[] %param_333, f32[] %param_334), kind=kInput, calls=%horizontally_fused_computation, metadata={op_name="parallelize(train_step_func_pipeshard_parallel_mesh_1)/jit(main)/div"}
  %get-tuple-element.129 = f32[1]{0} get-tuple-element((f32[1]{0}, f32[1]{0}, f32[1]{0}) %fusion.286), index=1
  %bitcast.1 = f32[] bitcast(f32[1]{0} %get-tuple-element.129), metadata={op_name="parallelize(train_step_func_pipeshard_parallel_mesh_1)/jit(main)/div"}
  %get-tuple-element.130 = f32[1]{0} get-tuple-element((f32[1]{0}, f32[1]{0}, f32[1]{0}) %fusion.286), index=2
  %bitcast.2 = f32[] bitcast(f32[1]{0} %get-tuple-element.130), metadata={op_name="parallelize(train_step_func_pipeshard_parallel_mesh_1)/jit(main)/div"}
  %get-tuple-element.128 = f32[1]{0} get-tuple-element((f32[1]{0}, f32[1]{0}, f32[1]{0}) %fusion.286), index=0
  %bitcast = f32[] bitcast(f32[1]{0} %get-tuple-element.128), metadata={op_name="parallelize(train_step_func_pipeshard_parallel_mesh_1)/jit(main)/div"}
  ROOT %tuple.120 = (f32[896]{0}, f32[896]{0}, f32[1792]{0}, f32[1792]{0}, f32[3584]{0}, /*index=5*/f32[3584]{0}, f32[1,1,3584,896]{3,2,1,0}, f32[3,3,896,1792]{3,2,1,0}, f32[1,1,1792,3584]{3,2,1,0}, f32[896]{0}, /*index=10*/f32[896]{0}, f32[1792]{0}, f32[1792]{0}, f32[3584]{0}, f32[3584]{0}, /*index=15*/f32[1,1,3584,896]{3,2,1,0}, f32[3,3,896,1792]{3,2,1,0}, f32[1,1,1792,3584]{3,2,1,0}, f32[896]{0}, f32[896]{0}, /*index=20*/f32[1792]{0}, f32[1792]{0}, f32[3584]{0}, f32[3584]{0}, f32[1,1,3584,896]{3,2,1,0}, /*index=25*/f32[3,3,896,1792]{3,2,1,0}, f32[1,1,1792,3584]{3,2,1,0}, f32[1792]{0}, f32[1792]{0}, f32[3584]{0}, /*index=30*/f32[3584]{0}, f32[7168]{0}, f32[7168]{0}, f32[1,1,3584,1792]{3,2,1,0}, f32[3,3,1792,3584]{3,2,1,0}, /*index=35*/f32[1,1,3584,7168]{3,2,1,0}, f32[1,1,3584,7168]{3,2,1,0}, f32[7168]{0}, f32[7168]{0}, f32[1792]{0}, /*index=40*/f32[1792]{0}, f32[3584]{0}, f32[3584]{0}, f32[7168]{0}, f32[7168]{0}, /*index=45*/f32[1,1,7168,1792]{3,2,1,0}, f32[3,3,1792,3584]{3,2,1,0}, f32[1,1,3584,7168]{3,2,1,0}, f32[1792]{0}, f32[1792]{0}, /*index=50*/f32[3584]{0}, f32[3584]{0}, f32[7168]{0}, f32[7168]{0}, f32[1,1,7168,1792]{3,2,1,0}, /*index=55*/f32[3,3,1792,3584]{3,2,1,0}, f32[1,1,3584,7168]{3,2,1,0}, f32[896]{0}, f32[896]{0}, f32[1792]{0}, /*index=60*/f32[1792]{0}, f32[3584]{0}, f32[3584]{0}, f32[1,1,3584,896]{3,2,1,0}, f32[3,3,896,1792]{3,2,1,0}, /*index=65*/f32[1,1,1792,3584]{3,2,1,0}, f32[896]{0}, f32[896]{0}, f32[1792]{0}, f32[1792]{0}, /*index=70*/f32[3584]{0}, f32[3584]{0}, f32[1,1,3584,896]{3,2,1,0}, f32[3,3,896,1792]{3,2,1,0}, f32[1,1,1792,3584]{3,2,1,0}, /*index=75*/f32[1024]{0}, f32[7168,1024]{1,0}, s32[], f32[896]{0}, f32[896]{0}, /*index=80*/f32[1792]{0}, f32[1792]{0}, f32[3584]{0}, f32[3584]{0}, f32[1,1,3584,896]{3,2,1,0}, /*index=85*/f32[3,3,896,1792]{3,2,1,0}, f32[1,1,1792,3584]{3,2,1,0}, f32[896]{0}, f32[896]{0}, f32[1792]{0}, /*index=90*/f32[1792]{0}, f32[3584]{0}, f32[3584]{0}, f32[1,1,3584,896]{3,2,1,0}, f32[3,3,896,1792]{3,2,1,0}, /*index=95*/f32[1,1,1792,3584]{3,2,1,0}, f32[896]{0}, f32[896]{0}, f32[1792]{0}, f32[1792]{0}, /*index=100*/f32[3584]{0}, f32[3584]{0}, f32[1,1,3584,896]{3,2,1,0}, f32[3,3,896,1792]{3,2,1,0}, f32[1,1,1792,3584]{3,2,1,0}, /*index=105*/f32[1792]{0}, f32[1792]{0}, f32[3584]{0}, f32[3584]{0}, f32[7168]{0}, /*index=110*/f32[7168]{0}, f32[1,1,3584,1792]{3,2,1,0}, f32[3,3,1792,3584]{3,2,1,0}, f32[1,1,3584,7168]{3,2,1,0}, f32[1,1,3584,7168]{3,2,1,0}, /*index=115*/f32[7168]{0}, f32[7168]{0}, f32[1792]{0}, f32[1792]{0}, f32[3584]{0}, /*index=120*/f32[3584]{0}, f32[7168]{0}, f32[7168]{0}, f32[1,1,7168,1792]{3,2,1,0}, f32[3,3,1792,3584]{3,2,1,0}, /*index=125*/f32[1,1,3584,7168]{3,2,1,0}, f32[1792]{0}, f32[1792]{0}, f32[3584]{0}, f32[3584]{0}, /*index=130*/f32[7168]{0}, f32[7168]{0}, f32[1,1,7168,1792]{3,2,1,0}, f32[3,3,1792,3584]{3,2,1,0}, f32[1,1,3584,7168]{3,2,1,0}, /*index=135*/f32[896]{0}, f32[896]{0}, f32[1792]{0}, f32[1792]{0}, f32[3584]{0}, /*index=140*/f32[3584]{0}, f32[1,1,3584,896]{3,2,1,0}, f32[3,3,896,1792]{3,2,1,0}, f32[1,1,1792,3584]{3,2,1,0}, f32[896]{0}, /*index=145*/f32[896]{0}, f32[1792]{0}, f32[1792]{0}, f32[3584]{0}, f32[3584]{0}, /*index=150*/f32[1,1,3584,896]{3,2,1,0}, f32[3,3,896,1792]{3,2,1,0}, f32[1,1,1792,3584]{3,2,1,0}, f32[1024]{0}, f32[7168,1024]{1,0}, /*index=155*/s32[], f32[896]{0}, f32[896]{0}, f32[1792]{0}, f32[1792]{0}, /*index=160*/f32[3584]{0}, f32[3584]{0}, f32[896]{0}, f32[896]{0}, f32[1792]{0}, /*index=165*/f32[1792]{0}, f32[3584]{0}, f32[3584]{0}, f32[896]{0}, f32[896]{0}, /*index=170*/f32[1792]{0}, f32[1792]{0}, f32[3584]{0}, f32[3584]{0}, f32[1792]{0}, /*index=175*/f32[1792]{0}, f32[3584]{0}, f32[3584]{0}, f32[7168]{0}, f32[7168]{0}, /*index=180*/f32[7168]{0}, f32[7168]{0}, f32[1792]{0}, f32[1792]{0}, f32[3584]{0}, /*index=185*/f32[3584]{0}, f32[7168]{0}, f32[7168]{0}, f32[1792]{0}, f32[1792]{0}, /*index=190*/f32[3584]{0}, f32[3584]{0}, f32[7168]{0}, f32[7168]{0}, f32[896]{0}, /*index=195*/f32[896]{0}, f32[1792]{0}, f32[1792]{0}, f32[3584]{0}, f32[3584]{0}, /*index=200*/f32[896]{0}, f32[896]{0}, f32[1792]{0}, f32[1792]{0}, f32[3584]{0}, /*index=205*/f32[3584]{0}, f32[], f32[], f32[]) tuple(f32[896]{0} %get-tuple-element.207, f32[896]{0} %get-tuple-element.208, f32[1792]{0} %get-tuple-element.209, f32[1792]{0} %get-tuple-element.210, f32[3584]{0} %get-tuple-element.211, /*index=5*/f32[3584]{0} %get-tuple-element.212, f32[1,1,3584,896]{3,2,1,0} %get-tuple-element.213, f32[3,3,896,1792]{3,2,1,0} %get-tuple-element.214, f32[1,1,1792,3584]{3,2,1,0} %get-tuple-element.215, f32[896]{0} %get-tuple-element.216, /*index=10*/f32[896]{0} %get-tuple-element.217, f32[1792]{0} %get-tuple-element.218, f32[1792]{0} %get-tuple-element.219, f32[3584]{0} %get-tuple-element.220, f32[3584]{0} %get-tuple-element.221, /*index=15*/f32[1,1,3584,896]{3,2,1,0} %get-tuple-element.222, f32[3,3,896,1792]{3,2,1,0} %get-tuple-element.223, f32[1,1,1792,3584]{3,2,1,0} %get-tuple-element.224, f32[896]{0} %get-tuple-element.225, f32[896]{0} %get-tuple-element.226, /*index=20*/f32[1792]{0} %get-tuple-element.227, f32[1792]{0} %get-tuple-element.228, f32[3584]{0} %get-tuple-element.229, f32[3584]{0} %get-tuple-element.230, f32[1,1,3584,896]{3,2,1,0} %get-tuple-element.231, /*index=25*/f32[3,3,896,1792]{3,2,1,0} %get-tuple-element.232, f32[1,1,1792,3584]{3,2,1,0} %get-tuple-element.233, f32[1792]{0} %get-tuple-element.234, f32[1792]{0} %get-tuple-element.235, f32[3584]{0} %get-tuple-element.236, /*index=30*/f32[3584]{0} %get-tuple-element.237, f32[7168]{0} %get-tuple-element.238, f32[7168]{0} %get-tuple-element.239, f32[1,1,3584,1792]{3,2,1,0} %get-tuple-element.240, f32[3,3,1792,3584]{3,2,1,0} %get-tuple-element.241, /*index=35*/f32[1,1,3584,7168]{3,2,1,0} %get-tuple-element.242, f32[1,1,3584,7168]{3,2,1,0} %get-tuple-element.243, f32[7168]{0} %get-tuple-element.244, f32[7168]{0} %get-tuple-element.245, f32[1792]{0} %get-tuple-element.246, /*index=40*/f32[1792]{0} %get-tuple-element.247, f32[3584]{0} %get-tuple-element.248, f32[3584]{0} %get-tuple-element.249, f32[7168]{0} %get-tuple-element.250, f32[7168]{0} %get-tuple-element.251, /*index=45*/f32[1,1,7168,1792]{3,2,1,0} %get-tuple-element.252, f32[3,3,1792,3584]{3,2,1,0} %get-tuple-element.253, f32[1,1,3584,7168]{3,2,1,0} %get-tuple-element.254, f32[1792]{0} %get-tuple-element.255, f32[1792]{0} %get-tuple-element.256, /*index=50*/f32[3584]{0} %get-tuple-element.257, f32[3584]{0} %get-tuple-element.258, f32[7168]{0} %get-tuple-element.259, f32[7168]{0} %get-tuple-element.260, f32[1,1,7168,1792]{3,2,1,0} %get-tuple-element.261, /*index=55*/f32[3,3,1792,3584]{3,2,1,0} %get-tuple-element.262, f32[1,1,3584,7168]{3,2,1,0} %get-tuple-element.263, f32[896]{0} %get-tuple-element.264, f32[896]{0} %get-tuple-element.265, f32[1792]{0} %get-tuple-element.266, /*index=60*/f32[1792]{0} %get-tuple-element.267, f32[3584]{0} %get-tuple-element.268, f32[3584]{0} %get-tuple-element.269, f32[1,1,3584,896]{3,2,1,0} %get-tuple-element.270, f32[3,3,896,1792]{3,2,1,0} %get-tuple-element.271, /*index=65*/f32[1,1,1792,3584]{3,2,1,0} %get-tuple-element.272, f32[896]{0} %get-tuple-element.273, f32[896]{0} %get-tuple-element.274, f32[1792]{0} %get-tuple-element.275, f32[1792]{0} %get-tuple-element.276, /*index=70*/f32[3584]{0} %get-tuple-element.277, f32[3584]{0} %get-tuple-element.278, f32[1,1,3584,896]{3,2,1,0} %get-tuple-element.279, f32[3,3,896,1792]{3,2,1,0} %get-tuple-element.280, f32[1,1,1792,3584]{3,2,1,0} %get-tuple-element.281, /*index=75*/f32[1024]{0} %get-tuple-element.282, f32[7168,1024]{1,0} %get-tuple-element.283, s32[] %fusion.128, f32[896]{0} %get-tuple-element.285, f32[896]{0} %get-tuple-element.286, /*index=80*/f32[1792]{0} %get-tuple-element.287, f32[1792]{0} %get-tuple-element.288, f32[3584]{0} %get-tuple-element.289, f32[3584]{0} %get-tuple-element.290, f32[1,1,3584,896]{3,2,1,0} %get-tuple-element.291, /*index=85*/f32[3,3,896,1792]{3,2,1,0} %get-tuple-element.292, f32[1,1,1792,3584]{3,2,1,0} %get-tuple-element.293, f32[896]{0} %get-tuple-element.294, f32[896]{0} %get-tuple-element.295, f32[1792]{0} %get-tuple-element.296, /*index=90*/f32[1792]{0} %get-tuple-element.297, f32[3584]{0} %get-tuple-element.298, f32[3584]{0} %get-tuple-element.299, f32[1,1,3584,896]{3,2,1,0} %get-tuple-element.300, f32[3,3,896,1792]{3,2,1,0} %get-tuple-element.301, /*index=95*/f32[1,1,1792,3584]{3,2,1,0} %get-tuple-element.302, f32[896]{0} %get-tuple-element.303, f32[896]{0} %get-tuple-element.304, f32[1792]{0} %get-tuple-element.305, f32[1792]{0} %get-tuple-element.306, /*index=100*/f32[3584]{0} %get-tuple-element.307, f32[3584]{0} %get-tuple-element.308, f32[1,1,3584,896]{3,2,1,0} %get-tuple-element.309, f32[3,3,896,1792]{3,2,1,0} %get-tuple-element.310, f32[1,1,1792,3584]{3,2,1,0} %get-tuple-element.311, /*index=105*/f32[1792]{0} %get-tuple-element.312, f32[1792]{0} %get-tuple-element.313, f32[3584]{0} %get-tuple-element.314, f32[3584]{0} %get-tuple-element.315, f32[7168]{0} %get-tuple-element.316, /*index=110*/f32[7168]{0} %get-tuple-element.317, f32[1,1,3584,1792]{3,2,1,0} %get-tuple-element.318, f32[3,3,1792,3584]{3,2,1,0} %get-tuple-element.319, f32[1,1,3584,7168]{3,2,1,0} %get-tuple-element.320, f32[1,1,3584,7168]{3,2,1,0} %get-tuple-element.321, /*index=115*/f32[7168]{0} %get-tuple-element.322, f32[7168]{0} %get-tuple-element.323, f32[1792]{0} %get-tuple-element.324, f32[1792]{0} %get-tuple-element.325, f32[3584]{0} %get-tuple-element.326, /*index=120*/f32[3584]{0} %get-tuple-element.327, f32[7168]{0} %get-tuple-element.328, f32[7168]{0} %get-tuple-element.329, f32[1,1,7168,1792]{3,2,1,0} %get-tuple-element.330, f32[3,3,1792,3584]{3,2,1,0} %get-tuple-element.331, /*index=125*/f32[1,1,3584,7168]{3,2,1,0} %get-tuple-element.332, f32[1792]{0} %get-tuple-element.333, f32[1792]{0} %get-tuple-element.334, f32[3584]{0} %get-tuple-element.335, f32[3584]{0} %get-tuple-element.336, /*index=130*/f32[7168]{0} %get-tuple-element.337, f32[7168]{0} %get-tuple-element.338, f32[1,1,7168,1792]{3,2,1,0} %get-tuple-element.339, f32[3,3,1792,3584]{3,2,1,0} %get-tuple-element.340, f32[1,1,3584,7168]{3,2,1,0} %get-tuple-element.341, /*index=135*/f32[896]{0} %get-tuple-element.342, f32[896]{0} %get-tuple-element.343, f32[1792]{0} %get-tuple-element.344, f32[1792]{0} %get-tuple-element.345, f32[3584]{0} %get-tuple-element.346, /*index=140*/f32[3584]{0} %get-tuple-element.347, f32[1,1,3584,896]{3,2,1,0} %get-tuple-element.348, f32[3,3,896,1792]{3,2,1,0} %get-tuple-element.349, f32[1,1,1792,3584]{3,2,1,0} %get-tuple-element.350, f32[896]{0} %get-tuple-element.351, /*index=145*/f32[896]{0} %get-tuple-element.352, f32[1792]{0} %get-tuple-element.353, f32[1792]{0} %get-tuple-element.354, f32[3584]{0} %get-tuple-element.355, f32[3584]{0} %get-tuple-element.356, /*index=150*/f32[1,1,3584,896]{3,2,1,0} %get-tuple-element.357, f32[3,3,896,1792]{3,2,1,0} %get-tuple-element.358, f32[1,1,1792,3584]{3,2,1,0} %get-tuple-element.359, f32[1024]{0} %get-tuple-element.360, f32[7168,1024]{1,0} %get-tuple-element.361, /*index=155*/s32[] %add.9838, f32[896]{0} %get-tuple-element.363, f32[896]{0} %get-tuple-element.364, f32[1792]{0} %get-tuple-element.365, f32[1792]{0} %get-tuple-element.366, /*index=160*/f32[3584]{0} %get-tuple-element.367, f32[3584]{0} %get-tuple-element.368, f32[896]{0} %get-tuple-element.369, f32[896]{0} %get-tuple-element.370, f32[1792]{0} %get-tuple-element.371, /*index=165*/f32[1792]{0} %get-tuple-element.372, f32[3584]{0} %get-tuple-element.373, f32[3584]{0} %get-tuple-element.374, f32[896]{0} %get-tuple-element.375, f32[896]{0} %get-tuple-element.376, /*index=170*/f32[1792]{0} %get-tuple-element.377, f32[1792]{0} %get-tuple-element.378, f32[3584]{0} %get-tuple-element.379, f32[3584]{0} %get-tuple-element.380, f32[1792]{0} %get-tuple-element.381, /*index=175*/f32[1792]{0} %get-tuple-element.382, f32[3584]{0} %get-tuple-element.383, f32[3584]{0} %get-tuple-element.384, f32[7168]{0} %get-tuple-element.385, f32[7168]{0} %get-tuple-element.386, /*index=180*/f32[7168]{0} %get-tuple-element.387, f32[7168]{0} %get-tuple-element.388, f32[1792]{0} %get-tuple-element.389, f32[1792]{0} %get-tuple-element.390, f32[3584]{0} %get-tuple-element.391, /*index=185*/f32[3584]{0} %get-tuple-element.392, f32[7168]{0} %get-tuple-element.393, f32[7168]{0} %get-tuple-element.394, f32[1792]{0} %get-tuple-element.395, f32[1792]{0} %get-tuple-element.396, /*index=190*/f32[3584]{0} %get-tuple-element.397, f32[3584]{0} %get-tuple-element.398, f32[7168]{0} %get-tuple-element.399, f32[7168]{0} %get-tuple-element.400, f32[896]{0} %get-tuple-element.401, /*index=195*/f32[896]{0} %get-tuple-element.402, f32[1792]{0} %get-tuple-element.403, f32[1792]{0} %get-tuple-element.404, f32[3584]{0} %get-tuple-element.405, f32[3584]{0} %get-tuple-element.406, /*index=200*/f32[896]{0} %get-tuple-element.407, f32[896]{0} %get-tuple-element.408, f32[1792]{0} %get-tuple-element.409, f32[1792]{0} %get-tuple-element.410, f32[3584]{0} %get-tuple-element.411, /*index=205*/f32[3584]{0} %get-tuple-element.412, f32[] %bitcast.1, f32[] %bitcast.2, f32[] %bitcast)
}

